results/PreyTest2/PreyBrain/PreyBrain-2780058.onnx (onnx, 73997 bytes, 7 tensors)

action_model._continuous_distribution.log_sigma f4 [1, 2]
-0.119822614 -0.13874744
00000000: 8f65 f5bd cf13 0ebe

action_model._continuous_distribution.mu.bias f4 [2]
-0.05417088 0.004404268
00000000: 49e2 5dbd ae51 903b

action_model._continuous_distribution.mu.weight f4 [2, 128]
-0.115289174 -0.068267964 -0.02172463 0.041829266 0.14110391 0.08113147 0.0049892124 0.11531196
-0.08305661 0.034378577 0.06691836 -0.03336484 -0.07008452 -0.009926745 -0.04185992 0.0515971
-0.0086713405 0.20878947 -0.1246758 -0.03338301 -0.06426863 0.15015127 -0.059173625 -0.08914758
-0.049539693 -0.043870755 -0.06920772 -0.014773952 -0.11292912 0.116869785 0.07989546 0.015167167
-0.027728613 0.021343434 -0.04277487 0.03333402 0.026628505 -0.066782884 0.13391073 -0.04565928
-0.04040993 -0.042481016 -0.090227224 0.18857682 0.032961935 -0.029379636 -0.06410735 0.076123446
0.111575425 0.08595907 0.057708748 0.02448174 0.15661773 -0.061843272 -0.036914445 0.057320867
0.13640067 0.004489272 0.08322053 -0.044292077 0.030189378 -0.08884328 0.056156706 0.19169967
0.04865652 0.0797101 -0.098410465 -0.046399184 -0.058829308 0.10802603 -0.0027486307 -0.052002493
-0.059055265 0.030922726 -0.06724289 0.092310645 0.12855 -0.019093556 0.026031842 0.055550266
-0.0077260337 -0.014047731 0.08529919 -0.054868523 0.038073063 0.16753288 0.046868574 -0.07171086
0.16538577 -0.051789485 0.01871336 0.11043448 -0.082120344 0.08180874 0.0423118 -0.050255887
-0.076508984 0.037566032 -0.07839267 0.10786137 0.13999133 -0.033092152 0.099994704 0.00990981
-0.0025055197 0.0042473706 0.053645823 0.1253645 -0.1625174 -0.031275038 -0.06566127 0.13326798
0.16128281 -0.054063004 0.22228326 0.09221325 0.14171062 0.073970184 0.12814744 0.05531738
-0.02414198 -0.016821925 -0.014491732 -0.0941418 0.07030538 -0.0479548 -0.038201466 0.0041531757
-0.0068584564 -0.024769556 -0.023254666 0.027121069 0.0024656965 0.0050688484 0.029578175 -0.07651563
-0.033132147 0.024059258 -0.15170935 0.050639216 0.033662215 -0.089288816 0.03430357 0.024689049
-0.02587642 0.0006104105 0.061505746 0.060217403 -0.03782016 -0.12643123 0.010742132 -0.020229436
-0.046396423 0.030776443 -0.10040033 0.07733288 0.034492526 -0.021256732 -0.029281609 -0.06974877
0.00027517066 -0.06536521 -0.03420468 0.1390771 0.0955483 -0.001979048 -0.05253806 -0.106397584
0.065622255 0.055599093 0.06440948 -0.13030352 -0.1682218 -0.09852802 -0.009236543 0.0063659195
-0.12599011 0.035720773 0.0013534797 0.030378941 -0.04094694 -0.021712512 0.026004318 0.04766095
-0.060458533 0.07956198 0.054247323 0.013519598 0.09771085 -0.077349596 -0.096074104 -0.20956644
-0.042812508 0.08146036 0.116186164 -0.011430033 -0.028079849 0.02782222 0.111098975 -0.065174155
0.07662575 0.040791065 -0.016779553 -0.049814582 0.0045625158 -0.040718958 0.0301824 -0.08053062
-0.05759055 0.042903207 0.20932141 -0.079172134 -0.037032824 -0.035032574 0.0022028584 0.029637301
-0.1236932 -0.04062262 0.048555546 0.05886203 -0.040560644 -0.07405021 0.04816821 -0.07392429
-0.0259255 0.08786978 -0.06216106 -0.06165879 -0.07323304 0.018024525 0.07214581 0.056366228
-0.15854168 0.100596726 0.01816654 -0.05098098 0.04492826 -0.022046441 0.047481053 -0.09018115
-0.09527277 -0.0743508 -0.11506117 -0.017737739 0.012663051 -0.050070688 -0.14882922 -0.013964059
0.048405908 0.04818996 -0.012798933 -0.031798355 -0.009822775 -0.024440873 0.0005389629 0.03957898
00000000: bb1c ecbd 13d0 8bbd daf7 b1bc 2a55 2b3d
00000010: 8b7d 103e 4228 a63d 8c7c a33b ad28 ec3d
00000020: 9519 aabd 8dd0 0c3d 7e0c 893d 92a9 08bd
00000030: 7988 8fbd c9a3 22bc 4f75 2bbd 7b57 533d
00000040: 3d12 0ebc e8cc 553e 0756 ffbd a0bc 08bd
00000050: 469f 83bd 41c1 193e 0b60 72bd 0293 b6bd
00000060: 22ea 4abd d2b1 33bd c7bc 8dbd 720e 72bc
00000070: 6247 e7bd 6d59 ef3d 3ba0 a33d b67f 783c
00000080: 1e27 e3bc 6dd8 ae3c b434 2fbd 4189 083d
00000090: 0624 da3c 77c5 88bd e51f 093e 3a05 3bbd
000000a0: e284 25bd 9300 2ebd 0dc9 b8bd 481a 413e
000000b0: 1803 073d 90ad f0bc b74a 83bd 9ce6 9b3d
000000c0: a881 e43d 4f0b b03d 0260 6c3d ee8d c83c
000000d0: 6660 203e 5f4f 7dbd 9a33 17bd 49c9 6a3d
000000e0: 9eac 0b3e be1a 933b 866f aa3d 9c6b 35bd
000000f0: b74f f73c 77f3 b5bd 9304 663d eb4c 443e
00000100: 0f4c 473d 0d3f a33d 6d8b c9bd 120d 3ebd
00000110: 00f7 70bd c03c dd3d 5f22 34bb 9100 55bd
00000120: efe3 71bd a851 fd3c a4b6 89bd 5d0d bd3d
00000130: 9ca2 033e 176a 9cbc bb40 d53c ad88 633d
00000140: ab2a fdbb 7428 66bc 57b1 ae3d d1bd 60bd
00000150: 80f2 1b3d bd8d 2b3e 43f9 3f3d 25dd 92bd
00000160: e35a 293e 3621 54bd c34c 993c 792b e23d
00000170: b62e a8bd 578b a73d 234f 2d3d 1ed9 4dbd
00000180: beb0 9cbd d7de 193d 568c a0bd 6ce6 dc3d
00000190: e359 0f3e a38b 07bd 06ca cc3d c15c 223c
000001a0: a533 24bb 872d 8b3b b9bb 5b3d 8d5f 003e
000001b0: f66a 26be 411a 00bd 6a79 86bd 6777 083e
000001c0: 5227 253e 2b71 5dbd 399e 633e 4dda bc3d
000001d0: 971c 113e ae7d 973d 1539 033e 7a94 623d
000001e0: 67c5 c5bc 22ce 89bc bb6e 6dbc 6bcd c0bd
000001f0: 44fc 8f3d 416c 44bd 2479 1cbd 5d17 883b
00000200: e7bc e0bb 86e9 cabc 9280 bebc 012d de3c
00000210: 8697 213b 9518 a63b ee4d f23c 3ab4 9cbd
00000220: 93b5 07bd ec17 c53c b259 1bbe 116b 4f3d
00000230: 64e1 093d 0edd b6bd e681 0c3d b040 ca3c
00000240: c9fa d3bc f503 203a 73ed 7b3d 86a6 763d
00000250: 50e9 1abd 3077 01be c4ff 2f3c 34b8 a5bc
00000260: 2d0a 3ebd e11e fc3c b09e cdbd b360 9e3d
00000270: 0948 0d3d 9922 aebc fcdf efbc 71d8 8ebd
00000280: c844 9039 32de 85bd 351a 0cbd 3a6a 0e3e
00000290: d4ae c33d eab2 01bb 2632 57bd fae6 d9bd
000002a0: f664 863d e0bb 633d 1ee9 833d 496e 05be
000002b0: 5642 2cbe 0fc9 c9bd df54 17bc 3499 d03b
000002c0: 8d03 01be f24f 123d 3e67 b13a 42dd f83c
000002d0: fbb7 27bd 70de b1bc 0207 d53c 2138 433d
000002e0: 5ea3 77bd 64f1 a23d 7132 5e3d 4e81 5d3c
000002f0: a01c c83d 7769 9ebd 80c2 c4bd 9698 56be
00000300: 2b5c 2fbd b0d4 a63d 03f3 ed3d 0845 3bbc
00000310: b607 e6bc 6deb e33c dc87 e33d 077a 85bd
00000320: f6ed 9c3d 8814 273d 4675 89bc 600a 4cbd
00000330: 2881 953b ecc8 26bd 1541 f73c 3ded a4bd
00000340: 12e4 6bbd 46bb 2f3d 5a58 563e 0025 a2bd
00000350: bbaf 17bd 517e 0fbd d55d 103b edc9 f23c
00000360: dc52 fdbd e863 26bd 2ee2 463d 5019 713d
00000370: eb22 26bd a3a7 97bd 074c 453d 9e65 97bd
00000380: b761 d4bc 12f5 b33d 989c 7ebd ed8d 7cbd
00000390: 34fb 95bd 2ba8 933c 2fc1 933d 46e0 663d
000003a0: c058 22be a805 ce3d ffd1 943c 6fd1 50bd
000003b0: b206 383d bd9a b4bc 7e7b 423d e5b0 b8bd
000003c0: 5f1e c3bd 3b45 98bd 31a5 ebbd bc4e 91bc
000003d0: af78 4f3c ec16 4dbd b066 18be 82c9 64bc
000003e0: 4645 463d d662 453d 9eb2 51bc fe3e 02bd
000003f0: b4ef 20bc 3a38 c8bc 3049 0d3a 921d 223d

network_body._body_endoder.seq_layers.0.bias f4 [128]
0.013543144 0.05521989 -0.1079039 0.0055561517 -0.025221046 0.0042212466 0.0499082 0.07481323
0.02425525 0.051360097 0.003949463 -0.046895955 -0.01790847 0.010132723 0.04243748 -0.03738597
0.071725175 0.054058358 0.033946577 -0.028769458 0.052732747 0.014766819 -0.03808668 0.031201595
0.15358558 0.16263491 0.16413254 0.024754457 -0.049176134 0.007996737 0.045207493 -0.026883263
0.0003414944 0.024779802 0.059575874 0.032147378 0.030581739 -0.020720633 0.08686972 0.021599203
0.024000224 0.027872456 -0.0372796 0.021592602 0.068130806 0.023311328 0.004383823 0.02928009
-0.031700023 0.02335012 -0.054057118 0.04830521 0.032218244 0.08363413 0.02071215 0.0015980306
0.12497658 0.045051612 0.16218214 0.05006848 0.015452596 0.036328197 -0.014358323 0.052227613
-0.030483272 0.058081403 -0.012407951 0.033043075 0.048741046 -0.058008123 0.04684393 0.0056001917
0.05973196 -0.012912046 -0.108691014 0.09921984 -0.107095875 0.0034209765 -0.0071264245 0.047056917
0.050128523 0.022001302 0.07507566 0.028802708 0.03142396 0.016948093 -0.0026061486 0.010440127
-0.012491062 0.10677318 0.032459334 0.006403339 0.051908854 0.024292571 0.09522459 0.03410697
0.0017204809 0.09230454 0.0016096306 0.00388575 0.076565035 0.007860391 -0.052347295 0.006522071
0.031975716 -0.0085787615 0.08928692 -0.09038136 0.071224116 -0.012799265 0.064360075 0.013130934
-0.019166142 0.06567504 0.25236994 -0.007867151 0.119303964 0.017208468 -0.0073409565 0.041995704
0.064399265 -0.03687407 0.022461746 0.04589568 0.045136977 0.121001124 -0.022270238 -0.09699272
00000000: 10e4 5d3c 402e 623d b8fc dcbd 6110 b63b
00000010: 5e9c cebc 6252 8a3b 8a6c 4c3d ae37 993d
00000020: f2b2 c63c f75e 523d 7f6a 813b f915 40bd
00000030: c9b4 92bc b803 263c ecd2 2d3d 0822 19bd
00000040: a6e4 923d 4c6c 5d3d 910b 0b3d edad ebbc
00000050: 4bfe 573d 87f0 713c c700 1cbd 7d9a ff3c
00000060: 8a45 1d3e c489 263e 5c12 283e dcc9 ca3c
00000070: ea6c 49bd bf04 033c 7e2b 393d 4a3a dcbc
00000080: 9a0a b339 03ff ca3c d505 743d f8ac 033d
00000090: 8e86 fa3c 51be a9bc c0e8 b13d d0f0 b03c
000000a0: 1e9c c43c c754 e43c 7eb2 18bd f8e2 b03c
000000b0: 2a88 8b3d 66f7 be3c 2ca6 8f3b cddc ef3c
000000c0: e2d7 01bd c048 bf3c ff6a 5dbd afdb 453d
000000d0: 47f7 033d 5f48 ab3d 87ac a93c 0275 d13a
000000e0: b9f3 ff3d 0a88 383d 1313 263e 9b14 4d3d
000000f0: e32c 7d3c e0cc 143d 2c3f 6bbc 9fec 553d
00000100: 0eb8 f9bc c4e6 6d3d b84a 4bbc 2d58 073d
00000110: b1a4 473d ed99 6dbd 6cdf 3f3d d081 b73b
00000120: 80a9 743d 0c8d 53bc 6599 debd c533 cb3d
00000130: 1555 dbbd 7632 603b c884 e9bb c1be 403d
00000140: 9153 4d3d 133c b43c 45c1 993d a8f3 eb3c
00000150: 69b6 003d bad6 8a3c ebcb 2abb 110d 2b3c
00000160: 50a7 4cbc e6ab da3d 14f4 043d 1ad3 d13b
00000170: 619e 543d 3701 c73c 1c05 c33d c0b3 0b3d
00000180: c281 e13a 2a0a bd3d 3efa d23a 11a8 7e3b
00000190: 21ce 9c3d dfc8 003c 1e6a 56bd 19b7 d53b
000001a0: f8f8 023d ef8d 0cbc 10dc b63d dd19 b9bd
000001b0: f3dd 913d 02b4 51bc 37cf 833d 2123 573c
000001c0: 5002 9dbc a380 863d a236 813e 39e5 00bc
000001d0: a355 f43d c6f8 8c3c 688c f0bb b003 2c3d
000001e0: c3e3 833d 4409 17bd b201 b83c 1cfd 3b3d
000001f0: 8de1 383d 70cf f73d 1370 b6bc 1fa4 c6bd

network_body._body_endoder.seq_layers.0.weight f4 [128, 9]
0.0026958156 0.56551754 -0.4451116 -0.16950746 -0.57486385 0.17554182 0.28894565 -0.12971282
-0.1401823 0.5257624 -0.09419266 0.16614255 0.37364987 0.7292232 0.93725425 0.24464934
0.19411367 -0.45212293 0.19475341 -0.15001754 0.118732676 -0.21711752 -0.45175403 -0.2684382
-0.02622708 -0.4116384 0.09149398 0.21677303 -0.3054448 -0.5363642 -0.016521221 0.458152
0.6433567 0.27599218 -0.097142324 0.021664353 0.08897798 -0.2052035 0.13927057 -0.49567297
0.51368785 0.19187587 -0.8071934 -0.38782656 -0.0943495 -0.21123898 -0.491975 0.26068866
1.1457599 0.6964741 -0.26736042 -0.22290675 0.45319948 -0.05951247 0.13788901 0.060667347
0.423858 0.21107848 0.14673464 0.29314774 -0.53313637 0.6214246 -0.018533377 0.07985624
0.042602688 -0.09212879 -0.38658544 0.5480674 0.35037115 -0.19707385 0.37134278 -0.0055242623
0.24804167 0.12405802 0.43072796 -0.20459667 -0.07386469 0.37866962 -0.062414628 0.1253537
-0.32656735 0.17702496 0.22254872 -0.26295397 -0.5069771 0.29971585 -0.22753887 -0.10111238
0.18910329 0.49871063 -0.23627064 -0.6049367 -0.15753378 0.027333887 0.6325203 0.009998179
0.0063339844 0.06301631 0.1061244 -0.060522366 -0.029013202 -0.036703628 -0.18660651 -0.64140695
0.6974445 0.7780397 0.21063812 -0.17098197 -0.0621001 -0.14660183 0.53773195 0.7477151
-0.21623498 -0.5997752 -0.2473863 0.2269648 -0.5628179 -0.18297136 -0.085630834 0.43661535
0.21710987 0.5337281 0.23651654 -0.57245016 0.09649001 -0.51018035 0.3173487 -0.18163115
0.2951307 0.19741312 -0.12798592 0.25718617 -0.1851868 0.5764489 -0.58053964 -0.42387486
-0.24267988 0.120480224 -0.19363847 -0.3962873 0.25737417 -0.2682011 0.27310428 -0.3381108
-0.10853933 -0.1409986 -0.4168585 -0.27011034 -0.21173117 -0.69830704 -0.3445469 0.16531736
-0.41794944 -0.08827499 0.56705284 -0.30722645 -0.14684106 -0.19765835 0.7035683 -0.054302808
-0.3628066 0.31819984 0.100846305 -0.11735002 0.07998868 -0.04127587 0.23237202 0.29070556
0.15565139 0.21488869 -0.5703789 -0.4130599 0.041215044 -0.6576298 -0.5701129 -0.0049316334
-0.07896126 0.13328496 0.07603561 -0.08471453 -0.005004538 -0.47552615 1.0730225 0.025125716
0.45167214 0.028207714 -0.029941002 0.119791485 0.62849116 -0.26479182 0.037792627 -0.28482807
0.14303875 0.12716298 0.034786202 -0.0864497 -0.11027221 0.41510624 -0.1022139 -0.3629489
-0.041922 -0.14769737 0.2286413 -0.39795268 0.52216595 -0.5522944 0.017993586 -0.4212533
-0.12723882 -0.3416282 0.33947116 -0.19668236 -0.108393304 0.09144824 -0.15704374 0.44770262
-0.23673695 0.2588304 0.3513724 -0.116244934 0.4965985 -0.03925082 0.31973967 -0.22576535
-0.55440664 -0.290426 -0.44450793 -0.07426041 -0.046805885 0.3953705 0.9932885 0.37540236
0.5570084 -0.5926053 -0.10581988 0.42712584 0.6412166 -0.101305954 0.43256438 0.8050621
0.36005464 0.21290444 -0.71740925 0.46587983 -0.18843505 0.30952653 -0.2555029 0.24648161
0.3820148 -0.20247959 0.14402498 0.31507155 -0.084932975 -0.015711552 -0.18665713 -0.68658596
00000000: 48ac 303b c2c5 103f abe5 e3be 5d93 2dbe
00000010: 472a 13bf 3cc1 333e aff0 933e 70d3 04be
00000020: f38b 0fbe 5d98 063f 15e8 c0bd 4621 2a3e
00000030: 094f bf3e 5fae 3a3f e5ef 6f3f 5b85 7a3e
00000040: bcc5 463e a87c e7be 706d 473e 339e 19be
00000050: 1e2a f33d 0e54 5ebe 4e4c e7be bb70 89be
00000060: 2cda d6bc 45c2 d2be 3261 bb3d c0f9 5d3e
00000070: 4363 9cbe 2a4f 09bf 8357 87bc e692 ea3e
00000080: 06b3 243f d94e 8d3e 8ef2 c6bd 7179 b13c
00000090: 163a b63d de20 52be f29c 0e3e d9c8 fdbe
000000a0: 0c81 033f 1c7b 443e 3aa4 4ebf 3491 c6be
000000b0: 503a c1bd 084f 58be 26e4 fbbe fc78 853e
000000c0: 43a8 923f 204c 323f 77e3 88be ab41 64be
000000d0: c309 e83e 59c3 73bd c732 0d3e 537e 783d
000000e0: ea03 d93e f524 583e 9b41 163e 7617 963e
000000f0: a07b 08bf af15 1f3f 4fd3 97bc ab8b a33d
00000100: 2880 2e3d 05ae bcbd 87ee c5be 254e 0c3f
00000110: d963 b33e bacd 49be a420 be3e df04 b5bb
00000120: a3fe 7d3e 2212 fe3d 6088 dc3e ca81 51be
00000130: 5f46 97bd fce0 c13e 7ba6 7fbd b85c 003e
00000140: d633 a7be 0846 353e d0e3 633e e7a1 86be
00000150: 40c9 01bf 5b74 993e f3ff 68be 0214 cfbd
00000160: 4ba4 413e 0057 ff3e eef0 71be 22dd 1abf
00000170: 8950 21be 51eb df3c daec 213f 67cf 233c
00000180: 508d cf3b b20e 813d c057 d93d 4de6 77bd
00000190: 18ad edbc 8b56 16bd c715 3fbe 3f33 24bf
000001a0: b98b 323f 9c2d 473f 85b1 573e e615 2fbe
000001b0: ad5c 7ebd ca1e 16be cda8 093f 426a 3f3f
000001c0: b46c 5dbe de8a 19bf d652 7dbe 7669 683e
000001d0: d514 10bf d85c 3bbe 385f afbd 0c8c df3e
000001e0: 0d52 5e3e 68a2 083f 6431 723e 188c 12bf
000001f0: 8e9c c53d 2e9b 02bf 877b a23e 84fd 39be
00000200: 5f1b 973e aa26 4a3e be0e 03be e8ad 833e
00000210: 9ca1 3dbe 2892 133f 3f9e 14bf 2006 d9be
00000220: 1381 78be 56be f63d 2a49 46be 2be6 cabe
00000230: 8cc6 833e a851 89be 53d4 8b3e dc1c adbe
00000240: de49 debd f061 10be 7a6e d5be e74b 8abe
00000250: 0ed0 58be 40c4 32bf 7468 b0be f448 293e
00000260: 78fd d5be 85c9 b4bd 602a 113f c94c 9dbe
00000270: 815d 16be f366 4abe 0d1d 343f 9f6c 5ebd
00000280: c9c1 b9be 17eb a23e 8288 ce3d 3555 f0bd
00000290: 1bd1 a33d e310 29bd eef2 6d3e 5cd7 943e
000002a0: 1463 1f3e c80b 5c3e 5a04 12bf 967c d3be
000002b0: 1bd1 283d 6d5a 28bf ebf2 11bf 8a99 a1bb
000002c0: 71b6 a1bd da7b 083e 8fb8 9b3d d07e adbd
000002d0: 1cfd a3bb 2a78 f3be cd58 893f 72d4 cd3c
000002e0: 9241 e73e dd13 e73c d546 f5bc 3d55 f53d
000002f0: cce4 203f cb92 87be 71cc 1a3d fcd4 91be
00000300: c078 123e 0337 023e fa7b 0e3d 8a0c b1bd
00000310: 65d6 e1bd ce88 d43e 8555 d1bd 70d4 b9be
00000320: 67b6 2bbd fb3d 17be f220 6a3e 74c0 cbbe
00000330: abac 053f 2a63 0dbf 4967 933c 83ae d7be
00000340: e54a 02be e4e9 aebe 2acf ad3e 1a67 49be
00000350: 4ffd ddbd 3749 bb3d 13d0 20be 4739 e53e
00000360: 2c6b 72be 6b85 843e 15e7 b33e d311 eebd
00000370: 2942 fe3e 78c5 20bd ebb4 a33e 082f 67be
00000380: 98ed 0dbf b7b2 94be 8b96 e3be d815 98bd
00000390: 87b7 3fbd 016e ca3e 2848 7e3f bd34 c03e
000003a0: 1a98 0e3f fbb4 17bf 18b8 d8bd 3db0 da3e
000003b0: c526 243f 7f79 cfbd 1479 dd3e 8d18 4e3f
000003c0: 1559 b83e 9f03 5a3e 22a8 37bf cd87 ee3e
000003d0: 1ef5 40be 437a 9e3e 47d1 82be ad65 7c3e
000003e0: 7297 c33e cf56 4fbe 497b 133e 0f51 a13e
000003f0: 57f1 adbd 83b5 80bc 0c23 3fbe 19c4 2fbf

network_body._body_endoder.seq_layers.2.bias f4 [128]
0.08343093 0.07567659 -0.014812287 -0.07541213 -0.0033636584 -0.038997483 -0.010910056 0.025307983
0.06744998 -0.052579697 0.019760363 0.046851546 0.06930121 0.00546761 0.03533102 -0.05059331
-0.050413907 0.064206064 0.076415025 0.0064655775 0.032543775 0.046867024 0.06575483 0.075376175
0.019267026 0.04648784 0.11541253 0.03562337 0.06065844 -0.08703305 -0.04477406 0.0106136
0.0173607 -0.029631464 0.034138337 -0.01839462 -0.028216891 0.091369554 0.0047906786 0.08589606
0.009573699 0.031590715 0.06242234 0.09555226 0.05582034 0.011161884 -0.028990412 -0.032513198
0.041239828 0.051741276 -0.028362757 -0.025212735 -0.023592774 0.040898737 0.017590623 0.018427094
0.00854307 0.018306306 0.069821626 0.06708683 -0.048469402 0.054379996 -0.0016671397 0.055193007
-0.053769443 0.054100957 0.010211601 0.02222097 0.05722754 -0.035968374 0.053825572 0.038176265
0.02442243 0.003905891 0.03729824 -0.02424812 0.009097282 0.0143740475 -0.02798366 0.004392458
-0.022810418 0.02049942 0.040293768 0.055173934 -0.032880913 0.008586135 -0.054638073 0.014778809
0.02989497 0.0007785217 -0.0059212344 -0.04864526 0.08951415 -0.048685905 0.008603269 -0.010720975
0.039546624 0.015957357 0.094428234 -0.012013011 0.024401482 0.037361264 0.03502576 -0.010139099
0.03077341 0.026035566 -0.00129913 0.0240939 0.07638607 -0.006795694 0.036741607 0.061186846
0.010163169 0.015197435 0.022479992 -0.009816148 0.0037770856 0.02004223 0.030905545 -0.057254378
0.016674252 0.009430502 0.032845862 0.062410302 0.04099535 0.00493242 0.048369206 0.02001074
00000000: d6dd aa3d 54fc 9a3d 3caf 72bc ad71 9abd
00000010: d370 5cbb d3bb 1fbd 17c0 32bc b052 cf3c
00000020: 3723 8a3d cf5d 57bd 7ce0 a13c 68e7 3f3d
00000030: cbed 8d3d a329 b33b 42b7 103d ee3a 4fbd
00000040: d07e 4ebd 787e 833d 7b7f 9c3d 32dd d33b
00000050: 9f4c 053d a3f7 3f3d 78aa 863d d35e 9a3d
00000060: e2d5 9d3c 096a 3e3d 685d ec3d d0e9 113d
00000070: fc74 783d 623e b2bd 0165 37bd aae4 2d3c
00000080: 0738 8e3c afbd f2bc a4d4 0b3d 50b0 96bc
00000090: 1c27 e7bc f61f bb3d 20fb 9c3b 46ea af3d
000000a0: 01db 1c3c 4465 013d 91ae 7f3d e7b0 c33d
000000b0: dea3 643d 56e0 363c 4d7d edbc 8f2c 05bd
000000c0: 18eb 283d a9ee 533d 0359 e8bc f08a cebc
000000d0: a245 c1bc 6f85 273d 361a 903c 6bf4 963c
000000e0: 3cf8 0b3c 1bf7 953c a4fe 8e3d d264 893d
000000f0: da87 46bd 8fbd 5e3d ed83 daba 1012 623d
00000100: 593d 5cbd f798 5d3d 8f4e 273c c008 b63c
00000110: 6d67 6a3d 9353 13bd 3478 5c3d b75e 1c3d
00000120: 8c11 c83c faf9 7f3b 0ac6 183d fea3 c6bc
00000130: c40c 153c 2081 6b3c fd3d e5bc 9cee 8f3b
00000140: eadc babc 66ee a73c 140b 253d 10fe 613d
00000150: 23ae 06bd dcac 0c3c 2ccc 5fbd d122 723c
00000160: 4ce6 f43c b515 4c3a ea06 c2bb 4140 47bd
00000170: 3253 b73d df6a 47bd baf4 0c3c 07a7 2fbc
00000180: a4fb 213d 01b9 823c 9763 c13d 38d2 44bc
00000190: 9ee5 c73c 2008 193d 2c77 0f3d 771e 26bc
000001a0: 8518 fc3c 8a48 d53c 9247 aaba 9260 c53c
000001b0: 4d70 9c3d 6aae debb 5e7e 163d 0f9f 7a3d
000001c0: 6c83 263c aafe 783c f627 b83c e9d3 20bc
000001d0: fb88 773b 9a2f a43c a02d fd3c 9183 6abd
000001e0: 7198 883c 6482 1a3c 6289 063d f2a1 7f3d
000001f0: bdea 273d 23a0 a13b ca1e 463d 90ed a33c

network_body._body_endoder.seq_layers.2.weight f4 [128, 128]
-0.015978398 0.2296815 -0.11132065 0.15241618 -0.15167469 -0.28124732 -0.13400601 0.053836856
-0.031838655 0.030106176 -0.068787046 0.0039850916 -0.17060186 -0.1825928 0.045227956 -0.072793975
0.21386637 -0.15891014 0.18905139 0.040819198 0.038323227 -0.04534855 -0.17208062 -0.067812026
0.012662296 -0.1254906 -0.010801059 -0.057215028 -0.07190892 -0.071110584 -0.21355279 -0.0012543445
-0.094732925 0.09873937 -0.082715 0.02186427 0.15266564 -0.25167885 0.0037950096 -0.031377
-0.12014437 -0.31762078 -0.1617208 0.003219551 -0.0562656 0.017956272 0.009945145 -0.11590944
-0.034328524 0.08150188 -0.03683261 0.024189293 0.014302568 0.059611443 0.21302597 0.04023224
0.08277059 -0.082852565 -0.100095175 0.048843734 -0.17615229 -0.13452429 -0.0120019745 -0.01534618
0.0068854727 -0.054984216 -0.016455017 0.0772259 0.11145842 -0.015615097 0.092971556 -0.17931853
-0.061090328 0.0366277 -0.12725374 -0.039620835 -0.05999806 -0.08316738 0.0016645443 0.18654972
-0.0016360861 -0.16024138 -0.10568611 -0.08058957 -0.026501508 -0.050531365 -0.1339916 0.23576558
-0.08769485 -0.00017846335 -0.036694817 0.032784745 0.0075921705 0.06441366 0.1657176 -0.06534593
-0.07214439 0.037209734 -0.104191944 -0.07384451 0.013859607 -0.042855505 0.018291261 -0.05006829
-0.04971584 -0.10080616 -0.06955316 0.02307205 0.073682696 -0.010405318 0.027132016 0.12514037
0.016510217 0.0053838403 -0.01181707 0.021682242 0.0032780697 0.08634984 -0.07403049 -0.11147431
-0.23629399 -0.08346675 0.012699132 -0.06985381 -0.12289615 -0.1461496 0.11082238 -0.3142465
-0.024310295 0.2045391 -0.022717703 0.18210813 -0.06989196 0.07159582 0.056398824 0.107904345
0.18248682 0.04317399 0.03365514 -0.098939806 0.068644576 0.09159457 -0.061169066 -0.21638054
-0.06398025 -0.28063428 0.10370471 0.14837354 0.14839338 -0.20126045 -0.02414665 -0.12772357
0.25993472 0.044351622 0.084251694 -0.012210109 0.28804952 0.050141174 0.014783781 -0.12730986
0.005551226 0.057617065 -0.0737692 -0.048164204 0.0071168896 -0.13128853 0.095913984 -0.031522505
-0.046171837 -0.15281731 0.014652219 0.100881495 0.029919997 -0.013362215 0.0018078747 -0.035354946
0.0031420859 0.06372438 -0.08292339 0.14186251 -0.056957845 0.03563724 -0.008650387 -0.09302605
0.04638047 0.06127197 0.19134605 0.104954615 -0.051090755 -0.09390241 -0.05923544 0.023720859
-0.01726283 0.083546944 -0.021227164 0.006370194 -0.04576415 0.09703719 0.048827734 -0.082060605
0.0032040563 -0.023659892 0.025039904 -0.12951599 0.0092374375 0.054843765 -0.20000483 0.013697928
0.039259743 -0.05449045 0.13680093 0.109266534 -0.22261056 0.063584305 0.039047547 -0.017996138
0.07659195 0.054054666 0.109953284 -0.15216097 -0.098443046 -0.044711288 0.004152197 0.1666641
0.19479883 0.14809088 -0.26935083 -0.052247196 -0.042338092 0.036573675 -0.06766386 0.012682908
-0.14493105 -0.05324773 -0.054231446 -0.11667777 0.101959445 -0.025951998 -0.035168324 -0.0035836187
0.036409713 -0.015517411 0.018853562 -0.15561427 0.064398296 -0.14944147 0.06351266 0.15896134
-0.04369968 -0.08136585 -0.13928038 0.096972734 0.05328059 0.1618743 -0.010438461 -0.051818945
00000000: 21e5 82bc a131 6b3e 15fc e3bd fd12 1c3e
00000010: 9c50 1bbe a6ff 8fbe df38 09be 0984 5c3d
00000020: 4069 02bd 3aa1 f63c 39e0 8cbd 5f95 823b
00000030: 41b2 2ebe 9bf9 3abe f340 393d 0215 95bd
00000040: c9ff 5a3e 57b9 22be b096 413e 0832 273d
00000050: d1f8 1c3d 67bf 39bd e735 30be 08e1 8abd
00000060: 8575 4f3c 9c80 00be edf6 30bc 4e5a 6abd
00000070: fc44 93bd 6da2 91bd 95ad 5abe d168 a4ba
00000080: 5603 c2bd de37 ca3d 7b66 a9bd b31c b33c
00000090: 6254 1c3e 0ddc 80be b2b5 783b 2b85 00bd
000000a0: 400e f6bd 319f a2be 239a 25be 1aff 523b
000000b0: c276 66bd 0819 933c f6f0 223c ee61 edbd
000000c0: 119c 0cbd 75ea a63d cadd 16bd a028 c63c
000000d0: 5155 6a3c 212b 743d 7b23 5a3e 90ca 243d
000000e0: a183 a93d 9bae a9bd b3fe ccbd 5e10 483d
000000f0: 4461 34be bcc0 09be eea3 44bc 8b6e 7bbc
00000100: 889f e13b 2137 61bd accc 86bc 9d28 9e3d
00000110: 5044 e43d 77d6 7fbc df67 be3d 479f 37be
00000120: da39 7abd ed06 163d ce4e 02be 7549 22bd
00000130: 87c0 75bd a953 aabd d72c da3a e406 3f3e
00000140: f171 d6ba 5116 24be f671 d8bd 250c a5bd
00000150: b119 d9bc faf9 4ebd 1835 09be 886c 713e
00000160: 5c99 b3bd e421 3bb9 4e4d 16bd 4c49 063d
00000170: bec7 f83b 4feb 833d e0b1 293e 16d4 85bd
00000180: 70c0 93bd 3c69 183d 9662 d5bd ca3b 97bd
00000190: 6813 633c 4189 2fbd 8ed7 953c 6814 4dbd
000001a0: d6a2 4bbd 7673 cebd e371 8ebd 9901 bd3c
000001b0: f4e6 963d 117b 2abc f643 de3c cc24 003e
000001c0: 6f40 873c ed6a b03b 629c 41bc f59e b13c
000001d0: e2d4 563b 2fd8 b03d 4c9d 97bd a54c e4bd
000001e0: 0df7 71be 9ef0 aabd 0510 503c 840f 8fbd
000001f0: fab0 fbbd 3ea8 15be d8f6 e23d ebe4 a0be
00000200: 6226 c7bc b372 513e 7a1a babc 8e7a 3a3e
00000210: 8423 8fbd d4a0 923d 7402 673d f4fc dc3d
00000220: d3dd 3a3e 36d7 303d f9d9 093d f4a0 cabd
00000230: 8795 8c3d ef95 bb3d 6a8c 7abd dc92 5dbe
00000240: 1408 83bd 4caf 8fbe 2363 d43d 3cef 173e
00000250: 6ff4 173e 3817 4ebe 32cf c5bc f8c9 02be
00000260: 2a16 853e 0caa 353d 278c ac3d e90c 48bc
00000270: 3a7b 933e d560 4d3d ac37 723c 845d 02be
00000280: 0fe7 b53b dfff 6b3d 4e14 97bd d447 45bd
00000290: cc34 e93b 8070 06be 8d6e c43d be1d 01bd
000002a0: ae1e 3dbd 247c 1cbe dc0f 703c f59a ce3d
000002b0: c81a f53c 31ed 5abc 35f6 ec3a 59d0 10bd
000002c0: 74eb 4d3b ee81 823d bdd3 a9bd 6844 113e
000002d0: a14c 69bd 5bf8 113d 5aba 0dbc 7184 bebd
000002e0: 73f9 3d3d 51f8 7a3d 38f0 433e 72f2 d63d
000002f0: 8a44 51bd e84f c0bd dca0 72bd 3f52 c23c
00000300: c76a 8dbc a91a ab3d 97e4 adbc 0fbd d03b
00000310: 3073 3bbd 6fbb c63d 97ff 473d 640f a8bd
00000320: 25fb 513b 64d2 c1bc 7c20 cd3c d79f 04be
00000330: 9f58 173c dba3 603d 11ce 4cbe 466d 603c
00000340: d3ce 203d 6131 5fbd 8b15 0c3e 22c7 df3d
00000350: 06f4 63be 7d38 823d 52f0 1f3d a36c 93bc
00000360: 3edc 9c3d 6d68 5d3d 302f e13d 16d0 1bbe
00000370: 829c c9bd 2f23 37bd 270f 883b fea9 2a3e
00000380: 5879 473e 23a5 173e 5ae8 89be 2801 56bd
00000390: b56a 2dbd 47ce 153d 5a93 8abd f9cb 4f3c
000003a0: ce68 14be 4b1a 5abd cb21 5ebd c1f4 eebd
000003b0: 1dd0 d03d 4999 d4bc a90c 10bd 25db 6abb
000003c0: 5a22 153d bd3c 7ebc c972 9a3c 5959 1fbe
000003d0: 41e3 833d 2f07 19be ed12 823d c3c6 223e
000003e0: 70fe 32bd 24a3 a6bd 849f 0ebe a499 c63d
000003f0: bf3c 5a3d 60c2 253e 1406 2bbc 1a40 54bd
