results/PreyTest2/PreyBrain/PreyBrain-2499996.onnx (onnx, 73997 bytes, 7 tensors)

action_model._continuous_distribution.log_sigma f4 [1, 2]
0	0xbde5eb53	-0.11226525
1	0xbe13290a	-0.14371124

action_model._continuous_distribution.mu.bias f4 [2]
0	0xbd52c44c	-0.051456735
1	0xbacb5159	-0.0015511914

action_model._continuous_distribution.mu.weight f4 [2, 128]
0	0xbde77a0e	-0.11302577
1	0xbd8fc526	-0.07020025
2	0xbcc05848	-0.023479596
3	0x3d1ab33b	0.037768584
4	0x3e06ce38	0.13164604
5	0x3da82742	0.08210613
6	0x3b9cca60	0.004784867
7	0x3ddb62ef	0.107122295
8	0xbda8c629	-0.08240921
9	0x3d11c9fb	0.035593014
10	0x3d73eebe	0.059553854
11	0xbd02bad7	-0.031916466
12	0xbd92faba	-0.071767285
13	0xbc05544c	-0.008137774
14	0xbd2a6b0d	-0.041605998
15	0x3d667a77	0.056269135
16	0xbc35ed1c	-0.011103895
17	0x3e5366ac	0.20644635
18	0xbe0215e1	-0.12703659
19	0xbcc84d36	-0.02445088
20	0xbd7b73ea	-0.06138984
21	0x3e16f213	0.14740781
22	0xbd7ca4ce	-0.061680607
23	0xbdba6df4	-0.09103003
24	0xbd1b3c7f	-0.03789949
25	0xbd31ae9d	-0.043379415
26	0xbd8c2106	-0.06842236
27	0xbb88d406	-0.004175666
28	0xbdcb1aa8	-0.09917194
29	0x3ddcb6d4	0.10777059
30	0x3d9edcc2	0.0775695
31	0x3bdc510a	0.006723528
32	0xbca962f4	-0.020677067
33	0x3cf876cc	0.030330084
34	0xbd2d8cc6	-0.04237058
35	0x3d263ade	0.040583484
36	0x3ca2697e	0.019825693
37	0xbd8c2ca5	-0.06844453
38	0x3ded5024	0.11587551
39	0xbd2bbd05	-0.04192831
40	0xbd2e9eab	-0.042631786
41	0xbd093ede	-0.03350722
42	0xbd9d9e3c	-0.076961964
43	0x3e43e2a2	0.19129422
44	0x3ce30f0b	0.027717134
45	0xbcc321e0	-0.023819864
46	0xbd7ba8c5	-0.061440248
47	0x3d9b0fe9	0.07571394
48	0x3dc06db2	0.09395923
49	0x3dae6460	0.08515239
50	0x3d4f3244	0.050585046
51	0x3c9e3d0e	0.019316223
52	0x3e1a7d93	0.15086965
53	0xbd80e895	-0.062943615
54	0xbd134030	-0.035949886
55	0x3d5d0cf1	0.05396742
56	0x3e060b68	0.13090289
57	0x3be5045c	0.006989045
58	0x3db2718a	0.08713062
59	0xbd39ac01	-0.04533005
60	0x3ccf0e79	0.025275456
61	0xbdc4ca42	-0.0960889
62	0x3d16e725	0.03684153
63	0x3e3c2d7f	0.1837673
64	0x3d594ff4	0.053054765
65	0x3db2c7c6	0.0872951
66	0xbdc7dea4	-0.09759262
67	0xbd3e32a9	-0.046435032
68	0xbd780bf9	-0.060558293
69	0x3dd81e8b	0.105527006
70	0x3bbb2813	0.0057115643
71	0xbd67be09	-0.056577716
72	0xbd80902b	-0.06277498
73	0x3ceb827a	0.02874874
74	0xbd858e71	-0.06521309
75	0x3dc82fd2	0.09774746
76	0x3dedb172	0.11606111
77	0xbcb8a397	-0.022538943
78	0x3cbd06c7	0.02307452
79	0x3d6d85f4	0.057989076
80	0xbbe8843c	-0.0070958417
81	0xbb3ee15b	-0.0029126022
82	0x3daef59c	0.0854294
83	0xbd53b3f1	-0.051685277
84	0x3d21ac49	0.039470945
85	0x3e265bed	0.16246004
86	0x3d3f349b	0.046681028
87	0xbd4a68bb	-0.049416285
88	0x3e1bd336	0.1521729
89	0xbd46c6dd	-0.048529495
90	0x3c839247	0.016060961
91	0x3de6d13c	0.11270377
92	0xbdae7155	-0.0851771
93	0x3db2e25a	0.087345794
94	0x3d125aaa	0.035730995
95	0xbd4aa69c	-0.049475297
96	0xbd9d201f	-0.07672142
97	0x3cf8abd2	0.030355368
98	0xbdac32a6	-0.08408098
99	0x3dccec8a	0.10006054
100	0x3e05de51	0.13073088
101	0xbcc426a1	-0.023944201
102	0x3dcc4da1	0.09975744
103	0x3c84d7a9	0.016216116
104	0xbb1865ff	-0.0023254154
105	0x3afeefd2	0.0019450134
106	0x3d4e4b4c	0.050364777
107	0x3df0a6be	0.117505535
108	0xbe1afa3d	-0.15134521
109	0xbce87d1b	-0.028379967
110	0xbd5075c5	-0.050893564
111	0x3e033188	0.12811863
112	0x3e178274	0.14795858
113	0xbd6941b9	-0.056947444
114	0x3e5bcf7b	0.21465866
115	0x3dbc01e0	0.09180045
116	0x3e0fd253	0.14045076
117	0x3d9278d9	0.07151956
118	0x3df35e91	0.118832715
119	0x3d3956b1	0.04524869
120	0xbcbf86a7	-0.023379637
121	0xbc1b0bd3	-0.009463268
122	0xbcc346d2	-0.02383748
123	0xbdae9e98	-0.08526343
124	0x3d82bcd9	0.06383676
125	0xbd5a076b	-0.05322973
126	0xbd1ecdc1	-0.03877044
127	0x3be491d4	0.006975392
128	0x3b4b967a	0.0031065033
129	0xbcdf5509	-0.027262228
130	0xbc9bc995	-0.01901702
131	0x3cf82788	0.030292287
132	0xbbff1224	-0.007784145
133	0x3ba03855	0.004889528
134	0x3ce94f4b	0.028480193
135	0xbd9db8af	-0.07701241
136	0xbcfcbde7	-0.030852271
137	0x3ccc42be	0.024934169
138	0xbe18d8ea	-0.14926496
139	0x3d579eb2	0.052641578
140	0x3d0f89b4	0.035043433
141	0xbdb4586e	-0.08805929
142	0x3d0df172	0.03465409
143	0x3cdbaa23	0.026814526
144	0xbca776da	-0.020442415
145	0xba893b45	-0.0010469934
146	0x3d8d75e9	0.06907255
147	0x3d866706	0.06562619
148	0xbce35e1a	-0.027754832
149	0xbe0412e3	-0.1289783
150	0x3c44aa0c	0.012003433
151	0xbcbf3d93	-0.02334479
152	0xbcfdda0c	-0.030987762
153	0x3cfec33e	0.031098958
154	0xbdb2c854	-0.08729616
155	0x3d9b0011	0.07568372
156	0x3d46d2e6	0.048540972
157	0xbc87e751	-0.016589792
158	0xbcd5829b	-0.026063254
159	0xbd92fda5	-0.07177285
160	0x3c1e18c8	0.009649463
161	0xbd34eeef	-0.044173177
162	0xbceda260	-0.02900809
163	0x3e06bbfe	0.13157651
164	0x3dc83da3	0.09777381
165	0xbb189da7	-0.0023287327
166	0xbd62fca9	-0.055416737
167	0xbdaf1e04	-0.08550647
168	0x3d8b8fbf	0.06814527
169	0x3d58ddb5	0.05294581
170	0x3d7a06e9	0.061041746
171	0xbe03b9f3	-0.12863903
172	0xbe348e59	-0.17632426
173	0xbdab44e2	-0.08362748
174	0xbbf3e02f	-0.0074424963
175	0x3c0642d2	0.008194642
176	0xbdef0832	-0.11671485
177	0x3d14aeee	0.03629964
178	0xba889b16	-0.0010422196
179	0x3d0fc43e	0.03509926
180	0xbce618a6	-0.028087925
181	0xbc8cc76e	-0.01718494
182	0x3cca9959	0.024731325
183	0x3d4a4f20	0.049391866
184	0xbd826e4c	-0.06368694
185	0x3da2bafd	0.079458214
186	0x3d6cb33b	0.057788115
187	0x3c79f22a	0.01525549
188	0x3ddced3a	0.10787435
189	0xbd722b88	-0.059123546
190	0xbd953523	-0.07285526
191	0xbe5391bd	-0.20661063
192	0xbd11ee89	-0.035627875
193	0x3d97c8e0	0.07411361
194	0x3def5b72	0.11687364
195	0xbc1d6326	-0.009606158
196	0xbcf1d59f	-0.029520808
197	0x3cee4efa	0.029090393
198	0x3de71517	0.112833194
199	0xbd720c36	-0.059093677
200	0x3da4e850	0.080521226
201	0x3d12e8a8	0.03586641
202	0xbc7370f3	-0.014858472
203	0xbd240346	-0.040042184
204	0x3c81f86c	0.015865527
205	0xbd24a1e6	-0.04019346
206	0x3cf45932	0.029827688
207	0xbd9ad300	-0.07559776
208	0xbd22ebde	-0.03977572
209	0x3d2d228d	0.04226928
210	0x3e4d3f1d	0.20043607
211	0xbd9c0d48	-0.07619721
212	0xbd1e5937	-0.0386593
213	0xbd27a670	-0.04093021
214	0x3b450e06	0.0030068173
215	0x3d1707ed	0.036872793
216	0xbdf8813f	-0.12134027
217	0xbd0518f9	-0.03249452
218	0x3d59a138	0.053132266
219	0x3d77b1ac	0.060472175
220	0xbd386502	-0.045018204
221	0xbd7743c5	-0.060367364
222	0x3d5c6cb1	0.053814594
223	0xbd8fac04	-0.07015231
224	0xbcca3d1a	-0.024687339
225	0x3db1be87	0.08678918
226	0xbd5c41d6	-0.053773724
227	0xbd5df41c	-0.05418788
228	0xbd9975ce	-0.074931726
229	0x3ce3cd86	0.027807962
230	0x3d8a8c9a	0.06765099
231	0x3d59b5c5	0.053151865
232	0xbe187db7	-0.14891706
233	0x3dd026c4	0.10163644
234	0x3ca05191	0.019570144
235	0xbd485dd7	-0.048917618
236	0x3d229bcf	0.039699372
237	0xbcbbdac9	-0.022931473
238	0x3d3241c6	0.043519758
239	0xbd9accff	-0.07558631
240	0xbdbcfd78	-0.09228033
241	0xbd7c0773	-0.06153054
242	0xbdf958de	-0.12175153
243	0xbc30bcf7	-0.01078724
244	0x3c35e92e	0.011102958
245	0xbd305ac5	-0.043055315
246	0xbe1a3a19	-0.15061225
247	0xbc2c4d87	-0.010516531
248	0x3d627cfe	0.055294983
249	0x3d4b5364	0.049640074
250	0xbc2f20cc	-0.010688972
251	0xbc1a6ff0	-0.009426102
252	0xbbfbab1f	-0.0076803113
253	0xbc69b51c	-0.014264371
254	0x381721fe	3.6032863e-05
255	0x3d2686a5	0.04065575

network_body._body_endoder.seq_layers.0.bias f4 [128]
0	0x3c75f929	0.015013018
1	0x3d6d5086	0.05793812
2	0xbdd04368	-0.10169107
3	0x3c03d4f1	0.008046375
4	0xbce907e7	-0.028446151
5	0x3c48ac14	0.012248058
6	0x3d394fbb	0.045242053
7	0x3d8b7541	0.06809474
8	0x3cdc2992	0.026875291
9	0x3d4770c3	0.048691522
10	0xbb341201	-0.0027476551
11	0xbd46a7ef	-0.048499998
12	0xbc95b272	-0.018273566
13	0x3c14480b	0.0090503795
14	0x3d516352	0.05112011
15	0xbd5bb133	-0.053635787
16	0x3d9d5ac7	0.0768333
17	0x3d50956c	0.05092375
18	0x3d22327f	0.039598938
19	0xbd09d641	-0.033651594
20	0x3d56446b	0.052311342
21	0x3c8f1c94	0.017469682
22	0xbd1eb05e	-0.038742416
23	0x3cf3441a	0.02969556
24	0x3e19afc2	0.15008453
25	0x3e117d06	0.14207849
26	0x3e2249b5	0.1584843
27	0x3c96f568	0.018427566
28	0xbd6071c6	-0.054796003
29	0x3c8d4f90	0.017249852
30	0x3d1ffe0f	0.03906065
31	0xbce27439	-0.02764331
32	0x3b2bfe0f	0.002624396
33	0x3d0c0309	0.034182582
34	0x3d81e3a1	0.06342245
35	0x3cfb4a6a	0.030675132
36	0x3d1172d2	0.03550989
37	0xbcabb55b	-0.0209605
38	0x3db5ffa8	0.08886653
39	0x3c3c893f	0.011507331
40	0x3c91b443	0.01778615
41	0x3cbb0858	0.022831127
42	0xbd0e29a5	-0.034707684
43	0x3cd66391	0.026170524
44	0x3d75b1dd	0.059984077
45	0x3cb96723	0.022632187
46	0x3b286b71	0.0025698806
47	0x3cfc346b	0.030786714
48	0xbcf7f6a8	-0.030268982
49	0x3c96389f	0.018337546
50	0xbd51a3cf	-0.05118161
51	0x3d6ade3c	0.057340845
52	0x3d0cf50d	0.034413386
53	0x3da52dd0	0.08065379
54	0x3c8f67f2	0.01750562
55	0xbc227a8e	-0.009916915
56	0x3ddcc0ad	0.107789375
57	0x3d472e37	0.04862806
58	0x3e399c0c	0.18125933
59	0x3d25f10d	0.040513087
60	0x3c3a4dbe	0.011371074
61	0x3d4cd505	0.05000784
62	0xbc2809a6	-0.010256207
63	0x3d6ce776	0.057837926
64	0xbc2107cd	-0.00982852
65	0x3d1c4360	0.03815019
66	0xbbdc688d	-0.0067263306
67	0x3cc59552	0.024119053
68	0x3d50a5c7	0.050939348
69	0xbd8dff93	-0.069335125
70	0x3d2dabde	0.042400233
71	0x3bad5bf7	0.005290504
72	0x3d97e449	0.07416589
73	0x38f3a10a	0.00011617139
74	0xbdcca5b5	-0.099925436
75	0x3db93bb2	0.09044589
76	0xbddb208c	-0.10699567
77	0xbbadedc0	-0.005307883
78	0xbb52ebae	-0.0032183933
79	0x3d2d0c5c	0.042248115
80	0x3d3c4e58	0.045973152
81	0x3c8e6beb	0.017385444
82	0x3db2347d	0.087014176
83	0x3cb35239	0.021889793
84	0x3c667f70	0.014068469
85	0x3ca00847	0.019535197
86	0x3b40434a	0.0029336982
87	0x3c148ad0	0.009066299
88	0xbc597ea7	-0.013274825
89	0x3ddd7730	0.10813749
90	0x3cdfa878	0.027302012
91	0x3c1c4720	0.009538442
92	0x3d684444	0.05670573
93	0x3cb51751	0.022105845
94	0x3db7d90e	0.08976947
95	0x3d1ece5a	0.03877101
96	0x3c5ea23c	0.013588484
97	0x3dcf8394	0.101325184
98	0x3b281b00	0.002565086
99	0x3c045b71	0.008078442
100	0x3d9525c8	0.07282597
101	0x3a8158c4	0.0009868373
102	0xbd75855c	-0.059941635
103	0x3c03d760	0.008046955
104	0x3d216d5b	0.03941093
105	0xbbe320d3	-0.006931403
106	0x3db815ef	0.089885585
107	0xbdb9e59c	-0.09076998
108	0x3d8839ad	0.06651626
109	0xbc866f2a	-0.016410429
110	0x3d7c7856	0.0616382
111	0x3c9d152f	0.01917514
112	0xbca57b63	-0.020200437
113	0x3d63f250	0.05565101
114	0x3e65b888	0.22433674
115	0xbc3e0640	-0.01159817
116	0x3de25f82	0.11053373
117	0x3beb8b3d	0.0071882294
118	0xbc0ecbce	-0.008715583
119	0x3d5242b3	0.05133314
120	0x3d952656	0.072827026
121	0xbd490965	-0.049081225
122	0x3cd6906a	0.026191909
123	0x3d616077	0.055023637
124	0x3d3b740d	0.04576497
125	0x3df71baa	0.120658234
126	0xbccdf8d9	-0.025143074
127	0xbdce9d74	-0.100886256

network_body._body_endoder.seq_layers.0.weight f4 [128, 9]
0	0x3c66b51b	0.014081265
1	0x3f11261d	0.5669878
2	0xbee26e31	-0.44224694
3	0xbe3a97df	-0.18221997
4	0xbf12c9f8	-0.5733943
5	0x3e2cadbd	0.16863151
6	0x3e931900	0.2873001
7	0xbe035228	-0.12824309
8	0xbe02921c	-0.12751049
9	0x3f081b61	0.53166777
10	0xbdbb56ee	-0.0914744
11	0x3e3c7c71	0.18406846
12	0x3eb942f7	0.36183903
13	0x3f3b6083	0.7319414
14	0x3f7220fb	0.94581574
15	0x3e790d80	0.24321556
16	0x3e498e54	0.196832
17	0xbede5a21	-0.43428138
18	0x3e4ba1d4	0.19885951
19	0xbe13419a	-0.14380494
20	0x3ddee5ed	0.108836986
21	0xbe612450	-0.21986508
22	0xbee41e01	-0.4455414
23	0xbe7d0f0b	-0.2471277
24	0xbce2f3a8	-0.027704075
25	0xbecf93f4	-0.40542567
26	0x3d8ce4ec	0.06879601
27	0x3e5a8ece	0.21343538
28	0xbe9b1cdf	-0.30295464
29	0xbf076467	-0.52887577
30	0xbc8f1dc5	-0.01747025
31	0x3eebd943	0.46064195
32	0x3f2504e5	0.64460593
33	0x3e8a0769	0.26958779
34	0xbdc1d8f5	-0.094652094
35	0x3ce2b297	0.027673049
36	0x3db31d32	0.08745803
37	0xbe556e4e	-0.20842859
38	0x3e0b5fd9	0.13610782
39	0xbefb9214	-0.49134886
40	0x3f02adb7	0.5104632
41	0x3e3f76c5	0.1869765
42	0xbf4ecc19	-0.8078018
43	0xbec837e9	-0.39105156
44	0xbdc99772	-0.09843339
45	0xbe5d6f78	-0.21624553
46	0xbef7c811	-0.48394826
47	0x3e83af9d	0.2571992
48	0x3f927ace	1.1443727
49	0x3f345a08	0.70449877
50	0xbe87c798	-0.26519465
51	0xbe6999b0	-0.22812533
52	0x3eec25d7	0.4612262
53	0xbd6e633f	-0.058200117
54	0x3e0f8c51	0.1401837
55	0x3d65618f	0.056001242
56	0x3ed8d31c	0.42348564
57	0x3e51f97e	0.2050533
58	0x3e117a62	0.14206842
59	0x3e95aaf1	0.2923198
60	0xbf082599	-0.5318237
61	0x3f1de3e0	0.61675835
62	0xbc9cd299	-0.01914339
63	0x3db39433	0.08768501
64	0x3d12fb5a	0.03588424
65	0xbdbfc351	-0.093634255
66	0xbec3adae	-0.38218445
67	0x3f0a95d8	0.54134893
68	0x3eb2194e	0.3478493
69	0xbe494adb	-0.19657461
70	0x3ebaaffe	0.36462396
71	0xbb23b1c3	-0.002497778
72	0x3e80c50b	0.25150332
73	0x3e01b7e3	0.12667803
74	0x3edea978	0.4348867
75	0xbe5930b3	-0.21209984
76	0xbd91e8b7	-0.07124465
77	0x3ec51f87	0.38500616
78	0xbd7e7010	-0.06211859
79	0x3e030b7f	0.12797354
80	0xbea6674a	-0.32500678
81	0x3e33b1d2	0.17548302
82	0x3e612844	0.21988016
83	0xbe883bd6	-0.2660815
84	0xbf005dc9	-0.50143105
85	0x3e9816b7	0.2970483
86	0xbe6fb7dc	-0.2340998
87	0xbdd57828	-0.104233086
88	0x3e3ee8b8	0.18643463
89	0x3efb4b1d	0.49080744
90	0xbe74d276	-0.2390841
91	0xbf1c9406	-0.61163366
92	0xbe28b65d	-0.16475816
93	0x3cf0a9eb	0.029377898
94	0x3f203600	0.625824
95	0xbbac51a9	-0.005258758
96	0x3c20f3ba	0.009823734
97	0x3d66aee8	0.056319147
98	0x3de905e2	0.11378075
99	0xbd7cb63e	-0.061697237
100	0xbcfad0df	-0.030617176
101	0xbd14e4ff	-0.0363512
102	0xbe3e2631	-0.18569256
103	0xbf249c57	-0.64301056
104	0x3f3270ed	0.6970356
105	0x3f46d21e	0.77664363
106	0x3e560d1a	0.20903435
107	0xbe2bffe4	-0.16796833
108	0xbda75cba	-0.08171983
109	0xbe167e78	-0.14696681
110	0x3f0ab224	0.5417807
111	0x3f38d8bc	0.7220571
112	0xbe5dcc5d	-0.2165999
113	0xbf1b6349	-0.6069837
114	0xbe775a54	-0.24155551
115	0x3e6809c2	0.22659972
116	0xbf0ce06b	-0.55029935
117	0xbe3c214b	-0.18372075
118	0xbdb196ba	-0.08671327
119	0x3ee57d88	0.44822335
120	0x3e50d3ff	0.2039337
121	0x3f085b7e	0.53264606
122	0x3e74e6b2	0.23916128
123	0xbf1224b6	-0.57087266
124	0x3dc3650d	0.09540758
125	0xbefe6a52	-0.4969049
126	0x3ea33dfe	0.31883234
127	0xbe311981	-0.17294885
128	0x3e9cc66d	0.30620137
129	0x3e36813c	0.17822737
130	0xbdf4558b	-0.119303785
131	0x3e87a6ea	0.26494533
132	0xbe46b869	-0.19406284
133	0x3f15cb38	0.5851321
134	0xbf13a82e	-0.57678497
135	0xbee81bfc	-0.4533385
136	0xbe84926f	-0.2589297
137	0x3e0cb23f	0.1373987
138	0xbe37223f	-0.17884158
139	0xbed33804	-0.41253674
140	0x3e805350	0.25063562
141	0xbe81f1c4	-0.25379765
142	0x3e83827a	0.25685483
143	0xbe9fcb3e	-0.3120975
144	0xbddde7b0	-0.108352065
145	0xbe0b26e2	-0.13589051
146	0xbed38f1c	-0.4132012
147	0xbe8acc99	-0.2710922
148	0xbe539520	-0.20662355
149	0xbf342c16	-0.7037977
150	0xbeb3715c	-0.35047424
151	0x3e2e8405	0.17042549
152	0xbed6dc1e	-0.4196481
153	0xbdb471c9	-0.08810765
154	0x3f105cfe	0.56391895
155	0xbe9cee1e	-0.3065042
156	0xbe0f2e91	-0.13982607
157	0xbe4d9cb4	-0.20079309
158	0x3f336dbb	0.7008931
159	0xbd59424b	-0.053041738
160	0xbebb5c9d	-0.36594096
161	0x3ea63a9f	0.324666
162	0x3dd9c579	0.10633368
163	0xbde4c1cd	-0.11169777
164	0x3dd9e2d9	0.10638971
165	0xbd681bdd	-0.056667197
166	0x3e73bc96	0.23802409
167	0x3e99822b	0.29982123
168	0x3e1aa778	0.15102947
169	0x3e61d57f	0.22054099
170	0xbf0d272a	-0.55137885
171	0xbed7a8a9	-0.42120865
172	0x3d14d1d3	0.036332916
173	0xbf26f588	-0.652184
174	0xbf11d208	-0.5696111
175	0xbc20c9ab	-0.009813706
176	0xbdc44d8f	-0.09585106
177	0x3e0bcd1e	0.13652465
178	0x3d91b8ee	0.07115351
179	0xbda6fb54	-0.08153406
180	0xbc0082eb	-0.007843713
181	0xbef3af68	-0.47594762
182	0x3f8862d9	1.0655166
183	0x3d2328fc	0.039834008
184	0x3ee70a54	0.45125067
185	0x3d48c36e	0.0490145
186	0xbcd4ad54	-0.025961556
187	0x3df4785a	0.11937018
188	0x3f1b6de2	0.6071454
189	0xbe82cb7e	-0.25545877
190	0x3d25de9c	0.0404955
191	0xbe930ecb	-0.28722224
192	0x3e0f64b3	0.14003257
193	0x3e04fb8b	0.12986581
194	0x3d00a4bb	0.0314071
195	0xbdb8d2e0	-0.09024596
196	0xbddc4d4f	-0.10756933
197	0x3ed73907	0.42035696
198	0xbdd11344	-0.10208753
199	0xbeba2a60	-0.36360455
200	0xbd3b1e63	-0.045683276
201	0xbe16940a	-0.1470491
202	0x3e697513	0.22798567
203	0xbecec651	-0.40385678
204	0x3f055951	0.5208941
205	0xbf0d8e18	-0.5529494
206	0x3c6df9fb	0.014524932
207	0xbed65200	-0.41859436
208	0xbe03d5b0	-0.12874484
209	0xbeb69596	-0.35661
210	0x3eb48cf2	0.35263783
211	0xbe4af1d3	-0.19818811
212	0xbde70ac8	-0.11281353
213	0x3dc09ece	0.094052896
214	0xbe225ad9	-0.15854968
215	0x3ee6e1e2	0.4509421
216	0xbe832161	-0.25611404
217	0x3e82ba78	0.2553289
218	0x3ebf4211	0.37355092
219	0xbdf0e72f	-0.11762845
220	0x3efc7730	0.49309683
221	0xbd1d4039	-0.038391326
222	0x3ea82761	0.32842544
223	0xbe6ac4d3	-0.22926645
224	0xbf097696	-0.5369657
225	0xbea7aafd	-0.3274764
226	0xbeee1cf6	-0.4650647
227	0xbd328efc	-0.04359339
228	0xbd43acd2	-0.047772236
229	0x3ebfe7cf	0.37481543
230	0x3f7a2eb0	0.9772749
231	0x3ecb6998	0.39729
232	0x3f0954e8	0.5364518
233	0xbf0fa4d0	-0.5611086
234	0xbde2b4a3	-0.1106961
235	0x3ed7cbde	0.42147726
236	0x3f290475	0.66022426
237	0xbdde4ddf	-0.108546965
238	0x3eda94bf	0.4269161
239	0x3f4d9d4b	0.80318135
240	0x3ebbdd3f	0.36692235
241	0x3e543af8	0.2072562
242	0xbf324541	-0.69636923
243	0x3ef00c11	0.46884206
244	0xbe476f9e	-0.19476172
245	0x3e9ecae9	0.31014183
246	0xbe830a65	-0.25593868
247	0x3e75eb3f	0.2401552
248	0x3ec280af	0.37988803
249	0xbe4eb5ea	-0.20186582
250	0x3e0d00bf	0.13769816
251	0x3ea21260	0.31654644
252	0xbdbc15a9	-0.09183819
253	0xbcaebeed	-0.021331275
254	0xbe350f71	-0.17681672
255	0xbf2ebe9c	-0.68259597

network_body._body_endoder.seq_layers.2.bias f4 [128]
0	0x3da387a3	0.07984855
1	0x3d9ff9f2	0.07811345
2	0xbc697b7b	-0.014250631
3	0xbd944695	-0.07240025
4	0x3a0a46d5	0.0005274837
5	0xbd184dad	-0.037183452
6	0xbc89930d	-0.016793752
7	0x3cf826b2	0.030291889
8	0x3d8af6be	0.067853436
9	0xbd5a791c	-0.053338155
10	0x3cb5182c	0.022106253
11	0x3d2417a6	0.040061615
12	0x3d82fd8f	0.06396019
13	0x3ca5c976	0.020237666
14	0x3cfeaefb	0.031089297
15	0xbd47d4a7	-0.048786785
16	0xbd3ca5d6	-0.04605659
17	0x3d83566f	0.0641297
18	0x3da54fb5	0.080718435
19	0x3c17fd48	0.009276696
20	0x3cf1f6a1	0.029536547
21	0x3d507988	0.05089715
22	0x3d804a13	0.062641285
23	0x3d99818e	0.07495414
24	0x3c32dd1c	0.010916974
25	0x3d281c45	0.041042585
26	0x3dd9b572	0.10630311
27	0x3c9e9afc	0.019361012
28	0x3d81cb4f	0.06337606
29	0xbdbade58	-0.0912444
30	0xbd1d023b	-0.038332205
31	0x3c8bef36	0.017081838
32	0x3c607347	0.013699359
33	0xbca51823	-0.02015311
34	0x3d1e743a	0.03868506
35	0xbc2caaaa	-0.010538736
36	0xbcec1653	-0.028819239
37	0x3db6c798	0.08924788
38	0x3b9d5f0b	0.00480259
39	0x3d9f7271	0.077855
40	0x3c6e2dd0	0.01453729
41	0x3cbfcdff	0.023413656
42	0x3d60494d	0.054757405
43	0x3dcafb5e	0.09911226
44	0x3d72940a	0.059223212
45	0x3bc2f44e	0.0059495335
46	0xbd06a12c	-0.03286855
47	0xbd1c4864	-0.038154975
48	0x3d2abb1e	0.041682355
49	0x3d58537e	0.052814
50	0xbcbf3330	-0.023339838
51	0xbcb6d57d	-0.022318596
52	0xbcd344e8	-0.025789693
53	0x3d30153f	0.04298901
54	0x3c49dfae	0.012321396
55	0x3caf98f1	0.021435233
56	0x3c9db8d1	0.019253166
57	0x3cae856c	0.021303855
58	0x3d95eae8	0.073201954
59	0x3d8204f6	0.063486025
60	0xbd16e16f	-0.036836084
61	0x3d756cd9	0.05991826
62	0xbbbda973	-0.005788022
63	0x3d75e077	0.06002852
64	0xbd282728	-0.041052967
65	0x3d72753f	0.059193846
66	0x3c6a5201	0.014301778
67	0x3cbf5096	0.023353856
68	0x3d6cefa5	0.05784573
69	0xbd2c0d90	-0.04200512
70	0x3d4909aa	0.049081482
71	0x3d24220c	0.040071532
72	0x3cb795a2	0.022410218
73	0x3c1329f1	0.008982168
74	0x3d11671b	0.03549872
75	0xbc5c9aa6	-0.013464605
76	0x3b9b7eb4	0.004745329
77	0x3c9be80b	0.019031545
78	0xbcb2b3a3	-0.021814173
79	0x3cad608e	0.021164205
80	0xbc7b62ff	-0.015343427
81	0x3cc1577f	0.023601292
82	0x3ca17fe6	0.019714307
83	0x3d70572a	0.058676876
84	0xbcee4e85	-0.029090175
85	0x3c2c942f	0.010533377
86	0xbd4cb5f1	-0.0499782
87	0x3b860487	0.004089895
88	0x3d0d7358	0.03453383
89	0x3a3b074e	0.00071345724
90	0x394d9176	0.00019604512
91	0xbd5c7832	-0.053825565
92	0x3dbc606b	0.09198078
93	0xbd2662f5	-0.040621717
94	0x3c3eddde	0.011649577
95	0xbbf3c3b5	-0.0074391016
96	0x3d220b19	0.039561365
97	0x3c8b1204	0.016976364
98	0x3dca6bc9	0.0988384
99	0xbc6b2c58	-0.014353834
100	0x3cd121ca	0.025528807
101	0x3d0e0924	0.034676686
102	0x3d0e2812	0.034706183
103	0xbc842699	-0.016131686
104	0x3d25d3f9	0.040485356
105	0x3cecec7b	0.028921356
106	0xbaff658c	-0.0019485219
107	0x3cf382c2	0.029725436
108	0x3d8ddfb6	0.06927435
109	0xbb1b402a	-0.0023689368
110	0x3cd1e622	0.025622431
111	0x3d55c446	0.052189134
112	0x3c3494d5	0.011021812
113	0x3c989d63	0.018629735
114	0x3cdccd1d	0.026953274
115	0xbb752c3b	-0.0037410397
116	0x3b63b44c	0.0034744916
117	0x3c7e317d	0.015514729
118	0x3d07c20d	0.033144046
119	0xbd66aca5	-0.05631699
120	0x3c44af18	0.012004636
121	0x3b8639e4	0.0040962566
122	0x3d19017c	0.03735493
123	0x3d85108a	0.06497295
124	0x3d2334f1	0.03984541
125	0x3c3291b6	0.010898998
126	0x3d3fef17	0.046858873
127	0x3c84335f	0.016137777

network_body._body_endoder.seq_layers.2.weight f4 [128, 128]
0	0xbc86ea43	-0.016469127
1	0x3e6ca17a	0.23108473
2	0xbdd1b1d7	-0.102389984
3	0x3e1dcee7	0.15410958
4	0xbe1f6c49	-0.15568651
5	0xbe8ceede	-0.2752599
6	0xbe09ef7f	-0.13470267
7	0x3d4f9028	0.050674587
8	0xbd07f5bd	-0.03319334
9	0x3d05a52a	0.032628216
10	0xbd9179e8	-0.0710333
11	0x3b98684b	0.0046511046
12	0xbe2e00b7	-0.1699246
13	0xbe464200	-0.19361115
14	0x3d29ece5	0.041485686
15	0xbdb5e5cf	-0.08881723
16	0x3e4ea0dc	0.2017855
17	0xbe1fcba6	-0.1560503
18	0x3e3c6788	0.18398869
19	0x3ce9a3f4	0.028520562
20	0x3d30f21c	0.043199643
21	0xbd24c2d4	-0.040224865
22	0xbe2e275e	-0.17007205
23	0xbd8177f8	-0.0632171
24	0x3bc0ccfc	0.005883811
25	0xbe04c15a	-0.12964383
26	0xbc5fe3be	-0.013665138
27	0xbd5a7bca	-0.05334071
28	0xbda33fb5	-0.079711355
29	0xbdac4d1a	-0.084131435
30	0xbe54db21	-0.20786716
31	0x3c049e9f	0.008094459
32	0xbdba1568	-0.09086114
33	0x3dcbb626	0.099468514
34	0xbdaab5ba	-0.08335443
35	0x3ca0a0b4	0.01960788
36	0x3e1ac526	0.15114269
37	0xbe7b7d26	-0.24559459
38	0x3bb2096e	0.005433253
39	0xbcbef053	-0.023307955
40	0xbdfc0eba	-0.12307496
41	0xbea302c9	-0.31838062
42	0xbe1f8f93	-0.15582113
43	0xbbdd1459	-0.0067468104
44	0xbd510dc6	-0.051038526
45	0x3c8be059	0.01707475
46	0x3b5beca7	0.0033557804
47	0xbdeb4d0c	-0.11489305
48	0xbcf2e8cd	-0.029652024
49	0x3da5e0ff	0.08099555
50	0xbd003a45	-0.03130557
51	0x3c88b0f2	0.016685937
52	0x3c8d2691	0.017230304
53	0x3d65e7d5	0.056129295
54	0x3e52b7d0	0.20577931
55	0x3d046306	0.032321
56	0x3d8f5e4b	0.07000407
57	0xbdc4d028	-0.09610015
58	0xbde2eb8e	-0.11080085
59	0x3d0ff200	0.0351429
60	0xbe2c578a	-0.16830269
61	0xbe022508	-0.12709439
62	0xbc2a5710	-0.010396734
63	0xbced1116	-0.028938811
64	0x3bfa43d4	0.0076374803
65	0xbd44dc47	-0.048061635
66	0xbc6850d9	-0.014179432
67	0x3dae8cd5	0.08522955
68	0x3de64f94	0.11245647
69	0xbc714c50	-0.014727667
70	0x3daf4f9a	0.08560105
71	0xbe31205b	-0.17297499
72	0xbd48182d	-0.04885118
73	0x3d12cea9	0.035841618
74	0xbdf59fff	-0.119934075
75	0xbcf1cb87	-0.029515995
76	0xbd716a5e	-0.05893933
77	0xbd985ae0	-0.07439208
78	0x3c41735f	0.011807292
79	0x3e459b60	0.19297552
80	0xbb738def	-0.0037163456
81	0xbe1dd757	-0.15414177
82	0xbdc4c2b0	-0.09607446
83	0xbd9874b2	-0.07444133
84	0xbc8bd240	-0.017068028
85	0xbd440099	-0.047852132
86	0xbe05c262	-0.13062432
87	0x3e646228	0.22303069
88	0xbdd181f9	-0.102298684
89	0xbb422399	-0.0029623269
90	0xbd0e3429	-0.034717713
91	0x3d0b08f8	0.0339441
92	0xb9326acd	-0.00017015189
93	0x3d90619b	0.07049867
94	0x3e268623	0.16262107
95	0xbda37669	-0.07981569
96	0xbd7c8070	-0.061645925
97	0x3d27336d	0.040820528
98	0xbdd35537	-0.10318988
99	0xbd8f1776	-0.06986897
100	0x3c3a1964	0.011358593
101	0xbd219761	-0.039451007
102	0x3c81540d	0.015787149
103	0xbd23ffd7	-0.04003891
104	0xbd2cc287	-0.042177703
105	0xbdce8ffc	-0.100860566
106	0xbd81947a	-0.06327148
107	0x3cc8ab5d	0.024495775
108	0x3d820d3d	0.06350181
109	0xbc2754f0	-0.010213122
110	0x3cf815e4	0.030283876
111	0x3e01be7e	0.12670323
112	0x3c9b04c8	0.018923178
113	0x3c21b184	0.009868983
114	0xbc45248c	-0.012032639
115	0x3cc42d88	0.023947492
116	0x3b869c30	0.0041079745
117	0x3db34c56	0.08754794
118	0xbd8eba11	-0.06969083
119	0xbddca511	-0.107736714
120	0xbe79313f	-0.24335192
121	0xbd8dd6f3	-0.06925764
122	0x3c1c16fb	0.009526963
123	0xbd8045a5	-0.06263284
124	0xbe02d299	-0.12775649
125	0xbe14e8d7	-0.14541946
126	0x3deb98c3	0.11503746
127	0xbe9d76dc	-0.30754745
128	0xbcf3efdc	-0.02977746
129	0x3e4bc125	0.19897898
130	0xbc6fd8f5	-0.014639129
131	0x3e34e6eb	0.17666213
132	0xbd854324	-0.06506947
133	0x3d77577e	0.060386173
134	0x3d73fea5	0.05956902
135	0x3de8a27e	0.11359118
136	0x3e415450	0.18879819
137	0x3d552291	0.05203492
138	0x3cfccaf2	0.03085849
139	0xbdccc7e7	-0.09999066
140	0x3d652883	0.055946838
141	0x3dbc2447	0.09186607
142	0xbd7d5914	-0.06185253
143	0xbe5bcc46	-0.21464643
144	0xbd84a1cc	-0.06476173
145	0xbe8deb19	-0.27718428
146	0x3dc6ad52	0.09701027
147	0x3e168bae	0.14701721
148	0x3e1d28ce	0.15347597
149	0xbe532550	-0.20619702
150	0xbcd4694e	-0.02592912
151	0xbe093026	-0.13397273
152	0x3e87bc54	0.2651087
153	0x3d3fabb0	0.046794593
154	0x3db37f50	0.08764517
155	0xbb6e86e6	-0.0036396324
156	0x3e961cf7	0.29318973
157	0x3d43e350	0.047824204
158	0xb805b083	-3.187406e-05
159	0xbe07c8df	-0.1326022
160	0x3c20ad5f	0.00980696
161	0x3d714f8a	0.058913745
162	0xbdaafaa5	-0.08348588
163	0xbd349a2c	-0.044092342
164	0x3c415d90	0.011802092
165	0xbe0776fb	-0.13228981
166	0x3dc63c5b	0.09679481
167	0xbd86c628	-0.06580764
168	0xbd574e5c	-0.052564964
169	0xbe19fa00	-0.15036774
170	0x3c3b1161	0.011417718
171	0x3dcc93b1	0.099891074
172	0x3d0aec5e	0.033916824
173	0xbcb29ffd	-0.021804804
174	0xbbaaee39	-0.0052163866
175	0xbd1748fd	-0.03693484
176	0x3c806a07	0.015675558
177	0x3d8a5b83	0.06755736
178	0xbd9c5a05	-0.07634357
179	0x3e0bb9c7	0.13645087
180	0xbd5528cc	-0.05204086
181	0x3d1fea20	0.03904164
182	0xbc41ca38	-0.011827998
183	0xbdbcb785	-0.09214691
184	0x3d4bc347	0.049746778
185	0x3d796921	0.060891274
186	0x3e4bb1dc	0.19892067
187	0x3de69ed0	0.1126076
188	0xbd4d8740	-0.050177813
189	0xbdbb7a22	-0.09154154
190	0xbd721e21	-0.059110764
191	0x3cb33650	0.021876484
192	0xbc8101f7	-0.015748007
193	0x3db3e992	0.087847844
194	0xbc985b59	-0.018598245
195	0x3bf1ee2d	0.007383129
196	0xbd55cbd9	-0.052196357
197	0x3dbf1a31	0.093311675
198	0x3d5ca206	0.053865455
199	0xbdaaee04	-0.08346179
200	0x3a463ced	0.0007562179
201	0xbcc74e8e	-0.02432945
202	0x3ca0b9c1	0.019619824
203	0xbdf7dfda	-0.12103243
204	0x3c889189	0.01667096
205	0x3d87ff45	0.06640486
206	0xbe544075	-0.20727713
207	0x3c4e81bb	0.012604172
208	0x3ca9b239	0.020714866
209	0xbd66ef36	-0.056380473
210	0x3e062d48	0.13103211
211	0x3de43f28	0.111448586
212	0xbe63a70e	-0.22231695
213	0x3d7fc9aa	0.06244818
214	0x3d08a261	0.03335798
215	0xbc9fdb6d	-0.01951381
216	0x3d9b57eb	0.075851284
217	0x3d6d35cb	0.05791263
218	0x3de884a5	0.11353425
219	0xbe20819e	-0.15674445
220	0xbdcc8ef4	-0.09988204
221	0xbd228692	-0.039679118
222	0x3c11a082	0.008888366
223	0x3e281864	0.16415554
224	0x3e44b48b	0.19209497
225	0x3e1aabcd	0.151046
226	0xbe89b47d	-0.26895514
227	0xbd35fa50	-0.04442817
228	0xbd188777	-0.037238564
229	0x3d0ecce5	0.03486337
230	0xbd81751b	-0.06321164
231	0x3c3d2127	0.011543549
232	0xbe148602	-0.14504245
233	0xbd5e6e7d	-0.05430459
234	0xbd8147c3	-0.063125156
235	0xbddbc27d	-0.10730455
236	0x3dc94040	0.09826708
237	0xbcb55b25	-0.022138188
238	0xbcf04024	-0.02932746
239	0xbac4c465	-0.0015012143
240	0x3d0a5c1a	0.03377924
241	0xbbd82a22	-0.0065968195
242	0x3bdfeb95	0.0068335035
243	0xbe1546a6	-0.14577731
244	0x3d716bcf	0.058940705
245	0xbe207543	-0.15669732
246	0x3d93b27c	0.072117776
247	0x3e240155	0.16016133
248	0xbd37dadb	-0.04488645
249	0xbd970f72	-0.07375993
250	0xbe07c2f5	-0.13257964
251	0x3dcac25a	0.09900351
252	0x3d6a31c8	0.05717638
253	0x3e13fb2b	0.14451282
254	0xbc862090	-0.016372949
255	0xbd4856e5	-0.048910994
