results/PreyTest2/PreyBrain/PreyBrain-2999970.onnx (onnx, 73997 bytes, 7 tensors)

action_model._continuous_distribution.log_sigma f4 [1, 2]
00000000: 5584 03be e5ac 2fbe
-0.1284345 -0.17155798

action_model._continuous_distribution.mu.bias f4 [2]
00000000: 0fe7 64bd 700b bd3b
-0.055884417 0.0057691857

action_model._continuous_distribution.mu.weight f4 [2, 128]
00000000: 0b77 f8bd 91ea 91bd 01d7 a3bc 20f6 343d
00000010: 0584 193e 2805 ad3d 134a 9c3b 58fe f63d
00000020: 1301 acbd 1b15 2c3d d285 8d3d 376d 08bd
00000030: 94bb 90bd 7baa 15bc ad27 2bbd ae36 6a3d
00000040: f29c 2fbc bec1 563e d875 02be 3e03 05bd
00000050: 2c32 93bd ef71 193e 920e 75bd 3e0f b9bd
00000060: 50e5 62bd 15c5 39bd 315a 91bd a44a 81bc
00000070: 2c88 e3bd 0f9e e73d 518b aa3d 7cec 833c
00000080: 7567 f6bc 3083 e23c cbfe 26bd 7e72 f13c
00000090: ce1e e73c 7faf 89bd 0527 143e b0ad 42bd
000000a0: 3e48 20bd c807 39bd 047e b2bd 96eb 3e3e
000000b0: 90dc 063d 0ffb 0abd 77b1 8abd 2ffd a33d
000000c0: 3215 ef3d d1bf ab3d 752e 853d 119b d23c
000000d0: fadc 1e3e 8ac4 81bd 6b49 21bd 037b 723d
000000e0: 781f 073e 6877 923b 3f17 a33d 42e3 35bd
000000f0: 8696 043d acb0 b8bd 654c 893d b821 493e
00000100: 6af9 463d 193b 9a3d 3875 c5bd 13c2 45bd
00000110: eab2 75bd 2fce dd3d 1cd0 93bb e98d 55bd
00000120: 620f 65bd 9cd3 073d 11d0 8dbd ad06 bb3d
00000130: 0bf3 043e 6d3b a0bc 8455 f13c 3111 643d
00000140: 0a97 f5bb e525 8fbc 5d12 a63d 85b5 5dbd
00000150: 4dfb 283d 56b4 2f3e 03eb 4f3d 74fd 8bbd
00000160: 725f 303e c8f2 5fbd a59f aa3c 59fc ec3d
00000170: 32a5 a3bd ec53 ad3d 5936 3b3d 5ffe 5bbd
00000180: adfd 9ebd a864 003d 68b3 a6bd 951f dc3d
00000190: dc90 153e 50e5 11bd 67a7 cd3d 24cb e13b
000001a0: 784e b739 ed04 913b ad2b 693d 7af9 eb3d
000001b0: d6af 25be 9c9c 0bbd 03d9 83bd 29e0 013e
000001c0: 9870 223e 4c1a 59bd 77d6 6a3e d9a7 c53d
000001d0: 067e 103e cf6d a03d a358 0b3e 788c 5f3d
000001e0: 731e d2bc cc82 8fbc efa2 5fbc 3fac b8bd
000001f0: 2c53 8e3d e67a 45bd 68b0 22bd b791 933b
00000200: 8688 c3bb 9eef a9bc cc5e 90bc 3ce1 ed3c
00000210: b09c 993c 3fd0 2e3c 5c59 0a3d 6f96 a1bd
00000220: 110d f3bc 07e3 d23c 0ce5 23be 62df 593d
00000230: 19ce 133d 9c99 c0bd d3b7 123d c377 bb3c
00000240: af6d f7bc c961 363b ec51 843d d288 6d3d
00000250: 0369 19bd 9c2f 04be e1ba 443c 65a3 83bc
00000260: 8a1c 63bd fc62 063d 53b5 eebd e70c a13d
00000270: f870 cd3c 6246 03bd 0ef3 05bd 63a7 8fbd
00000280: bdae 2bbb 04c8 a2bd fe7c 2bbd afe7 0e3e
00000290: b687 d13d 9082 9b3a 2492 53bd 509a 0ebe
000002a0: f4ac 883d 8344 573d e204 813d 8d26 14be
000002b0: 990c 2ebe 5ecc d6bd d05d b2bb 3919 b53b
000002c0: 77f4 02be 541f 1a3d be18 6a3c a948 373d
000002d0: b787 83bd 07a2 debc 1904 e83c daba 4a3d
000002e0: f5fb b1bd 6bdd ac3d b754 563d fec4 6a3c
000002f0: 52d7 d33d 2a00 b7bd b7b8 eabd 720f 5fbe
00000300: 07b3 49bd bdee ad3d 1546 f23d 35c1 1ebc
00000310: cae7 c0bc bad8 c53c ab5a e73d 6803 90bd
00000320: 4b30 ab3d ed0e 433d a3a7 41bc 802b 6cbd
00000330: dd59 813c 316e 16bd 3697 133d 9c29 b6bd
00000340: cc2b 97bd 972f 0b3d 3b33 5c3e ab7d 9ebd
00000350: b743 02bd 9a26 e1bc 42e8 3d3b db6a cf3c
00000360: 9346 ffbd 40ed 1dbd e29d 493d 1167 7f3d
00000370: 4b64 0bbd 1733 a4bd caa8 633d f274 8dbd
00000380: 3401 b6bc de1b e23d 5ebc 90bd 0c74 9cbd
00000390: b341 9abd 5d9d a43c 6607 9b3d 7c8f bc3d
000003a0: 3f44 2abe 8a65 be3d 8713 9d3c b3b1 0fbd
000003b0: 6fee 483d cf71 abbc 1262 5f3d ba17 d6bd
000003c0: 5172 e7bd 6fe4 aebd db25 dcbd ad99 26bc
000003d0: 4a72 933c 172e 46bd 9e8a 17be e93e b7bc
000003e0: 8756 473d d15c 433d 33ab 2fbc 7557 5ebd
000003f0: 3dee 23bc 20d2 f0bc 9d2d ef3a 4e50 353d
-0.12132081 -0.07124818 -0.019999983 0.044180036 0.14991768 0.08448249 0.0047695725 0.12060231
-0.083986424 0.042012315 0.0691029 -0.03330728 -0.07067028 -0.009134884 -0.041785885 0.057181053
-0.010718571 0.20972344 -0.12740266 -0.032473795 -0.07187304 0.14984868 -0.05982835 -0.0903611
-0.05539447 -0.045353968 -0.07097281 -0.015782662 -0.11109957 0.11309444 0.08327354 0.016103975
-0.030078629 0.027650446 -0.040770333 0.02947354 0.028212931 -0.06722926 0.1446801 -0.047528923
-0.039131396 -0.045173436 -0.08715442 0.18644556 0.03292519 -0.033930834 -0.0677213 0.08007275
0.116739646 0.083861955 0.065030016 0.025708707 0.15513983 -0.06336315 -0.039376657 0.059199344
0.13195598 0.0044698007 0.07963418 -0.044406183 0.032370113 -0.090180725 0.06704024 0.19641769
0.048577704 0.07530803 -0.09641498 -0.048280787 -0.05998508 0.10830342 -0.0045108926 -0.05213729
-0.055922873 0.03316079 -0.06924451 0.09132133 0.12983339 -0.019559586 0.029459722 0.055680458
-0.007494812 -0.017474124 0.08108971 -0.05412819 0.041255284 0.17158636 0.050761234 -0.06835452
0.1722391 -0.054674894 0.020828078 0.11571569 -0.07990493 0.084632725 0.045706127 -0.053709384
-0.077632286 0.031345993 -0.08139688 0.10748211 0.1460604 -0.03561908 0.10041695 0.0068906713
0.00034962944 0.004425636 0.056926418 0.11522193 -0.16180357 -0.0340849 -0.06437876 0.12683167
0.15863264 -0.053003594 0.22933374 0.09651155 0.14110574 0.07833444 0.13608031 0.05457732
-0.025649285 -0.017518423 -0.013649686 -0.09017228 0.069494575 -0.04821291 -0.039719015 0.0045034545
-0.0059672026 -0.020744141 -0.017623328 0.029038064 0.018751472 0.010669767 0.033776626 -0.07890021
-0.029669316 0.02574302 -0.16005343 0.05319155 0.036085222 -0.09404299 0.03581984 0.022884255
-0.030203668 0.002782928 0.06460938 0.05799181 -0.037453663 -0.12908787 0.012007446 -0.016069124
-0.05544714 0.032809243 -0.116556786 0.07863789 0.025078282 -0.032049544 -0.0327025 -0.07014348
-0.0026196681 -0.07948306 -0.04186725 0.13955568 0.10230963 0.0011864472 -0.051653042 -0.13926053
0.06673613 0.052555572 0.062997594 -0.14467831 -0.16996993 -0.10488199 -0.005443312 0.0055266884
-0.12788568 0.037627533 0.014288126 0.04474703 -0.0642237 -0.02717687 0.028322266 0.0494946
-0.08690635 0.084406696 0.052326884 0.014329193 0.103438035 -0.08935578 -0.11461013 -0.21783236
-0.049243 0.08492801 0.11829773 -0.009689619 -0.023548026 0.024151195 0.112965904 -0.070319
0.083588205 0.047621656 -0.011819753 -0.057658672 0.01578992 -0.03672618 0.036032878 -0.08894655
-0.073814005 0.033980932 0.21503918 -0.07738813 -0.03180286 -0.027484227 0.0028977548 0.025319507
-0.12464633 -0.038556337 0.049222834 0.06235415 -0.034031194 -0.08017557 0.05558089 -0.06907071
-0.02221737 0.110404715 -0.07067178 -0.07639322 -0.075320624 0.020094568 0.075697705 0.09207055
-0.16627596 0.09296711 0.01917435 -0.035081577 0.049055513 -0.020928292 0.054536887 -0.10453744
-0.11301101 -0.08539664 -0.10749408 -0.010168475 0.017998833 -0.0483838 -0.14798972 -0.022368865
0.048666503 0.04769594 -0.010721969 -0.054282624 -0.010005531 -0.02939707 0.0018247847 0.044266038

network_body._body_endoder.seq_layers.0.bias f4 [128]
00000000: 1dd4 833c f72d 583d 0538 ecbd 9469 733c
00000010: 5f5a dabc b799 0c3b 56ea 563d a85b a73d
00000020: 75b3 bd3c 1f9c 693d 3d76 dd3a 8500 32bd
00000030: 1cb3 4dbc 2ab2 da3b b409 2d3d db73 d0bc
00000040: 0178 8d3d 5104 683d b61a 093d 4c53 aebc
00000050: 68aa 523d c00e 3c3c 4498 16bd fe3c f43c
00000060: dbd9 273e 50db 303e 1626 243e b97d c53c
00000070: 706b 2fbd 57d6 8bba dfcf 233d d4e2 babc
00000080: f162 113b 1b3b ae3c e448 4e3d 928d 0a3d
00000090: 03af f63c c03f c1bc 1682 a73d c55f 1c3d
000000a0: 0c62 b03c 7e84 e03c 31ad 5bbd 6d9c ba3c
000000b0: 786a 953d cd69 a63c 2c37 0b3b 5aa7 043d
000000c0: 9545 06bd e602 c73c 2b01 52bd e935 493d
000000d0: cc5c cc3c 817c b03d 6cd2 b23c 6cbf 853b
000000e0: 7dbc 0c3e ace4 293d 17f3 283e 2845 963d
000000f0: c1c6 663c 2c6a 0f3d ca46 f9bc 7e84 1b3d
00000100: 3137 0dbd c966 933d b027 16bc d229 253d
00000110: 1846 383d 1262 80bd 54fd 4a3d 240a d339
00000120: 8740 7b3d b424 7ebc f36c dfbd 5119 d33d
00000130: 656e ecbd 9d21 cb3b ff79 a5bb b6b6 613d
00000140: 71b4 4a3d 8370 c03c e5f0 a33d a08e f13c
00000150: a633 3f3d 166c 183c 79f6 853b 7298 ab3c
00000160: 58f8 6ebc 3019 e93d 8c9b f93c e2b3 5b3c
00000170: 0c69 563d e71b b53c 1b8f db3d 6de3 043d
00000180: c338 c33b f5d9 ab3d ce9c 813b bc96 1a3b
00000190: f66c 9a3d 32dc 893c 628a f4bc ea65 9c3c
000001a0: 1072 ed3c ada4 3abc b813 a03d d2b3 c1bd
000001b0: ce7d a33d d7df 16bc 3838 943d c6d5 763c
000001c0: d190 82bc 767f 933d 5096 813e 82aa 79bb
000001d0: ca1f f83d 58a7 f13c 9db4 e9bb 9760 3f3d
000001e0: 9b21 623d eebc 34bd 6855 0d3d 7b2b 253d
000001f0: 925e 443d 0e9a ea3d 0be2 88bc b943 cbbd
0.016092354 0.05277821 -0.115341224 0.014856715 -0.02665442 0.0021453926 0.052469574 0.08171779
0.02315686 0.057033654 0.00168962 -0.043457527 -0.01255491 0.006674071 0.04224558 -0.02544587
0.069076546 0.05664474 0.03347274 -0.021279953 0.051432043 0.011478126 -0.036766306 0.02981424
0.16391699 0.17271161 0.16030154 0.0241078 -0.04282707 -0.0010668737 0.039993163 -0.022813238
0.0022184218 0.021268418 0.050362483 0.03382642 0.030112749 -0.023589969 0.08179109 0.03817727
0.021531127 0.027406927 -0.053631965 0.022779668 0.07295698 0.020314122 0.0021242602 0.03238616
-0.032781202 0.024293374 -0.051270645 0.04912368 0.024946593 0.08617497 0.021828853 0.004081657
0.13743778 0.041477844 0.16498981 0.07337409 0.014085473 0.035013363 -0.030429263 0.03796815
-0.034476463 0.07197339 -0.009164736 0.040323086 0.04498872 -0.062687054 0.049558 0.00040252612
0.061340835 -0.01551168 -0.10909452 0.10307563 -0.115444936 0.0061990754 -0.0050499435 0.055105887
0.04948849 0.02349115 0.08004931 0.029486954 0.046680115 0.009303113 0.0040882197 0.020946715
-0.014585577 0.11381757 0.030469678 0.013409587 0.052346274 0.022108031 0.107206546 0.032443453
0.0059576943 0.083911814 0.00395546 0.002358838 0.07540314 0.01682863 -0.029851142 0.019091565
0.028985053 -0.011391801 0.07816261 -0.09458126 0.0798298 -0.009208641 0.072372854 0.015065616
-0.015938194 0.072020456 0.25309992 -0.0038096015 0.12115438 0.029498741 -0.0071321265 0.046722975
0.05520783 -0.04412549 0.034505278 0.04032467 0.04794175 0.11455165 -0.016709348 -0.099250264

network_body._body_endoder.seq_layers.0.weight f4 [128, 9]
00000000: 378b 493b ca6c 113f bcf8 e6be efbb 2bbe
00000010: 4583 12bf 335f 3d3e d7b2 923e 2a37 02be
00000020: 002e 17be e19f 053f 3ae8 c5bd 8efb 1d3e
00000030: 1c58 bf3e 590e 3a3f 02c7 6d3f 23c9 7c3e
00000040: ad45 443e c20e e9be adce 463e d33b 21be
00000050: 34c1 063e 7f1e 62be 261b ebbe 513d 8cbe
00000060: 7af0 b5bc 1f91 d6be 97de f53d f029 653e
00000070: 41a0 97be 821c 0dbf 2016 b3bc cc55 ef3e
00000080: 29ce 253f 85f9 893e 69e6 b3bd eabf 53ba
00000090: a49b b73d a398 53be 62a4 0f3e de7b febe
000000a0: 1423 033f 8f5f 423e 64ec 4dbf 124d c7be
000000b0: f3e2 c9bd 5a1e 59be 41f4 fcbe e522 873e
000000c0: 896f 913f 1ec4 313f 7993 88be c074 63be
000000d0: a9f9 e63e 997c 70bd b119 0b3e 0c7e 813d
000000e0: 129a da3e 8b2c 603e 0ee1 183e e91b 963e
000000f0: 1093 08bf 85bd 1f3f 1cf5 aebc 9a2a a73d
00000100: f4c7 4a3d 6c73 b9bd 7181 c0be 8f12 0e3f
00000110: a1aa b53e ae26 4fbe 97a9 c13e 02ac 4cbc
00000120: d5f9 783e 45d2 fb3d c237 dc3e 8b76 4ebe
00000130: 3786 99bd 7b6a c03e c3c2 7bbd 8879 fe3d
00000140: d81a a5be 6ca0 3a3e 1db3 693e 05a1 87be
00000150: cccb 00bf f75b 9c3e 8cd7 64be 885d dabd
00000160: 9873 473e 7833 fb3e eb02 70be 3a71 1bbf
00000170: b52f 1cbe 1715 f33c c258 213f 5dd4 593c
00000180: e861 1f3c cadb 783d a1b3 e73d fae5 67bd
00000190: 7282 d1bc 8df1 20bd 85bd 3ebe 0752 23bf
000001a0: 204a 323f f4cc 463f d336 5b3e 4118 3bbe
000001b0: 7d20 39bd 70a3 10be 3220 073f 2c2b 423f
000001c0: 5af1 57be 1450 1cbf 5bdb 7ebe d2e4 6d3e
000001d0: a109 13bf 002f 45be 9274 b6bd ab49 de3e
000001e0: 83c5 5f3e bcbf 073f c178 6e3e d385 11bf
000001f0: 3487 be3d 6209 03bf 6843 a23e cb2f 3abe
00000200: 8008 963e 8a91 543e 0541 03be 3953 813e
00000210: 7cf0 3abe 9085 133f aca0 14bf 6999 dcbe
00000220: 0a47 6cbe 5d2b ef3d 33f8 49be 24c9 c4be
00000230: b63b 873e 3319 8fbe 5af1 913e 8c16 b4be
00000240: 3415 cebd 4518 13be d060 d6be 41e5 8ebe
00000250: 6086 5bbe 2a68 33bf a8b4 aebe a192 263e
00000260: ddaf d6be 74a6 b3bd dbd3 113f e8e0 9cbe
00000270: 9335 1abe f3c0 47be 137b 343f 9fa9 6bbd
00000280: c56e b8be df30 a13e b74f c13d a84d f1bd
00000290: 62eb 863d e293 14bd b376 6d3e 1eb6 8e3e
000002a0: 63f4 203e 898f 5b3e 17a0 13bf 78df d0be
000002b0: 6b7e 473d b3a3 29bf cc00 12bf cda0 273b
000002c0: f00e 88bd bdb3 003e 260f ab3d fa8c bdbd
000002d0: 31e9 5cbb a622 f4be 6f2f 8a3f f654 803c
000002e0: 1597 e63e d882 9f3c bf9d 00bd 51ab f23d
000002f0: c739 243f fa84 8cbe e653 0d3d d82b 91be
00000300: f54f 123e dfb1 fd3d ca66 0c3d c52b acbd
00000310: 9d92 e8bd d042 d83e 1254 ccbd 6a27 b9be
00000320: 4af8 18bd a40a 19be f87a 6b3e 2588 cabe
00000330: 74b1 053f 970c 0dbf 728f 6e3c 4af3 d8be
00000340: 8eb6 03be f1ae afbe ddf6 ab3e bcd2 4abe
00000350: 32b0 e0bd a913 c03d c03b 22be 4c04 e83e
00000360: e084 6ebe 92cf 893e 72e3 ae3e 3829 f2bd
00000370: 2ac6 013f 0432 1ebd d7ad 9e3e b79a 5cbe
00000380: 021f 11bf 399b 95be d66d debe 9322 b4bd
00000390: 9a8c 28bd b996 cf3e 8c68 7f3f 94ca ba3e
000003a0: 802c 113f 883e 1abf 94b8 edbd 28ba d83e
000003b0: 2e75 233f 38ad d3bd ff82 db3e 543a 4d3f
000003c0: e160 ba3e 5817 563e b269 38bf cd7c ed3e
000003d0: 9f9e 41be f962 a03e 793d 7abe 24bc 7b3e
000003e0: 6f8d c53e ab0a 4ebe c7d1 123e ae78 a53e
000003f0: 0c42 a4bd 9165 19bc bad7 44be fbda 30bf
0.0030753145 0.56806624 -0.45111644 -0.1677091 -0.5723155 0.18493347 0.2865207 -0.12716356
-0.14763641 0.5219708 -0.09663434 0.15427992 0.3737191 0.7267814 0.92881787 0.24686103
0.19167204 -0.45519072 0.19414778 -0.15745477 0.13159639 -0.22081946 -0.4591915 -0.2739053
-0.022209395 -0.41907594 0.12005346 0.22379279 -0.29614452 -0.55121624 -0.021861136 0.46745145
0.647677 0.2694818 -0.087841816 -0.00080776087 0.08965233 -0.20663695 0.14027551 -0.49703878
0.512254 0.18981765 -0.8043883 -0.38925987 -0.0985774 -0.21202984 -0.494051 0.2639381
1.1362163 0.69439876 -0.26675013 -0.22212505 0.4511235 -0.058712576 0.13584019 0.0632287
0.4269567 0.21891992 0.14929602 0.2931817 -0.533494 0.6239856 -0.021357112 0.081624225
0.049507096 -0.09055218 -0.37598756 0.5549707 0.35481742 -0.20229599 0.378247 -0.012492182
0.24314053 0.12295965 0.4301129 -0.20162408 -0.074963026 0.37581238 -0.061465036 0.12425524
-0.32247043 0.18225259 0.22822233 -0.26490036 -0.5031097 0.30538914 -0.2234785 -0.10662371
0.1947769 0.49062705 -0.23438613 -0.60719645 -0.15252574 0.029673142 0.6302606 0.01329526
0.0097279325 0.060756482 0.11313558 -0.056615807 -0.025574896 -0.03929286 -0.18626983 -0.6379704
0.69644356 0.77656484 0.21407633 -0.18270971 -0.045197 -0.14124846 0.527835 0.75847125
-0.21088162 -0.6105969 -0.24888365 0.2323182 -0.5743657 -0.1925621 -0.08908953 0.4341558
0.21852688 0.5302694 0.23288251 -0.56844825 0.09303132 -0.5118619 0.31692052 -0.18182294
0.2930336 0.20758644 -0.12817772 0.25258806 -0.182558 0.57625675 -0.58057666 -0.43085793
-0.23073974 0.11678193 -0.19723587 -0.38434708 0.26412743 -0.27948913 0.2850445 -0.35173452
-0.10062638 -0.14364727 -0.41870737 -0.27909282 -0.21437979 -0.70080817 -0.34122205 0.16266872
-0.41931048 -0.08771983 0.5696389 -0.3064034 -0.150595 -0.19507198 0.70500296 -0.05753481
-0.3602201 0.31482598 0.094390325 -0.1178239 0.065878645 -0.036273845 0.23189811 0.2787332
0.15718226 0.21441473 -0.5766615 -0.40795493 0.048704546 -0.6626541 -0.57032466 0.0025578022
-0.06643474 0.12568565 0.08352499 -0.09255405 -0.003370833 -0.47682685 1.0795726 0.015665513
0.4503714 0.01947157 -0.03140044 0.11849082 0.6415066 -0.27445203 0.03450384 -0.28353763
0.14288314 0.12387442 0.034277715 -0.08406786 -0.11356089 0.42238474 -0.09976973 -0.36162883
-0.037346162 -0.14945465 0.22996128 -0.39556995 0.52223897 -0.55097336 0.014560567 -0.42373115
-0.12862608 -0.34313157 0.3358678 -0.19806951 -0.109711066 0.0937875 -0.15843105 0.45315778
-0.23292875 0.26916176 0.34157902 -0.11824268 0.50693 -0.038621917 0.30992004 -0.21543394
-0.5668794 -0.29219988 -0.43443173 -0.08795657 -0.041149713 0.4054468 0.997689 0.3648268
0.56708527 -0.60251665 -0.11607471 0.42329526 0.63850677 -0.10335773 0.4287338 0.80167127
0.36402038 0.20907342 -0.7203628 0.46384278 -0.18908165 0.3132551 -0.24437512 0.24583489
0.38584468 -0.20121257 0.14337836 0.32318634 -0.0802041 -0.009362594 -0.19222918 -0.6908414

network_body._body_endoder.seq_layers.2.bias f4 [128]
00000000: beae bd3d 4211 9d3d 2229 6bbc c0c0 a0bd
00000010: 9711 52bb 0270 23bd 67d3 fdbb ce53 ea3c
00000020: 424e 8d3d af2a 52bd c7bf 9d3c 0028 443d
00000030: 6ace 913d b187 913b 26c1 133d 490f 49bd
00000040: cbf4 4fbd 0579 703d 6d92 a83d 8fb4 773b
00000050: ff98 243d d1ce 453d 4eaa 893d e97b 9d3d
00000060: a832 a93c 1d11 453d 77a7 013e f4ef 3a3d
00000070: 48fb 6f3d a59a acbd f9f4 25bd cc0e 9c3c
00000080: f012 9f3c 96a0 0abd 8008 173d 2924 ccbc
00000090: 9f7c 0cbd 2db6 bd3d ca61 ae3b 6858 c93d
000000a0: 2af4 8bbb f098 053d 9801 8e3d 91e0 c93d
000000b0: bd21 873d 8630 813c 6e71 edbc 361d f5bc
000000c0: bb52 2a3d a1e5 413d cbd6 dbbc 6d35 c2bc
000000d0: 4d86 98bc eda1 2f3d 4c9f 9c3c 6dfb 633c
000000e0: b46f 963c 0b4f 673c 9c81 833d 24a0 8d3d
000000f0: c96a 2abd a39e 713d 0a64 e83a 8aac 7b3d
00000100: dfbb 56bd 8483 4f3d eaa0 323c a4fd c33c
00000110: b8d6 6d3d 0709 14bd 4ec7 5b3d dfe7 3e3d
00000120: abd5 a43c 6a55 04ba 8947 1a3d 92b8 b0bc
00000130: ff16 3f3a 2061 453c 605c fcbc b7fd 5e3a
00000140: 9278 debc 7e05 5a3c fc50 383d 8b80 5f3d
00000150: b4d8 3dbd 00af cd3b 03b1 4dbd 1ea1 723c
00000160: 336b 073d 2dcf 073a b5aa 74bc 8c5f 3ebd
00000170: d2ca b63d 29e8 3dbd 7cd1 183c 2a91 86bc
00000180: 8785 253d 65d5 833c 5926 d13d c986 6abc
00000190: 8441 d43c c239 103d 4289 013d 6726 2bbc
000001a0: ade8 aa3c dc2b 443c 6e5a eabb 5b2e 743c
000001b0: a5b4 a53d df15 f2bb a960 3b3d c72d 6c3d
000001c0: 7d47 613c 9247 543c 02fd bb3c 0404 56bc
000001d0: 9436 3bb9 9c05 5b3c 4248 0a3d dbb8 5cbd
000001e0: 7fe5 8e3c b839 463c 1ca1 f13c 1496 823d
000001f0: b3ac 113d efba 4a3b f9dd 4b3d b9ce b33c
0.09261845 0.07669307 -0.014353069 -0.07849264 -0.0032053941 -0.03990174 -0.0077461484 0.028604414
0.06899692 -0.051310237 0.019256486 0.04788971 0.071194485 0.0044412245 0.036072873 -0.049086843
-0.050770562 0.058709163 0.082310535 0.003779683 0.04018497 0.04829294 0.06721936 0.076896496
0.020654038 0.048112024 0.12661539 0.045638993 0.05858925 -0.084279336 -0.040516827 0.019050024
0.01941821 -0.033844553 0.03687334 -0.024919586 -0.034298535 0.09263263 0.005321716 0.09831315
-0.00427105 0.032616556 0.06933898 0.09857286 0.06598232 0.015770208 -0.028984752 -0.029921155
0.041582804 0.04733813 -0.02683582 -0.023707116 -0.018618727 0.042879034 0.019118927 0.013914925
0.018363811 0.014117966 0.064212054 0.0691531 -0.041605745 0.05898918 0.0017730009 0.061443843
-0.05242526 0.050662532 0.010902623 0.023924656 0.0580661 -0.03614142 0.05365687 0.04660785
0.020121416 -0.0005048128 0.037665877 -0.021572385 0.00072894985 0.012047082 -0.030805767 0.00085064344
-0.027157102 0.0133069735 0.044999108 0.054565948 -0.046349242 0.006276965 -0.05021764 0.014808921
0.033061218 0.0005180713 -0.014933278 -0.04647784 0.08925404 -0.046363983 0.009327289 -0.016426641
0.040410545 0.016092965 0.10212392 -0.014314362 0.025910147 0.035211332 0.03162504 -0.010446168
0.020862902 0.0119733475 -0.0071518933 0.01490363 0.08091096 -0.007387861 0.04574648 0.057660844
0.013749954 0.012956517 0.022947792 -0.013062481 -0.00017854042 0.013368037 0.033760317 -0.05388723
0.017443417 0.012098722 0.029495768 0.063762814 0.03556509 0.0030934175 0.049772236 0.021949159

network_body._body_endoder.seq_layers.2.weight f4 [128, 128]
00000000: 5294 96bc 2241 703e 3869 fcbd 3593 1b3e
00000010: 2903 10be e73a 94be 49a4 fbbd 39af 823d
00000020: 195f a5bc ca2d fc3c 59d5 9ebd 511c 0e3b
00000030: 91b8 35be d7e5 2bbe 7e23 703d 4ff3 82bd
00000040: dcd8 653e 051d 21be 931d 4d3e 4f6c 233d
00000050: b84e 1d3d d8e4 5fbd 20a9 34be b1ea 9dbd
00000060: c6d1 903c 53fc febd 91af 883a 09a0 5cbd
00000070: b65b 78bd b43f 80bd 4fc0 5abe cc18 1b3a
00000080: e7c1 b8bd ff7a c53d f1ad acbd 95d4 073d
00000090: 7da9 243e ac37 84be b03d 563c 03bc 16bd
000000a0: e3d1 e2bd 40c7 9fbe 9f52 33be 81d9 5b3c
000000b0: 53e6 58bd 4044 d03c a883 923c db3e f2bd
000000c0: 3f9e 29bd 91a9 b13d 5ee6 42bd 9676 193d
000000d0: 7208 703c b50f 923d 1d4d 583e 432d 453d
000000e0: cb9e aa3d f7cc 9abd a088 f4bd c073 303d
000000f0: a399 39be 5fcd 16be e48f 83bc 7d11 d8bb
00000100: dd00 fb3b 6b2b 6bbd a8f5 9cbc 57d0 a23d
00000110: 94a7 e43d 7b45 8bbc 19f4 d43d 2923 38be
00000120: 2568 79bd 9f0d 413d 6682 0bbe aa7a 53bd
00000130: e25a 65bd 9611 abbd bdc9 2d3b 13d2 3f3e
00000140: cb2e 0fba ec95 27be 3100 debd 640b a4bd
00000150: f1c2 c5bc 7a23 62bd 6521 0cbe 4fbc 743e
00000160: ff6e a6bd 4ab9 89bb 8a6d f1bc b31f e73c
00000170: 44f1 93bb af20 7f3d a19f 2a3e 7606 82bd
00000180: 60b5 99bd bf0e 4e3d 4e20 dbbd 9c42 a2bd
00000190: 2b3f 8f3c 3399 2abd 986e d43c 6995 48bd
000001a0: a6b5 4ebd 6324 d3bd bfd3 a3bd 5f42 e93c
000001b0: bf87 9d3d b1b3 17bc ab8d 0f3d 8809 ff3d
000001c0: 87da 503c 3568 f03b ccd2 7ebc 3dbc eb3c
000001d0: 96b7 ba3a 6c14 a63d 5b69 a2bd d11d efbd
000001e0: f50f 69be 7b3a d0bd 4d55 a03c 1b60 8ebd
000001f0: 9f33 dcbd cf0f 0dbe 99b8 cf3d a72c a3be
00000200: b3b1 cabc 33ab 503e d184 e8bc 725d 383e
00000210: e273 90bd a536 9f3d 53b5 673d c533 da3d
00000220: fcc0 363e dbd3 213d 5566 0a3d 0e63 cbbd
00000230: 7e14 9f3d 07d0 be3d c6d4 77bd cffe 5bbe
00000240: f88a 78bd a66e 8fbe 9a3d d53d 5487 193e
00000250: a39e 163e b4e1 4ebe 437b d3bc 1ee7 07be
00000260: c14e 843e 0a8d 383d d0d4 a73d 2e46 8abc
00000270: dc43 933e 4b1d 5a3d 9ad4 9d3c 7b60 02be
00000280: e8fb 883b 82d8 753d bfd4 90bd c84e 53bd
00000290: b163 cd3b e0e2 03be af08 c73d 6d97 cebc
000002a0: acf5 2abd 27f3 1abe 82d9 053c 839e d53d
000002b0: 3c0b ea3c ed2b 43bc 5f01 ff3a 5f1c 13bd
000002c0: 6117 583a 764a 5e3d 7818 adbd 4f8c 133e
000002d0: 5d78 74bd 4639 0f3d cfcd 07bc f7f5 bdbd
000002e0: 898f 423d 477c 823d fdee 403e c34f db3d
000002f0: c69c 4dbd 2289 c8bd 2567 67bd 1937 da3c
00000300: d4f5 a6bc a793 ab3d 76bc babc fd58 aa3b
00000310: dc74 35bd 8fc4 c63d 5224 493d c82a aabd
00000320: 7c90 843a c4b5 c7bc 08e4 ba3c 65fb 06be
00000330: 26b5 403b 2589 563d d559 51be d010 233c
00000340: 7469 2a3d b277 56bd 91ad 083e 136c df3d
00000350: fde6 64be a01b 853d 0678 293d 29e5 66bc
00000360: aea5 a13d 1a61 553d 2600 e13d 51b0 1dbe
00000370: 810c c9bd 024c 3abd d103 643b 1e06 2f3e
00000380: 587b 443e f422 113e 9e14 8bbe d1b1 4fbd
00000390: 53c5 2fbd db3e 1f3d 04ab 8ebd 8b67 3c3c
000003a0: 525e 15be 2d25 52bd 6cbc 77bd f469 fbbd
000003b0: 5e5a d73d b1cc 04bd b03e 1bbd d711 9bbb
000003c0: 6d0c 303d cb64 a1bc 32ae ac3c ca7f 25be
000003d0: eb5f 833d cba3 19be 1cb5 873d a7e9 213e
000003e0: 79ae 28bd e000 a8bd 70c5 10be ae52 c03d
000003f0: 43f8 543d a079 233e e6a2 37bc 4b38 51bd
-0.018381272 0.23462346 -0.123247564 0.15192874 -0.14063706 -0.2895119 -0.12287194 0.06381077
-0.020186948 0.030783553 -0.077555366 0.0021684358 -0.17746188 -0.16786896 0.058627598 -0.06394064
0.22446007 -0.15733726 0.20030813 0.039898213 0.03840515 -0.0546616 -0.17642641 -0.077107795
0.017678153 -0.12450471 0.00104283 -0.05386356 -0.060634337 -0.062621504 -0.21362422 0.0005916476
-0.09021359 0.096426 -0.08431614 0.03316172 0.1608028 -0.25823724 0.013076231 -0.036800396
-0.11075189 -0.31206703 -0.17511986 0.013418556 -0.05295403 0.02542317 0.017885044 -0.11828395
-0.04141068 0.0867492 -0.047582977 0.037466608 0.014650451 0.07131902 0.21123166 0.048138868
0.083310686 -0.07558625 -0.11940122 0.043079138 -0.18125014 -0.1472678 -0.016059823 -0.0065938816
0.007660015 -0.057414453 -0.019160107 0.07949894 0.111647755 -0.017000904 0.103981204 -0.17982163
-0.060890336 0.04713213 -0.13623962 -0.051630653 -0.055994876 -0.083529636 0.002651795 0.1873248
-0.000546199 -0.16365784 -0.1083988 -0.08009985 -0.024140807 -0.055209614 -0.13684614 0.23899959
-0.081266396 -0.0042029964 -0.029471178 0.028213358 -0.004514845 0.06228703 0.16662456 -0.063488886
-0.07505298 0.05030703 -0.10699521 -0.07922861 0.017486176 -0.04165001 0.025931641 -0.048970614
-0.050466202 -0.103096746 -0.07999372 0.028474031 0.07691907 -0.00925915 0.035047214 0.1245299
0.0127474135 0.007336641 -0.015553188 0.028776282 0.0014245387 0.08109364 -0.07930251 -0.11675609
-0.22759993 -0.10167404 0.019571925 -0.069519244 -0.107520334 -0.13775562 0.10142631 -0.31870005
-0.024742937 0.20377807 -0.028383644 0.18004397 -0.07053353 0.077740945 0.05656941 0.106544055
0.17847055 0.03950868 0.033788998 -0.099310026 0.077675804 0.09317022 -0.06050565 -0.2148392
-0.060679406 -0.28014106 0.1041214 0.1499303 0.14708953 -0.20203286 -0.025815612 -0.13271758
0.25841334 0.04505638 0.08194888 -0.016879167 0.2876271 0.053250592 0.019266415 -0.12732117
0.00418042 0.06002093 -0.07071828 -0.051588804 0.0062679877 -0.12879515 0.09718453 -0.02521869
-0.041738197 -0.15131818 0.008169534 0.10430624 0.02856981 -0.011912328 0.0019455365 -0.03591573
0.000824323 0.05427023 -0.08451933 0.14408992 -0.0596851 0.03496673 -0.008288815 -0.0927543
0.047500167 0.0637136 0.18841167 0.10708573 -0.05019834 -0.09791781 -0.05649485 0.0266376
-0.020380892 0.08377772 -0.022794943 0.0051985965 -0.0443009 0.09705459 0.049106903 -0.08308941
0.001011386 -0.024378665 0.022813812 -0.13181837 0.0029404848 0.052376885 -0.20444424 0.009952739
0.041604474 -0.052360244 0.1334746 0.109092854 -0.2235374 0.0649941 0.04137423 -0.014092722
0.07892929 0.052094556 0.109863564 -0.1539929 -0.09816838 -0.045482643 0.0034792314 0.17092177
0.19187677 0.1417349 -0.27164167 -0.05070669 -0.042912792 0.038878303 -0.069662124 0.011499296
-0.14586762 -0.051304985 -0.060482427 -0.12276068 0.10515283 -0.03242177 -0.03790158 -0.0047323513
0.0429806 -0.019701382 0.021079157 -0.16162029 0.06414779 -0.15003888 0.06626341 0.15811788
-0.041182015 -0.08203292 -0.14137816 0.0939077 0.051994573 0.15964365 -0.011208272 -0.051079076
