results/PreyTest2/PreyBrain/PreyBrain-3022502.pt (torch, 447775 bytes, 36 tensors)

network_body._body_endoder.seq_layers.0.weight f4 [128, 9]
0.0040905974 0.5698405 -0.4534044 -0.16687112 -0.5705413 0.18500127 0.28460717 -0.1253895
-0.1496596 0.52175295 -0.09665789 0.15331957 0.3733572 0.7267579 0.9272098 0.24699669
0.19164847 -0.45556286 0.19456473 -0.15725735 0.1307261 -0.22224586 -0.45899406 -0.27641448
-0.022912655 -0.41887847 0.120735124 0.22711168 -0.29332322 -0.5504788 -0.021980405 0.4702726
0.65095395 0.26686612 -0.08502057 -0.0025927778 0.08967805 -0.20639443 0.14112142 -0.49734357
0.51249635 0.19036767 -0.8041233 -0.38901752 -0.0987154 -0.21326065 -0.49446222 0.2630509
1.1375669 0.69398767 -0.2678861 -0.2210361 0.4507123 -0.05733525 0.13536564 0.06425381
0.42757663 0.21845168 0.15032108 0.29326835 -0.533921 0.6250107 -0.022172166 0.08097872
0.0498894 -0.090033896 -0.37566572 0.55535287 0.35515377 -0.2019381 0.37862927 -0.012840457
0.24297065 0.12301677 0.43010437 -0.20187603 -0.07490591 0.37540767 -0.061657198 0.124312356
-0.32246867 0.18287084 0.22869346 -0.26356032 -0.50253874 0.30586016 -0.22078946 -0.10691237
0.19524801 0.49142402 -0.23376566 -0.606687 -0.15178579 0.029022893 0.63077 0.014088887
0.0088829575 0.06126611 0.11315928 -0.056896333 -0.026428046 -0.039982982 -0.18587337 -0.638823
0.6961561 0.7775971 0.21322311 -0.18277285 -0.043428402 -0.14187987 0.5263952 0.75854534
-0.21151304 -0.6128272 -0.2479588 0.23168677 -0.57291925 -0.19290082 -0.088471554 0.43314728
0.21785207 0.5308872 0.23105685 -0.56869453 0.09364929 -0.51270646 0.3171156 -0.18163426
0.29332632 0.20785005 -0.12798902 0.25210303 -0.18242347 0.5764455 -0.5803374 -0.43093786
-0.22871655 0.114095494 -0.19818911 -0.38232398 0.26295608 -0.28151017 0.2870676 -0.35474354
-0.100747846 -0.14464507 -0.41684386 -0.2793267 -0.21537758 -0.6985483 -0.34019688 0.16167092
-0.41760468 -0.087756045 0.56954044 -0.30729476 -0.15023895 -0.19517043 0.70480925 -0.05787381
-0.3603185 0.3140315 0.09451238 -0.11807997 0.063642055 -0.035698127 0.23164204 0.27628773
0.15736392 0.21415865 -0.5769353 -0.40596053 0.05079011 -0.66472965 -0.57060283 0.0046433695
-0.0670917 0.12336824 0.08561059 -0.09418251 -0.005290149 -0.47801644 1.0806262 0.014787163
0.4491818 0.018282369 -0.030767161 0.11730129 0.6431529 -0.2739024 0.034232244 -0.28304607
0.14302948 0.12360281 0.035279434 -0.084431686 -0.11383249 0.42310482 -0.10009205 -0.36209142
-0.035154514 -0.149511 0.22949873 -0.39387682 0.5229437 -0.5514361 0.016244259 -0.4237936
-0.12890644 -0.3423047 0.3352407 -0.19834988 -0.10879788 0.093866 -0.15871143 0.45316014
-0.2320076 0.27002597 0.33895946 -0.11714253 0.50779426 -0.0392812 0.30848274 -0.21456967
-0.56778467 -0.29017633 -0.43273064 -0.090446316 -0.041152503 0.40714788 0.99751896 0.36279008
0.56878644 -0.6044669 -0.1176314 0.4231843 0.6377612 -0.10274923 0.42862284 0.8014793
0.36404878 0.20896249 -0.72100335 0.46446967 -0.18690395 0.3147103 -0.24544443 0.24801254
0.38707277 -0.20266221 0.14555609 0.32177708 -0.0804646 -0.007442017 -0.19485113 -0.69212526
00000000: 6b0a 863b 11e1 113f 9f24 e8be 43e0 2abe
00000010: ff0e 12bf f970 3d3e 08b8 913e 1b66 00be
00000020: 5e40 19be 9a91 053f 92f4 c5bd ceff 1c3e
00000030: ad28 bf3e ce0c 3a3f 9f5d 6d3f b3ec 7c3e
00000040: 7f3f 443e 893f e9be fa3b 473e 1208 21be
00000050: 10dd 053e 6b94 63be 4501 ebbe 3386 8dbe
00000060: 52b3 bbbc 3d77 d6be fa43 f73d f78f 683e
00000070: 762e 96be 2eec 0cbf 4010 b4bc 92c7 f03e
00000080: eba4 263f ada2 883e 441f aebd 98eb 29bb
00000090: 20a9 b73d 1059 53be 2282 103e d1a3 febe
000000a0: f632 033f beef 423e 06db 4dbf 4e2d c7be
000000b0: 4d2b cabd 0061 5abe 272a fdbe 9cae 863e
000000c0: cb9b 913f 2da9 313f 5e28 89be 4a57 62be
000000d0: c3c3 e63e 5ed8 6abd 4a9d 0a3e 8097 833d
000000e0: 53eb da3e ccb1 5f3e c5ed 193e 4527 963e
000000f0: 0caf 08bf b400 203f 67a2 b5bc 2cd8 a53d
00000100: d458 4c3d b163 b8bd 4257 c0be 9b2b 0e3f
00000110: b7d6 b53e dcc8 4ebe b2db c13e c860 52bc
00000120: 4ccd 783e 37f0 fb3d a436 dc3e 97b8 4ebe
00000130: 4568 99bd 6f35 c03e 428c 7cbd 7a97 fe3d
00000140: 9d1a a5be 7e42 3b3e 9e2e 6a3e 61f1 86be
00000150: 61a6 00bf b499 9c3e a216 62be dff4 dabd
00000160: 18ef 473e ee9b fb3e 4460 6fbe d74f 1bbf
00000170: bc6d 1bbe 6bc1 ed3c 257a 213f 13d5 663c
00000180: d389 113c 2cf2 7a3d 0dc0 e73d 210c 69bd
00000190: a17f d8bc 32c5 23bd 9755 3ebe e789 23bf
000001a0: 4937 323f 9b10 473f 2957 5a3e ce28 3bbe
000001b0: fbe1 31bd f548 11be d6c1 063f 0730 423f
000001c0: e096 58be 3ee2 1cbf e9e8 7dbe 4c3f 6d3e
000001d0: d6aa 12bf cb87 45be 9330 b5bd 7bc5 dd3e
000001e0: 9d14 5f3e 39e8 073f 2b9a 6c3e f795 11bf
000001f0: 33cb bf3d bb40 03bf fa5c a23e 55fe 39be
00000200: de2e 963e a5d6 543e 8e0f 03be a613 813e
00000210: 38cd 3abe ef91 133f fe90 14bf e3a3 dcbe
00000220: ac34 6abe e6aa e93d 16f2 4abe f8bf c3be
00000230: 2ea2 863e 1a22 90be 86fa 923e f2a0 b5be
00000240: e354 cebd d61d 14be 8f6c d5be e903 8fbe
00000250: f18b 5cbe 10d4 32bf 492e aebe 108d 253e
00000260: 48d0 d5be 71b9 b3bd 67cd 113f bd55 9dbe
00000270: 3dd8 19be c2da 47be 616e 343f 170d 6dbd
00000280: ab7b b8be bdc8 a03e b58f c13d e9d3 f1bd
00000290: c456 823d 3338 12bd 9233 6d3e 9675 8d3e
000002a0: 0224 213e 684c 5b3e 08b2 13bf 0fda cfbe
000002b0: 4a09 503d b92b 2abf 0713 12bf 6827 983b
000002c0: 6067 89bd 7da8 fc3d 9b54 af3d c3e2 c0bd
000002d0: fc58 adbb 92be f4be f651 8a3f db45 723c
000002e0: 28fb e53e e8c4 953c 6a0b fcbc a93b f03d
000002f0: aba5 243f ef3c 8cbe 1c37 0c3d 6aeb 90be
00000300: 5276 123e 7823 fd3d 2b81 103d 85ea acbd
00000310: 0221 e9bd 32a1 d83e 10fd ccbd 0c64 b9be
00000320: 2efe 0fbd 6919 19be b701 6b3e 39aa c9be
00000330: a3df 053f eb2a 0dbf ae12 853c 7afb d8be
00000340: 0d00 04be 9042 afbe aba4 ab3e 3b1c 4bbe
00000350: 6cd1 debd d13c c03d 4085 22be 9b04 e83e
00000360: 6693 6dbe d840 8a3e 188c ad3e 6ce8 efbd
00000370: cefe 013f 53e5 20bd 73f1 9d3e 27b8 5bbe
00000380: 565a 11bf fe91 94be df8e ddbe eb3b b9bd
00000390: 878f 28bd b075 d03e 675d 7f3f 9fbf b93e
000003a0: fd9b 113f 58be 1abf bbe8 f0bd 9dab d83e
000003b0: 5144 233f 306e d2bd 7474 db3e bf2d 4d3f
000003c0: 9a64 ba3e 43fa 553e ad93 38bf f8ce ed3e
000003d0: c063 3fbe b521 a13e c955 7bbe 00f7 7d3e
000003e0: 672e c63e af86 4fbe a80c 153e f7bf a43e
000003f0: a0ca a4bd 2adc f3bb 0e87 47be 1f2f 31bf

network_body._body_endoder.seq_layers.0.bias f4 [128]
0.017866408 0.052754674 -0.115143806 0.017677976 -0.026411973 0.0017341669 0.053494684 0.082100116
0.023213947 0.05750478 0.0021992556 -0.04431073 -0.013186362 0.0072920616 0.04243428 -0.023422737
0.068078704 0.056546338 0.033216666 -0.019194368 0.050242502 0.011206537 -0.03722889 0.029533897
0.16478126 0.17441273 0.1601906 0.026285483 -0.040906485 -0.000641778 0.040883865 -0.02353513
0.002124246 0.020490626 0.050741043 0.034108173 0.030821763 -0.023468658 0.08225519 0.041429788
0.022241376 0.027875056 -0.05355062 0.02306724 0.07356789 0.02081205 0.003512114 0.029906673
-0.03203635 0.025742432 -0.052384615 0.04938305 0.025628705 0.08679418 0.024135265 0.0051780734
0.13912739 0.041211806 0.16521631 0.075605124 0.013898203 0.03318854 -0.031117504 0.03764045
-0.03604631 0.07345687 -0.009650458 0.039290518 0.04534368 -0.0640308 0.050680734 0.0012865441
0.060883973 -0.01574399 -0.10944587 0.1031364 -0.11464361 0.0064139348 -0.0061484673 0.05433939
0.05053981 0.02372428 0.08063263 0.030198092 0.04602218 0.008444607 0.0043293033 0.021394147
-0.012716533 0.11456678 0.03135895 0.013644447 0.050497297 0.022653144 0.108665384 0.031666473
0.0063260305 0.08324193 0.0038542706 0.0022361092 0.0751363 0.017975442 -0.03022925 0.01943098
0.029420858 -0.011920628 0.07747662 -0.09430145 0.08061799 -0.007652168 0.072892375 0.01523912
-0.014586888 0.07294025 0.25442225 -0.004240528 0.1191928 0.02525038 -0.006480001 0.047744658
0.055779785 -0.045064975 0.03546224 0.039493192 0.048237335 0.114129685 -0.017660059 -0.09915091
00000000: 935c 923c 4915 583d 84d0 ebbd 67d1 903c
00000010: ec5d d8bc fc4c e33a 3e1d 5b3d 1b24 a83d
00000020: 2d2b be3c 228a 6b3d 6321 103b 2b7f 35bd
00000030: 9c0b 58bc 3ff2 ee3b 91cf 2d3d 0ae1 bfbc
00000040: d96c 8b3d 229d 673d 330e 083d 823d 9dbc
00000050: 15cb 4d3d 9f9b 373c 527d 18bd 12f1 f13c
00000060: 6bbc 283e 4099 323e 0109 243e a754 d73c
00000070: 8f8d 27bd fe3c 28ba d775 273d bfcc c0bc
00000080: ef36 0b3b f5db a73c d7d5 4f3d 03b5 0b3d
00000090: ec7d fc3c 5841 c0bc 6975 a83d 48b2 293d
000000a0: 8c33 b63c 3b5a e43c e557 5bbd 82f7 bc3c
000000b0: c3aa 963d 087e aa3c 7f2b 663b d7fe f43c
000000c0: 8c38 03bd cbe1 d23c 4091 56bd e245 4a3d
000000d0: 4af3 d13c 26c1 b13d 52b7 c53c d4ac a93b
000000e0: 6977 0e3e b6cd 283d 772e 293e dcd6 9a3d
000000f0: 4ab5 633c b5f0 073d 23ea febc df2c 1a3d
00000100: 4ca5 13bd 8e70 963d f41c 1ebc 18ef 203d
00000110: 4bba 393d 9422 83bd 9a96 4f3d 42a1 a83a
00000120: 7961 793d 8af9 80bc 2825 e0bd 2d39 d33d
00000130: 45ca eabd fc2b d23b 1579 c9bb fb92 5e3d
00000140: d502 4f3d 6c59 c23c b822 a53d fd61 f73c
00000150: c181 3c3d 405b 0a3c d4dc 8d3b c742 af3c
00000160: 0159 50bc fda1 ea3d 3e72 003d f58c 5f3c
00000170: 41d6 4e3d 1693 b93c f58b de3d b4b4 013d
00000180: 974a cf3b bf7a aa3d ee97 7c3b b08b 123b
00000190: 0fe1 993d 3c41 933c 55a3 f7bc b82d 9f3c
000001a0: 0304 f13c bd4e 43bc 10ac 9e3d 1e21 c1bd
000001b0: 0b1b a53d 0abf fabb 9948 953d 81ad 793c
000001c0: d8fd 6ebc b361 953d a243 823e 21f4 8abb
000001d0: 5b1b f43d e3d9 ce3c 3056 d4bb e78f 433d
000001e0: 5879 643d 0d96 38bd db40 113d 9dc3 213d
000001f0: 8394 453d d3bc e93d d4ab 90bc a20f cbbd

network_body._body_endoder.seq_layers.2.weight f4 [128, 128]
-0.017226445 0.23332724 -0.124214664 0.15194766 -0.1436573 -0.29020375 -0.12602964 0.06083983
-0.022856679 0.027857268 -0.07612801 0.002901473 -0.17868286 -0.17075288 0.056124356 -0.06684267
0.22191654 -0.15756653 0.19837087 0.038265746 0.03726542 -0.052638296 -0.17438288 -0.07438305
0.015080988 -0.12663335 -0.0011798732 -0.056541078 -0.063424625 -0.0652227 -0.21314247 0.0021430992
-0.09259385 0.09709108 -0.08587467 0.030784031 0.15795796 -0.26022717 0.010414519 -0.033387233
-0.11323952 -0.31543007 -0.17280689 0.011197402 -0.054113656 0.02386057 0.016308548 -0.11741613
-0.041677937 0.08544498 -0.0487839 0.035057634 0.013531195 0.06870689 0.20933351 0.04540565
0.08061696 -0.07821118 -0.12032173 0.03995141 -0.18221259 -0.14477867 -0.014460864 -0.009234927
0.00792805 -0.059276376 -0.020162895 0.079340786 0.11199692 -0.016418863 0.10104731 -0.18099903
-0.05976845 0.044845853 -0.13329227 -0.05482627 -0.05826589 -0.086631306 0.003837426 0.18734029
-0.001092982 -0.16251478 -0.1063748 -0.08106241 -0.024340544 -0.053177934 -0.13520081 0.23670231
-0.08387448 -0.003786599 -0.032521505 0.031144978 -0.005859549 0.060256645 0.16570127 -0.06576028
-0.074522205 0.049035087 -0.10556042 -0.0799103 0.014400674 -0.043475095 0.023094721 -0.048994947
-0.052274283 -0.10170283 -0.07727871 0.02580122 0.075526856 -0.011564514 0.032134395 0.12564278
0.014375012 0.0043977704 -0.016225409 0.026188204 0.001713978 0.08142853 -0.07975688 -0.11660928
-0.23034036 -0.10235142 0.016688315 -0.06868947 -0.110467814 -0.13837777 0.1024482 -0.32229748
-0.025829716 0.20364879 -0.028834226 0.17906533 -0.07010363 0.07786686 0.057057947 0.10705703
0.17888336 0.04022586 0.03416275 -0.09981734 0.0775444 0.09348434 -0.06052967 -0.21469624
-0.06048636 -0.27964434 0.10355284 0.14984304 0.14816634 -0.20169649 -0.026896898 -0.13275267
0.25747553 0.044382643 0.08231826 -0.01620574 0.2878312 0.053453945 0.019103298 -0.12672013
0.0050747236 0.05982315 -0.07058572 -0.051391296 0.0066571673 -0.1280721 0.097411476 -0.025554858
-0.041616924 -0.15079781 0.008376127 0.10407585 0.029550826 -0.01240567 0.0012739793 -0.036794994
0.0010928132 0.053875525 -0.08511501 0.14391106 -0.05915591 0.03505429 -0.008373531 -0.09242361
0.04791207 0.063921 0.18920043 0.10690383 -0.04953403 -0.09801505 -0.05668305 0.026895976
-0.021168476 0.08468842 -0.02284334 0.006229659 -0.044903822 0.09656943 0.04957514 -0.08339422
0.0016277691 -0.024492212 0.022484563 -0.13118581 0.002709848 0.05297394 -0.20404112 0.010920518
0.04075484 -0.05220093 0.13381608 0.10958636 -0.2225412 0.06589318 0.04149388 -0.014018713
0.07924907 0.051716585 0.11027764 -0.15533236 -0.09757391 -0.045035172 0.0037664229 0.17135863
0.19234256 0.14212523 -0.27256113 -0.050258864 -0.04241983 0.039155245 -0.06961911 0.012164983
-0.14590524 -0.05227892 -0.060476698 -0.122711286 0.103991166 -0.032755747 -0.03731237 -0.004297383
0.04261835 -0.018854206 0.020857574 -0.16112901 0.063483275 -0.15058395 0.06642511 0.15810323
-0.041031834 -0.08163959 -0.14104319 0.09457858 0.052439082 0.15829824 -0.011874193 -0.050381184
00000000: 791e 8dbc 56ed 6e3e 4264 febd 2b98 1b3e
00000010: e61a 13be 9695 94be ea0d 01be 3033 793d
00000020: ee3d bbbc ed34 e43c 01e9 9bbd a426 3e3b
00000030: a4f8 36be d8d9 2ebe a7e2 653d cfe4 88bd
00000040: 173e 633e 1f59 21be bc21 4b3e 8bbc 1c3d
00000050: a0a3 183d 419b 57bd 6d91 32be 2456 98bd
00000060: 4016 773c 2cac 01be faa5 9aba 9e97 67bd
00000070: c5e4 81bd 7b93 85bd 0542 5abe 3d73 0c3b
00000080: d8a1 bdbd b0d7 c63d 0fdf afbd cb2e fc3c
00000090: bbbf 213e 7f3c 85be a9a1 2a3c 0dc1 08bd
000000a0: 1fea e7bd 0d80 a1be 4af4 30be 4f75 373c
000000b0: 48a6 5dbd 3e77 c33c 8199 853c de77 f0bd
000000c0: 7cb6 2abd c7fd ae3d a0d1 47bd 9898 0f3d
000000d0: f2b1 5d3c 33b6 8c3d 865b 563e 46fb 393d
000000e0: 811a a53d 2f2d a0bd 3d6b f6bd 17a4 233d
000000f0: f095 3abe dc40 14be 42ed 6cbc 174e 17bc
00000100: a7e4 013c c9cb 72bd a82c a5bc 6c7d a23d
00000110: a45e e53d da80 86bc e4f1 ce3d cf57 39be
00000120: c3cf 74bd 49b0 373d c57d 08be 8391 60bd
00000130: 37a8 6ebd c16b b1bd 537d 7b3b 22d6 3f3e
00000140: 6442 8fba 466a 26be 08db d9bd 0c04 a6bd
00000150: d265 c7bc 1bd1 59bd 1572 0abe 1762 723e
00000160: 62c6 abbd 9728 78bb 4535 05bd c123 ff3c
00000170: 7601 c0bb accf 763d 98ad 293e 53ad 86bd
00000180: 199f 98bd 04d9 483d 1030 d8bd 03a8 a3bd
00000190: cef0 6b3c f112 32bd 2431 bd3c edae 48bd
000001a0: 8f1d 56bd 9349 d0bd 4d44 9ebd 155d d33c
000001b0: d3ad 9a3d 1679 3dbc 5b9f 033d 80a8 003e
000001c0: 2c85 6b3c 2c1b 903b 26eb 84bc a588 d63c
000001d0: 8fa7 e03a 00c4 a63d 9357 a3bd d9d0 eebd
000001e0: 58de 6bbe 9f9d d1bd efb5 883c 11ad 8cbd
000001f0: f33c e2bd e7b2 0dbe 5dd0 d13d 2d04 a5be
00000200: d798 d3bc 4f89 503e c135 ecbc e75c 373e
00000210: 7e92 8fbd a978 9f3d 98b5 693d b740 db3d
00000220: 332d 373e dfc3 243d 3dee 0b3d 096d ccbd
00000230: 99cf 9e3d b874 bf3d f6ed 77bd 55d9 5bbe
00000240: 8cc0 77bd 8b2d 8fbe 8313 d43d 7470 193e
00000250: ebb8 173e 8689 4ebe e256 dcbc 51f0 07be
00000260: d5d3 833e 93ca 353d 7a96 a83d e6c1 84bc
00000270: 9c5e 933e 86f2 5a3d 857e 9c3c ecc2 01be
00000280: de49 a63b 1f09 753d 3f8f 90bd ae7f 52bd
00000290: 5e24 da3b 5525 03be ab7f c73d 6c58 d1bc
000002a0: 8276 2abd be6a 1abe 063c 093c b825 d53d
000002b0: 9314 f23c 2741 4bbc a7fb a63a 59b6 16bd
000002c0: ba3c 8f3a 95ac 5c3d c750 aebd 6c5d 133e
000002d0: 784d 72bd 1695 0f3d 2231 09bc 9748 bdbd
000002e0: 723f 443d 03e9 823d c2bd 413e 65f0 da3d
000002f0: 32e4 4abd 1dbc c8bd 7c2c 68bd f354 dc3c
00000300: 8369 adbc 1f71 ad3d f521 bbbc 2b22 cc3b
00000310: 12ed 37bd 31c6 c53d 4d0f 4b3d 97ca aabd
00000320: de5a d53a e4a3 c8bc 8c31 b83c 9355 06be
00000330: b597 313b 34fb 583d 28f0 50be f9eb 323c
00000340: 8cee 263d a4d0 55bd 1507 093e d06e e03d
00000350: d7e1 63be 01f3 863d 7df5 293d beae 65bc
00000360: 564d a23d c5d4 533d 3ed9 e13d 720f 1fbe
00000370: d5d4 c7bd cd76 38bd 17d6 763b a378 2f3e
00000380: 73f5 443e 4789 113e 228d 8bbe 3ddc 4dbd
00000390: 6ac0 2dbd 4061 203d 7794 8ebd a34f 473c
000003a0: 2f68 15be 6c22 56bd 6ab6 77bd 0e50 fbbd
000003b0: 52f9 d43d e42a 06bd dbd4 18bd 10d1 8cbb
000003c0: 9490 2e3d 2374 9abc 81dd aa3c 01ff 24be
000003d0: 8503 823d ae32 1abe e309 883d d0e5 213e
000003e0: ff10 28bd a832 a7bd a06d 10be 6ab2 c13d
000003f0: 5dca 563d ef18 223e fa8b 42bc 805c 4ebd

network_body._body_endoder.seq_layers.2.bias f4 [128]
0.08958282 0.07745728 -0.014623551 -0.079394095 -0.003575252 -0.040512335 -0.0069433185 0.028649678
0.0694026 -0.05237192 0.019164287 0.04909607 0.07233505 0.0031886934 0.03690334 -0.04966577
-0.051866494 0.057922997 0.08096184 0.0037297257 0.038846888 0.047689546 0.06819054 0.07753064
0.019158699 0.049279295 0.12603843 0.04672401 0.057408188 -0.084697366 -0.04090292 0.018532576
0.019862024 -0.03498356 0.0363594 -0.02436683 -0.033778377 0.093353026 0.0047864565 0.098475404
-0.004573757 0.034529317 0.070291445 0.097545326 0.06451736 0.014196683 -0.02780281 -0.030878237
0.04185619 0.04674598 -0.026854685 -0.024408104 -0.018944226 0.04283492 0.020384766 0.0138848545
0.016816216 0.014502048 0.06382944 0.07015871 -0.042650905 0.058998477 0.0024806496 0.06125927
-0.05366352 0.05073166 0.010647755 0.02442995 0.05845958 -0.037713427 0.054594178 0.0461004
0.020124799 -0.00091989397 0.038355984 -0.02227254 -0.0004470451 0.011621779 -0.031307694 -0.0003683823
-0.027038803 0.013661179 0.045076076 0.054444987 -0.04640279 0.0059025683 -0.05016692 0.014821579
0.033110745 0.0009646008 -0.015216625 -0.047677502 0.08946832 -0.04798614 0.008910444 -0.017193144
0.040943652 0.015580066 0.10250887 -0.013893033 0.025557574 0.03536665 0.03130571 -0.011213451
0.020243943 0.011785772 -0.0081333695 0.013585737 0.08174636 -0.007201735 0.04752697 0.057186093
0.012916098 0.013144755 0.022766192 -0.013727099 -0.000943845 0.012654492 0.03371352 -0.05385135
0.018267184 0.0129837785 0.02966336 0.06350043 0.0341162 0.0030173615 0.0506077 0.022314789
00000000: 3377 b73d eca1 9e3d 9e97 6fbc 5f99 a2bd
00000010: c64e 6abb 43f0 25bd c784 e3bb bbb2 ea3c
00000020: f322 8e3d f083 56bd 6cfe 9c3c f618 493d
00000030: 6624 943d 66f9 503b f527 173d 566e 4bbd
00000040: f671 54bd aa40 6d3d 52cf a53d 6a6e 743b
00000050: ea1d 1f3d 1d56 433d 7ba7 8b3d 62c8 9e3d
00000060: b4f2 9c3c 16d9 493d 3810 013e ad61 3f3d
00000070: d924 6b3d d075 adbd d289 27bd a1d1 973c
00000080: afb5 a23c ec4a 0fbd 98ed 143d f29c c7bc
00000090: 325b 0abd df2f bf3d b5d7 9c3b 79ad c93d
000000a0: 74df 95bb 9d6e 0d3d f6f4 8f3d d8c5 c73d
000000b0: ad21 843d 3499 683c b8c2 e3bc 5bf4 fcbc
000000c0: 6571 2b3d b678 3f3d 5bfe dbbc 81f3 c7bc
000000d0: ec30 9bbc ab73 2f3d f4fd a63c 4d7d 633c
000000e0: 29c2 893c ff99 6d3c 02b9 823d 5faf 8f3d
000000f0: b7b2 2ebd 63a8 713d 6592 223b 00eb 7a3d
00000100: 47ce 5bbd 00cc 4f3d ec73 2e3c 5221 c83c
00000110: 5073 6f3d 6579 1abd 259e 5f3d c6d3 3c3d
00000120: c3dc a43c 0a25 71ba 2a1b 1d3d e774 b6bc
00000130: 6161 eab9 4669 3e3c 7f3c 00bd 6f23 c1b9
00000140: 7b80 ddbc 23d3 5f3c b1a1 383d b501 5f3d
00000150: da10 3ebd 556a c13b d47b 4dbd 35d6 723c
00000160: 229f 073d 44dd 7c3a 274f 79bc 7c49 43bd
00000170: 2b3b b73d 1d8d 44bd 1cfd 113c a3d8 8cbc
00000180: 88b4 273d 8843 7f3c 2cf0 d13d 9b9f 63bc
00000190: 1e5e d13c 9fdc 103d 6b3a 003d 9fb8 37bc
000001a0: a0d6 a53c 1c19 413c d341 05bc b696 5e3c
000001b0: a36a a73d 88fc ebbb a4ab 423d f73b 6a3d
000001c0: 0b9e 533c 195d 573c 2a80 ba3c a0e7 60bc
000001d0: 5e6c 77ba c954 4f3c 3017 0a3d 3c93 5cbd
000001e0: 10a5 953c eab9 543c 9300 f33c 830c 823d
000001f0: 6ebd 0b3d edbe 453b 054a 4f3d 81cd b63c

action_model._continuous_distribution.log_sigma f4 [1, 2]
-0.12988329 -0.17364863
00000000: 2000 05be f2d0 31be

action_model._continuous_distribution.mu.weight f4 [2, 128]
-0.11828921 -0.07174155 -0.019642714 0.04429934 0.14973901 0.08452268 0.004528505 0.12096104
-0.08424099 0.041865706 0.06972833 -0.033618495 -0.07096765 -0.009271939 -0.041952994 0.057887204
-0.009351545 0.2093363 -0.12636149 -0.030940017 -0.0696218 0.14838396 -0.059997056 -0.090894654
-0.055033594 -0.04577553 -0.06980053 -0.016727788 -0.109161116 0.112334125 0.08394819 0.015847167
-0.030025791 0.02895947 -0.04023495 0.028427547 0.026988827 -0.0677905 0.1448714 -0.046748083
-0.038752772 -0.045622762 -0.087310694 0.18556756 0.032427583 -0.033859782 -0.06818646 0.07977793
0.11758494 0.08306843 0.06528119 0.026286183 0.15469477 -0.06322966 -0.03982821 0.059768718
0.13017598 0.0039613955 0.07915562 -0.044624228 0.033094864 -0.087862 0.06919556 0.19631411
0.048637245 0.07419832 -0.09676307 -0.04848366 -0.06047433 0.10790432 -0.004953752 -0.051982988
-0.05543078 0.03243931 -0.069821164 0.09130548 0.1303908 -0.01973657 0.029315846 0.05565854
-0.0068806927 -0.018088866 0.07964133 -0.054384552 0.041189604 0.17126895 0.051498987 -0.066951744
0.1727646 -0.054708187 0.021325232 0.11550017 -0.080146864 0.08518189 0.04668248 -0.053746026
-0.07803535 0.033758074 -0.08096918 0.10693516 0.14592505 -0.0352576 0.099397056 0.0067556947
0.0005268039 0.005010761 0.05737563 0.11439268 -0.1613145 -0.03430942 -0.0651466 0.12710941
0.1570295 -0.05255235 0.22906405 0.0970084 0.140766 0.07867234 0.13615052 0.05398358
-0.025703011 -0.017856648 -0.01310935 -0.086916186 0.06970717 -0.04711921 -0.04015539 0.004451473
-0.0065710787 -0.019226076 -0.017715415 0.028489053 0.018218976 0.0101336185 0.034321703 -0.08049863
-0.029516118 0.025473805 -0.16049601 0.053398527 0.036443688 -0.09492236 0.036256675 0.022201775
-0.030745683 0.0029792394 0.066417694 0.058825087 -0.03817211 -0.12848197 0.012317057 -0.015119482
-0.055047724 0.033402544 -0.11662017 0.07862074 0.02840112 -0.033902414 -0.033711508 -0.071509235
-0.002152251 -0.08235133 -0.042151086 0.14069197 0.1037971 0.0016303334 -0.053261574 -0.13996121
0.06697115 0.05408418 0.06303595 -0.14486487 -0.17108433 -0.10490546 -0.0043901755 0.0042096847
-0.1284326 0.03811415 0.012995701 0.04470073 -0.06765609 -0.02732613 0.029285511 0.04945795
-0.086085156 0.085330494 0.05293849 0.014559228 0.102411665 -0.09183577 -0.119423315 -0.21877499
-0.05096024 0.08624972 0.11756399 -0.008207956 -0.022759495 0.023702234 0.11417012 -0.071230575
0.08453462 0.04837652 -0.01122177 -0.059484072 0.014394193 -0.036792926 0.036371965 -0.090782754
-0.07666572 0.034632493 0.21521586 -0.077608794 -0.0323723 -0.0277306 0.002522105 0.02607803
-0.1253251 -0.03879157 0.048962083 0.061659604 -0.03408343 -0.08239986 0.05509713 -0.069316916
-0.021789998 0.11017926 -0.074301876 -0.07924003 -0.07673545 0.019396305 0.07655355 0.09204115
-0.16834684 0.09283527 0.018941319 -0.034919936 0.049804978 -0.019950448 0.0549829 -0.10627089
-0.11655022 -0.087565884 -0.10805899 -0.01068266 0.018611092 -0.049363744 -0.14888504 -0.024187729
0.048691973 0.048102885 -0.012856389 -0.054045822 -0.010636425 -0.0304979 0.0025784764 0.044621244
00000000: 9d41 f2bd 3ced 92bd c2e9 a0bc 3a73 353d
00000010: 2f55 193e 3a1a ad3d da63 943b 6cba f73d
00000020: 8a86 acbd 607b 2b3d bacd 8e3d 8cb3 09bd
00000030: 7d57 91bd 55e9 17bc e7d6 2bbd 221b 6d3d
00000040: 3937 19bc 415c 563e e864 01be eb75 fdbc
00000050: e095 8ebd f7f1 173e 79bf 75bd fa26 babd
00000060: e86a 61bd 1f7f 3bbd 95f3 8ebd b708 89bc
00000070: dd8f dfbd 6f0f e63d 07ed ab3d ebd1 813c
00000080: a6f8 f5bc 693c ed3c 67cd 24bd e3e0 e83c
00000090: ac17 dd3c bfd5 8abd 2b59 143e eb7a 3fbd
000000a0: 3abb 1ebd efde 3abd f3cf b2bd 6c05 3e3e
000000b0: c9d2 043d 8eb0 0abd 58a5 8bbd 9d62 a33d
000000c0: 5fd0 f03d c81f aa3d 25b2 853d 1f56 d73c
000000d0: 4e68 1e3e 8d7e 81bd e822 23bd 0bd0 743d
000000e0: da4c 053e 98ce 813b 571c a23d e5c7 36bd
000000f0: 7b8e 073d fef0 b3bd 67b6 8d3d 9106 493e
00000100: d937 473d 4af5 973d b72b c6bd cd96 46bd
00000110: eeb3 77bd f1fc dc3d 1553 a2bb 1dec 54bd
00000120: 630b 63bd 15df 043d 66fe 8ebd 5efe ba3d
00000130: 2a85 053e 96ae a1bc c927 f03c 36fa 633d
00000140: 6f77 e1bb 1a2f 94bc fe1a a33d 56c2 5ebd
00000150: 6eb6 283d 2161 2f3e 9af0 523d ff1d 89bd
00000160: 34e9 303e b115 60bd 41b2 ae3c 5a8b ec3d
00000170: 0a24 a4bd d873 ae3d 2136 3f3d cb24 5cbd
00000180: ffd0 9fbd e845 0a3d 2bd3 a5bd d200 db3d
00000190: 606d 153e 466a 10bd af90 cb3d e05e dd3b
000001a0: 3619 0a3a 4f31 a43b b502 6b3d b646 ea3d
000001b0: a12f 25be 0988 0cbd 956b 85bd f828 023e
000001c0: 57cc 203e 2241 57bd c48f 6a3e 57ac c63d
000001d0: f624 103e f71e a13d 0b6b 0b3e e31d 5d3d
000001e0: 1f8f d2bc 1b48 92bc 99c8 56bc 1d01 b2bd
000001f0: a2c2 8e3d 1300 41bd fa79 24bd a9dd 913b
00000200: 3452 d7bb 0180 9dbc eb1f 91bc e061 e93c
00000210: f63f 953c 7a07 263c ea94 0c3d 77dc a4bd
00000220: c9cb f1bc 71ae d03c 1159 24be 6ab8 5a3d
00000230: fa45 153d a766 c2bd e181 143d 7fe0 b53c
00000240: 5fde fbbc 583f 433b 0006 883d 93f2 703d
00000250: 5c5a 1cbd c790 03be 7bcd 493c b4b7 77bc
00000260: b979 61bd 1bd1 083d 8ed6 eebd e903 a13d
00000270: 77a9 e83c 42dd 0abd 1415 0abd 6f73 92bd
00000280: c80c 0dbb d0a7 a8bd 9ea6 2cbd 8e11 103e
00000290: 9393 d43d e9b0 d53a cf28 5abd fe51 0fbe
000002a0: 2c28 893d 6087 5d3d fe18 813d 7557 14be
000002b0: bb30 2fbe acd8 d6bd 76db 8fbb 65f1 893b
000002c0: d683 03be 951d 1c3d eceb 543c 1d18 373d
000002d0: 478f 8abd 0cdb dfbc 2be8 ef3c 6b94 4a3d
000002e0: 6a4d b0bd c1c1 ae3d 08d6 583d d489 6e3c
000002f0: 35bd d13d 6414 bcbd 3694 f4bd 8d06 60be
00000300: afbb 50bd b1a3 b03d 64c5 f03d aa7a 06bc
00000310: 1f72 babc 302b c23c 06d2 e93d 56e1 91bd
00000320: 7d20 ad3d 7526 463d 84db 37bc 92a5 73bd
00000330: 9fd5 6b3c 2eb4 16bd c5fa 143d 4fec b9bd
00000340: eb02 9dbd cdda 0d3d 8c61 5c3e 5cf1 9ebd
00000350: d198 04bd 492b e3bc e649 253b 98a1 d53c
00000360: 3955 00be e9e3 1ebd 778c 483d c88e 7c3d
00000370: 119b 0bbd 42c1 a8bd 87ad 613d 07f6 8dbd
00000380: f080 b2bc aaa5 e13d 952b 98bd 9948 a2bd
00000390: 7a27 9dbd 00e5 9e3c 1cc8 9c3d 1280 bc3d
000003a0: 1d63 2cbe 6b20 be3d d32a 9b3c 3508 0fbd
000003b0: 4e00 4c3d 1f6f a3bc c035 613d 8da4 d9bd
000003c0: e2b1 eebd be55 b3bd 084e ddbd 5306 2fbc
000003d0: 4a76 983c a331 4abd 5275 18be 5825 c6bc
000003e0: 3c71 473d 8807 453d 9ba3 52bc 275f 5dbd
000003f0: 6644 2ebc bbd6 f9bc a8fb 283b c4c4 363d

action_model._continuous_distribution.mu.bias f4 [2]
-0.05669204 0.0066573685
00000000: ea35 68bd 0e26 da3b

exp_avg f4 [128, 9]
-0.00084034965 -9.882741e-05 0.00019792904 0.00015255685 -0.00014824113 -4.205262e-05 0.00083504064 -0.00014824113
0.0003438587 -0.0038907102 -0.0003589748 0.00036139003 0.0017579449 -0.0005384625 0.00015977702 0.0025411732
-0.0005384625 0.0007249462 -0.0014690126 -0.0002090238 -0.00021876706 0.00068636716 -0.0003135357 -0.00019081279
0.0017039421 -0.0003135357 7.3088086e-05 0.001047678 0.00015700776 0.00022530064 -0.00039563392 0.00023551156
0.00022497535 -0.0013242541 0.00023551156 9.431631e-05 0.00093711476 0.00015033367 0.0001858844 -0.00082787976
0.00022550044 9.007334e-05 -0.0011536569 0.00022550044 -0.00030025103 0.000727089 0.00012232413 0.00018827576
-6.137056e-05 0.00018348609 0.00030734323 -0.0015045864 0.00018348609 -0.00027384283 0.0005471815 8.999923e-05
0.0002698191 -0.000258422 0.00013499871 0.00016909775 -0.00089540513 0.00013499871 2.6160356e-05 0.00067356764
0.00015389964 0.0005949894 -0.00069467386 0.00023084941 0.0003022143 -0.0011512307 0.00023084941 -2.79003e-05
-0.0019369915 -0.0003142145 -0.00033109458 0.0012642791 -0.00047132152 -0.00021308198 0.0022889273 -0.00047132152
0.0005501959 0.0016920655 0.00028506588 0.00022239603 -0.00095723016 0.00042759874 0.0001853192 -0.002183575
0.00042759874 -0.00029507955 -0.00022821034 -3.3462555e-05 -0.00019064767 7.680324e-05 -5.0193827e-05 -0.00012194931
0.0003566953 -5.0193827e-05 -9.317211e-05 9.922573e-05 1.647493e-05 4.839699e-05 -7.28606e-05 2.47124e-05
1.8232897e-05 -0.00010438126 2.47124e-05 -1.4934585e-05 0.002585371 0.00042653418 0.00083798665 -0.00054471055
0.0006398015 0.00118878 -0.0044217035 0.0006398015 -0.0005362403 -0.0020840948 -0.00024303212 0.00010314646
0.0008076781 -0.0003645481 -3.6005804e-07 0.0015335132 -0.0003645481 0.00026069809 0.0004345855 9.883873e-05
4.605201e-05 -0.00025296424 0.00014825808 0.00019213381 -0.0012175085 0.00014825808 -8.1907034e-05 -0.0033040012
-0.0006246193 -0.00022774712 0.0022103428 -0.000936929 -0.0005961606 0.005207245 -0.000936929 0.0012118409
-0.00028259918 6.949346e-05 5.0070703e-05 -0.00033372923 0.000104240185 -9.357349e-06 -0.0006438396 0.000104240185
-0.00016236847 -0.002125179 -0.00034652188 -0.00080548075 0.0007531062 -0.00051978277 -0.0008379872 0.003522187
-0.00051978277 -0.00014155495 -0.0015984357 -0.0002057178 0.0003182249 0.0013814722 -0.0003085771 0.00031465435
0.001287695 -0.0003085771 0.00072087656 -0.0011788529 -0.00012118737 0.00019856388 0.00031883875 -0.00018178108
-7.040938e-05 0.0010719856 -0.00018178108 0.0004858527 -0.0064901533 -0.0010827685 -0.0024071739 0.0031104344
-0.0016241529 -0.0018063888 0.009465162 -0.0016241529 -0.00045515416 -0.00022267045 -3.6131245e-05 -0.00031808586
0.00044191768 -5.419678e-05 -0.00015256803 0.0007181806 -5.419678e-05 -2.8698894e-05 0.00028855546 5.1825325e-05
3.596567e-05 -0.00015219164 7.773798e-05 4.6396708e-05 -0.00040664058 7.773798e-05 -7.5406206e-05 -0.00021345826
-1.721464e-05 0.00015963231 1.8673456e-05 -2.5821937e-05 0.00011043733 0.00021392215 -2.5821937e-05 0.00021381452
-0.00020369719 -0.0003141123 -0.00014661968 0.0008834795 -0.00047116843 -0.00027087884 0.002406084 -0.00047116843
0.00073638465 -0.0016781398 -0.0005220908 -0.00058239687 0.0022304351 -0.0007831362 -0.0006152057 0.003953966
-0.0007831362 0.001241645 -0.006366172 -0.0011002801 -0.0014927392 0.0040382827 -0.0016504201 -0.0014026468
0.008658542 -0.0016504201 0.0017918007 0.00043172124 6.646402e-05 0.0002691455 -0.00052045356 9.9696015e-05
0.00012865473 -0.0005748753 9.9696015e-05 6.5822496e-05 -0.0025230849 -0.00031174874 1.5942049e-05 0.00052321237
00000000: e94a 5cba 9041 cfb8 2c8b 4f39 abf7 1f39
00000010: 2d71 1bb9 a861 30b8 a1e6 5a3a 2d71 1bb9
00000020: ef47 b439 49fb 7ebb c834 bcb9 f378 bd39
00000030: d86a e63a 9b27 0dba d189 2739 d089 263b
00000040: 9b27 0dba 510a 3e3a e28b c0ba 662d 5bb9
00000050: d664 65b9 52ed 333a 0d62 a4b9 eb14 48b9
00000060: cf56 df3a 0d62 a4b9 de46 9938 3d52 893a
00000070: 73a2 2439 ae3e 6c39 166d cfb9 a7f3 7639
00000080: 5ce7 6b39 9892 adba a7f3 7639 afcb c538
00000090: b5a8 753a e3a2 1d39 f7e9 4239 1206 59ba
000000a0: 5074 6c39 c2e5 bc38 4d36 97ba 5074 6c39
000000b0: 036b 9db9 1e9a 3e3a 2244 0039 e46b 4539
000000c0: 12b4 80b8 2c66 4039 e922 a139 8b35 c5ba
000000d0: 2c66 4039 9092 8fb9 bb70 0f3a f8bd bc38
000000e0: 8276 8d39 d07c 87b9 718e 0d39 d54f 3139
000000f0: 9fb9 6aba 718e 0d39 f072 db37 5c92 303a
00000100: 1f60 2139 10f9 1b3a c61a 36ba 2b10 7239
00000110: 8472 9e39 e4e4 96ba 2b10 7239 700b eab7
00000120: a6e2 fdba 28bd a4b9 c396 adb9 2bb6 a53a
00000130: b41b f7b9 c26e 5fb9 d401 163b b41b f7b9
00000140: 063b 103a 4cc8 dd3a e574 9539 fb32 6939
00000150: a1ee 7aba 552f e039 3e52 4239 4f1a 0fbb
00000160: 552f e039 e8b4 9ab9 bf4b 6fb9 255a 0cb8
00000170: 98e8 47b9 6d11 a138 3687 52b8 0abf ffb8
00000180: d502 bb39 3687 52b8 6565 c3b8 6817 d038
00000190: a533 8a37 dffd 4a38 bdcc 98b8 7a4d cf37
000001a0: d9f2 9837 43e7 dab8 7a4d cf37 8e8f 7ab7
000001b0: 546f 293b 73a0 df39 55ac 5b3a e8ca 0eba
000001c0: 5ab8 273a d6d0 9b3a f0e3 90bb 5ab8 273a
000001d0: 7a92 0cba 4f95 08bb 70d6 7eb9 5650 d838
000001e0: 5cba 533a d120 bfb9 004e c1b4 2a00 c93a
000001f0: d120 bfb9 4eae 8839 14d9 e339 a447 cf38
00000200: f827 4138 49a0 84b9 ba75 1b39 8777 4939
00000210: ce94 9fba ba75 1b39 81c5 abb8 f187 58bb
00000220: 7ebd 23ba 67cf 6eb9 66db 103b 3e9c 75ba
00000230: a947 1cba 89a1 aa3b 3e9c 75ba a2d6 9e3a
00000240: d229 94b9 04bd 9138 0203 5238 61f8 aeb9
00000250: 869b da38 82fd 1cb7 58c7 28ba 869b da38
00000260: 7441 2ab9 9646 0bbb 61ad b5b9 e626 53ba
00000270: 1a6c 453a 0842 08ba 5eac 5bba 7ed4 663b
00000280: 0842 08ba 5e6e 14b9 9a82 d1ba f4b5 57b9
00000290: 6cd7 a639 8412 b53a 84c8 a1b9 31f8 a439
000002a0: e0c7 a83a 84c8 a1b9 35f9 3c3a bd83 9aba
000002b0: f925 feb8 9635 5039 d029 a739 7d9c 3eb9
000002c0: c0a8 93b8 de81 8c3a 7d9c 3eb9 0cba fe39
000002d0: 5aab d4bb afeb 8dba adc1 1dbb 6ed8 4b3b
000002e0: 87e1 d4ba 5ac4 ecba c413 1b3c 87e1 d4ba
000002f0: c2a1 eeb9 a57c 69b9 a18b 17b8 c3c4 a6b9
00000300: 30b1 e739 5951 63b8 abfa 1fb9 4944 3c3a
00000310: 5951 63b8 68be f0b7 4249 9739 055f 5938
00000320: d8d9 1638 a295 1fb9 4307 a338 169a 4238
00000330: 6032 d5b9 4307 a338 6623 9eb8 c4d3 5fb9
00000340: 2868 90b7 f962 2739 f1a4 9c37 309c d8b7
00000350: 979a e738 4a50 6039 309c d8b7 6633 6039
00000360: 8c97 55b9 70af a4b9 ecbd 19b9 4e99 673a
00000370: 2807 f7b9 be04 8eb9 64af 1d3b 2807 f7b9
00000380: f009 413a 07f5 dbba ecdc 08ba feab 18ba
00000390: 7e2c 123b 614b 4dba c145 21ba 4590 813b
000003a0: 614b 4dba b1be a23a 529b d0bb 4637 90ba
000003b0: 04a8 c3ba 9253 843b e952 d8ba 04d9 b7ba
000003c0: 8fdc 0d3c e952 d8ba dbda ea3a a558 e239
000003d0: 9962 8b38 191c 8d39 0c6f 08ba e413 d138
000003e0: 7ee7 0639 3ab3 16ba e413 d138 2f0a 8a38
000003f0: 575a 25bb 3572 a3b9 4abb 8537 3028 093a

exp_avg_sq f4 [128, 9]
9.968525e-06 2.7418164e-07 1.4755673e-06 2.9711264e-06 6.1695425e-07 2.089821e-07 1.4689907e-05 6.1690855e-07
3.747846e-06 0.00034844514 6.596215e-06 1.6012482e-05 5.4060885e-05 1.4841731e-05 1.2396879e-05 0.00043533253
1.4841486e-05 4.1330848e-05 1.6495957e-05 1.8930295e-07 7.892945e-07 3.0922927e-06 4.259335e-07 3.0213178e-07
1.3293839e-05 4.2593155e-07 7.2810553e-07 6.042631e-06 9.260113e-08 3.8998976e-07 1.1241318e-06 2.0837889e-07
2.6836338e-07 5.4219527e-06 2.083523e-07 4.6904051e-07 5.43809e-05 1.0580102e-06 6.4036985e-06 1.0391012e-05
2.3805405e-06 2.9900502e-06 6.7860565e-05 2.3805208e-06 7.524297e-06 6.9446533e-06 2.8534126e-07 2.3789942e-06
1.7208977e-06 6.4212276e-07 1.5492947e-06 1.9063998e-05 6.420195e-07 2.4385265e-06 7.8656136e-05 1.9932959e-06
1.6400229e-05 1.7424656e-05 4.4849544e-06 7.2389266e-06 0.00013233363 4.484916e-06 1.7923552e-05 1.9989899e-05
6.881769e-07 1.2750116e-05 1.0334445e-05 1.5484767e-06 3.780857e-06 3.98631e-05 1.5483967e-06 6.831882e-06
0.00026017753 5.546209e-06 2.7895683e-05 5.5612785e-05 1.2479104e-05 1.4525386e-05 0.00036385012 1.2478977e-05
3.878877e-05 3.043214e-05 5.6215475e-07 5.918775e-06 7.656729e-06 1.2648931e-06 1.9137874e-06 3.6663278e-05
1.264849e-06 3.925786e-06 1.5736665e-06 4.963671e-08 9.771923e-07 5.4632955e-07 1.1169042e-07 3.1473635e-07
3.0543365e-06 1.11682326e-07 4.847935e-07 8.5898665e-07 1.4032762e-08 1.2038907e-07 9.94548e-07 3.1597864e-08
1.2604372e-07 9.2753277e-07 3.157294e-08 8.164826e-08 3.731122e-05 1.5345828e-06 7.549205e-06 9.532839e-06
3.4528123e-06 3.9719625e-06 0.000104539264 3.4528066e-06 1.3724738e-05 7.24348e-05 2.1609644e-06 1.0520173e-05
1.28003585e-05 4.862198e-06 5.52065e-06 0.0001450759 4.8621787e-06 1.8590588e-05 4.75098e-05 1.3431782e-06
7.38513e-06 1.0844186e-05 3.0221931e-06 3.8621256e-06 8.793256e-05 3.0221524e-06 1.1414686e-05 4.0373223e-05
2.102394e-06 1.0724568e-05 1.3942928e-05 4.730395e-06 3.7300347e-06 0.00014565948 4.730392e-06 2.659149e-05
2.2194296e-05 4.793647e-07 2.3408118e-06 3.952542e-06 1.0786144e-06 5.504238e-07 3.3038858e-05 1.0785693e-06
4.876685e-06 5.9431084e-05 1.601471e-06 1.6050524e-05 1.7002234e-05 3.6033186e-06 8.563303e-06 0.00010477861
3.6033125e-06 9.443739e-06 0.00021934835 5.646479e-06 1.8204784e-05 5.388045e-05 1.2704745e-05 8.245265e-06
0.00035996098 1.2704571e-05 5.9303555e-05 1.7142705e-05 1.6474954e-06 9.573087e-06 1.409342e-05 3.706905e-06
8.770629e-07 0.00010189817 3.7068667e-06 3.323184e-05 0.00034344711 5.6971376e-06 2.6004149e-05 7.2701485e-05
1.2818553e-05 1.9032532e-05 0.00038384867 1.2818517e-05 2.0421228e-05 2.714986e-05 1.0132595e-06 1.0170726e-05
1.0431882e-05 2.2799543e-06 5.5811415e-06 6.8217596e-05 2.2798354e-06 8.238837e-06 2.1346389e-06 3.2482482e-08
1.6156348e-07 6.7359116e-07 7.31111e-08 5.9369476e-08 2.2278412e-06 7.30853e-08 2.0052728e-07 1.1402066e-05
1.9532192e-07 3.0272133e-06 2.1118626e-06 4.3950286e-07 1.4415291e-06 1.4472188e-05 4.3947352e-07 1.4971232e-06
2.1445272e-05 1.4705305e-06 1.3682259e-05 2.4108418e-05 3.3087927e-06 3.961628e-06 8.656495e-05 3.3086972e-06
2.3982937e-05 8.4388375e-05 5.2131886e-06 3.3407596e-05 3.759084e-05 1.1729917e-05 1.5324396e-05 0.0003252057
1.1729681e-05 7.098244e-05 0.0005160987 1.8460432e-05 7.122414e-05 0.0001491002 4.1536165e-05 4.1795636e-05
0.0011817303 4.1535975e-05 0.00019311707 2.4100935e-05 7.1031405e-07 1.1088845e-05 9.152653e-06 1.5982705e-06
4.2367274e-06 4.228576e-05 1.5981957e-06 5.0693347e-06 1.7457709e-05 3.8340158e-07 3.290308e-06 3.5772005e-06
00000000: 7d3e 2737 3d33 9334 1b0c c635 9063 4736
00000010: c69c 2535 9064 6034 ac74 7637 a299 2535
00000020: 8183 7b36 84af b639 0e55 dd36 8b52 8637
00000030: 6fbf 6238 c000 7937 31fc 4f37 583d e439
00000040: b2ff 7837 a95a 2d38 cc60 8a37 3343 4b34
00000050: e8df 5335 2f85 4f36 dbab e434 ad34 a234
00000060: 9b08 5f37 96ab e434 0873 4335 cec1 ca36
00000070: 02dc c633 c95f d134 e0e0 9635 c1be 5f34
00000080: 9513 9034 38ee b536 72b7 5f34 70d0 fb34
00000090: 0c17 6438 f400 8e35 5adf d636 0f55 2e37
000000a0: 60c1 1f36 aca8 4836 5d50 8e38 09c1 1f36
000000b0: 3879 fc36 1e06 e936 0131 9934 cfa6 1f36
000000c0: 98f9 e635 575e 2c35 5cf1 cf35 a0eb 9f37
000000d0: 3e57 2c35 91a5 2336 31f4 a438 90c4 0536
000000e0: 3993 8937 2a2b 9237 777d 9636 e8e5 f236
000000f0: 0ac3 0a39 237d 9636 895a 9637 fbaf a737
00000100: 28bb 3835 55e9 5537 1a62 2d37 41d5 cf35
00000110: a1ba 7d36 ad32 2738 81d2 cf35 6b3d e536
00000120: 7068 8839 9319 ba36 8601 ea37 c641 6938
00000130: 585d 5137 0fb2 7337 23c3 be39 cc5c 5137
00000140: 20b1 2238 8648 ff37 fbe6 1635 e499 c636
00000150: 6775 0037 65c5 a935 9e6e 0036 e5c6 1938
00000160: e1c3 a935 3fba 8336 c536 d335 2430 5533
00000170: 1228 8335 7ba7 1235 75da ef33 09f9 a834
00000180: 1af9 4c36 02d6 ef33 c122 0235 1d95 6635
00000190: bd14 7132 4c44 0134 697c 8535 38b6 0733
000001a0: a256 0734 91fb 7835 d19a 0733 9b56 af33
000001b0: 9e7e 1c38 ddf7 cd35 2d4f fd36 3bef 1f37
000001c0: ddb6 6736 e646 8536 173c db38 c4b6 6736
000001d0: 4d43 6637 23e8 9738 1605 1136 cd7f 3037
000001e0: 1fc1 5637 f625 a336 063e b936 841f 1839
000001f0: cc25 a336 fcf2 9b37 4245 4738 4047 b435
00000200: c9cd f736 6def 3537 e2d0 4a36 6897 8136
00000210: 6f68 b838 2fd0 4a36 b481 3f37 6b56 2938
00000220: db16 0d36 abed 3337 6bec 6937 c9b9 9e36
00000230: 8251 7a36 2bbc 1839 c2b9 9e36 ca10 df37
00000240: e32d ba37 b1ad 0035 d716 1d36 14a0 8436
00000250: e9c4 9035 d6c0 1335 3493 0a38 5cc3 9035
00000260: 68a2 a336 a445 7938 20f2 d635 3da4 8637
00000270: 05a0 8e37 8bd0 7136 1bab 0f37 97bc db38
00000280: 70d0 7136 8d70 1e37 e000 6639 e376 bd36
00000290: 7ab6 9837 b1fd 6138 7726 5537 2555 0a37
000002a0: 25b9 bc39 b825 5537 b5bc 7838 aecd 8f37
000002b0: 831f dd35 189c 2037 c772 6c37 25c4 7836
000002c0: 4e6f 6b35 2ab2 d538 7cc3 7836 6b62 0b38
000002d0: b110 b439 0a2a bf36 7c23 da37 5077 9838
000002e0: 440f 5737 0da8 9f37 4c3f c939 1c0f 5737
000002f0: 414e ab37 e1bf e337 55ff 8735 efa2 2a37
00000300: 9804 2f37 5101 1936 a445 bb36 0b10 8f38
00000310: 46ff 1836 8939 0a37 d140 0f36 de82 0b33
00000320: 3b7a 2d34 d5d0 3435 4101 9d33 6efd 7e33
00000330: 0582 1536 12f3 9c33 8550 5734 804b 3f37
00000340: aeb9 5134 2127 4b36 86b9 0d36 d0f4 eb34
00000350: 907a c135 93cd 7237 c8f0 eb34 c3f0 c835
00000360: 5fe5 b337 0b5f c535 db8c 6537 6f3c ca37
00000370: a00c 5e36 20ee 8436 348a b538 fc0a 5e36
00000380: f72e c937 aaf9 b038 f3ec ae36 221f 0c38
00000390: dbaa 1d38 9ccb 4437 e48c 8037 5f80 aa39
000003a0: 99ca 4437 68dc 9438 cc4a 073a 7adb 9a37
000003b0: 2b5e 9538 c857 1c39 1e37 2e38 b94d 2f38
000003c0: 4ae4 9a3a ea36 2e38 787f 4a39 5d2c ca37
000003d0: 69ac 3e35 3a0a 3a37 588e 1937 2884 d635
000003e0: 3629 8e36 fd5b 3138 9681 d635 4119 aa36
000003f0: 2572 9237 50d6 cd34 10cf 5c36 d60f 7036

exp_avg f4 [128]
-0.00019765488 -0.0007179496 -0.00041804754 0.0003140155 0.0003006673 0.0002446481 0.00017999834 0.0003077993
-0.0006284292 0.0005701317 -6.692511e-05 3.294987e-05 0.00085306854 -0.00048606418 0.00019767744 -0.0012492385
0.00013898691 -0.0006930438 -0.00041143587 -0.00024237466 -0.002165537 -7.226251e-05 0.000103650644 -3.442923e-05
-0.0006282247 -0.0010441816 -0.0022005604 0.00013292802 -0.0006234974 0.0001605094 -0.00027535186 -2.9030234e-05
-0.0021995076 -0.00018877373 5.9218655e-05 -0.00072187086 0.0003736897 0.0002914739 0.0005003775 -0.0001689833
0.000113530616 -0.0007974445 -0.00016552513 -0.00047416368 -0.0012313272 -0.0008210156 -0.0005028276 0.00021931044
0.00038150608 -0.00034754392 -0.0004432904 -0.00020758132 -0.0003735814 0.00038535224 -0.0004040944 -0.0009166242
-0.00038140547 -0.00031686912 -5.5668388e-05 -0.0004900123 -0.00022536088 -0.00011274036 3.1428277e-05 -0.00060439634
-0.00040421574 -0.00047299784 -0.0004004062 -0.0019905544 -0.00021712869 0.00012188095 -0.00035429205 2.2075981e-05
-0.00023901029 0.0003871462 -0.00021751248 0.00015083334 -0.00024422657 -6.619812e-05 -0.0006211962 -0.0012830303
-0.0006423717 0.000110949804 -0.00016663913 -0.00057905464 -0.0013558288 -8.4607214e-05 5.3059004e-05 -0.00029051263
-0.0006197619 -0.0004389681 0.0005072547 0.00010113515 -0.000249734 4.8664006e-05 -0.00036330486 4.63145e-06
-0.00017950563 -4.850565e-05 8.492354e-05 -0.00027466918 -8.5921805e-05 0.00034302735 -2.5659532e-05 4.3894906e-05
0.0002367227 2.9351255e-05 -0.00014171736 -0.0007407284 -0.00049594074 -0.0006918866 0.0007702999 -0.00037781236
5.1569445e-05 -0.0003121217 -0.00042706606 -0.00035350717 4.0678588e-05 2.777261e-05 0.000561043 -0.00014485123
0.00023328578 -5.5322722e-05 0.00025479315 -0.00038404373 0.0001264393 -0.00071306515 -0.00062796683 -0.0013255515
00000000: 9441 4fb9 c834 3cba 642d dbb9 72a2 a439
00000010: e2a2 9d39 1d44 8039 f0bd 3c39 1f60 a139
00000020: 2bbd 24ba e474 153a 255a 8cb8 a733 0a38
00000030: 76a0 5f3a 6ed6 feb9 a247 4f39 7dbd a3ba
00000040: 04bd 1139 62ad 35ba fdb5 d7b9 f425 7eb9
00000050: afeb 0dbb a48b 97b8 045f d938 1b68 10b8
00000060: 72af 24ba ecdc 88ba 4737 10bb 9862 0b39
00000070: 3472 23ba 6a4e 2839 1a5d 90b9 f485 f3b7
00000080: 9d25 10bb 90f1 45b9 8c61 7838 ef3b 3dba
00000090: c8eb c339 f7d0 9839 c42b 033a 1c31 31b9
000000a0: 4917 ee38 980b 51ba d090 2db9 2c99 f8b9
000000b0: 7c64 a1ba 6d39 57ba 30d0 03ba b3f6 6539
000000c0: e104 c839 8e36 b6b9 6e69 e8b9 30aa 59b9
000000d0: 3fdd c3b9 1a09 ca39 a2dc d3b9 9c49 70ba
000000e0: 60f7 c7b9 7421 a6b9 7a7d 69b8 2b74 00ba
000000f0: da4e 6cb9 056f ecb8 dbd1 0338 5a70 1eba
00000100: ebec d3b9 b2fc f7b9 9ced d1b9 f673 02bb
00000110: 0aad 63b9 569a ff38 46c0 b9b9 cf2f b937
00000120: d69e 7ab9 e2f9 ca39 1014 64b9 0429 1e39
00000130: 890b 80b9 d8d3 8ab8 c5d7 22ba 5a2b a8ba
00000140: d664 28ba b9ad e838 dabb 2eb9 b3cb 17ba
00000150: 11b6 b1ba 276f b1b8 ac8b 5e38 f24f 98b9
00000160: 8477 22ba 4d25 e6b9 49f9 043a 8518 d438
00000170: bbee 82b9 941c 4c38 f479 beb9 da67 9b36
00000180: ad39 3cb9 8c72 4bb8 fa18 b238 7901 90b9
00000190: eb30 b4b8 5ad8 b339 6d3f d7b7 cc1b 3838
000001a0: c438 7839 5737 f637 f799 14b9 712d 42ba
000001b0: 0502 02ba b95f 35ba f4ed 493a 1e15 c6b9
000001c0: 454c 5838 44a4 a3b9 d6e7 dfb9 ee56 b9b9
000001d0: 4d9e 2a38 3af9 e837 f512 133a 35e3 17b9
000001e0: 2d9e 7439 520a 68b8 c295 8539 7a59 c9b9
000001f0: cb94 0439 feec 3aba 249e 24ba 21be adba

exp_avg_sq f4 [128]
1.0967279e-06 2.6384829e-05 7.57212e-07 3.7040348e-07 4.232034e-06 1.1413672e-06 7.973179e-06 2.752704e-06
2.2184837e-05 2.2486188e-06 1.9854566e-07 5.612981e-08 6.1383307e-06 8.643858e-06 5.3727126e-06 8.409576e-06
1.917457e-06 6.405884e-06 2.2585897e-05 6.5899794e-06 2.2788494e-05 4.053031e-06 1.2992979e-07 7.8128704e-07
5.882126e-06 2.085276e-05 7.3841744e-05 2.8412442e-06 1.5336058e-06 2.443844e-06 7.1674494e-06 1.2103787e-06
2.1600143e-05 2.0607074e-06 6.0090238e-06 1.5122859e-05 2.5297195e-06 3.3256358e-06 6.483965e-06 6.6410956e-07
2.7251585e-06 7.128543e-06 8.8786175e-07 7.0179262e-06 6.2584118e-06 1.4973102e-05 2.318682e-06 3.9124424e-07
2.4991787e-06 9.2097895e-07 1.4173108e-06 7.3721044e-06 9.044213e-06 2.3350133e-06 4.4367207e-06 8.348952e-06
5.6733766e-06 1.2387775e-05 3.9612437e-06 4.887543e-06 5.398729e-06 1.8932151e-06 2.7469443e-07 1.5298017e-06
1.381077e-06 2.5041722e-06 4.7532976e-06 8.717842e-06 8.160207e-07 9.0896384e-07 1.16762285e-05 4.945626e-06
4.439686e-06 9.626069e-07 6.859664e-07 7.41928e-06 2.9733008e-07 1.2497302e-06 4.3401888e-06 6.9809903e-06
7.7706145e-06 2.1161482e-06 2.087763e-06 1.0400549e-05 3.0506837e-06 2.348018e-06 1.0827241e-06 9.381485e-06
1.4043337e-06 3.098883e-06 3.5003359e-06 2.646792e-07 8.351449e-06 4.9997307e-06 5.1070815e-06 4.4465196e-07
1.9161316e-06 1.282885e-05 1.9741607e-07 9.934036e-06 4.8402426e-06 1.5088768e-06 3.3518384e-07 9.733172e-07
7.3642595e-06 9.001372e-08 9.731456e-07 3.187371e-06 4.443003e-06 4.9678e-06 4.1895687e-06 1.5704702e-06
1.9642263e-07 1.6475933e-06 6.273285e-05 2.5382988e-06 2.9828395e-06 1.5045205e-07 2.0885027e-06 3.4174325e-06
7.3115375e-06 4.6436443e-07 1.3474374e-06 6.1288783e-06 1.4871024e-05 1.9949564e-05 2.7219637e-06 7.3778747e-06
00000000: 4933 9335 fd54 dd37 3643 4b35 dedb c634
00000010: e500 8e36 1431 9935 8bc4 0537 18bb 3836
00000020: 9319 ba37 fae6 1636 d12f 5534 6113 7133
00000030: dcf7 cd36 1605 1137 4047 b436 db16 0d37
00000040: a9ad 0036 20f2 d636 d876 bd37 7e1f dd36
00000050: eb29 bf37 45ff 8736 d482 0b34 a3b9 5135
00000060: 145f c536 f6ec ae37 7cdb 9a38 34ac 3e36
00000070: 4bd6 cd35 ec00 2436 ec7f f036 4c74 a235
00000080: f431 b537 af4a 0a36 1fa1 c936 2fb8 7d37
00000090: 40c4 2936 fd2d 5f36 d690 d936 4345 3235
000000a0: dee1 3636 b831 ef36 6555 6e35 877b eb36
000000b0: 59ff d136 fc34 7b37 a79a 1b36 330c d234
000000c0: 90b7 2736 3139 7735 6e3a be35 e55d f736
000000d0: 99bc 1737 39b3 1c36 24df 9436 7a12 0c37
000000e0: ef5d be36 17d5 4f37 d3ea 8436 adff a336
000000f0: bb26 b536 601a fe35 b779 9334 9653 cd35
00000100: 725d b935 5a0d 2836 847e 9f36 d942 1237
00000110: 840c 5b35 85ff 7335 05e5 4337 9bf2 a536
00000120: 9df8 9436 ec32 8135 4123 3835 21f3 f836
00000130: bca0 9f34 67bc a735 f0a1 9136 403e ea36
00000140: 895e 0237 2603 0e36 7f1b 0c36 057e 2e37
00000150: 59ba 4c36 a492 1d36 1e52 9135 2c65 1d37
00000160: 8a7c bc35 68f6 4f36 50e7 6a36 3b19 8e34
00000170: 331d 0c37 5cc3 a736 7f5d ab36 80b8 ee34
00000180: e496 0036 7e3b 5737 51f9 5334 5caa 2637
00000190: 5e69 a236 9d84 ca35 51f3 b334 eda2 8235
000001a0: 821a f736 914d c133 079d 8235 9ee6 5536
000001b0: 1b15 9536 14b1 a636 1f94 8c36 f2c8 d235
000001c0: 3ee8 5234 e022 dd35 718f 8338 a457 2a36
000001d0: cb2c 4836 f28b 2134 3428 0c36 0b57 6536
000001e0: a155 f536 c34d f934 99d9 b435 aaa6 cd36
000001f0: 907e 7937 5d59 a737 fbaa 3636 768f f736
