results/PreyTest2/PreyBrain/PreyBrain-2104683.onnx (onnx, 73997 bytes, 7 tensors)

action_model._continuous_distribution.log_sigma f4 [1, 2]
00000000: 0124 b3bd 21d6 04be
-0.087471016 -0.12972309

action_model._continuous_distribution.mu.bias f4 [2]
00000000: 3a40 48bd 7b46 c4bb
-0.048889376 -0.0059898472

action_model._continuous_distribution.mu.weight f4 [2, 128]
00000000: 5b93 e0bd 9362 86bd 1612 9ebc da9b 183d
00000010: c99c d93d b44c a63d e475 813b 5362 c03d
00000020: edb8 9fbd e1a8 0b3d 0557 453d 0b63 04bd
00000030: 3f23 92bd 6423 97bb 1593 30bd 77a9 5b3d
00000040: 179a 063b 8529 4d3e c5c1 02be f1a6 4abc
00000050: 3548 5ebd d4f6 ff3d 280c 7bbd 4987 b5bd
00000060: 75b0 b8bc 8806 2ebd 50d5 8dbd 4b8a b33b
00000070: ca20 b1bd 419c e83d 8c28 9d3d 13c9 1d3c
00000080: 6757 47bc 7c0a 093d 34af 2fbd 5795 143d
00000090: b94d 033c cf14 8cbd 4856 b23d 6ce8 38bd
000000a0: 3412 21bd 5322 08bd df37 8fbd aa89 3a3e
000000b0: 619d 083d 1e36 84bc 412b 5fbd 8836 953d
000000c0: e290 9b3d 2972 a83d 53e2 1f3d 342c 973c
000000d0: a919 1b3e 81df 75bd 1c95 0abd 3821 573d
000000e0: 87d7 d73d d94c b13b f8fe b53d 306a 3bbd
000000f0: 6224 a43c 571a bfbd af89 a63c 7b11 2b3e
00000100: d39f 723d 35d0 a63d 7113 c5bd 2925 3fbd
00000110: 1711 74bd ec55 db3d 7918 d83b 734f 61bd
00000120: 0396 8dbd 3e51 a73c 8063 7fbd 6808 da3d
00000130: 54dc e73d a511 aebc abdd a13c b3a8 743d
00000140: c22b b6bb 3c16 71bb a18e ad3d 2f90 5bbd
00000150: 9255 1d3d f7d2 1d3e c08b 333d e19a 13bd
00000160: d49b 053e 73f9 2abd 9613 683c 9eb8 e23d
00000170: 01f4 afbd e7e5 c13d 60fe fe3c a4ac 06bd
00000180: 6e54 96bd 4c87 0f3d f57b a8bd 9f67 cc3d
00000190: 520d ea3d cf02 a6bb 005d b73d 30da a23c
000001a0: 1d28 05bb 61b8 403c 414f 4a3d f305 f33d
000001b0: 6b66 11be 404e dfbc 86bf 29bd c4e4 083e
000001c0: 3a5d 223e 1e37 64bd 2bf4 4c3e e8ce b93d
000001d0: 0673 093e f5f0 913d b29a ce3d aa87 443d
000001e0: c75a afbc 8e5a 7bbb 49f7 c1bc c1f6 a2bd
000001f0: bfbb 7c3d f4b4 75bd 8f32 1bbd f5fa 353c
00000200: e3e1 803b 1914 dfbc 098f afba fc6d 033d
00000210: 7489 8cbc c5ab 953b 1815 f83c 6542 a9bd
00000220: a178 f1bc ffdd ce3c 466b 18be 7b4e 553d
00000230: fa85 183d b154 b0bd 290c 033d b25f e33c
00000240: d188 75bc fec6 49bb 2f0a 943d 5709 923d
00000250: 463d dfbc 8cf2 fcbd 8af3 673c 7840 c7bc
00000260: 1aec 91bc 72c2 003d c745 bdbd d025 963d
00000270: 57cd 7e3d a48b 79bc b28e ccbc d71b a2bd
00000280: 5701 8b3c aa4c 17bd 7cca e3bc ff3b f73d
00000290: b9fd c53d c457 36bb 86d9 55bd 0727 aebd
000002a0: cd63 8d3d be0a 5c3d 8337 7a3d a83d 04be
000002b0: 943f 3ebe f111 72bd d6ce 07ba e2cc 0e3c
000002c0: 050b ecbd e5c8 0c3d 75f6 48bb ff59 1f3d
000002d0: 1294 bdbc aba8 6dbc ff0c db3c b70d 4f3d
000002e0: 1e88 1fbd 7d55 a43d c8d5 6d3d 50f6 883c
000002f0: 8012 f13d b6b2 43bd 902f 60bd f25a 53be
00000300: d618 03bd 564a 863d a27f fa3d 9c0b 8d3a
00000310: 8478 e5bc 6dbe f13c 9bb0 e03d d76d 75bd
00000320: 38c8 a13d b09b 143d 72b8 29bc ba6d 0fbd
00000330: 1c06 b23c a574 25bd 463f ed3c 7d63 96bd
00000340: 4c5d 09bd dedc 383d 452b 3a3e 75e2 95bd
00000350: 418e 51bd 3af9 20bd bce9 663b 7473 233d
00000360: 7925 f5bd e5e5 dbbc ef08 653d 6176 783d
00000370: c5d3 3ebd 2551 4ebd 6311 6c3d c8c7 6abd
00000380: ed8b bcbc 9fde b53d 8816 6abd dde1 55bd
00000390: a453 8cbd 2ed9 523d 45a3 843d dc0f 683d
000003a0: 008e 17be d45e c53d d586 ae3c 3008 47bd
000003b0: dfcf 263d 45f5 aabc c48d 393d 38a6 7cbd
000003c0: e4c1 bcbd 9e71 6dbd 52a6 00be eee4 dfbb
000003d0: 6a56 1b3c f5e6 16bd 014d 1bbe aa73 29bc
000003e0: 7262 753d 29a9 533d d989 83bc cd2c 2e3c
000003f0: 6071 2abb 13ff b3bb 0648 713a a4a0 3d3d
-0.10965606 -0.0656177 -0.019295733 0.037258007 0.106256075 0.08120099 0.0039508212 0.09393754
-0.07798944 0.034096602 0.04817869 -0.032321017 -0.07135629 -0.004612373 -0.04310902 0.05362841
0.0020538622 0.2003537 -0.1276923 -0.0123689035 -0.05426808 0.124982506 -0.06129089 -0.08863694
-0.022545079 -0.042486697 -0.06925452 0.0054791323 -0.08648832 0.11357928 0.07673749 0.009630459
-0.012166834 0.033457264 -0.042891696 0.036275234 0.008014136 -0.068399064 0.08707863 -0.04514353
-0.039324 -0.03323586 -0.069930784 0.18216577 0.033353213 -0.016139086 -0.05448461 0.07285792
0.075959936 0.08224899 0.0390342 0.018453695 0.15146507 -0.060027603 -0.033833608 0.052521914
0.105391555 0.0054107723 0.08886522 -0.045755565 0.02003688 -0.09331196 0.020329325 0.16705887
0.05923445 0.08145181 -0.09622849 -0.046666298 -0.05958661 0.10709748 0.0065947142 -0.05500741
-0.06913378 0.020424481 -0.06235075 0.106461346 0.11321321 -0.021248648 0.01975902 0.059731197
-0.0055594156 -0.0036786934 0.0847447 -0.0536043 0.038411684 0.15412508 0.043834448 -0.036036376
0.13047725 -0.0417418 0.014164826 0.11070369 -0.08591462 0.094676785 0.031127155 -0.032879487
-0.073403224 0.03504114 -0.08226768 0.09980702 0.11428322 -0.005066253 0.08953285 0.01987943
-0.0020318099 0.011762709 0.04939199 0.11866369 -0.14199226 -0.027258992 -0.041442417 0.13368517
0.15855876 -0.055716626 0.20015018 0.09072667 0.13422784 0.07126037 0.100880995 0.04798094
-0.02140559 -0.0038353535 -0.023677485 -0.07957221 0.061702486 -0.059987023 -0.037890013 0.011107196
0.003933178 -0.027231263 -0.0013394068 0.03208731 -0.017155387 0.0045675957 0.030283496 -0.08264617
-0.029476466 0.02525234 -0.14884672 0.052076798 0.037237145 -0.086099036 0.03199402 0.027755592
-0.014986233 -0.0030788775 0.07228505 0.07130688 -0.027250897 -0.1235095 0.014157185 -0.024322733
-0.017812777 0.031435438 -0.092418246 0.07331431 0.062207546 -0.015231047 -0.024970386 -0.07915466
0.016968412 -0.036938347 -0.027806513 0.1207199 0.096675344 -0.0027823308 -0.0522094 -0.085035376
0.06903801 0.053721182 0.061088096 -0.12914145 -0.1857894 -0.05909914 -0.0005180662 0.00871584
-0.11525539 0.034371275 -0.0030664478 0.038904186 -0.023141894 -0.014505546 0.026739595 0.05055019
-0.03894817 0.08024118 0.058065206 0.016719013 0.11771107 -0.047777854 -0.05473286 -0.20640162
-0.032006107 0.06557147 0.12231375 0.0010760906 -0.028011568 0.029509747 0.10971185 -0.059919205
0.07899517 0.036281288 -0.010358917 -0.035016753 0.021731429 -0.040394444 0.028960835 -0.07343195
-0.03353624 0.04513251 0.18180569 -0.07318584 -0.051161055 -0.03930018 0.0035234531 0.039905027
-0.11970038 -0.02684302 0.055916723 0.06065977 -0.046588678 -0.050370354 0.05763377 -0.057319432
-0.02301594 0.08880352 -0.057150394 -0.052217353 -0.06851891 0.05147665 0.06476454 0.05665575
-0.14800262 0.09637228 0.021304527 -0.048591793 0.040725585 -0.020868907 0.045301214 -0.061681956
-0.09216669 -0.057969682 -0.12563446 -0.0068327105 0.009481052 -0.03684135 -0.15166093 -0.010342518
0.059908338 0.051674996 -0.016056942 0.0106307985 -0.0026007518 -0.0054930537 0.0009204153 0.046295777

network_body._body_endoder.seq_layers.0.bias f4 [128]
00000000: c8aa a83c 5f1f 7b3d bedf acbd 94c0 0f3c
00000010: 578c e9bc ea6a 993c 7516 2b3d f053 883d
00000020: 58f6 f93c 9842 3a3d 3584 e9ba 890b 48bd
00000030: 159b c6bc d1d2 f53b c683 643d f2c2 9fbd
00000040: ef76 893d 5fec 473d d368 3e3d 02e7 13bd
00000050: 371c 3d3d 9534 d83c afe6 1cbd c64c 293d
00000060: 2b49 093e 0498 c73d 0a19 113e cad1 af3c
00000070: 4974 60bd a9b4 8b3c afc3 e43c 51bf e8bc
00000080: c2e2 273b 13df 0c3d 94f7 7b3d 02ff 033d
00000090: 873b 373d c693 bdbc 5624 bd3d 4d2c 3e3c
000000a0: 2624 223c 9569 5a3c fe3b e6bc 8310 263d
000000b0: 146e 543d 06cc 9a3c 1664 a73b b388 cb3c
000000c0: ff37 debc 6c26 bf3c af6f 33bd 6187 723d
000000d0: c8b3 b33c 18a5 b03d c55b 983c 4990 b3bc
000000e0: fd4f bd3d 24a7 3e3d 06c7 283e fd46 c73b
000000f0: c558 f43b 5cd3 723d ce43 4ebc cbd8 623d
00000100: e052 06ba bb46 e23c b5da 3dbb 3f3d 3a3c
00000110: 572e 393d 8809 93bd 86c6 393d b13e 22bc
00000120: 6e7e b13d a735 943b fe32 b7bd 63c6 9d3d
00000130: d0c8 a5bd 6621 7abc bf1e dc3b 184f 1d3d
00000140: b3b1 173d 8ffa 0b3c 880c bc3d 1c61 4b3c
00000150: af1f e03b d8ed 853c cc70 563c 6ca6 2d3c
00000160: 6fe3 bbbc 7e55 ce3d c5bc be3c 0ecd 8c3c
00000170: 1ca7 5d3d cbad d03c 647d a53d fc08 283d
00000180: 3532 d53c cb76 d83d 69af 873b 1284 283c
00000190: f1e4 8c3d 54bc 32bb 7228 6fbd 97e6 983b
000001a0: 1df1 203d cc0a 43bb 4fa5 cd3d c841 acbd
000001b0: ce35 573d a66f 8abc 5828 783d ede4 b73c
000001c0: 857f b2bc 561b 473d 5732 363e 86e1 a5bb
000001d0: d5d8 d43d f6d4 2a3b 7548 a2ba 4c1d 193d
000001e0: ab35 993d e612 6ebd 607e fb3c 86c7 573d
000001f0: 6ba8 3d3d a990 ee3d cdde cabc 4fd7 d2bd
0.020589247 0.061309215 -0.08441113 0.008773942 -0.028509302 0.018727738 0.041769464 0.06656635
0.030512974 0.045473665 -0.001781589 -0.048839126 -0.02424387 0.007501938 0.05578973 -0.07800855
0.06712138 0.048809405 0.046486687 -0.036108978 0.046169486 0.02639226 -0.038305935 0.041332982
0.13406818 0.097457916 0.14169708 0.02146234 -0.0547984 0.017053919 0.02792534 -0.02841154
0.0025617336 0.034392428 0.061515406 0.032225616 0.044734504 -0.023141753 0.09235446 0.011607242
0.009896314 0.013330837 -0.028104778 0.04054309 0.05186279 0.018896114 0.0051083667 0.024845457
-0.02712631 0.02333375 -0.04380768 0.05921114 0.021936312 0.08625239 0.018598447 -0.021919386
0.09243772 0.046546116 0.16482171 0.0060814605 0.007456871 0.0592836 -0.012589408 0.05538253
-0.00051240437 0.027621618 -0.002896947 0.011367141 0.04521021 -0.07179552 0.045355342 -0.009902642
0.08666693 0.0045229974 -0.08945273 0.07703855 -0.080949426 -0.015266752 0.0067175324 0.038405508
0.0370347 0.008543625 0.09182078 0.012413289 0.0068397145 0.016348764 0.013088416 0.01059876
-0.022935597 0.100749 0.023283372 0.017187621 0.054114446 0.025473496 0.08080557 0.041024193
0.026024917 0.10569533 0.0041407836 0.010285394 0.068796046 -0.0027272897 -0.05838818 0.0046661603
0.039292444 -0.0029761074 0.10041296 -0.08410984 0.052541547 -0.016898941 0.06058535 0.022448028
-0.021789322 0.048610054 0.1779264 -0.005062285 0.1039292 0.0026066876 -0.0012381213 0.037381455
0.074809395 -0.05812349 0.030699909 0.052680515 0.046303194 0.116486855 -0.024764443 -0.10294973

network_body._body_endoder.seq_layers.0.weight f4 [128, 9]
00000000: 2f5b 123d 9793 123f 45b9 e2be 8c07 43be
00000010: 865c 11bf d3f9 273e 1b47 903e d138 fbbd
00000020: 8990 e6bd df4a 0a3f 7d6f b4bd da3d 3a3e
00000030: 2549 b43e 693d 3c3f 924b 703f c659 753e
00000040: 1802 4d3e a46b dbbe daee 543e dd8f 01be
00000050: c9e5 aa3d 2185 65be 3c45 dbbe e125 72be
00000060: 4729 28bd 0dbb c6be 9f84 b33c ee35 5b3e
00000070: 88bd 9abe 2c74 09bf b4a9 4abc 9c38 ec3e
00000080: 5428 243f 5ec6 883e 905b c0bd 0d85 9b3c
00000090: 1ce0 b93d d57e 55be acdd 063e ad06 f9be
000000a0: 84a9 023f 1321 483e 2a63 4fbf 3840 c8be
000000b0: 6dfe c6bd 4092 60be bb76 f4be d476 863e
000000c0: a65f 933f 7402 363f f338 84be e609 73be
000000d0: 2e77 ef3e 236d 4bbd 0360 1a3e 5e28 573d
000000e0: 437e d03e c247 523e 2bec 0d3e 26ad 913e
000000f0: e459 07bf 4e00 1d3f ae32 d2bc 3932 c73d
00000100: b6b8 0c3d 8dc7 c7bd 3610 c1be c131 0a3f
00000110: 1be3 b53e cdf3 47be ace7 b93e fee1 d43b
00000120: 1851 843e 7971 053e 7236 db3e f0ab 60be
00000130: b175 8abd 6ca7 c33e dc95 81bd 17c5 063e
00000140: dac5 a9be f9e5 2b3e badc 5d3e 394c 85be
00000150: 49de febe fe70 963e 1ad5 72be 3866 d9bd
00000160: 2f9d 3b3e de1b fe3e df12 80be b554 1cbf
00000170: a10a 30be 7d1a 0d3d 5b75 203f 4352 c8bb
00000180: b05a 083c eba3 6a3d a995 e63d 389d 7ebd
00000190: 0e98 fdbc 599b 2abd 5608 3cbe 93b2 24bf
000001a0: 57ca 323f a5ca 463f 3cb4 553e 7a6a 2dbe
000001b0: 5fc8 b3bd 759b 1cbe 885a 083f 69c8 313f
000001c0: 48e9 63be 4aa1 1cbf 35eb 6bbe b9ec 613e
000001d0: 2655 09bf 472f 36be 91c2 b4bd 4481 e43e
000001e0: b93e 443e 06f6 073f 9874 673e 4128 12bf
000001f0: 4039 c03d 181b febe c325 a43e 6251 2cbe
00000200: 2979 9c3e 663b 283e 94c5 eabd 2b8c 863e
00000210: 5b9a 4bbe 41fd 163f 92ba 13bf 70a7 e9be
00000220: 0b0d 91be 4b0d 1d3e ab67 2fbe 97b2 dfbe
00000230: 1249 563e fc77 6ebe cf0f 6e3e e1dc 96be
00000240: c65a 10be d318 15be 4f9c c9be 83f2 8cbe
00000250: 9a86 5dbe bcc6 36bf 74a0 afbe 1292 243e
00000260: d89d d3be 7edf b4bd 73d2 0f3f 5a89 98be
00000270: 3fbc 05be edc6 4fbe 6a63 343f 5606 58bd
00000280: b971 bcbe 79be ad3e 97d6 fd3d a8a6 d6bd
00000290: ba3d d53d d7e6 81bd 00ca 7a3e fb52 993e
000002a0: b0ba 143e 11e3 683e ae36 0abf 5392 ccbe
000002b0: 1dc1 0a3d 7d62 24bf aa28 12bf 340c 49bc
000002c0: 4da9 d5bd 37d3 0e3e 88b0 8c3d d9cc 8ebd
000002d0: eee5 a7bc 73d4 f6be e6d5 863f 1cf8 463d
000002e0: 49e5 e33e aead 643d 67d0 72bc 47e4 e73d
000002f0: 6d5a 163f 272d 80be 876a 4a3d c132 93be
00000300: ba14 1b3e 3c1e 0e3e 2036 253d 1c60 cebd
00000310: 4707 cabd 8f90 d93e 0de0 d1bd 20f1 b9be
00000320: 612f 44bd 33cc 14be 79e7 693e 6027 ccbe
00000330: 7f16 053f 7871 0dbf aa8b 863c d3c9 d5be
00000340: 2dd6 efbd ceaa b9be 4820 b43e 0209 3fbe
00000350: 51b9 d9bd 19c1 a73d 3b70 16be db74 df3e
00000360: 58ef 8abe 6a0e 753e f2a0 cd3e 44f9 e9bd
00000370: 4944 f43e a268 16bd 991f b33e 672b 7bbe
00000380: bbba 00bf 4386 bbbe ca7a 02bf ff66 013b
00000390: 5f35 6fbd 1311 a93e ecb9 703f 873a e23e
000003a0: 39d1 fb3e 1692 04bf 35e1 f3bd 7f33 cf3e
000003b0: 1184 2e3f 1e49 f4bd 89fc d13e bf8b 463f
000003c0: 4624 c43e 520a 433e e0b4 2bbf cc08 f63e
000003d0: 1854 44be 0197 993e 0993 86be 9606 793e
000003e0: 66a1 be3e 4c97 55be 491c 103e 72bc 9a3e
000003f0: de39 93bd ecc3 aebc cf01 34be 7329 32bf
0.03573149 0.57256454 -0.44281974 -0.19045848 -0.56781805 0.16403894 0.2817925 -0.12266696
-0.11258037 0.54020494 -0.08810327 0.18187657 0.35212055 0.73531204 0.9386531 0.23960027
0.2002033 -0.4285556 0.2079424 -0.12652536 0.08344609 -0.22414066 -0.4282626 -0.23647262
-0.04105499 -0.38814583 0.021913825 0.21407291 -0.30222726 -0.5369289 -0.012369562 0.4613694
0.64124036 0.26713842 -0.09392464 0.018984342 0.090759486 -0.20849164 0.13170499 -0.48637906
0.5103991 0.19543867 -0.8101069 -0.39111495 -0.097164966 -0.2193079 -0.47746834 0.26262534
1.1513565 0.71097493 -0.258247 -0.23734245 0.46770614 -0.049664628 0.15075688 0.05252873
0.4072133 0.20535186 0.13859622 0.28452414 -0.5287154 0.6132859 -0.025658932 0.09726376
0.03435584 -0.09754858 -0.3770768 0.5398217 0.3552483 -0.19526596 0.36309564 0.006496667
0.2584312 0.13031568 0.42814976 -0.21940589 -0.06760729 0.3821367 -0.063274115 0.13161121
-0.3315876 0.16786946 0.21666232 -0.26034716 -0.49778965 0.2938308 -0.23714104 -0.106152
0.1832168 0.49630636 -0.25014398 -0.6106675 -0.17191555 0.03444909 0.6267907 -0.006113322
0.008322403 0.05728523 0.11259014 -0.062161654 -0.030956294 -0.041652057 -0.18362555 -0.6433498
0.69839996 0.7765296 0.20869535 -0.16935149 -0.08778452 -0.15293677 0.5326314 0.69446427
-0.22256958 -0.6118361 -0.23038943 0.22062959 -0.5364555 -0.17791472 -0.08826173 0.44629872
0.19164552 0.53109777 0.2260307 -0.5709267 0.093859196 -0.49630046 0.3206006 -0.1682792
0.30561188 0.16428909 -0.11463466 0.26278815 -0.198831 0.58980185 -0.5770656 -0.45635557
-0.28330263 0.15337102 -0.1712939 -0.4369094 0.20926312 -0.23287958 0.23248218 -0.29465392
-0.14097127 -0.14560251 -0.39377066 -0.27528772 -0.21633378 -0.71396995 -0.34302104 0.16071346
-0.41331363 -0.0883169 0.56180495 -0.2979229 -0.13060091 -0.20290728 0.70464194 -0.052740417
-0.36805514 0.33934382 0.123944454 -0.10481006 0.10412164 -0.06342857 0.2449112 0.29946122
0.1452434 0.22742869 -0.53989685 -0.39955387 0.033875573 -0.6421278 -0.570933 -0.012270976
-0.10432682 0.1394776 0.06869608 -0.06972665 -0.020495381 -0.4820896 1.0534027 0.04857646
0.44510868 0.055829696 -0.014820195 0.11322837 0.5873173 -0.25034449 0.049418 -0.2874966
0.15144625 0.13878721 0.04033482 -0.10076925 -0.09864669 0.42493102 -0.102478124 -0.36316776
-0.047896747 -0.14531021 0.22842206 -0.3987379 0.5198745 -0.55251265 0.016424019 -0.41755542
-0.11710773 -0.36263126 0.3518088 -0.1865578 -0.106310494 0.08191127 -0.1469125 0.4364384
-0.2713573 0.2393128 0.40161854 -0.11424497 0.47708347 -0.03672088 0.34985045 -0.24528275
-0.5028493 -0.3662587 -0.5096861 0.0019745228 -0.058400508 0.3302084 0.94033694 0.44185278
0.49183062 -0.5178541 -0.11908189 0.40468976 0.6817027 -0.119280085 0.41012982 0.77556986
0.38308924 0.19046906 -0.6707287 0.48053586 -0.19172704 0.2999802 -0.26284054 0.24318919
0.37232512 -0.20858496 0.1407329 0.30221897 -0.07188772 -0.021333657 -0.17578815 -0.69594496

network_body._body_endoder.seq_layers.2.bias f4 [128]
00000000: a63d a63d bd14 a93d 7888 96bc b078 81bd
00000010: 3ab7 d8b9 acd1 05bd cf77 b9bc a42d 153d
00000020: 8b51 8a3d 1f31 43bd 97ce c13c 7cb7 0e3d
00000030: 76b0 743d 2087 da3c 9c8c e43c 76a9 3bbd
00000040: 770f 39bd ae47 883d ec22 b13d 26d5 873c
00000050: 3406 0b3d e2cf 413d f0d6 793d 9357 993d
00000060: bca0 f93b 6e4c 183d 3f3d df3d 00b2 c03b
00000070: 6205 953d 879d a8bd cad8 02bd 7f20 f13b
00000080: 179d 0e3c 9b84 1fbc c4ec 263d 85ed bebb
00000090: 2df5 e5bc 0c2e b33d f378 223b 617e 9f3d
000000a0: 1bcc 2f3c b742 9b3c 8d1a 4c3d 837f cf3d
000000b0: c5db 763d b0be 6c3b bd5b 0cbd 3b4a 1cbd
000000c0: ceb0 343d a037 523d 15d5 afbc c6c9 8fbc
000000d0: 3df2 b0bc be0c 323d 3d77 0b3c 38b3 e13c
000000e0: 764d 483c 1cf2 b03c 86d3 913d 1f59 773d
000000f0: 42ad c2bc efa5 833d 8721 22bc 2acd 893d
00000100: c85a 15bd 4fb1 7f3d 5b0e b03c 65bb ba3c
00000110: bbef 703d 46fe 1dbd 81b7 333d 6430 2c3d
00000120: b1b2 c73c 6fcc 613c b9a4 0e3d 563f 2ebc
00000130: 3496 7d3b 4ced a63c f8a2 9bbc 7704 ee3c
00000140: 70a4 55bb 4dd9 d93c 0c62 f03b 8b96 843d
00000150: 84ff c1bc 560f 543c 8066 3cbd 7081 463b
00000160: 4e4b 1c3d 08be fa39 62e4 7a3b 332c 52bd
00000170: cb3c c13d ab02 0abd 20e1 643c 22dc 80bc
00000180: e8f5 1f3d e09f bf3c 6161 d63d 7832 34bc
00000190: 4260 d73c bd8c c83c 44bd f03c bbcf 83bc
000001a0: 4e4c 633d 98f7 d53c 219d 23bb e166 173d
000001b0: 3c72 8d3d 2cb1 223b da33 ca3c 55a7 603d
000001c0: 3a2d a53c cf5b f03c 0991 023d b1a7 6eba
000001d0: 7567 243b a40f 673c 2c9a 133d f22d 4fbd
000001e0: e18d 0b3c b8d0 2f3b 69c9 3f3d 91a8 863d
000001f0: 3abe 1d3d 16f6 8f3c 0396 3a3d cbb8 c93b
0.08117227 0.08255909 -0.01837562 -0.063218474 -0.00041335245 -0.03267066 -0.022640137 0.03642048
0.06753834 -0.047654267 0.02365808 0.034842953 0.0597386 0.02667576 0.027899079 -0.045815907
-0.045180764 0.06654297 0.08649239 0.01658113 0.033941463 0.047317393 0.060995996 0.074874066
0.007618038 0.037182264 0.10900354 0.0058805943 0.07276417 -0.08233171 -0.031945027 0.00735861
0.008704445 -0.009736205 0.04075314 -0.0058266544 -0.02807101 0.08749017 0.002479133 0.07787777
0.010729815 0.01895271 0.04983001 0.10131743 0.060268182 0.00361244 -0.034267176 -0.03815673
0.044113927 0.05132258 -0.02146391 -0.017552268 -0.021599883 0.043469183 0.008512315 0.027551278
0.012225499 0.021599822 0.07120423 0.060387727 -0.023764256 0.06428134 -0.009895689 0.06728585
-0.03646353 0.062424954 0.02149122 0.022794435 0.058822375 -0.038572572 0.043876175 0.042038336
0.024377199 0.013781651 0.03482506 -0.010635218 0.0038694264 0.020376824 -0.018998608 0.029054863
-0.0032599233 0.026592875 0.007335907 0.06474026 -0.02368141 0.0129431095 -0.04599619 0.0030289553
0.038157754 0.000478253 0.00382831 -0.051311683 0.094354235 -0.03369395 0.01396969 -0.015729968
0.039052874 0.023391664 0.10467792 -0.010998361 0.026291016 0.024481172 0.029387124 -0.016090265
0.05549269 0.026119038 -0.0024965482 0.036963347 0.06906554 0.002482484 0.024682928 0.05484708
0.020163167 0.029340653 0.031876598 -0.00091039675 0.002508608 0.01410285 0.0360357 -0.050580926
0.008517713 0.0026827287 0.04682294 0.0657512 0.038511492 0.017573398 0.04555322 0.0061560622

network_body._body_endoder.seq_layers.2.weight f4 [128, 128]
00000000: 5d18 a0bc 2a37 6e3e a30e cdbd 0f32 203e
00000010: af46 20be 63b2 88be 5f41 01be bfc8 4f3d
00000020: aaf3 18bd b1c9 1f3d 1826 92bd 8cac 973b
00000030: b30f 2abe dcdc 4fbe d1a0 143d 1549 d1bd
00000040: 7c7f 3e3e 0882 14be fc48 323e 9b6c 903c
00000050: bace 4c3d fd3f 13bd 53d0 2dbe 7cec 8abd
00000060: 5495 c73a a81b 07be e20c 98bc 2d6a 3bbd
00000070: 153b b9bd 800a b1bd 3944 4abe f345 443c
00000080: 167e b0bd 71c0 cd3d ba39 88bd 5736 7d3c
00000090: 283f 1e3e 5513 62be 7d7a 443c e3f4 d2bc
000000a0: a778 ecbd 7312 9bbe 5e49 21be fb8e b0bc
000000b0: 2b7e 2fbd 02ca ae3c ec02 3bbc b72a ebbd
000000c0: d600 b9bc 7a9a 983d c40b cebc 65ab cb3b
000000d0: b878 a73c 29ab 4a3d 6e78 4d3e 96de 133d
000000e0: 3d6d 853d e851 d3bd 3700 e0bd e82d 063d
000000f0: 5223 1cbe e327 f9bd 5c02 3dbc 2fd2 0dbd
00000100: 6254 b63b d5b9 0bbd 8327 58bc b462 b83d
00000110: febd e63d bace 64bc 8dd5 9f3d 55ed 25be
00000120: f97d 39bd 7dc3 043d 77c3 f4bd 37cc 14bc
00000130: d5aa 86bd fe26 71bd 39e9 913c ad9f 4a3e
00000140: 6034 bebb f0e8 0ebe 3b1e c4bd 8c94 74bd
00000150: cc61 2cbc c2a5 44bd 9d5e 06be 4257 5a3e
00000160: e7d9 dbbd 25fa c3bb f6a6 9cbc 8ab1 e93c
00000170: 8b9d 8dba e092 a73d a31b 243e 158c b9bd
00000180: 02ac 76bd 0224 f73c 1076 d6bd 5173 78bd
00000190: 0273 6d3c 3892 cdbc d125 2b3c a3d4 0fbd
000001a0: f2fb dabc 52b7 d2bd e0d8 87bd 9eb5 b93c
000001b0: 86d9 503d ee0c 43bc 23e4 1f3d 4741 003e
000001c0: 1330 a23c 2780 923c 1c26 32bc 1684 d43c
000001d0: a08f 9d3b cda5 b43d 1cec 80bd 32a5 d2bd
000001e0: 6afb 73be af08 44bd fec2 e73b f9d5 6bbd
000001f0: d118 0bbe 132c 1bbe 3e8d f03d f759 96be
00000200: dda8 e7bc 036e 4b3e 5db0 28bc 6a5f 3c3e
00000210: 2fec 72bd cd20 2d3d 7c3e 803d 4740 f83d
00000220: f5b0 463e d1b1 833d a3d5 af3c e849 cebd
00000230: 141b 203d 67a3 b43d 66c8 7abd 1f65 65be
00000240: 57e5 86bd 3c7c 8bbe ec6c bc3d e3d9 103e
00000250: 1de7 223e 82bf 5bbe de77 e7bc 4e01 0dbe
00000260: c130 823e e611 163d 473b a43d 7519 003c
00000270: e7b7 963e a3d9 383d 2a39 aebb c968 0abe
00000280: f2e5 703c c586 553d 9a54 a4bd c7e6 2abd
00000290: 6342 b13c 8819 01be 98ea d03d d582 c0bd
000002a0: ad56 74bd bdb4 14be e1db d93b 9636 c03d
000002b0: c10b 243d 7eb8 c5bc c895 0eba 420a 18bd
000002c0: a240 a43c 06bd a53d 8802 9dbd 7cab 0b3e
000002d0: f312 babc 4519 3b3d f22e 45bc 7752 c7bd
000002e0: 5d0e 303d 5629 7c3d 3b2c 493e a9d7 d73d
000002f0: fb24 3cbd 4da7 bfbd a1ca 80bd d78e 793c
00000300: 1f4b 96bc e33c bc3d 4d2d 9fbc a8cd 633c
00000310: 8fb7 50bd 0b2e ba3d b303 663d 5cf8 8ebd
00000320: 2a5d c539 0c02 86bc 7889 7c3c 97f2 e1bd
00000330: 3f99 993c 410c a33d a453 58be 4f7f 793c
00000340: e98f bd3c 1c95 75bd 436d 003e 5d38 e23d
00000350: c268 5ebe ce92 5a3d 7e3a ce3c d2bc e5bc
00000360: 837f 953d 8c69 3c3d 7d4c f63d b9eb 27be
00000370: 607a e2bd 6bae 18bd 39d0 e13b fc88 223e
00000380: a9aa 423e 05a8 163e d369 8abe 3a5e 37bd
00000390: 0bf3 c9bc f02f d23c 0ff6 7dbd a84e 503c
000003a0: 7fd2 06be 57c7 71bd 080a 8ebd e1ca bdbd
000003b0: b0ec b73d b89f 67bc 46fd aabc 681f 30bb
000003c0: 4ada f63c 4e45 373b 71ea fcbb 91ca 07be
000003d0: 09a6 643d abc5 23be f903 923d 6c87 1f3e
000003e0: dbae 33bd 20de 8bbd 3802 00be b15e cb3d
000003f0: b034 6a3d e97d 093e dc72 d4bc 81fc 36bd
-0.019542867 0.23263231 -0.10012557 0.15644096 -0.15651964 -0.26698598 -0.12622593 0.050728556
-0.03734175 0.039010707 -0.07136172 0.0046287235 -0.16607551 -0.20299095 0.03628618 -0.102190174
0.18603319 -0.14502728 0.17410654 0.017629912 0.050001837 -0.035949696 -0.16974 -0.06783387
0.0015226998 -0.13194144 -0.01856083 -0.045755554 -0.09044472 -0.08644581 -0.19752587 0.011979568
-0.08617799 0.10046471 -0.066516355 0.01545485 0.1545378 -0.22077687 0.011992094 -0.025751537
-0.1154645 -0.30287513 -0.15750644 -0.021552553 -0.042844933 0.02133656 -0.011414271 -0.114827566
-0.022583406 0.07451339 -0.025152095 0.0062155 0.020443305 0.049479637 0.20065472 0.036100946
0.06514976 -0.10318357 -0.10937541 0.032758623 -0.15247849 -0.12165811 -0.011536207 -0.034624275
0.0055642584 -0.03411277 -0.013193014 0.09003201 0.11266707 -0.013965303 0.078044035 -0.16203816
-0.045286153 0.032412995 -0.119513445 -0.009081892 -0.065755524 -0.058875076 0.017811405 0.19787474
-0.0058045834 -0.13956046 -0.095760785 -0.059711978 -0.0105213635 -0.04800964 -0.1312203 0.21322349
-0.10734921 -0.0059807473 -0.019122582 0.02852704 -0.0010804398 0.08182311 0.16026168 -0.09059922
-0.060222633 0.030168537 -0.104717374 -0.06065685 0.014492752 -0.025094137 0.010446028 -0.035114896
-0.026731465 -0.10288872 -0.066331625 0.02266961 0.050988697 -0.011904938 0.039035928 0.12524901
0.019798314 0.017883373 -0.010873344 0.02594189 0.004808381 0.088206865 -0.06295034 -0.10285415
-0.23826376 -0.047859844 0.0070728054 -0.057577107 -0.13583685 -0.15153532 0.1174569 -0.29365513
-0.028278762 0.19866185 -0.0102959545 0.18395773 -0.059307273 0.04226761 0.06261918 0.12121635
0.19403441 0.064304 0.021464175 -0.1007269 0.039088324 0.08820229 -0.06122627 -0.22401856
-0.06586712 -0.2724322 0.09200463 0.14145617 0.15908475 -0.21459773 -0.0282554 -0.13770029
0.2542782 0.036638163 0.08019119 0.007818569 0.2943718 0.04512943 -0.005316873 -0.13516535
0.014703261 0.05213048 -0.08023949 -0.041723993 0.021638101 -0.12607396 0.10200995 -0.09399954
-0.059652973 -0.14522071 0.006648526 0.093854114 0.040050272 -0.024135824 -0.0005439189 -0.037119158
0.02005035 0.08092694 -0.076664984 0.13639635 -0.022714114 0.045678396 -0.012035118 -0.09732526
0.042982448 0.06156286 0.19645779 0.10539181 -0.045933705 -0.09358082 -0.062886484 0.01523181
-0.018346367 0.09191301 -0.01943078 0.013904013 -0.050956305 0.09090813 0.05615587 -0.069809645
0.0003764418 -0.016358398 0.0154136345 -0.110325985 0.018749831 0.079613216 -0.21125656 0.015228107
0.02313991 -0.059956655 0.1254168 0.11045907 -0.2171965 0.05336266 0.025174376 -0.028044138
0.072997116 0.045999095 0.12026308 -0.16398515 -0.110584974 -0.037275713 0.006891277 0.15872568
0.19010414 0.14712532 -0.27033862 -0.044767596 -0.024652025 0.025657624 -0.062002238 0.012714066
-0.13166235 -0.059027996 -0.06935507 -0.09267212 0.089806914 -0.014137201 -0.020872723 -0.0026874188
0.030133385 0.0027964893 -0.0077183773 -0.13260867 0.055822406 -0.15993373 0.07129664 0.15579003
-0.043867927 -0.06829476 -0.12500846 0.0993017 0.057179153 0.13426937 -0.025933675 -0.0446744
