results/PreyTest2/PreyBrain/PreyBrain-2499996.pt (torch, 447775 bytes, 36 tensors)

network_body._body_endoder.seq_layers.0.weight f4 [128, 9]
00000000: 1bb5 663c 1d26 113f 316e e2be df97 3abe
00000010: f8c9 12bf bdad 2c3e 0019 933e 2852 03be
00000020: 1c92 02be 611b 083f ee56 bbbd 717c 3c3e
00000030: f742 b93e 8360 3b3f fb20 723f 800d 793e
00000040: 548e 493e 215a debe d4a1 4b3e 9a41 13be
00000050: ede5 de3d 5024 61be 011e e4be 0b0f 7dbe
00000060: a8f3 e2bc f493 cfbe ece4 8c3d ce8e 5a3e
00000070: df1c 9bbe 6764 07bf c51d 8fbc 43d9 eb3e
00000080: e504 253f 6907 8a3e f5d8 c1bd 97b2 e23c
00000090: 321d b33d 4e6e 55be d95f 0b3e 1492 fbbe
000000a0: b7ad 023f c576 3f3e 19cc 4ebf e937 c8be
000000b0: 7297 c9bd 786f 5dbe 11c8 f7be 9daf 833e
000000c0: ce7a 923f 085a 343f 98c7 87be b099 69be
000000d0: d725 ec3e 3f63 6ebd 518c 0f3e 8f61 653d
000000e0: 1cd3 d83e 7ef9 513e 627a 113e f1aa 953e
000000f0: 9925 08bf e0e3 1d3f 99d2 9cbc 3394 b33d
00000100: 5afb 123d 51c3 bfbd aead c3be d895 0a3f
00000110: 4e19 b23e db4a 49be feaf ba3e c3b1 23bb
00000120: 0bc5 803e e3b7 013e 78a9 de3e b330 59be
00000130: b7e8 91bd 871f c53e 1070 7ebd 7f0b 033e
00000140: 4a67 a6be d2b1 333e 4428 613e d63b 88be
00000150: c95d 00bf b716 983e dcb7 6fbe 2878 d5bd
00000160: b8e8 3e3e 1d4b fb3e 76d2 74be 0694 1cbf
00000170: 5db6 28be eba9 f03c 0036 203f a951 acbb
00000180: baf3 203c e8ae 663d e205 e93d 3eb6 7cbd
00000190: dfd0 fabc ffe4 14bd 3126 3ebe 579c 24bf
000001a0: ed70 323f 1ed2 463f 1a0d 563e e4ff 2bbe
000001b0: ba5c a7bd 787e 16be 24b2 0a3f bcd8 383f
000001c0: 5dcc 5dbe 4963 1bbf 545a 77be c209 683e
000001d0: 6be0 0cbf 4b21 3cbe ba96 b1bd 887d e53e
000001e0: ffd3 503e 7e5b 083f b2e6 743e b624 12bf
000001f0: 0d65 c33d 526a febe fe3d a33e 8119 31be
00000200: 6dc6 9c3e 3c81 363e 8b55 f4bd eaa6 873e
00000210: 69b8 46be 38cb 153f 2ea8 13bf fc1b e8be
00000220: 6f92 84be 3fb2 0c3e 3f22 37be 0438 d3be
00000230: 5053 803e c4f1 81be 7a82 833e 3ecb 9fbe
00000240: b0e7 ddbd e226 0bbe 1c8f d3be 99cc 8abe
00000250: 2095 53be 162c 34bf 5c71 b3be 0584 2e3e
00000260: 1edc d6be c971 b4bd fe5c 103f 1eee 9cbe
00000270: 912e 0fbe b49c 4dbe bb6d 333f 4b42 59bd
00000280: 9d5c bbbe 9f3a a63e 79c5 d93d cdc1 e4bd
00000290: d9e2 d93d dd1b 68bd 96bc 733e 2b82 993e
000002a0: 78a7 1a3e 7fd5 613e 2a27 0dbf a9a8 d7be
000002b0: d3d1 143d 88f5 26bf 08d2 11bf abc9 20bc
000002c0: 8f4d c4bd 1ecd 0b3e eeb8 913d 54fb a6bd
000002d0: eb82 00bc 68af f3be d962 883f fc28 233d
000002e0: 540a e73e 6ec3 483d 54ad d4bc 5a78 f43d
000002f0: e26d 1b3f 7ecb 82be 9cde 253d cb0e 93be
00000300: b364 0f3e 8bfb 043e bba4 003d e0d2 b8bd
00000310: 4f4d dcbd 0739 d73e 4413 d1bd 602a babe
00000320: 631e 3bbd 0a94 16be 1375 693e 51c6 cebe
00000330: 5159 053f 188e 0dbf fbf9 6d3c 0052 d6be
00000340: b0d5 03be 9695 b6be f28c b43e d3f1 4abe
00000350: c80a e7bd ce9e c03d d95a 22be e2e1 e63e
00000360: 6121 83be 78ba 823e 1142 bf3e 2fe7 f0bd
00000370: 3077 fc3e 3940 1dbd 6127 a83e d3c4 6abe
00000380: 9676 09bf fdaa a7be f61c eebe fc8e 32bd
00000390: d2ac 43bd cfe7 bf3e b02e 7a3f 9869 cb3e
000003a0: e854 093f d0a4 0fbf a3b4 e2bd decb d73e
000003b0: 7504 293f df4d debd bf94 da3e 4b9d 4d3f
000003c0: 3fdd bb3e f83a 543e 4145 32bf 110c f03e
000003d0: 9e6f 47be e9ca 9e3e 650a 83be 3feb 753e
000003e0: af80 c23e eab5 4ebe bf00 0d3e 6012 a23e
000003f0: a915 bcbd edbe aebc 710f 35be 9cbe 2ebf
0.014081265 0.5669878 -0.44224694 -0.18221997 -0.5733943 0.16863151 0.2873001 -0.12824309
-0.12751049 0.53166777 -0.0914744 0.18406846 0.36183903 0.7319414 0.94581574 0.24321556
0.196832 -0.43428138 0.19885951 -0.14380494 0.108836986 -0.21986508 -0.4455414 -0.2471277
-0.027704075 -0.40542567 0.06879601 0.21343538 -0.30295464 -0.52887577 -0.01747025 0.46064195
0.64460593 0.26958779 -0.094652094 0.027673049 0.08745803 -0.20842859 0.13610782 -0.49134886
0.5104632 0.1869765 -0.8078018 -0.39105156 -0.09843339 -0.21624553 -0.48394826 0.2571992
1.1443727 0.70449877 -0.26519465 -0.22812533 0.4612262 -0.058200117 0.1401837 0.056001242
0.42348564 0.2050533 0.14206842 0.2923198 -0.5318237 0.61675835 -0.01914339 0.08768501
0.03588424 -0.093634255 -0.38218445 0.54134893 0.3478493 -0.19657461 0.36462396 -0.002497778
0.25150332 0.12667803 0.4348867 -0.21209984 -0.07124465 0.38500616 -0.06211859 0.12797354
-0.32500678 0.17548302 0.21988016 -0.2660815 -0.50143105 0.2970483 -0.2340998 -0.104233086
0.18643463 0.49080744 -0.2390841 -0.61163366 -0.16475816 0.029377898 0.625824 -0.005258758
0.009823734 0.056319147 0.11378075 -0.061697237 -0.030617176 -0.0363512 -0.18569256 -0.64301056
0.6970356 0.77664363 0.20903435 -0.16796833 -0.08171983 -0.14696681 0.5417807 0.7220571
-0.2165999 -0.6069837 -0.24155551 0.22659972 -0.55029935 -0.18372075 -0.08671327 0.44822335
0.2039337 0.53264606 0.23916128 -0.57087266 0.09540758 -0.4969049 0.31883234 -0.17294885
0.30620137 0.17822737 -0.119303785 0.26494533 -0.19406284 0.5851321 -0.57678497 -0.4533385
-0.2589297 0.1373987 -0.17884158 -0.41253674 0.25063562 -0.25379765 0.25685483 -0.3120975
-0.108352065 -0.13589051 -0.4132012 -0.2710922 -0.20662355 -0.7037977 -0.35047424 0.17042549
-0.4196481 -0.08810765 0.56391895 -0.3065042 -0.13982607 -0.20079309 0.7008931 -0.053041738
-0.36594096 0.324666 0.10633368 -0.11169777 0.10638971 -0.056667197 0.23802409 0.29982123
0.15102947 0.22054099 -0.55137885 -0.42120865 0.036332916 -0.652184 -0.5696111 -0.009813706
-0.09585106 0.13652465 0.07115351 -0.08153406 -0.007843713 -0.47594762 1.0655166 0.039834008
0.45125067 0.0490145 -0.025961556 0.11937018 0.6071454 -0.25545877 0.0404955 -0.28722224
0.14003257 0.12986581 0.0314071 -0.09024596 -0.10756933 0.42035696 -0.10208753 -0.36360455
-0.045683276 -0.1470491 0.22798567 -0.40385678 0.5208941 -0.5529494 0.014524932 -0.41859436
-0.12874484 -0.35661 0.35263783 -0.19818811 -0.11281353 0.094052896 -0.15854968 0.4509421
-0.25611404 0.2553289 0.37355092 -0.11762845 0.49309683 -0.038391326 0.32842544 -0.22926645
-0.5369657 -0.3274764 -0.4650647 -0.04359339 -0.047772236 0.37481543 0.9772749 0.39729
0.5364518 -0.5611086 -0.1106961 0.42147726 0.66022426 -0.108546965 0.4269161 0.80318135
0.36692235 0.2072562 -0.69636923 0.46884206 -0.19476172 0.31014183 -0.25593868 0.2401552
0.37988803 -0.20186582 0.13769816 0.31654644 -0.09183819 -0.021331275 -0.17681672 -0.68259597

network_body._body_endoder.seq_layers.0.bias f4 [128]
00000000: 29f9 753c 8650 6d3d 6843 d0bd f1d4 033c
00000010: e707 e9bc 14ac 483c bb4f 393d 4175 8b3d
00000020: 9229 dc3c c370 473d 0112 34bb efa7 46bd
00000030: 72b2 95bc 0b48 143c 5263 513d 33b1 5bbd
00000040: c75a 9d3d 6c95 503d 7f32 223d 41d6 09bd
00000050: 6b44 563d 941c 8f3c 5eb0 1ebd 1a44 f33c
00000060: c2af 193e 067d 113e b549 223e 68f5 963c
00000070: c671 60bd 904f 8d3c 0ffe 1f3d 3974 e2bc
00000080: 0ffe 2b3b 0903 0c3d a1e3 813d 6a4a fb3c
00000090: d272 113d 5bb5 abbc a8ff b53d 3f89 3c3c
000000a0: 43b4 913c 5808 bb3c a529 0ebd 9163 d63c
000000b0: ddb1 753d 2367 b93c 716b 283b 6b34 fc3c
000000c0: a8f6 f7bc 9f38 963c cfa3 51bd 3cde 6a3d
000000d0: 0df5 0c3d d02d a53d f267 8f3c 8e7a 22bc
000000e0: adc0 dc3d 372e 473d 0c9c 393e 0df1 253d
000000f0: be4d 3a3c 05d5 4c3d a609 28bc 76e7 6c3d
00000100: cd07 21bc 6043 1c3d 8d68 dcbb 5295 c53c
00000110: c7a5 503d 93ff 8dbd deab 2d3d f75b ad3b
00000120: 49e4 973d 0aa1 f338 b5a5 ccbd b23b b93d
00000130: 8c20 dbbd c0ed adbb aeeb 52bb 5c0c 2d3d
00000140: 584e 3c3d eb6b 8e3c 7d34 b23d 3952 b33c
00000150: 707f 663c 4708 a03c 4a43 403b d08a 143c
00000160: a77e 59bc 3077 dd3d 78a8 df3c 2047 1c3c
00000170: 4444 683d 5117 b53c 0ed9 b73d 5ace 1e3d
00000180: 3ca2 5e3c 9483 cf3d 001b 283b 715b 043c
00000190: c825 953d c458 813a 5c85 75bd 60d7 033c
000001a0: 5b6d 213d d320 e3bb ef15 b83d 9ce5 b9bd
000001b0: ad39 883d 2a6f 86bc 5678 7c3d 2f15 9d3c
000001c0: 637b a5bc 50f2 633d 88b8 653e 4006 3ebc
000001d0: 825f e23d 3d8b eb3b cecb 0ebc b342 523d
000001e0: 5626 953d 6509 49bd 6a90 d63c 7760 613d
000001f0: 0d74 3b3d aa1b f73d d9f8 cdbc 749d cebd
0.015013018 0.05793812 -0.10169107 0.008046375 -0.028446151 0.012248058 0.045242053 0.06809474
0.026875291 0.048691522 -0.0027476551 -0.048499998 -0.018273566 0.0090503795 0.05112011 -0.053635787
0.0768333 0.05092375 0.039598938 -0.033651594 0.052311342 0.017469682 -0.038742416 0.02969556
0.15008453 0.14207849 0.1584843 0.018427566 -0.054796003 0.017249852 0.03906065 -0.02764331
0.002624396 0.034182582 0.06342245 0.030675132 0.03550989 -0.0209605 0.08886653 0.011507331
0.01778615 0.022831127 -0.034707684 0.026170524 0.059984077 0.022632187 0.0025698806 0.030786714
-0.030268982 0.018337546 -0.05118161 0.057340845 0.034413386 0.08065379 0.01750562 -0.009916915
0.107789375 0.04862806 0.18125933 0.040513087 0.011371074 0.05000784 -0.010256207 0.057837926
-0.00982852 0.03815019 -0.0067263306 0.024119053 0.050939348 -0.069335125 0.042400233 0.005290504
0.07416589 0.00011617139 -0.099925436 0.09044589 -0.10699567 -0.005307883 -0.0032183933 0.042248115
0.045973152 0.017385444 0.087014176 0.021889793 0.014068469 0.019535197 0.0029336982 0.009066299
-0.013274825 0.10813749 0.027302012 0.009538442 0.05670573 0.022105845 0.08976947 0.03877101
0.013588484 0.101325184 0.002565086 0.008078442 0.07282597 0.0009868373 -0.059941635 0.008046955
0.03941093 -0.006931403 0.089885585 -0.09076998 0.06651626 -0.016410429 0.0616382 0.01917514
-0.020200437 0.05565101 0.22433674 -0.01159817 0.11053373 0.0071882294 -0.008715583 0.05133314
0.072827026 -0.049081225 0.026191909 0.055023637 0.04576497 0.120658234 -0.025143074 -0.100886256

network_body._body_endoder.seq_layers.2.weight f4 [128, 128]
00000000: 43ea 86bc 7aa1 6c3e d7b1 d1bd e7ce 1d3e
00000010: 496c 1fbe deee 8cbe 7fef 09be 2890 4f3d
00000020: bdf5 07bd 2aa5 053d e879 91bd 4b68 983b
00000030: b700 2ebe 0042 46be e5ec 293d cfe5 b5bd
00000040: dca0 4e3e a6cb 1fbe 8867 3c3e f4a3 e93c
00000050: 1cf2 303d d4c2 24bd 5e27 2ebe f877 81bd
00000060: fccc c03b 5ac1 04be bee3 5fbc ca7b 5abd
00000070: b53f a3bd 1a4d acbd 21db 54be 9f9e 043c
00000080: 6815 babd 26b6 cb3d bab5 aabd b4a0 a03c
00000090: 26c5 1a3e 267d 7bbe 6e09 b23b 53f0 bebc
000000a0: ba0e fcbd c902 a3be 938f 1fbe 5914 ddbb
000000b0: c60d 51bd 59e0 8b3c a7ec 5b3b 0c4d ebbd
000000c0: cde8 f2bc ffe0 a53d 453a 00bd f2b0 883c
000000d0: 9126 8d3c d5e7 653d d0b7 523e 0663 043d
000000e0: 4b5e 8f3d 28d0 c4bd 8eeb e2bd 00f2 0f3d
000000f0: 8a57 2cbe 0825 02be 1057 2abc 1611 edbc
00000100: d443 fa3b 47dc 44bd d950 68bc d58c ae3d
00000110: 944f e63d 504c 71bc 9a4f af3d 5b20 31be
00000120: 2d18 48bd a9ce 123d ff9f f5bd 87cb f1bc
00000130: 5e6a 71bd e05a 98bd 5f73 413c 609b 453e
00000140: ef8d 73bb 57d7 1dbe b0c2 c4bd b274 98bd
00000150: 40d2 8bbc 9900 44bd 62c2 05be 2862 643e
00000160: f981 d1bd 9923 42bb 2934 0ebd f808 0b3d
00000170: cd6a 32b9 9b61 903d 2386 263e 6976 a3bd
00000180: 7080 7cbd 6d33 273d 3755 d3bd 7617 8fbd
00000190: 6419 3a3c 6197 21bd 0d54 813c d7ff 23bd
000001a0: 87c2 2cbd fc8f cebd 7a94 81bd 5dab c83c
000001b0: 3d0d 823d f054 27bc e415 f83c 7ebe 013e
000001c0: c804 9b3c 84b1 213c 8c24 45bc 882d c43c
000001d0: 309c 863b 564c b33d 11ba 8ebd 11a5 dcbd
000001e0: 3f31 79be f3d6 8dbd fb16 1c3c a545 80bd
000001f0: 99d2 02be d7e8 14be c398 eb3d dc76 9dbe
00000200: dcef f3bc 25c1 4b3e f5d8 6fbc ebe6 343e
00000210: 2443 85bd 7e57 773d a5fe 733d 7ea2 e83d
00000220: 5054 413e 9122 553d f2ca fc3c e7c7 ccbd
00000230: 8328 653d 4724 bc3d 1459 7dbd 46cc 5bbe
00000240: cca1 84bd 19eb 8dbe 52ad c63d ae8b 163e
00000250: ce28 1d3e 5025 53be 4e69 d4bc 2630 09be
00000260: 54bc 873e b0ab 3f3d 507f b33d e686 6ebb
00000270: f71c 963e 50e3 433d 83b0 05b8 dfc8 07be
00000280: 5fad 203c 8a4f 713d a5fa aabd 2c9a 34bd
00000290: 905d 413c fb76 07be 5b3c c63d 28c6 86bd
000002a0: 5c4e 57bd 00fa 19be 6111 3b3c b193 cc3d
000002b0: 5eec 0a3d fd9f b2bc 39ee aabb fd48 17bd
000002c0: 076a 803c 835b 8a3d 055a 9cbd c7b9 0b3e
000002d0: cc28 55bd 20ea 1f3d 38ca 41bc 85b7 bcbd
000002e0: 47c3 4b3d 2169 793d dcb1 4b3e d09e e63d
000002f0: 4087 4dbd 227a bbbd 211e 72bd 5036 b33c
00000300: f701 81bc 92e9 b33d 595b 98bc 2dee f13b
00000310: d9cb 55bd 311a bf3d 06a2 5c3d 04ee aabd
00000320: ed3c 463a 8e4e c7bc c1b9 a03c dadf f7bd
00000330: 8991 883c 45ff 873d 7540 54be bb81 4e3c
00000340: 39b2 a93c 36ef 66bd 482d 063e 283f e43d
00000350: 0ea7 63be aac9 7f3d 61a2 083d 6ddb 9fbc
00000360: eb57 9b3d cb35 6d3d a584 e83d 9e81 20be
00000370: f48e ccbd 9286 22bd 82a0 113c 6418 283e
00000380: 8bb4 443e cdab 1a3e 7db4 89be 50fa 35bd
00000390: 7787 18bd e5cc 0e3d 1b75 81bd 2721 3d3c
000003a0: 0286 14be 7d6e 5ebd c347 81bd 7dc2 dbbd
000003b0: 4040 c93d 255b b5bc 2440 f0bc 65c4 c4ba
000003c0: 1a5c 0a3d 222a d8bb 95eb df3b a646 15be
000003d0: cf6b 713d 4375 20be 7cb2 933d 5501 243e
000003e0: dbda 37bd 720f 97bd f5c2 07be 5ac2 ca3d
000003f0: c831 6a3d 2bfb 133e 9020 86bc e556 48bd
-0.016469127 0.23108473 -0.102389984 0.15410958 -0.15568651 -0.2752599 -0.13470267 0.050674587
-0.03319334 0.032628216 -0.0710333 0.0046511046 -0.1699246 -0.19361115 0.041485686 -0.08881723
0.2017855 -0.1560503 0.18398869 0.028520562 0.043199643 -0.040224865 -0.17007205 -0.0632171
0.005883811 -0.12964383 -0.013665138 -0.05334071 -0.079711355 -0.084131435 -0.20786716 0.008094459
-0.09086114 0.099468514 -0.08335443 0.01960788 0.15114269 -0.24559459 0.005433253 -0.023307955
-0.12307496 -0.31838062 -0.15582113 -0.0067468104 -0.051038526 0.01707475 0.0033557804 -0.11489305
-0.029652024 0.08099555 -0.03130557 0.016685937 0.017230304 0.056129295 0.20577931 0.032321
0.07000407 -0.09610015 -0.11080085 0.0351429 -0.16830269 -0.12709439 -0.010396734 -0.028938811
0.0076374803 -0.048061635 -0.014179432 0.08522955 0.11245647 -0.014727667 0.08560105 -0.17297499
-0.04885118 0.035841618 -0.119934075 -0.029515995 -0.05893933 -0.07439208 0.011807292 0.19297552
-0.0037163456 -0.15414177 -0.09607446 -0.07444133 -0.017068028 -0.047852132 -0.13062432 0.22303069
-0.102298684 -0.0029623269 -0.034717713 0.0339441 -0.00017015189 0.07049867 0.16262107 -0.07981569
-0.061645925 0.040820528 -0.10318988 -0.06986897 0.011358593 -0.039451007 0.015787149 -0.04003891
-0.042177703 -0.100860566 -0.06327148 0.024495775 0.06350181 -0.010213122 0.030283876 0.12670323
0.018923178 0.009868983 -0.012032639 0.023947492 0.0041079745 0.08754794 -0.06969083 -0.107736714
-0.24335192 -0.06925764 0.009526963 -0.06263284 -0.12775649 -0.14541946 0.11503746 -0.30754745
-0.02977746 0.19897898 -0.014639129 0.17666213 -0.06506947 0.060386173 0.05956902 0.11359118
0.18879819 0.05203492 0.03085849 -0.09999066 0.055946838 0.09186607 -0.06185253 -0.21464643
-0.06476173 -0.27718428 0.09701027 0.14701721 0.15347597 -0.20619702 -0.02592912 -0.13397273
0.2651087 0.046794593 0.08764517 -0.0036396324 0.29318973 0.047824204 -3.187406e-05 -0.1326022
0.00980696 0.058913745 -0.08348588 -0.044092342 0.011802092 -0.13228981 0.09679481 -0.06580764
-0.052564964 -0.15036774 0.011417718 0.099891074 0.033916824 -0.021804804 -0.0052163866 -0.03693484
0.015675558 0.06755736 -0.07634357 0.13645087 -0.05204086 0.03904164 -0.011827998 -0.09214691
0.049746778 0.060891274 0.19892067 0.1126076 -0.050177813 -0.09154154 -0.059110764 0.021876484
-0.015748007 0.087847844 -0.018598245 0.007383129 -0.052196357 0.093311675 0.053865455 -0.08346179
0.0007562179 -0.02432945 0.019619824 -0.12103243 0.01667096 0.06640486 -0.20727713 0.012604172
0.020714866 -0.056380473 0.13103211 0.111448586 -0.22231695 0.06244818 0.03335798 -0.01951381
0.075851284 0.05791263 0.11353425 -0.15674445 -0.09988204 -0.039679118 0.008888366 0.16415554
0.19209497 0.151046 -0.26895514 -0.04442817 -0.037238564 0.03486337 -0.06321164 0.011543549
-0.14504245 -0.05430459 -0.063125156 -0.10730455 0.09826708 -0.022138188 -0.02932746 -0.0015012143
0.03377924 -0.0065968195 0.0068335035 -0.14577731 0.058940705 -0.15669732 0.072117776 0.16016133
-0.04488645 -0.07375993 -0.13257964 0.09900351 0.05717638 0.14451282 -0.016372949 -0.048910994

network_body._body_endoder.seq_layers.2.bias f4 [128]
00000000: a387 a33d f2f9 9f3d 7b7b 69bc 9546 94bd
00000010: d546 0a3a ad4d 18bd 0d93 89bc b226 f83c
00000020: bef6 8a3d 1c79 5abd 2c18 b53c a617 243d
00000030: 8ffd 823d 76c9 a53c fbae fe3c a7d4 47bd
00000040: d6a5 3cbd 6f56 833d b54f a53d 48fd 173c
00000050: a1f6 f13c 8879 503d 134a 803d 8e81 993d
00000060: 1cdd 323c 451c 283d 72b5 d93d fc9a 9e3c
00000070: 4fcb 813d 58de babd 3b02 1dbd 36ef 8b3c
00000080: 4773 603c 2318 a5bc 3a74 1e3d aaaa 2cbc
00000090: 5316 ecbc 98c7 b63d 0b5f 9d3b 7172 9f3d
000000a0: d02d 6e3c ffcd bf3c 4d49 603d 5efb ca3d
000000b0: 0a94 723d 4ef4 c23b 2ca1 06bd 6448 1cbd
000000c0: 1ebb 2a3d 7e53 583d 3033 bfbc 7dd5 b6bc
000000d0: e844 d3bc 3f15 303d aedf 493c f198 af3c
000000e0: d1b8 9d3c 6c85 ae3c e8ea 953d f604 823d
000000f0: 6fe1 16bd d96c 753d 73a9 bdbb 77e0 753d
00000100: 2827 28bd 3f75 723d 0152 6a3c 9650 bf3c
00000110: a5ef 6c3d 900d 2cbd aa09 493d 0c22 243d
00000120: a295 b73c f129 133c 1b67 113d a69a 5cbc
00000130: b47e 9b3b 0be8 9b3c a3b3 b2bc 8e60 ad3c
00000140: ff62 7bbc 7f57 c13c e67f a13c 2a57 703d
00000150: 854e eebc 2f94 2c3c f1b5 4cbd 8704 863b
00000160: 5873 0d3d 4e07 3b3a 7691 4d39 3278 5cbd
00000170: 6b60 bc3d f562 26bd dedd 3e3c b5c3 f3bb
00000180: 190b 223d 0412 8b3c c96b ca3d 582c 6bbc
00000190: ca21 d13c 2409 0e3d 1228 0e3d 9926 84bc
000001a0: f9d3 253d 7bec ec3c 8c65 ffba c282 f33c
000001b0: b6df 8d3d 2a40 1bbb 22e6 d13c 46c4 553d
000001c0: d594 343c 639d 983c 1dcd dc3c 3b2c 75bb
000001d0: 4cb4 633b 7d31 7e3c 0dc2 073d a5ac 66bd
000001e0: 18af 443c e439 863b 7c01 193d 8a10 853d
000001f0: f134 233d b691 323c 17ef 3f3d 5f33 843c
0.07984855 0.07811345 -0.014250631 -0.07240025 0.0005274837 -0.037183452 -0.016793752 0.030291889
0.067853436 -0.053338155 0.022106253 0.040061615 0.06396019 0.020237666 0.031089297 -0.048786785
-0.04605659 0.0641297 0.080718435 0.009276696 0.029536547 0.05089715 0.062641285 0.07495414
0.010916974 0.041042585 0.10630311 0.019361012 0.06337606 -0.0912444 -0.038332205 0.017081838
0.013699359 -0.02015311 0.03868506 -0.010538736 -0.028819239 0.08924788 0.00480259 0.077855
0.01453729 0.023413656 0.054757405 0.09911226 0.059223212 0.0059495335 -0.03286855 -0.038154975
0.041682355 0.052814 -0.023339838 -0.022318596 -0.025789693 0.04298901 0.012321396 0.021435233
0.019253166 0.021303855 0.073201954 0.063486025 -0.036836084 0.05991826 -0.005788022 0.06002852
-0.041052967 0.059193846 0.014301778 0.023353856 0.05784573 -0.04200512 0.049081482 0.040071532
0.022410218 0.008982168 0.03549872 -0.013464605 0.004745329 0.019031545 -0.021814173 0.021164205
-0.015343427 0.023601292 0.019714307 0.058676876 -0.029090175 0.010533377 -0.0499782 0.004089895
0.03453383 0.00071345724 0.00019604512 -0.053825565 0.09198078 -0.040621717 0.011649577 -0.0074391016
0.039561365 0.016976364 0.0988384 -0.014353834 0.025528807 0.034676686 0.034706183 -0.016131686
0.040485356 0.028921356 -0.0019485219 0.029725436 0.06927435 -0.0023689368 0.025622431 0.052189134
0.011021812 0.018629735 0.026953274 -0.0037410397 0.0034744916 0.015514729 0.033144046 -0.05631699
0.012004636 0.0040962566 0.03735493 0.06497295 0.03984541 0.010898998 0.046858873 0.016137777

action_model._continuous_distribution.log_sigma f4 [1, 2]
00000000: 53eb e5bd 0a29 13be
-0.11226525 -0.14371124

action_model._continuous_distribution.mu.weight f4 [2, 128]
00000000: 0e7a e7bd 26c5 8fbd 4858 c0bc 3bb3 1a3d
00000010: 38ce 063e 4227 a83d 60ca 9c3b ef62 db3d
00000020: 29c6 a8bd fbc9 113d beee 733d d7ba 02bd
00000030: bafa 92bd 4c54 05bc 0d6b 2abd 777a 663d
00000040: 1ced 35bc ac66 533e e115 02be 364d c8bc
00000050: ea73 7bbd 13f2 163e cea4 7cbd f46d babd
00000060: 7f3c 1bbd 9dae 31bd 0621 8cbd 06d4 88bb
00000070: a81a cbbd d4b6 dc3d c2dc 9e3d 0a51 dc3b
00000080: f462 a9bc cc76 f83c c68c 2dbd de3a 263d
00000090: 7e69 a23c a52c 8cbd 2450 ed3d 05bd 2bbd
000000a0: ab9e 2ebd de3e 09bd 3c9e 9dbd a2e2 433e
000000b0: 0b0f e33c e021 c3bc c5a8 7bbd e90f 9b3d
000000c0: b26d c03d 6064 ae3d 4432 4f3d 0e3d 9e3c
000000d0: 937d 1a3e 95e8 80bd 3040 13bd f10c 5d3d
000000e0: 680b 063e 5c04 e53b 8a71 b23d 01ac 39bd
000000f0: 790e cf3c 42ca c4bd 25e7 163d 7f2d 3c3e
00000100: f44f 593d c6c7 b23d a4de c7bd a932 3ebd
00000110: f90b 78bd 8b1e d83d 1328 bb3b 09be 67bd
00000120: 2b90 80bd 7a82 eb3c 718e 85bd d22f c83d
00000130: 72b1 ed3d 97a3 b8bc c706 bd3c f485 6d3d
00000140: 3c84 e8bb 5be1 3ebb 9cf5 ae3d f1b3 53bd
00000150: 49ac 213d ed5b 263e 9b34 3f3d bb68 4abd
00000160: 36d3 1b3e ddc6 46bd 4792 833c 3cd1 e63d
00000170: 5571 aebd 5ae2 b23d aa5a 123d 9ca6 4abd
00000180: 1f20 9dbd d2ab f83c a632 acbd 8aec cc3d
00000190: 51de 053e a126 c4bc a14d cc3d a9d7 843c
000001a0: ff65 18bb d2ef fe3a 4c4b 4e3d bea6 f03d
000001b0: 3dfa 1abe 1b7d e8bc c575 50bd 8831 033e
000001c0: 7482 173e b941 69bd 7bcf 5b3e e001 bc3d
000001d0: 53d2 0f3e d978 923d 915e f33d b156 393d
000001e0: a786 bfbc d30b 1bbc d246 c3bc 989e aebd
000001f0: d9bc 823d 6b07 5abd c1cd 1ebd d491 e43b
00000200: 7a96 4b3b 0955 dfbc 95c9 9bbc 8827 f83c
00000210: 2412 ffbb 5538 a03b 4b4f e93c afb8 9dbd
00000220: e7bd fcbc be42 cc3c ead8 18be b29e 573d
00000230: b489 0f3d 6e58 b4bd 72f1 0d3d 23aa db3c
00000240: da76 a7bc 453b 89ba e975 8d3d 0667 863d
00000250: 1a5e e3bc e312 04be 0caa 443c 933d bfbc
00000260: 0cda fdbc 3ec3 fe3c 54c8 b2bd 1100 9b3d
00000270: e6d2 463d 51e7 87bc 9b82 d5bc a5fd 92bd
00000280: c818 1e3c efee 34bd 60a2 edbc febb 063e
00000290: a33d c83d a79d 18bb a9fc 62bd 041e afbd
000002a0: bf8f 8b3d b5dd 583d e906 7a3d f3b9 03be
000002b0: 598e 34be e244 abbd 2fe0 f3bb d242 063c
000002c0: 3208 efbd eeae 143d 169b 88ba 3ec4 0f3d
000002d0: a618 e6bc 6ec7 8cbc 5999 ca3c 204f 4a3d
000002e0: 4c6e 82bd fdba a23d 3bb3 6c3d 2af2 793c
000002f0: 3aed dc3d 882b 72bd 2335 95bd bd91 53be
00000300: 89ee 11bd e0c8 973d 725b ef3d 2663 1dbc
00000310: 9fd5 f1bc fa4e ee3c 1715 e73d 360c 72bd
00000320: 50e8 a43d a8e8 123d f370 73bc 4603 24bd
00000330: 6cf8 813c e6a1 24bd 3259 f43c 00d3 9abd
00000340: deeb 22bd 8d22 2d3d 1d3f 4d3e 480d 9cbd
00000350: 3759 1ebd 70a6 27bd 060e 453b ed07 173d
00000360: 3f81 f8bd f918 05bd 38a1 593d acb1 773d
00000370: 0265 38bd c543 77bd b16c 5c3d 04ac 8fbd
00000380: 1a3d cabc 87be b13d d641 5cbd 1cf4 5dbd
00000390: ce75 99bd 86cd e33c 9a8c 8a3d c5b5 593d
000003a0: b77d 18be c426 d03d 9151 a03c d75d 48bd
000003b0: cf9b 223d c9da bbbc c641 323d ffcc 9abd
000003c0: 78fd bcbd 7307 7cbd de58 f9bd f7bc 30bc
000003d0: 2ee9 353c c55a 30bd 193a 1abe 874d 2cbc
000003e0: fe7c 623d 6453 4b3d cc20 2fbc f06f 1abc
000003f0: 1fab fbbb 1cb5 69bc fe21 1738 a586 263d
-0.11302577 -0.07020025 -0.023479596 0.037768584 0.13164604 0.08210613 0.004784867 0.107122295
-0.08240921 0.035593014 0.059553854 -0.031916466 -0.071767285 -0.008137774 -0.041605998 0.056269135
-0.011103895 0.20644635 -0.12703659 -0.02445088 -0.06138984 0.14740781 -0.061680607 -0.09103003
-0.03789949 -0.043379415 -0.06842236 -0.004175666 -0.09917194 0.10777059 0.0775695 0.006723528
-0.020677067 0.030330084 -0.04237058 0.040583484 0.019825693 -0.06844453 0.11587551 -0.04192831
-0.042631786 -0.03350722 -0.076961964 0.19129422 0.027717134 -0.023819864 -0.061440248 0.07571394
0.09395923 0.08515239 0.050585046 0.019316223 0.15086965 -0.062943615 -0.035949886 0.05396742
0.13090289 0.006989045 0.08713062 -0.04533005 0.025275456 -0.0960889 0.03684153 0.1837673
0.053054765 0.0872951 -0.09759262 -0.046435032 -0.060558293 0.105527006 0.0057115643 -0.056577716
-0.06277498 0.02874874 -0.06521309 0.09774746 0.11606111 -0.022538943 0.02307452 0.057989076
-0.0070958417 -0.0029126022 0.0854294 -0.051685277 0.039470945 0.16246004 0.046681028 -0.049416285
0.1521729 -0.048529495 0.016060961 0.11270377 -0.0851771 0.087345794 0.035730995 -0.049475297
-0.07672142 0.030355368 -0.08408098 0.10006054 0.13073088 -0.023944201 0.09975744 0.016216116
-0.0023254154 0.0019450134 0.050364777 0.117505535 -0.15134521 -0.028379967 -0.050893564 0.12811863
0.14795858 -0.056947444 0.21465866 0.09180045 0.14045076 0.07151956 0.118832715 0.04524869
-0.023379637 -0.009463268 -0.02383748 -0.08526343 0.06383676 -0.05322973 -0.03877044 0.006975392
0.0031065033 -0.027262228 -0.01901702 0.030292287 -0.007784145 0.004889528 0.028480193 -0.07701241
-0.030852271 0.024934169 -0.14926496 0.052641578 0.035043433 -0.08805929 0.03465409 0.026814526
-0.020442415 -0.0010469934 0.06907255 0.06562619 -0.027754832 -0.1289783 0.012003433 -0.02334479
-0.030987762 0.031098958 -0.08729616 0.07568372 0.048540972 -0.016589792 -0.026063254 -0.07177285
0.009649463 -0.044173177 -0.02900809 0.13157651 0.09777381 -0.0023287327 -0.055416737 -0.08550647
0.06814527 0.05294581 0.061041746 -0.12863903 -0.17632426 -0.08362748 -0.0074424963 0.008194642
-0.11671485 0.03629964 -0.0010422196 0.03509926 -0.028087925 -0.01718494 0.024731325 0.049391866
-0.06368694 0.079458214 0.057788115 0.01525549 0.10787435 -0.059123546 -0.07285526 -0.20661063
-0.035627875 0.07411361 0.11687364 -0.009606158 -0.029520808 0.029090393 0.112833194 -0.059093677
0.080521226 0.03586641 -0.014858472 -0.040042184 0.015865527 -0.04019346 0.029827688 -0.07559776
-0.03977572 0.04226928 0.20043607 -0.07619721 -0.0386593 -0.04093021 0.0030068173 0.036872793
-0.12134027 -0.03249452 0.053132266 0.060472175 -0.045018204 -0.060367364 0.053814594 -0.07015231
-0.024687339 0.08678918 -0.053773724 -0.05418788 -0.074931726 0.027807962 0.06765099 0.053151865
-0.14891706 0.10163644 0.019570144 -0.048917618 0.039699372 -0.022931473 0.043519758 -0.07558631
-0.09228033 -0.06153054 -0.12175153 -0.01078724 0.011102958 -0.043055315 -0.15061225 -0.010516531
0.055294983 0.049640074 -0.010688972 -0.009426102 -0.0076803113 -0.014264371 3.6032863e-05 0.04065575

action_model._continuous_distribution.mu.bias f4 [2]
00000000: 4cc4 52bd 5951 cbba
-0.051456735 -0.0015511914

exp_avg f4 [128, 9]
00000000: f23a 593a 986f a938 e216 21b9 44b6 6ab9
00000010: 7027 fe38 8aaa d238 1886 43ba 7027 fe38
00000020: 9ad5 87b9 2871 b63b 9c74 2f3a 6571 23ba
00000030: 6e36 34ba 7697 833a c443 703a f82d c4bb
00000040: 7697 833a 88cd d8b8 1fc3 523a 34a0 a638
00000050: 77fc beb8 1a01 75b9 55f0 f938 6007 a438
00000060: d381 38ba 55f0 f938 f479 68b8 113e 06ba
00000070: 6735 edb7 4cac 2e39 57f7 95b9 1ae8 31b8
00000080: 643a b037 0cb9 6b39 1ae8 31b8 be56 88b9
00000090: 0952 a3ba aa79 9eb9 1678 9739 0cd9 8639
000000a0: 80b6 edb9 13d0 48ba 5c23 213b 80b6 edb9
000000b0: 68bd 8cb9 fbe8 9b3a 4794 4c39 66e3 4ab9
000000c0: 4781 5a3a 356f 9939 9ae4 3e39 0693 b9ba
000000d0: 356f 9939 fb03 523a 5df7 703a b251 96b9
000000e0: e84c dfb8 0976 5fba 8a7a e1b9 ee47 a4ba
000000f0: 18db e93a 8a7a e1b9 cda0 1cbb d7c8 ba39
00000100: 87cc d5b8 f093 4139 0682 a438 6459 20b9
00000110: 94ee 05ba a398 313a 6459 20b9 30fa 8038
00000120: 35d1 443b 80bb 8639 6a45 2bba 311b a5ba
00000130: 4919 ca39 b6a2 b338 1172 14bb 4919 ca39
00000140: 9013 d6ba c2ea 94ba 1b4c f6b8 b49b e939
00000150: 80df 42b8 16b9 38b9 b084 9ab9 929a 7c3a
00000160: 16b9 38b9 0a2b d639 e8a9 43ba 7c94 0938
00000170: c79c 5837 e27f f7b8 c45e 4e38 a65f 6539
00000180: 7833 91b9 c45e 4e38 d778 4039 e67d 24b9
00000190: 41c3 b6b6 38b4 1f38 99b7 90b7 6e12 09b7
000001a0: 8c0b 67b6 d047 1b38 6e12 09b7 5172 d236
000001b0: f456 dfb9 7e8c 70b8 4ad1 23b9 6d83 dab9
000001c0: 5569 b4b8 cc0a 59b9 e5d6 c139 5569 b4b8
000001d0: 25e0 b1b9 2d85 dc3a 3691 8538 96ac b5b9
000001e0: fdcf b2b9 de59 c838 c76c 30b9 229f 64ba
000001f0: de59 c838 daad 9fba aed5 5eb9 63f4 88b8
00000200: 0135 25b9 6db1 6dba 966e cdb8 463d 6ab9
00000210: 95e2 e739 966e cdb8 d397 b5ba 38e4 7d39
00000220: a33f 5139 ae84 38b9 e566 1eba b9ef 9c39
00000230: cbf5 ef39 b79a f3ba b9ef 9c39 3692 2cba
00000240: 3c0f c9b9 24d9 d1b8 5203 9b39 2a30 0b39
00000250: d962 1db9 9c67 9bb8 9ef2 7e3a d962 1db9
00000260: 198e 0b3a d043 1a3a ec4d 8f39 0a64 a738
00000270: 54ff 6b3a dcf4 d639 8284 693a edbd 09bb
00000280: dcf4 d639 abaf 073b 0c5f 333b 1a5f e439
00000290: b0e4 15ba cda8 97ba 5047 2b3a 2c08 d439
000002a0: 2558 6fbb 5047 2b3a de0f 99ba e405 693a
000002b0: 7fb8 a2b7 13bd 8738 efb1 ffb9 8414 f4b7
000002c0: 3d43 adb8 aee7 f8b8 8414 f4b7 b0ce 41ba
000002d0: 1673 783b d841 1538 fe86 8339 290c 39ba
000002e0: d0e2 5f38 70f1 0639 eca8 7aba d0e2 5f38
000002f0: 90bd 8d39 b7db ffb9 f4f8 ab39 a832 1cb8
00000300: fc6d 8e3a b8fa 003a d0d2 4d3a 99c8 05bb
00000310: b8fa 003a 4b57 fd3a 6c7a 13b9 1ff8 eab7
00000320: 80d8 c1b4 626c 2c38 173a 30b8 fdc8 cdb8
00000330: f3db 7d39 173a 30b8 e532 d5b7 b8ed 0cbb
00000340: 1507 8c39 7e01 3d39 a410 c1b9 9e0a d239
00000350: 3748 9d3a 22e4 02bb 9e0a d239 b420 823a
00000360: e251 a939 7e99 3a38 5afe ffb9 c391 8239
00000370: 22f3 8b38 2cf8 b4b8 e8d1 76b9 22f3 8b38
00000380: 34d3 05b9 71c7 a4ba 1c17 9139 0f66 0cba
00000390: f8a4 d5b8 a3a2 d939 9999 663a 53c0 0dbb
000003a0: a3a2 d939 40bc b339 cd5c ad3b 0103 2a3a
000003b0: 378c 32ba d63d eeba 8304 7f3a d0ba 1b3a
000003c0: 740b bbbb 8304 7f3a 5836 b3ba 6ffa c339
000003d0: 3648 89b8 2897 c339 9998 deb9 50ec cdb8
000003e0: 3800 84b9 8019 ce37 50ec cdb8 270f 08ba
000003f0: caa5 9e3a 2f2d 2ab8 f883 2938 6644 5fb9
0.00082866766 8.079334e-05 -0.00015362681 -0.00022383878 0.000121190096 0.00010045346 -0.0007458641 0.000121190096
-0.00025908352 0.0055676885 0.00066930964 -0.00062348536 -0.0006874566 0.0010039646 0.00091653713 -0.005986925
0.0010039646 -0.00010337966 0.00080399396 7.945337e-05 -9.106931e-05 -0.00023365431 0.000119180106 7.821503e-05
-0.0007038388 0.000119180106 -5.5426688e-05 -0.0005120943 -2.8277469e-05 0.00016658119 -0.00028603777 -4.241625e-05
2.1008025e-05 0.00022480282 -4.241625e-05 -0.0002600457 -0.0012460361 -0.00030226755 0.00028890435 0.00025720184
-0.00045340136 -0.00076604 0.0024587726 -0.00045340136 -0.00026844 0.0011894995 0.00019510194 -0.00019348934
0.0008335304 0.0002926529 0.00018204973 -0.0014158196 0.0002926529 0.00080114574 0.00091921334 -0.00028671097
-0.000106477935 -0.00085243635 -0.00043006643 -0.0012533644 0.0017841784 -0.00043006643 -0.0023899556 0.00035626322
-0.00010194728 0.00018461025 7.844348e-05 -0.0001529209 -0.0005109098 0.0006774759 -0.0001529209 6.150117e-05
0.0030031924 0.0002569817 -0.0006533476 -0.0012596605 0.0003854728 8.5656924e-05 -0.0022650997 0.0003854728
-0.0016332734 -0.0011361467 -0.0001174437 0.0004455723 -4.6461355e-05 -0.00017616557 -0.0002947203 0.000963607
-0.00017616557 0.00040849327 -0.00074639777 3.2801632e-05 1.2911106e-05 -0.00011801698 4.9202485e-05 0.00021874774
-0.00027694902 4.9202485e-05 0.00018355563 -0.0001568716 -5.446753e-06 3.8076396e-05 -1.7251632e-05 -8.170127e-06
-3.4428404e-06 3.702176e-05 -8.170127e-06 6.271796e-06 -0.0004259866 -5.7351303e-05 -0.00015622858 -0.0004167812
-8.6026885e-05 -0.00020698755 0.00036971938 -8.6026885e-05 -0.00033927071 0.0016824357 6.368982e-05 -0.00034651597
-0.0003410577 9.553482e-05 -0.0001682519 -0.00087212224 9.553482e-05 -0.0012182549 -0.00021251172 -6.530506e-05
-0.00015755372 -0.0009067271 -9.79576e-05 -0.00022338805 0.0004422857 -9.79576e-05 -0.0013854451 0.00024212978
0.000199555 -0.00017597034 -0.0006042554 0.00029933246 0.00045768762 -0.0018585537 0.00029933246 -0.00065830664
-0.00038349058 -0.00010006342 0.00029566378 0.00013274016 -0.0001500951 -7.410275e-05 0.0009725484 -0.0001500951
0.00053236034 0.00058847386 0.00027333142 7.981814e-05 0.00090025854 0.00040999695 0.000890799 -0.0021017746
0.00040999695 0.0020704072 0.0027369885 0.00043558405 -0.0005717976 -0.0011570692 0.0006533759 0.0004044188
-0.0036521044 0.0006533759 -0.0011677702 0.00088891224 -1.9397818e-05 6.4725195e-05 -0.0004876996 -2.909662e-05
-8.261807e-05 -0.00011868715 -2.909662e-05 -0.00073931646 0.0037910393 3.558569e-05 0.00025086844 -0.0007059002
5.337858e-05 0.00012869178 -0.00095619145 5.337858e-05 0.0002703485 -0.0004880109 0.00032801146 -3.7240476e-05
0.0010866518 0.00049201725 0.0007851543 -0.0020413755 0.00049201725 0.0019328383 -0.00014064618 -2.8010514e-05
-3.6106576e-07 4.1108935e-05 -4.201577e-05 -9.812599e-05 0.00024209898 -4.201577e-05 -2.5415278e-05 -0.0021503996
0.00026708157 0.00018025 -0.00036824227 0.00040062232 0.0011999671 -0.0019972404 0.00040062232 0.0009927959
0.000322952 4.4488806e-05 -0.00048826897 0.00024904133 6.6733235e-05 -8.6292945e-05 -0.00023538584 6.6733235e-05
-0.00012762548 -0.0012571645 0.00027673773 -0.0005355784 -0.00010187359 0.0004151064 0.00087966915 -0.0021629527
0.0004151064 0.00034281798 0.0052906037 0.0006485433 -0.0006811055 -0.0018176388 0.00097281503 0.0005940618
-0.0057081524 0.00097281503 -0.0013672812 0.00037379886 -6.5461194e-05 0.00037305919 -0.00042456834 -9.8191784e-05
-0.00025177165 2.4568988e-05 -9.8191784e-05 -0.0005190246 0.0012103852 -4.057324e-05 4.0415645e-05 -0.00021292418

exp_avg_sq f4 [128, 9]
00000000: 954b c437 122c 1435 5d7b 8336 6ccf de36
00000010: b5b8 a635 4957 1b35 81f6 ed37 b7b1 a635
00000020: ad1e e936 4eae cb39 b857 bd36 8446 a337
00000030: a5e1 7738 7207 5537 77f0 7237 2192 c639
00000040: 5f02 5537 9443 3138 d6d6 b937 e983 5e34
00000050: aec5 8d35 6096 a736 d855 fa34 6985 e234
00000060: fc2f 8037 7f54 fa34 aeea 9a35 3ea5 2d37
00000070: 73b9 4534 9781 8635 da08 0436 ee80 de34
00000080: 0a6b 2135 a2c1 1b37 4c70 de34 d3a7 b635
00000090: 14dd 8f38 e367 9635 8f5c 0037 4a6a 6137
000000a0: 1236 2936 f058 5f36 e2da 9438 9734 2936
000000b0: b077 2437 0ce8 e036 9177 6934 1b7a c135
000000c0: d0c3 5736 9573 0335 c838 1636 b58e 4937
000000d0: b753 0335 564a 1b36 a5eb 9b38 ce72 e235
000000e0: f6f3 8537 b0b7 9537 06c4 7e36 0d79 0737
000000f0: b8ac e838 f5c0 7e36 b9ee 9337 c880 d237
00000100: ebff 3235 6400 1537 4f9f 8e37 2c6c c935
00000110: b679 4636 2aa5 1738 a95f c935 bc64 0e37
00000120: efa9 a939 78f3 c636 e345 2d38 f362 d838
00000130: bfd4 5f37 8f2c b537 23ac ce39 00d2 5f37
00000140: 8c2f 6438 819c 0638 5c4e 0335 9b54 f536
00000150: 1024 9237 bdbe 9335 d00f f235 9f7d 0738
00000160: 2eb8 9335 c210 8f36 5f06 fd35 13f4 a933
00000170: fdf2 dd35 349f 7235 113c 3f34 dc14 cb34
00000180: 9d2c 9436 e931 3f34 2313 8635 0b93 5a36
00000190: 1e81 2933 26bd 5634 5cbb 8f36 c4ec be33
000001a0: 7015 f934 c7e6 3636 47af be33 e9ee 5034
000001b0: d9be 4f36 3f43 1f34 c511 9a35 ce7f cc35
000001c0: 842f b334 bc2f 6d35 f1ae 3237 c32b b334
000001d0: 0714 2936 b7ae f537 c9a3 7735 0e9b 1437
000001e0: 14a3 1e37 aa4d 0b36 1ff8 8036 1df8 8338
000001f0: 344c 0b36 1752 4537 f579 5f38 8d1e 9c35
00000200: aa71 0c37 ff00 6f37 7aa5 2f36 ab97 af36
00000210: 2fad 9b38 70a2 2f36 4a1d 4b37 dc2a 5137
00000220: 7d46 8435 f63e 0d37 6244 3c37 b4cf 1436
00000230: 41b7 1036 84b5 9538 65cf 1436 868c ba37
00000240: 4d63 d337 3ad6 0035 91f8 5e36 1958 9836
00000250: 54f7 9035 9f14 1135 e21a 0b38 c8f0 9035
00000260: c0f5 da36 672c b738 bd67 0036 ebc0 ad37
00000270: 515b fb37 f874 9036 7d2b 3f37 f561 0139
00000280: bd74 9036 1f35 8b37 d48b 2c39 802d 8336
00000290: 8498 9537 f12f c438 2e96 1337 a29c 0437
000002a0: 20e2 8039 0893 1337 6108 5138 3a4f b537
000002b0: 8f4b 0c36 07b6 7a37 ea9f c937 64d6 9d36
000002c0: d13f 7a35 c891 0539 e8d4 9d36 3f85 4b38
000002d0: 12f5 6039 282b 8136 4298 9e37 22fb 8338
000002e0: b750 1137 85d7 8a37 0b74 7839 0150 1137
000002f0: b4bb 2338 305b 5638 6d29 dc35 f79a 8537
00000300: 1402 8237 6bb7 7736 dc54 4137 7f3c da38
00000310: 45ae 7736 5dd2 8b37 aa6c eb36 1438 aa33
00000320: d5ac ab34 f322 2a36 aa9e 3f34 4c4e ef33
00000330: 3f54 c136 f77e 3f34 503f e834 040b 0c37
00000340: 4a39 1c34 15a8 2436 2c56 b835 9dd2 af34
00000350: 9dcc bc35 2152 2837 2cc0 af34 777b f435
00000360: 4321 a037 c4e1 8935 8451 5837 7d3c 7038
00000370: 4725 1b36 ea2a 8136 e0aa 7a38 351e 1b36
00000380: 705e a437 047e 5f38 1115 2536 554e cb37
00000390: 8280 0438 89c1 b936 2d14 4d37 6172 2739
000003a0: c7b7 b936 abca 4738 1973 2739 261c 2d37
000003b0: c6e5 9938 0f13 1f39 aec1 c237 204b 0938
000003c0: e8c1 323a d1bf c237 61c6 4139 1603 1638
000003d0: 2db0 7735 4ad5 5c37 b505 7037 2558 0b36
000003e0: 958a b036 8ba7 6438 9552 0b36 fc17 1537
000003f0: 635d 3737 1fb0 6a34 b0ca 5236 bd27 4d36
2.3400216e-05 5.519843e-07 3.9184656e-06 6.6402627e-06 1.2421721e-06 5.7869016e-07 2.8367389e-05 1.2419686e-06
6.9475122e-06 0.00038849044 5.6428507e-06 1.946395e-05 5.9099537e-05 1.2697523e-05 1.4480312e-05 0.00037874377
1.2696341e-05 4.2263026e-05 2.215376e-05 2.072335e-07 1.0562851e-06 4.994494e-06 4.6628588e-07 4.219285e-07
1.5281134e-05 4.6627608e-07 1.1542195e-06 1.0350077e-05 1.8414521e-07 1.0021494e-06 1.9674685e-06 4.144453e-07
6.0132936e-07 9.283804e-06 4.143243e-07 1.36089e-06 6.8599504e-05 1.1206106e-06 7.650945e-06 1.3435792e-05
2.5214435e-06 3.3281358e-06 7.09796e-05 2.5213574e-06 9.803029e-06 6.702734e-06 2.1743314e-07 1.4415158e-06
3.2151474e-06 4.8969497e-07 2.2384793e-06 1.201376e-05 4.8923124e-07 2.314007e-06 7.434868e-05 1.6871725e-06
1.5968439e-05 1.784772e-05 3.796305e-06 8.074811e-06 0.000110947934 3.7961265e-06 1.763493e-05 2.509392e-05
6.6682577e-07 8.881183e-06 1.7001903e-05 1.5007149e-06 2.9575144e-06 3.6155026e-05 1.5003508e-06 8.487314e-06
0.00032360802 5.9292033e-06 4.13115e-05 0.00010318113 1.334137e-05 2.159763e-05 0.00039419634 1.334073e-05
5.4403718e-05 3.2093845e-05 4.891533e-07 7.3114184e-06 1.742135e-05 1.1007866e-06 1.8035007e-06 3.2303502e-05
1.1005957e-06 4.263683e-06 1.8851823e-06 7.9140726e-08 1.6536502e-06 9.0383696e-07 1.7810113e-07 3.7826874e-07
4.4159374e-06 1.7806418e-07 9.989348e-07 3.2570122e-06 3.946581e-08 1.9999115e-07 4.2835436e-06 8.890632e-08
4.6395462e-07 2.7254443e-06 8.879447e-08 1.9458425e-07 3.0956492e-06 1.4832493e-07 1.1479066e-06 1.523638e-06
3.337592e-07 8.835884e-07 1.06503585e-05 3.337319e-07 2.519462e-06 2.9287634e-05 9.225301e-07 8.857589e-06
9.4555035e-06 2.075782e-06 3.8435824e-06 6.2927815e-05 2.075697e-06 1.1761228e-05 5.3280924e-05 1.1631797e-06
8.371115e-06 1.4245742e-05 2.6173352e-06 5.233063e-06 7.423234e-05 2.6171583e-06 1.2106562e-05 1.246735e-05
9.855281e-07 8.418914e-06 1.1221595e-05 2.2174618e-06 2.156434e-06 7.1386836e-05 2.2174438e-06 2.2238364e-05
2.51994e-05 4.7995456e-07 3.3225263e-06 4.540209e-06 1.0800818e-06 5.4046717e-07 3.316522e-05 1.0798913e-06
6.5255153e-06 8.7343906e-05 1.913387e-06 2.0713042e-05 2.9964054e-05 4.3051514e-06 1.1394613e-05 0.0001233889
4.3051245e-06 1.6594828e-05 0.00016455288 3.909401e-06 1.7833205e-05 9.354938e-05 8.796849e-06 7.904282e-06
0.0002458254 8.796116e-06 4.9837286e-05 2.1613774e-05 2.0905607e-06 1.4943543e-05 2.4035533e-05 4.703923e-06
9.322512e-07 0.00012738176 4.70375e-06 4.8523067e-05 0.000214536 3.8495236e-06 1.8905968e-05 6.293344e-05
8.661466e-06 1.6551241e-05 0.00023694352 8.661301e-06 3.903704e-05 5.11065e-05 1.6403334e-06 1.5926997e-05
1.5498175e-05 3.6912631e-06 1.1523454e-05 0.00010406318 3.6907306e-06 1.666805e-05 7.016196e-06 7.9264424e-08
3.1976984e-07 2.5352317e-06 1.7845983e-07 1.1143547e-07 5.7616558e-06 1.7834451e-07 4.3259433e-07 8.347215e-06
1.4549474e-07 2.453574e-06 1.3734148e-06 3.2749531e-07 1.4066642e-06 1.0032702e-05 3.2736114e-07 1.821535e-06
1.9088975e-05 1.0273002e-06 1.2893583e-05 5.7276793e-05 2.3118498e-06 3.8494954e-06 5.9763785e-05 2.3114383e-06
1.95943e-05 5.3284704e-05 2.4599178e-06 2.4235962e-05 3.1590935e-05 5.53596e-06 1.222365e-05 0.0001596897
5.534824e-06 4.7634046e-05 0.00015969238 1.0318157e-05 7.338407e-05 0.00015170522 2.3216791e-05 3.273331e-05
0.00068190554 2.3215924e-05 0.00018479816 3.576566e-05 9.227104e-07 1.3162682e-05 1.43064435e-05 2.076392e-06
5.261342e-06 5.4515473e-05 2.0760683e-06 8.886676e-06 1.0929393e-05 2.1857021e-07 3.1410418e-06 3.0570511e-06

exp_avg f4 [128]
00000000: 996f 2939 9d74 af3a 3ca0 2639 7035 6db8
00000010: a979 1eba 4a94 cc39 b051 16ba 89cc 55b9
00000020: 7fbb 063a 1a4c 76b9 8094 8938 3fc3 36b7
00000030: 708c f0b8 3591 0539 5bf4 08b9 a33f d139
00000040: 20d9 51b9 ea4d 0f3a 165f 643a 60b8 22b8
00000050: f841 9538 f4f8 2b3a 1cf8 6ab8 1407 0c3a
00000060: 8699 ba38 1c17 113a 0303 aa3a 3048 09b9
00000070: 2d2d aab8 4004 2536 946c 113a 7dc9 b338
00000080: 3fa0 063a 509d 113a 0da0 d239 5752 183a
00000090: 96f8 bbb7 6ded 83b9 a242 9138 7a6c a638
000000a0: 043c b937 24a5 8138 9544 8539 cf03 fb39
000000b0: 6af1 1839 ede8 2e3a 99bf 3939 0278 eeb8
000000c0: bcb7 7cb9 5856 3839 e4a9 9c39 65d8 233a
000000d0: 79ea 333a f4b3 82b9 c99e 0a38 023d ef39
000000e0: 70fd fc38 2a6d 79b9 2619 9539 30d8 c139
000000f0: 4945 a4b9 4021 4439 b863 7339 5811 b9b7
00000100: 5062 a539 832a 89b9 4fd2 e539 d0f7 4d38
00000110: 457d 7639 8cc9 9eb8 24ab af39 964c d738
00000120: e0c6 eeb7 d810 0a39 ecf3 0db8 f222 32b9
00000130: 70a9 6138 56cc 35b9 77e0 4db9 fc73 07b9
00000140: 20a1 193a be5a 8fb7 bdec b1b9 2360 94b9
00000150: 75cf be39 aabd 00b9 46ff 2f39 54ea bb39
00000160: 1b13 b5b8 ae9a b638 a614 00ba 759b cc38
00000170: ebb1 c639 0877 bd39 27e0 ab38 55dc 2a38
00000180: ae04 8939 fc7c 0e39 162d 5638 60ed c937
00000190: b602 65b9 d8a0 68b9 2cb9 02b7 78db cb37
000001a0: 5348 b839 3d30 3d39 0a1d fd39 9c0f 9639
000001b0: 5a09 4f39 5286 da39 2252 19ba 7c08 1f39
000001c0: ed53 1a39 32fa f8b8 987d 8f38 066a dab8
000001d0: 928c fbb8 dd6a 8437 e1b6 75b9 d94b c1b8
000001e0: 0062 43b9 7a57 a7b9 35dd 15b9 a634 acb9
000001f0: 7fda 85b9 ceab 613a a9e4 c539 4d62 9939
0.0001615867 0.0013386194 0.00015890686 -5.655497e-05 -0.00060453505 0.00039020396 -0.0005734218 -0.00020389458
0.00051396334 -0.00023488738 6.560329e-05 -1.0893505e-05 -0.0001147025 0.00012737962 -0.00013061 0.00039911
-0.00020012679 0.0005466627 0.00087116787 -3.8795522e-05 7.117161e-05 0.0006560229 -5.6021017e-05 0.0005341631
8.897767e-05 0.00055347546 0.0012970868 -0.0001309223 -8.114646e-05 2.458939e-06 0.00055474904 8.572915e-05
0.0005135573 0.00055547524 0.00040173568 0.00058106094 -2.2407894e-05 -0.00025163163 6.92655e-05 7.935702e-05
2.2081666e-05 6.181959e-05 0.00025418834 0.00047877288 0.00014585783 0.0006672282 0.0001771435 -0.000113710776
-0.00024101039 0.00017579773 0.00029881217 0.0006250202 0.0006863247 -0.00024929608 3.3049644e-05 0.00045631087
0.00012063503 -0.00023787157 0.00028438232 0.000369729 -0.0003133214 0.00018704403 0.00023211434 -2.2061795e-05
0.000315445 -0.0002616235 0.00043834976 4.9106602e-05 0.00023507055 -7.571568e-05 0.0003350611 0.00010266264
-2.846442e-05 0.0001316698 -3.384419e-05 -0.00016988421 5.380198e-05 -0.00017337626 -0.00019633943 -0.00012917811
0.00058604963 -1.7089184e-05 -0.00033936455 -0.00028300387 0.00036394192 -0.00012277687 0.00016784397 0.00035842007
-8.634311e-05 8.7072476e-05 -0.00048858894 9.756434e-05 0.00037898062 0.00036137574 8.195667e-05 4.073636e-05
0.00026134163 0.00013588736 5.1063565e-05 2.4071604e-05 -0.00021840152 -0.00022185163 -7.7917175e-06 2.4301684e-05
0.000351491 0.00018042415 0.00048277556 0.0002862186 0.00019744542 0.00041680277 -0.00058487256 0.00015166582
0.00014717849 -0.00011872164 6.842165e-05 -0.000104147985 -0.00011994796 1.5785388e-05 -0.00023433148 -9.217085e-05
-0.00018633157 -0.00031917897 -0.00014292153 -0.00032845623 -0.0002553053 0.000860867 0.00037745133 0.00029255674

exp_avg_sq f4 [128]
00000000: 322c 1436 6757 bd37 f883 5e35 1db9 4535
00000010: b267 9636 7778 6935 a872 e236 aeff 3236
00000020: 70f3 c637 5f4e 0336 76f3 a934 7e7f 2934
00000030: 5543 1f35 f5a3 7736 801e 9c36 8346 8436
00000040: 13d6 0036 bb67 0037 552d 8337 804b 0c37
00000050: b82a 8137 2929 dc36 fe37 aa34 0e39 1c35
00000060: e3e1 8936 3015 2537 491c 2d38 39af 7736
00000070: 05b0 6a35 a7bb 4f36 897d 8d36 af66 0c36
00000080: 2d4a 8337 a8b1 5036 9ae3 c036 7dbb 6237
00000090: 6bb8 1636 2998 8236 d76a a836 65de ca34
000000a0: f36b 8935 4682 ed36 f06e 5235 ba53 c736
000000b0: 1efd bc36 d54e 2337 36f8 0e36 35d9 2535
000000c0: 3d76 3936 d99c 8435 9088 7f35 3bce 8936
000000d0: b0aa 8936 d4e0 f935 c6b1 d236 8148 7936
000000e0: 6590 6b36 7536 7337 eeb4 8936 0cad 9236
000000f0: 2da0 ef36 299a 2036 db78 e734 084e b635
00000100: 65ce bb35 6fa1 2036 49f1 ad36 ab22 9336
00000110: b567 4a35 ef08 eb35 32ba 2037 3832 0936
00000120: 5c92 8736 2e70 a135 b29a 1b35 41be d836
00000130: fa75 9134 c3a0 6335 781b 9436 2de4 c736
00000140: 34b5 6136 799d 6f36 4862 dc35 c2b9 0c37
00000150: 350b f735 0b94 d635 1ab2 a735 a0bc cb36
00000160: b2b4 ed35 7cf9 3836 bc9d 7f36 9fa1 ff34
00000170: 8c39 cb36 f5c8 9a36 359f c536 f43c a634
00000180: 22f1 9e35 fa25 3137 6406 ff34 f9a8 2637
00000190: dfc3 9336 f5fc 7235 ac42 9934 d8e5 a535
000001a0: ba84 9136 d8c2 5334 8deb 3a35 9d77 3336
000001b0: 92c6 4c36 b489 c336 f5f3 9036 9c17 1436
000001c0: 10c8 9234 d647 9e35 69ab 6737 67f6 8d36
000001d0: 611d 3d36 db86 7734 1428 cf35 1a30 f735
000001e0: 3435 f536 36c2 e534 8da0 8935 558a c736
000001f0: b6de 4837 b0bc 3337 3dd0 fb35 aa22 b036
2.2079444e-06 2.2571256e-05 8.2893484e-07 7.3657594e-07 4.48242e-06 8.6974563e-07 6.7486726e-06 2.6672892e-06
2.3716799e-05 1.956614e-06 3.1655844e-07 1.5785733e-07 5.9330097e-07 3.6901304e-06 4.652713e-06 3.942115e-06
1.9198094e-06 7.653546e-06 1.5637526e-05 8.362229e-06 1.539789e-05 6.5613026e-06 3.1705707e-07 5.8197554e-07
4.109215e-06 9.8396995e-06 4.1272757e-05 3.6907861e-06 8.7427935e-07 3.0954632e-06 4.2167417e-06 2.0921395e-06
1.5650958e-05 3.1097825e-06 5.748542e-06 1.3514303e-05 2.2459087e-06 3.8920157e-06 5.019228e-06 3.7787245e-07
1.0238713e-06 7.0783162e-06 7.839253e-07 5.940409e-06 5.6323033e-06 9.733912e-06 2.1304127e-06 6.178337e-07
2.7635972e-06 9.880415e-07 9.519363e-07 4.1069266e-06 4.102789e-06 1.8617379e-06 6.2791833e-06 3.7146094e-06
3.5101777e-06 1.4496608e-05 4.103981e-06 4.3712844e-06 7.141402e-06 2.393159e-06 4.3115037e-07 1.3582767e-06
1.3992654e-06 2.3935825e-06 5.183891e-06 4.3849773e-06 7.540178e-07 1.7511464e-06 9.580095e-06 2.0443822e-06
4.040352e-06 1.2028083e-06 5.796711e-07 6.45945e-06 2.7094194e-07 8.479803e-07 4.4139415e-06 5.9572253e-06
3.3633087e-06 3.5705436e-06 1.6419881e-06 8.3879e-06 1.8406196e-06 1.5987329e-06 1.2494304e-06 6.0718303e-06
1.7710465e-06 2.7563356e-06 3.8089775e-06 4.7615046e-07 6.056571e-06 4.612952e-06 5.8895916e-06 3.096426e-07
1.1842096e-06 1.0558864e-05 4.75021e-07 9.933713e-06 4.403744e-06 9.0520126e-07 2.854698e-07 1.2360351e-06
4.336788e-06 1.972179e-07 6.963317e-07 2.6742703e-06 3.0513952e-06 5.8274836e-06 4.3199348e-06 2.206746e-06
2.7340184e-07 1.1792824e-06 1.38085825e-05 4.2308125e-06 2.8180295e-06 2.3052728e-07 1.5434366e-06 1.8416933e-06
7.3077626e-06 4.279588e-07 1.0254022e-06 5.946766e-06 1.1972783e-05 1.0713164e-05 1.8761563e-06 5.249244e-06
