results/predatorTest1/PredatorBrain/PredatorBrain-469029.onnx (onnx, 73997 bytes, 7 tensors)

action_model._continuous_distribution.log_sigma f4 [1, 2]
000000 c1 05 9b bd 57 95 8d bc
       -0.07569457 -0.017283125

action_model._continuous_distribution.mu.bias f4 [2]
000000 67 2b 00 3d 51 4b ec 3b
       0.03129139 0.007211127

action_model._continuous_distribution.mu.weight f4 [2, 128]
000000 b0 b7 9d 3a 3b 45 86 3c b8 19 fe 3c e5 b5 89 bc
       0.0012032893 0.016390434 0.031018123 -0.016810367
000010 64 c9 5b bd 97 f5 7c bc a0 bb b6 bc cb ea 71 3d
       -0.053658858 -0.015439413 -0.022306263 0.059061807
000020 26 02 f1 bc 99 6b 63 3d 3f 35 72 bd 8d 0b 4f 3d
       -0.02941997 0.055522535 -0.05913281 0.050548125
000030 86 01 3c 3d ee db 00 bd a9 d2 55 3d bf 5f e9 bc
       0.04589989 -0.03145974 0.052202854 -0.028488038
000040 18 63 fc 3c 6e 53 72 bd d5 a1 9b 3c ff c3 e6 3c
       0.03080897 -0.059161596 0.018998066 0.02816963
000050 9e 8e f4 bb be 5a ab 3d 43 62 d4 bc dc c3 d2 3c
       -0.0074632904 0.08366917 -0.025925761 0.025728159
000060 28 62 97 bc 29 8c 27 bd 3a 96 7d bc 8b 92 e1 3c
       -0.018479422 -0.04090515 -0.015477711 0.027535697
000070 55 a2 4d 3c 45 11 97 3d 4d 43 30 3d 03 b0 d3 3c
       0.01255091 0.07376341 0.043032933 0.025840765
000080 42 6f c2 bb 17 82 5f 3c c7 61 cc 3c 1b 87 10 3d
       -0.005933673 0.013641856 0.024948968 0.035285097
000090 33 c4 56 3d c3 40 50 bd b6 9a 15 bd 40 80 e0 bc
       0.052433204 -0.05084301 -0.036524497 -0.027404904
0000a0 29 6a 8e 3d a6 7e 71 3d ae 39 13 bd 79 ab 4d bd
       0.06953842 0.058958672 -0.03594368 -0.050212357
0000b0 a2 f2 70 3c 40 a2 8d bd 51 0e 86 bc 15 5f 41 3c
       0.014706286 -0.06915712 -0.016364248 0.0118024545
0000c0 81 31 5b bd cc 2f 8c bd 79 98 89 bd da f1 5c bd
       -0.053514007 -0.06845054 -0.06718535 -0.053941585
0000d0 82 4d 32 bd 3d 75 ba bd 98 d6 16 3d b2 97 71 bd
       -0.04353095 -0.09104393 0.036825746 -0.05898256
0000e0 60 7a 2f 3c ee 0c 22 bd 50 6d 40 3d 1f 46 30 bd
       0.010710329 -0.039563112 0.04697925 -0.043035623
0000f0 f7 c2 a6 bb 64 a9 2f 39 61 3a 8b 3d 71 13 7e bd
       -0.0050891596 0.00016752403 0.06798244 -0.06203026
000100 dc 11 95 3c 7b 07 7c 3c e3 44 a0 3d 7d 0a 73 3d
       0.018196993 0.015382643 0.07825639 0.059336174
000110 03 c9 ad 3c 12 4b 2e 3d 6d ec a5 3c 3f ca 74 bd
       0.021214014 0.04255206 0.020254338 -0.05976319
000120 ab ec a3 3a be cc 6f bd 98 80 07 3d 9b 01 40 bd
       0.0012506446 -0.058544867 0.03308162 -0.04687653
000130 04 9f 25 bc fe 0d 04 bd 35 e6 a0 3c d4 05 0b bd
       -0.010108713 -0.032239906 0.019641021 -0.033941105
000140 d7 aa c3 3c 9f ec 5a bd 5e 81 c5 3c 95 c5 57 bd
       0.023885174 -0.053448316 0.024109539 -0.052678663
000150 d1 62 b5 3c 0f 7c 71 3d 4f bb 40 3d e8 ed 45 bd
       0.022141846 0.058956202 0.04705363 -0.04832259
000160 cc 5d b8 3c 19 a9 17 3d b1 bb 76 3c af cc 5d bd
       0.022505663 0.0370265 0.015059398 -0.05415028
000170 ab 12 37 3d 0d 75 8c 3d 22 a1 1e bd b7 41 9e 3c
       0.044695538 0.06858263 -0.038727887 0.019318445
000180 c1 c8 96 bd d2 92 93 3b 83 e8 79 bc ca 54 d2 3b
       -0.073625095 0.0045035863 -0.015253189 0.006418799
000190 03 bf 87 bd 60 59 24 bd 23 1d d1 3c 1e 76 c6 bb
       -0.066282295 -0.040124297 0.025526589 -0.006056561
0001a0 3c fa e3 bc db d8 26 bd a9 d7 69 bd fd 36 a2 bb
       -0.027829282 -0.040734153 -0.057090435 -0.004950403
0001b0 b7 40 b9 3c 52 c4 95 bc 92 3c 74 3d ff 42 64 bd
       0.022613866 -0.01828209 0.059628077 -0.055727955
0001c0 20 4b b7 3c e0 b9 d8 bb 4e a3 91 bb be 30 51 3d
       0.02237469 -0.006613955 -0.0044445163 0.051071875
0001d0 0a ff ba bc 45 46 b4 3a 5e 69 a0 3d f9 b8 7c bd
       -0.02282669 0.0013753852 0.07832597 -0.06169984
0001e0 5e 1f 4c bd a9 b9 4d bd 14 26 78 bc 07 ac 6f 3c
       -0.0498346 -0.050225887 -0.015145797 0.014628417
0001f0 79 1c b5 3c e8 73 0f bd 46 cf 78 3d a7 fe 16 3d
       0.022108303 -0.035022646 0.060744546 0.03686395
000200 cf 19 73 3d f6 ee 2f bd 5a a3 0b 3d b8 d7 d0 3c
       0.059350785 -0.0429525 0.03409133 0.025493488
000210 f4 92 6e 3c ee 8c 3f 3d c2 86 63 bc 65 f7 e4 3b
       0.014561404 0.04676526 -0.013887109 0.0069874995
000220 bb 04 31 bd 13 a7 5a bd a6 2d ab bc 76 2b 2e bd
       -0.043217402 -0.05338199 -0.02089579 -0.042521916
000230 16 21 95 bc 6a 9c 63 3d b6 41 f9 3c a8 36 e8 bb
       -0.018204253 0.05556909 0.030426841 -0.0070865937
000240 dc f2 6f 3d 76 67 c5 bc a1 45 1e 3d b8 09 ec bd
       0.058581218 -0.024097186 0.038640622 -0.11525291
000250 73 32 9c 3c 9b 26 11 bd e1 ad cf 3c b1 98 5b 3c
       0.019067025 -0.035437208 0.025351467 0.013403104
000260 5f 6e 17 3d 3d 63 e0 bc 98 32 b1 3d 98 93 00 bd
       0.036970492 -0.02739107 0.08652228 -0.031390756
000270 46 96 01 3d bc d2 48 3d 6c 81 07 3d dc 62 c6 bc
       0.031637453 0.049029097 0.03308241 -0.024217062
000280 1b f9 ac 3c ae 6c 21 bd c8 ef 21 3d 43 6b 62 3d
       0.021114876 -0.039410286 0.039535314 0.055278074
000290 96 b8 16 bc c3 2c fc 3a 32 2c f2 bd 18 82 50 bc
       -0.009199282 0.0019239414 -0.11824836 -0.012726329
0002a0 ad 5f 1d bd 5a d0 ae bb 19 1a 61 3d 6c dc c6 3b
       -0.03842132 -0.005334896 0.05495653 0.006068757
0002b0 2d 56 50 bd 02 b2 4a bd b0 47 8d bd 54 d4 9c bb
       -0.050863434 -0.049486168 -0.06898439 -0.0047860537
0002c0 4d 70 22 3d 9c f5 df bb e2 13 36 3c d5 d7 0d bc
       0.03965788 -0.006834699 0.011113139 -0.008657415
0002d0 b2 02 55 bc b9 b0 ef 3b 27 9d d9 bc 43 d4 10 bd
       -0.013001131 0.007314768 -0.026564194 -0.03535868
0002e0 78 ab 6b 3d f8 85 34 bd ee 9c 4a 3d f2 b5 03 bd
       0.057536572 -0.044073075 0.049466066 -0.03215594
0002f0 a2 88 ad bb 16 34 ae bc d0 18 70 bc 3b 05 d1 3c
       -0.005295829 -0.02126507 -0.014654353 0.02551519
000300 e3 ac 65 bd 3b 70 42 bd e4 60 f4 bc ab fb 01 bc
       -0.05607308 -0.047470313 -0.029831357 -0.0079335375
000310 cb ca 66 3d b6 60 8b bd b5 6e ab bd 66 3b 0a 3c
       0.056345742 -0.068055555 -0.08370725 0.008437013
000320 b1 b8 44 bd 52 4c bc bc ae 9a 06 bd 52 a6 d1 3c
       -0.048027698 -0.022985611 -0.032862358 0.025592003
000330 8b f3 57 bd 78 2e cd bb 8e 00 c7 bd c9 0a 24 3c
       -0.052722495 -0.006261643 -0.09716903 0.010012337
000340 76 42 4c bd 50 8f b6 bc 07 7d c8 bd b2 ae f2 ba
       -0.04986807 -0.022285134 -0.09789472 -0.0018515198
000350 a2 62 25 3b 20 34 92 3d e2 ef 1c 3d 3f 04 40 bd
       0.0025235792 0.07138848 0.038314708 -0.04687905
000360 46 88 55 3d bf aa 15 bd 66 9e 87 3d 8d bd 24 bd
       0.052131914 -0.03653979 0.06622009 -0.040219832
000370 21 71 f5 3c 07 91 d9 3b 6e 0d 15 bd 23 65 7c 3d
       0.02996117 0.006639603 -0.03638976 0.06161989
000380 03 2d 70 bc c5 62 62 3c 0e d5 ec 3c 55 fe 9c bc
       -0.014659169 0.013817494 0.028910186 -0.019164244
000390 fd 2c a8 3b df 4a 5e bc dc 26 58 bd b7 cb 66 bd
       0.005132316 -0.013567655 -0.052771434 -0.05634662
0003a0 4b d0 00 3d ca f2 5d bd 92 c3 84 bc 13 41 cf bc
       0.031448644 -0.05418662 -0.016206536 -0.025299584
0003b0 84 aa b0 bd e1 31 3a bd 57 6d 55 bb e3 2f 3a bd
       -0.08626273 -0.045457724 -0.0032566392 -0.045455825
0003c0 82 58 a3 bc 84 30 de 3c be af 82 3d 97 e0 96 3c
       -0.019939665 0.027122743 0.063811764 0.01841764
0003d0 6b a8 da bb 57 68 24 39 b5 a7 12 bd 42 e7 89 bd
       -0.006672909 0.00015679128 -0.03580447 -0.06733562
0003e0 36 b5 7c 3d 62 69 04 bd cf 54 68 3c 14 d7 7c 3d
       0.061696254 -0.032327063 0.014180376 0.061728552
0003f0 13 2a a6 3d ce 11 93 3d 9d be d6 bb a4 50 88 3d
       0.08113494 0.0718113 -0.0065534846 0.06656006

network_body._body_endoder.seq_layers.0.bias f4 [128]
000000 6b c4 f4 3a 17 2c 3b bb 21 e1 8b 3d 5b 69 65 3c
       0.001867426 -0.0028560215 0.06830049 0.0140021695
000010 53 c0 d7 3c a1 e6 7a bd 49 ce 3c 3d 60 4c 9a 3d
       0.026336825 -0.0612551 0.046095166 0.075340986
000020 f9 f2 e8 ba 84 1c e5 bc 25 f1 04 bd 20 81 b9 bb
       -0.0017772607 -0.027967699 -0.032456536 -0.005661145
000030 a6 8e 6a 3d cc 89 18 3d 18 a1 12 3d c1 e4 21 3d
       0.057264946 0.03724079 0.035798162 0.039524797
000040 ee 2d ac 3c 70 28 0e 3c d6 95 42 3d 5c 57 27 bd
       0.021017995 0.008676633 0.047506176 -0.040854797
000050 a2 b0 90 bb 0a ad 91 3d 01 fc 93 3c 69 fa 23 3c
       -0.0044155875 0.07113083 0.0180645 0.010008433
000060 7f 8d cd 3c af b8 60 3d e1 15 d8 3c dc 91 db bb
       0.025091885 0.054863628 0.02637762 -0.0067007374
000070 bf d8 85 bd 8e 6a 8b 3c c3 a7 1a 3d 6a 72 31 bd
       -0.06535482 0.017018583 0.037757646 -0.043322004
000080 ac 40 d8 bc 23 cd b8 bd 7b 47 00 3d 0a 22 24 3d
       -0.026398025 -0.09023502 0.03131817 0.040071525
000090 e2 7e 82 bd e9 a0 80 3b 3d 8d 67 3d 02 8c e3 bc
       -0.06371857 0.003925432 0.05653118 -0.027776722
0000a0 05 c3 8c 3d 0d 84 6d bd bd 27 cc 3b 1d 0a a8 bc
       0.068731345 -0.05798726 0.006230323 -0.020512635
0000b0 68 f3 93 3c 0e 05 52 3c cc c7 26 bd a0 a9 89 bb
       0.018060401 0.012818588 -0.040717885 -0.004201129
0000c0 85 02 b9 3c 88 94 6e bb 6a 75 ce bb 5f d8 c3 bb
       0.02258421 -0.003640445 -0.006300618 -0.005976721
0000d0 30 37 8c 3c 26 14 32 3d 9c b6 f7 3c 2c 33 47 3d
       0.01711616 0.043476246 0.030238442 0.048632786
0000e0 e1 4a a1 3d 83 4d ce bc 27 14 ee 3c 0b a1 14 3c
       0.0787561 -0.025183445 0.029062344 0.009071599
0000f0 7f 46 f9 bc 3a 05 d3 bb 34 6c 86 3b a8 ec 56 3d
       -0.030429123 -0.006439832 0.0041022543 0.052471787
000100 19 25 13 3d 25 09 97 bc ba 35 08 3d f7 3f 7a 3d
       0.03592405 -0.018436978 0.033254363 0.061096158
000110 f0 5b 38 3c 93 5f 89 bd 6b 89 ba 3c 9b 1c 49 3d
       0.011252388 -0.067076825 0.022770604 0.049099546
000120 d4 a2 cc bb d6 2b 04 3d 11 4f 76 3c cf 9b c1 bc
       -0.0062449966 0.032268368 0.015033499 -0.023633866
000130 92 30 0f 3d 4b a3 05 3d 97 bd 3e 3d 17 58 46 ba
       0.03495843 0.03262643 0.046567526 -0.0007566227
000140 ac 5f db bc 42 73 4f 3d f4 25 fa 3b 89 1a c1 bd
       -0.026779018 0.050647028 0.007633919 -0.09428889
000150 c6 61 0a 3d 04 87 40 3d cf cd 5a 3d 87 19 dc bc
       0.03378465 0.04700376 0.05341893 -0.026867641
000160 c2 3e d5 3c 02 31 0a 3d 6c 11 96 3c a1 48 0c 3d
       0.026030902 0.033738144 0.018318854 0.03424895
000170 8b c9 43 3d 04 e2 87 3d 1a b4 e2 bb c2 f0 94 3d
       0.04779963 0.06634906 -0.0069184424 0.072724834
000180 8f bc ee 3b 51 11 f8 39 9d c6 e6 3c 8a 33 b9 3c
       0.0072856615 0.00047315148 0.028170878 0.022607584
000190 d1 80 4b 3d 7a 02 c6 bc 23 1a 4f bd a6 d7 dc 3c
       0.049683396 -0.024171103 -0.050562035 0.026958298
0001a0 b0 9f bb 3c 0d 8c 49 bd fe 6f 54 3d fd 6b 2a 3d
       0.022903293 -0.04920583 0.051864617 0.041606892
0001b0 15 14 43 bc 1f 3d 04 bd 81 d7 c7 bb 6f bd b4 bd
       -0.011906643 -0.032284852 -0.006098688 -0.08825194
0001c0 7b de 3f 3c 60 fb e8 bc c8 5b 21 3d 2f a9 3c 3c
       0.011710758 -0.028440177 0.03939417 0.011514946
0001d0 19 54 17 3d 31 e9 de bc 7e ba 44 bd a9 c5 16 bb
       0.036945436 -0.027210804 -0.048029415 -0.0023005998
0001e0 33 34 b6 bc 1e 68 80 bb 28 ee 6f bc d5 6a ba 3c
       -0.022241687 -0.0039186617 -0.014644183 0.02275602
0001f0 22 f3 55 bd f2 03 04 3d 85 ea ec bd 7f a0 4b 3d
       -0.052233823 0.032230325 -0.115681686 0.049713608

network_body._body_endoder.seq_layers.0.weight f4 [128, 9]
000000 1c c5 1c bf 72 9a f9 bd 6a b2 2a bf da 64 9c 3e
       -0.61238265 -0.12187661 -0.6667849 0.30545694
000010 da 8f 1a bf 59 e2 25 3e 80 2c 94 bd 6f c6 53 be
       -0.6037575 0.16199626 -0.0723505 -0.20681165
000020 8c 17 c0 be a7 04 b0 be d9 22 0e 3d c8 e0 17 be
       -0.37517965 -0.3437855 0.034701202 -0.14831841
000030 0e f5 a7 be ce f5 01 be 8c 21 9b be 1c 78 c9 bc
       -0.3280415 -0.12691423 -0.30299032 -0.024593405
000040 24 3f 80 bd b7 88 b2 3d a8 5a de be d1 1a 0e 3d
       -0.06262043 0.087174825 -0.4342854 0.034693543
000050 0e b8 d2 be fa 15 1c 3f 94 a8 a5 be a4 10 01 bf
       -0.41156048 0.60971034 -0.32355177 -0.50416017
000060 d8 57 2b 3f fc ba 38 3f 7e 0c 69 3e 2f cc c8 be
       0.66930914 0.72160316 0.22758672 -0.3921828
000070 72 b0 bb bd 06 c4 d4 3e 74 20 00 bf f2 8a 2d be
       -0.09164514 0.41555804 -0.5004952 -0.16947535
000080 72 00 6b be b6 18 84 be a7 44 6d be 34 34 7d be
       -0.22949389 -0.25800103 -0.2317072 -0.24726945
000090 2a ed 16 3e 74 d3 b9 bd 04 46 01 bf 98 14 c8 be
       0.14738908 -0.090735346 -0.5049746 -0.39078212
0000a0 a7 f9 68 3e 4c 31 02 3f b8 bb 87 be 0a 78 95 be
       0.22751485 0.5085647 -0.26510406 -0.29193145
0000b0 f8 28 b2 3d 72 f4 fa 3d 71 34 02 bf 1a 22 a6 be
       0.086992204 0.122536555 -0.5086127 -0.32447892
0000c0 c3 b9 e2 bd cb ec 86 3e f0 1a 4d be 1f 41 29 be
       -0.110705875 0.26352534 -0.20029807 -0.16528748
0000d0 0b 2a b2 3e 32 b6 55 bd 30 73 39 be 3b 46 fc 3e
       0.347977 -0.052175708 -0.18110347 0.49272332
0000e0 3c 3a 0e 3f cb 7d 64 3b c2 d1 fc be f4 cb 9d 3e
       0.5555761 0.0034865018 -0.49378783 0.30819666
0000f0 ac a0 b7 3e 04 66 a7 3e 5a 11 cb be 51 9f 26 3e
       0.3586477 0.3269502 -0.39661676 0.16271712
000100 86 f4 32 3e d6 43 87 3d 6b 85 9d 3e dc b5 9d bd
       0.17476091 0.066047356 0.30765852 -0.077007025
000110 06 fd ef 3e ab cc d1 3e 67 95 39 3e 56 92 f9 be
       0.4687273 0.40976462 0.18123399 -0.48744458
000120 44 f1 c0 bc 34 01 97 be 94 0b 48 3f 8e a7 c2 3d
       -0.023552544 -0.29493105 0.78142667 0.09504615
000130 77 3f 30 be db b1 e9 be b3 0f f5 3e 7b a1 ec 3e
       -0.1721171 -0.45643505 0.4786354 0.4621695
000140 d0 05 ca 3e 28 3e f4 3e ec 78 c7 3d 0b 76 25 3e
       0.3945756 0.4770367 0.09739861 0.16158311
000150 5f b9 7c bd 96 f1 69 3e 70 86 35 3f 07 7c 1d be
       -0.06170022 0.22846064 0.7090826 -0.15379344
000160 0a c8 b5 bd 27 d5 b4 bd c7 11 30 bf ca 62 ce 3e
       -0.08876045 -0.08829718 -0.68777126 0.40309745
000170 12 53 a4 be 6e a0 40 3f 28 6c 13 3e cc 1d b2 3e
       -0.32094628 0.75244796 0.14396727 0.34788358
000180 36 47 3b 3e 60 2a b3 3b e1 b7 26 bf 34 e4 b5 bd
       0.18288884 0.005467698 -0.65124327 -0.08881417
000190 54 bf 94 bd 1f ff 2a 3f 72 a9 51 3d 48 4d eb be
       -0.072630554 0.66795534 0.051186986 -0.45957398
0001a0 68 3b 95 be ea 62 25 be b9 a8 20 be a4 db 1f 3e
       -0.29146886 -0.16151014 -0.15689363 0.1561113
0001b0 00 71 26 be 7c f8 73 bd 82 28 b4 be e0 31 d7 be
       -0.16254044 -0.059563145 -0.35187155 -0.4203024
0001c0 63 ec 74 3e 60 cb 92 3e b4 0a 8e 3c 64 6e af be
       0.239183 0.28670788 0.017339088 -0.3426391
0001d0 66 15 5d 3e 2a b7 91 3d 66 89 ab 3e 66 92 8b be
       0.21590194 0.07115014 0.33503264 -0.2726013
0001e0 24 3f 59 be b2 ef e4 3c e3 f8 45 3d aa 2d 2e be
       -0.21215492 0.027946327 0.04833306 -0.17009607
0001f0 d8 ee 23 be b1 b4 93 be c6 74 94 be a6 c3 8b be
       -0.1600908 -0.28848794 -0.2899534 -0.27297705
000200 72 50 a5 be f3 8f 9e be ca 39 05 bf 47 3c 58 be
       -0.32287937 -0.309692 -0.52041304 -0.21116744
000210 d8 c6 21 bf f0 90 39 bf de 68 e1 bb 7d c5 00 bf
       -0.63194036 -0.7248678 -0.006878956 -0.50301343
000220 be 08 0c bc fc fd 63 be 36 76 5f be 38 6a d3 3c
       -0.008547006 -0.22264856 -0.21822438 0.025807485
000230 a2 da c6 3e 45 55 1e be 9a da 72 3d c3 e6 70 3e
       0.3883868 -0.15462215 0.059290506 0.23525529
000240 3f e1 af be 8c af 89 be 82 fc 73 3e 04 d0 a3 bc
       -0.34351537 -0.26891744 0.23826793 -0.01999665
000250 79 86 12 3f d4 c9 cc be 3c 18 bf be f3 f2 2d 3e
       0.5723644 -0.39997733 -0.37323177 0.16987209
000260 0e 16 0e 3f 24 37 24 3f 44 52 8d 3f 07 d7 31 3f
       0.555024 0.6414664 1.104073 0.6946873
000270 37 4c 4d be 1c 64 32 bf 94 e1 68 be 6f d8 36 3d
       -0.20048605 -0.69684005 -0.22742301 0.04464
000280 60 a8 02 bf 98 17 1f bf ee b5 b2 be 9f 15 25 3e
       -0.5103817 -0.62145376 -0.34904426 0.16121529
000290 02 b6 2a 3d ab a9 0b bf b3 58 7a 3e 3b 20 4d 3e
       0.041677482 -0.5455577 0.24447899 0.20031826
0002a0 be a4 0d bf 0b 70 75 bc 73 ad 1e be ca ff 00 bf
       -0.553295 -0.014980326 -0.15495853 -0.50390303
0002b0 a4 88 08 3e 7e 9e 30 3e 14 6c 43 3a 83 0d f1 bd
       0.13333374 0.1724796 0.00074547646 -0.11770155
0002c0 bc 99 40 3d 64 11 22 3e 12 c1 8e 3d a0 f0 03 bf
       0.047021613 0.15826946 0.06970419 -0.5153904
0002d0 aa 30 d2 3e 24 a9 99 be a6 b1 9c 3e 03 2a 15 be
       0.41052753 -0.30011857 0.30604285 -0.14566807
0002e0 08 50 68 3e fb 27 e9 3d 43 1a 39 3e 7c cc 9e be
       0.2268678 0.11384579 0.18076424 -0.31015384
0002f0 4d 9d 96 3e de bc dc 3e b1 99 1a be 48 6e 61 be
       0.29416886 0.43112844 -0.15097691 -0.22014725
000300 ef 4c dd be d3 2e 8d bf cc 9f 31 3e 80 ba d2 bc
       -0.43222758 -1.1029915 0.17346114 -0.025723696
000310 38 d6 26 be b9 41 13 3f 4c ab 0b bf 30 79 5b 3d
       -0.16292655 0.5752216 -0.54558253 0.05358237
000320 b4 c3 b3 bd 97 c5 3f be d9 4d 1f 3c 62 e8 90 3b
       -0.08777562 -0.18727718 0.00972315 0.0044222334
000330 a1 68 aa bd 0a 53 92 3e 32 01 f7 be 2d 40 19 3e
       -0.08320738 0.2857898 -0.482431 0.14965887
000340 f2 64 41 be 9e cc 7a bd 20 74 6c be 3f ef d9 be
       -0.18886164 -0.061230294 -0.23091173 -0.42565343
000350 ee f5 fb 3d a7 a9 6c 3d 42 f4 88 be 36 ae f6 bc
       0.12302767 0.05777898 -0.26748854 -0.030112367
000360 03 41 51 bf 98 bd 86 be 5c 15 02 3e 09 f4 1b 3e
       -0.81739825 -0.26316524 0.1270346 0.15229811
000370 2e dd 22 bf 30 a1 01 be 91 42 8a 3e d6 a5 c5 bd
       -0.63618743 -0.12659144 0.2700391 -0.09650771
000380 7f 90 2c 3d a9 cc 0d bc 7e c6 1b 3e 1e 82 a3 3e
       0.04212999 -0.008654752 0.15212438 0.3193521
000390 3a 8b 2d 3e 65 4e 81 3b c8 82 8a 3d 7a c9 4b 3d
       0.16947642 0.003946113 0.06763226 0.04975269
0003a0 50 2d 8a 3d 6e 58 44 bd 53 98 09 3e 47 b1 e2 be
       0.06746924 -0.047935896 0.13437013 -0.44275877
0003b0 a8 7e e7 be 50 c9 9b 3e 37 4d 85 be b0 5f 97 3e
       -0.4521382 0.30427027 -0.26035473 0.2956519
0003c0 a0 29 d0 3e 4e 45 d8 bc c2 97 a2 3e 5e e4 19 3f
       0.40656757 -0.026400235 0.31756407 0.60114086
0003d0 92 48 4d be 12 ef a5 3d cd a2 80 3c bf 73 95 3c
       -0.20047215 0.0810224 0.01570263 0.018243669
0003e0 cf 57 14 be da 64 02 be bb a9 34 3e bc 3a 9a be
       -0.14486621 -0.12733784 0.17642872 -0.30122936
0003f0 1a b7 2d 3e 3a 35 93 3e 76 89 28 3f e2 d2 04 3e
       0.16964379 0.28751546 0.6583475 0.1297107

network_body._body_endoder.seq_layers.2.bias f4 [128]
000000 34 a2 fd 3c 46 c4 43 3c 0d d3 83 3d 1d ed 3f bc
       0.030961134 0.011948651 0.06436739 -0.011714247
000010 52 a5 2e bc 20 c0 ca 3c 71 94 bc bc 6f ee 58 3d
       -0.010659533 0.024749815 -0.023020001 0.052961763
000020 9b 8b b5 bc dc 57 68 3d 78 e9 36 b8 57 da 3d 3d
       -0.022161296 0.056724414 -4.3609616e-05 0.046350803
000030 fc 89 38 3d f0 01 bb 3a a3 5b 30 3d 04 b7 41 bd
       0.045053467 0.0014267545 0.04305614 -0.047293678
000040 dc 7e 44 3d 74 b6 1a bd 87 4c b6 3c bf 1a 30 3d
       0.047972545 -0.037771657 0.022253288 0.042994257
000050 51 b9 92 bc ef 07 0d 3d d7 38 ad bb b4 66 f4 3c
       -0.017910631 0.034431394 -0.005286317 0.029834129
000060 de 86 44 3b a4 7e aa 3a 7a 2a 1d 3d c6 20 92 3c
       0.0029987614 0.0013007713 0.038370587 0.017837893
000070 fe 3e 0c 3d 73 b8 63 3d 53 74 24 3d e0 44 8c 3c
       0.03423976 0.055595826 0.040149998 0.017122686
000080 5b 67 b9 bb 99 56 12 3c 7c 0a 21 3d a0 d2 43 3d
       -0.005658073 0.008931779 0.03931664 0.04780829
000090 ec c8 d7 3c 83 95 99 bc e8 ec d4 3c 67 ea b4 bc
       0.026340924 -0.01874805 0.025991872 -0.022084428
0000a0 61 73 5b 3d 13 22 2e 3d cc 8b 5b 3c 88 5f f1 bb
       0.05357683 0.042512964 0.013400029 -0.0073661245
0000b0 75 2f 11 3d 32 e4 1d 3c 6b ca a7 3c c2 4d 33 3b
       0.03544565 0.0096369255 0.020482263 0.002735958
0000c0 b6 74 3f 3b 04 c4 8a bb f9 a6 2e 3b 41 ca ba 3a
       0.0029213852 -0.0042347927 0.0026649816 0.001425095
0000d0 df 68 b6 bc 9b c7 2c bc a7 74 bb 3c ec cb bd bc
       -0.022266803 -0.0105456365 0.022882773 -0.023168527
0000e0 2b 71 88 3c 25 54 fb ba b9 36 3f 3d 8f 26 dc 3c
       0.016655525 -0.0019174857 0.046683047 0.026873855
0000f0 43 cb 02 bc 38 9b 80 3b 7e 09 2d 3d 64 9b f6 bb
       -0.007983032 0.0039247535 0.04224538 -0.007525848
000100 ba a4 cc 3c a9 71 b0 3c d1 86 04 3d d3 5c 19 3d
       0.024980891 0.021538572 0.032355133 0.03744204
000110 a7 fb 76 3d fc 1a 27 3d ae 1f 4a 3d 1d 13 0d 3b
       0.060298588 0.04079722 0.04934662 0.0021526285
000120 d5 25 5d bb 32 a6 00 bb 60 19 2d 3d b3 c4 30 bc
       -0.0033744473 -0.001963031 0.042260528 -0.010789084
000130 39 52 0d bb 72 8d 18 bd a4 b1 3a 3d 56 cf 9e bc
       -0.00215639 -0.037244268 0.045579568 -0.019385975
000140 6c 07 00 3d 3d c2 87 bc 0c bd db 3c 0f 5c 07 3c
       0.031257078 -0.016572112 0.026823543 0.008261695
000150 cd 85 30 3d d3 28 70 3d 74 3b 34 3d 0d f0 75 bc
       0.043096352 0.058632683 0.04400201 -0.015010846
000160 94 26 30 3d 78 cb db 3c 3d 56 1f 3d a3 b9 4b bc
       0.04300554 0.02683042 0.038900603 -0.012434396
000170 06 da 1c 3d a1 70 31 3d 5b 36 77 bc a6 e3 05 3d
       0.03829386 0.043320302 -0.015088643 0.032687806
000180 a6 03 91 bc c6 a3 87 3c d0 0a d2 bb 57 1e 91 3c
       -0.017701935 0.016557585 -0.0064099804 0.017714662
000190 85 1c 92 bc 48 16 81 bc aa 7b 1d 3d 79 27 74 bb
       -0.017835865 -0.015757695 0.038448013 -0.0037254973
0001a0 f4 c8 06 bc 05 79 93 bc 9f 24 85 3b b4 2e 9b bc
       -0.008226622 -0.018002043 0.0040632035 -0.018943168
0001b0 8b 25 e2 3c 31 d4 16 bc 87 23 2d 3d 83 fb 97 bc
       0.027605793 -0.009205864 0.04227021 -0.018552547
0001c0 f6 0b ab 3c 35 bf a3 bb c6 11 34 3c c8 79 7a 3d
       0.020879727 -0.004997159 0.010990566 0.061151296
0001d0 78 81 16 bc 24 84 db bb 9c 31 5b 3d d1 1c e6 3c
       -0.009186141 -0.006699102 0.053514108 0.028089913
0001e0 0d e3 a6 bb 10 59 44 3a 29 c1 8c bc f9 bf 09 3d
       -0.0050929845 0.0007490078 -0.01718195 0.033630345
0001f0 eb e4 63 3d 0d da e2 3a 54 75 19 3d 2a a8 4e 3d
       0.055638235 0.0017307416 0.03746541 0.050453342

network_body._body_endoder.seq_layers.2.weight f4 [128, 128]
000000 51 50 26 3d 5c 48 d9 bc 1a 26 ad bb 66 81 3c 3d
       0.04060394 -0.026523761 -0.005284083 0.04602184
000010 5a 20 40 3e fd d3 b7 be cd a4 33 3e 42 c2 0d 3e
       0.18762341 -0.35903922 0.17543335 0.13843635
000020 17 bb 3f bc 6f a4 55 3d 46 aa b8 3c 45 37 eb 3d
       -0.011702321 0.05215877 0.02254213 0.11485151
000030 1e af 85 3d 42 67 5d 3c c3 70 55 3d 8f c0 fd bb
       0.065275416 0.013513388 0.05210949 -0.007743902
000040 f6 f1 71 bd 5f d9 06 bd d5 ce b1 3d ff d8 a1 bd
       -0.059068643 -0.032922145 0.08682028 -0.07902717
000050 c7 39 6f be e9 7a 2c bd eb 7f b0 bd c3 f9 30 3e
       -0.23361884 -0.042109404 -0.086181484 0.17282777
000060 8c ad 6d bd ab 3c f4 bc af 45 c2 bd 73 c1 e2 b9
       -0.058026835 -0.029814085 -0.09485947 -0.0004325021
000070 47 54 15 be 2d db b8 bd 92 98 88 3d ab 60 79 bd
       -0.1458293 -0.090261795 0.066697255 -0.060883205
000080 1f d8 81 bd 72 83 21 3e 1f 02 19 be 8e 4c 58 3d
       -0.0634005 0.15772799 -0.14942215 0.052807383
000090 b7 0e 14 be 9e 77 fc bd 6f b1 a7 3d df 0e 2c 3d
       -0.14458738 -0.12327503 0.0818814 0.04200637
0000a0 8d 23 04 bd 94 ca a5 3d fc 97 5a bd 7b f3 82 3c
       -0.032260466 0.08095279 -0.0533676 0.015985241
0000b0 8e af 31 3d 48 77 ef 3d 16 db 61 3d 43 c3 22 be
       0.043380313 0.11692673 0.055140577 -0.15894799
0000c0 77 dc fb bd a2 6b a0 3c 51 2c 99 3e f5 07 a6 be
       -0.1229791 0.019582573 0.29916623 -0.32427946
0000d0 67 53 e0 bd d4 fd d8 3c ae 1e b4 bc 66 90 8b 3d
       -0.10953408 0.026488222 -0.021987285 0.06814651
0000e0 1e 95 ec 3d 62 3c 8b 3d 07 12 b4 bd ab ed 40 3e
       0.11551879 0.067986265 -0.08792501 0.18840663
0000f0 82 40 86 bd 81 c3 7a bc c7 e6 0e bd c4 c2 92 3c
       -0.06555273 -0.015305401 -0.034888055 0.017915137
000100 91 90 4c 3d b6 d8 bd bd b0 7f ff 3d eb 7e 1b be
       0.049942557 -0.0926985 0.12475526 -0.15185134
000110 ab 59 b3 3b 0e 65 d3 bb b0 32 92 bd 6f 6b cd bd
       0.0054733357 -0.0064512556 -0.07138574 -0.10030257
000120 58 07 81 bc 39 d9 a5 bd 05 56 26 be 04 78 43 bd
       -0.015750572 -0.080980726 -0.16243751 -0.047721878
000130 7b 5e b6 3c 05 af 20 3e b4 39 72 3d ae b5 05 be
       0.022261849 0.15691765 0.05913706 -0.13057587
000140 71 c6 29 3d 44 47 60 3d 6f 55 bf bd 54 cd de 3c
       0.041449014 0.054755464 -0.09342467 0.027197517
000150 2a 57 74 3c 1b cf 06 bd ae 95 74 bd 98 d3 dc bc
       0.01491336 -0.032912355 -0.05971306 -0.026956365
000160 ba 5c ef bb 1f 20 0e be 87 fc ea 3d df b4 e0 3c
       -0.007304755 -0.1387944 0.11473947 0.027429996
000170 10 90 53 bd d9 fc 80 3e 2d 58 15 3e 73 4f 01 3d
       -0.05165106 0.25192907 0.14584418 0.03156991
000180 f5 ca 21 bd 4c ea 16 3d da 5c bc 3d 3a 7c 54 3d
       -0.039500196 0.036844537 0.091973975 0.051876284
000190 9a 60 30 3d 9a d8 67 bd b9 50 88 bd 35 bc 17 be
       0.043060876 -0.05660305 -0.066560216 -0.14817889
0001a0 f2 18 c0 bc 06 47 20 3e 25 e1 a6 3d cf dd f2 bd
       -0.023449395 0.15652093 0.08148412 -0.11858713
0001b0 0e 96 63 3e 87 60 d2 bc 77 59 d8 bd 1b df 95 3d
       0.2222521 -0.025680793 -0.10563939 0.073179446
0001c0 34 73 19 3c 9c 5c 3e bb 8e 8b 8c 3d 54 a7 8c bd
       0.0093658455 -0.0029046899 0.068625554 -0.06867853
0001d0 18 3d 30 bc 69 6d 22 be 02 74 30 bc fb 3d 9f bc
       -0.010756753 -0.15862049 -0.010769846 -0.019438734
0001e0 7d 8a e4 bd 70 b3 af bd ac f0 bb bc a0 ef 45 be
       -0.11159227 -0.08579147 -0.02294191 -0.19329691
0001f0 31 d6 8b 3b 48 01 d1 3d 8a da 7d bd 5d e5 a3 3e
       0.004267477 0.102053225 -0.061975993 0.32010928
000200 cd c6 2d bd ac 67 9d bd 2a 5a af bd 5d d7 06 3c
       -0.04242592 -0.076857895 -0.08562119 0.008230058
000210 f7 81 0b bd b9 46 81 3c da 2f 49 bd 65 e0 5c 3c
       -0.03405949 0.015780794 -0.0491179 0.013481234
000220 4b 64 2d be 91 11 00 3d 49 98 e2 bd c8 5b da bc
       -0.1693279 0.031266753 -0.11064202 -0.026655093
000230 cf 24 9d 3d e1 0e 84 3c 3d 7a d7 3d 03 cd 10 3d
       0.07673036 0.016120376 0.10521362 0.035351764
000240 8b e8 1a 3d f3 11 39 3c 00 ec 40 bd 19 13 9b bb
       0.037819427 0.011295783 -0.047100067 -0.004732501
000250 eb 2f 09 3c 86 87 fa bb c0 b8 0c bd f3 50 a0 bd
       0.008373241 -0.00764555 -0.03435588 -0.0782794
000260 b4 5d 8c bd 62 f0 00 3e 53 52 8e bd fc de dc 3c
       -0.0685381 0.12591699 -0.06949296 0.026961796
000270 3b 0b 1b 3d d5 cd f0 3d 59 c1 a2 bd 9b 32 a8 3c
       0.037852507 0.11758009 -0.079470344 0.020531943
000280 24 7c d0 39 e8 e3 b9 bd 48 9f d2 3c 86 50 ea 3d
       0.00039765344 -0.09076673 0.025710717 0.1144114
000290 8b 91 4f bd ed 97 df 3d c8 a3 dc 3d 6f 7b 7f 3d
       -0.05067591 0.109176494 0.10773426 0.062373575
0002a0 91 5a 30 be 18 07 3e ba d4 c6 83 3d e0 04 7b 3d
       -0.17222048 -0.0007248982 0.06434408 0.061283946
0002b0 4b ca fd 3a dc 88 94 bd 70 93 da bc 19 67 25 3e
       0.0019362656 -0.07252666 -0.026681632 0.1615261
0002c0 e6 35 b0 3d a4 94 1f be 9f 34 42 3b b9 53 47 bd
       0.0860403 -0.15584046 0.0029633415 -0.04866383
0002d0 88 18 5e 3d 26 4c 0a 3e fb 2a af 3c e0 c8 13 3e
       0.054222614 0.13505611 0.0213828 0.14432096
0002e0 8b a2 ff 3b 74 fc d1 bb a4 05 bf 3d d1 5e 6b bd
       0.007801359 -0.0064082686 0.09327248 -0.05746347
0002f0 dc fe fb 3d fb 16 9b bd ce 40 0d be db bf 4b 3d
       0.1230447 -0.075727426 -0.13794252 0.049743515
000300 6f b0 9a 3d 23 58 4e bc 29 76 09 bd f3 e8 89 3a
       0.07553183 -0.012594256 -0.033559952 0.0010521695
000310 d4 bf ba bd 46 87 5f be 2c 3d a0 3d a2 bd a9 3b
       -0.091186196 -0.21828946 0.078241676 0.0051800767
000320 6b 76 26 3e e5 b0 7e bd ae cc 79 3d ff da 9c bd
       0.1625611 -0.06218042 0.060986213 -0.07658958
000330 2f 7c 18 3e a7 5a f7 3d fa f1 56 be 6e 26 c2 bd
       0.14891122 0.120778374 -0.20990744 -0.09479986
000340 1c 09 08 be e4 10 22 3c b3 14 7d bd 96 f3 0b bc
       -0.13284725 0.009891722 -0.06178732 -0.008541962
000350 4b f3 4f bd 86 18 20 bd 43 57 26 3d e1 68 36 be
       -0.05076913 -0.039085887 0.040610563 -0.17813446
000360 ca 89 92 bd 4d 1d 25 3d 44 f9 8a 3d 44 89 ae 3d
       -0.071551874 0.040311147 0.06785825 0.08522275
000370 f6 86 0e 3d 16 ab a9 3d 05 6f f3 bd a0 87 4c bc
       0.034796678 0.08284585 -0.1188641 -0.012483507
000380 a4 2f e3 bd f5 1e 90 bd e9 cf c9 bd 8e ed ab bd
       -0.11093071 -0.070371546 -0.09854109 -0.08394919
000390 ee 11 da 3d aa 29 88 3c 82 32 ac bd 8c d4 c4 bc
       0.10647951 0.01662143 -0.08408071 -0.024027131
0003a0 86 17 9f 3d 3f d7 ae 3d 22 c1 f4 3d dd 3b 0f 3d
       0.077681586 0.08537149 0.119509 0.0349692
0003b0 1b 89 1c bd de 83 71 bd ff 58 44 3c 49 2e 12 bd
       -0.03821669 -0.05896365 0.011984109 -0.035688672
0003c0 43 c9 20 be 8a d3 4f 3d 5e 74 29 bc 71 90 cb bb
       -0.15701775 0.05073885 -0.0103426855 -0.006212287
0003d0 a6 39 f7 3d 6a 33 1c 3d 64 13 32 bd 07 7f 92 bd
       0.120715424 0.03813497 -0.043475524 -0.07153135
0003e0 0a 30 3c 3e cf 90 42 be 16 14 e2 bd 84 c8 4f 3e
       0.183777 -0.19000553 -0.11038987 0.20291334
0003f0 99 9c 56 be 26 7a 07 be 47 b8 47 3c cb fd c8 3d
       -0.20958175 -0.1323019 0.012189931 0.09814032
