results/predatorTest1/PredatorBrain/PredatorBrain-0.onnx (onnx, 73997 bytes, 7 tensors)

action_model._continuous_distribution.log_sigma f4 [1, 2]
0.0 0.0
00000000: 0000 0000 0000 0000

action_model._continuous_distribution.mu.bias f4 [2]
0.0 0.0
00000000: 0000 0000 0000 0000

action_model._continuous_distribution.mu.weight f4 [2, 128]
-0.009717009 -0.009584022 0.015876325 -0.0029948358 -0.011868084 -0.008031642 -0.0051806993 -0.0016143995
0.003955808 0.024344213 0.0017067356 0.0048310407 -0.023534317 -0.010881761 -0.0061337077 3.3345652e-05
-0.015835376 0.019011255 -0.040804155 -0.019645384 0.02209456 -0.0008401568 -0.016622122 0.016628964
0.0011659866 -0.02444451 0.00062203425 -0.0015346807 -0.0072298683 -0.019817708 -0.0036870034 -0.008371007
0.0023851087 -0.03438617 -0.012003523 -0.039507564 0.032448992 -0.0013786118 0.012387434 -0.0027616026
0.04208332 -0.00044387553 0.020386452 -0.023688013 0.0054561864 0.0042086164 0.0018091921 -0.016722402
0.03472288 0.017237103 0.0029716233 -0.01405553 -0.021588167 0.034300085 -0.002948495 -0.013731234
-0.02131583 0.006179733 0.004824485 0.018676676 -0.002026785 0.020128185 0.011587171 0.024038093
0.031867176 0.0016190736 -0.0363111 -0.00078934943 -0.015256181 -0.004108523 0.0012340288 -0.008354032
0.049050786 -0.00689469 0.017157517 0.00053423166 -0.012739367 -0.023188077 0.0031240592 -0.015968548
0.0029923057 0.0032877245 -0.014792909 0.0073948908 -0.004974472 3.8530354e-05 0.0118015 -0.016086875
-0.010053486 -0.02579146 0.037434604 -0.0052181324 -0.0067651467 -0.011445242 0.022810513 -0.0021648868
0.0054379827 0.015194087 0.040519208 0.026504053 -0.013577819 -0.008673377 -0.0065934393 0.028952623
0.0037792232 -0.0023185152 -0.024908965 -0.011130814 -0.014833326 -0.011485531 0.014264943 0.0031919298
0.0051993793 0.012929897 0.0034152735 0.025704175 0.011635151 0.019842504 -0.00026136736 0.027759245
-0.0054911035 0.0010956282 0.015007624 0.020132296 0.032933496 0.013900428 -0.012848477 -0.015623567
-0.021930175 -0.0020547563 -0.012050032 -0.013167006 -0.0034083647 0.012839304 -0.017331675 0.0051402682
0.010003778 -0.003609761 -0.0067968383 0.0384564 0.014557316 -0.03129463 0.005244523 0.000203422
-0.002499161 0.03008174 -0.008008585 0.0060445587 0.0039525526 0.009475297 0.012772773 0.012403694
0.012264243 -4.895117e-05 -0.014154482 0.021903113 0.047096606 0.009074477 0.011513085 -0.013410956
-0.017919691 -0.0065434105 -0.010427112 0.00028748912 -0.007289992 0.016754081 0.0021792997 0.014310715
0.00416448 -0.01040015 1.3784062e-05 -0.036924012 0.002592456 0.008621632 -0.008992796 0.027829662
0.008742019 0.009578148 -0.0201801 0.008058648 0.0004779452 0.007947802 0.021920426 -0.013040853
-0.013107446 0.008627485 -0.0031215397 -0.006178014 0.015239959 -0.00076787383 -0.01392283 -0.014820552
0.011770188 0.006628852 -0.006225565 0.029291814 -0.010848883 0.014917055 0.013318573 -0.0036823624
-0.0030450292 0.0034011488 -0.009388499 -0.0024379587 0.025998885 0.021778224 0.009273759 -0.0034865148
-0.041366126 -0.00040921444 -0.0048423065 0.005194729 0.022684855 -0.0040341294 -0.0323634 -0.0047845724
0.016073907 0.012101367 0.0073541948 0.020375 0.0149687575 -0.0102848355 0.012322069 -0.0016399326
-0.008053651 0.007060802 0.018249981 -0.01033184 -0.0021303648 -0.008220756 -0.010321089 0.008740971
-0.004521811 -0.002958419 -0.010883144 -0.004772076 -0.030565722 0.0039935587 0.01583981 0.0031296373
0.022520725 0.00089519395 -0.008497327 -0.017928293 0.0410636 -0.019579802 0.010843742 0.019540176
-0.008941713 0.0008761287 0.011437603 0.005645089 0.0029790017 -0.025989065 -0.009499261 0.018701738
00000000: 1734 1fbc 4d06 1dbc 110f 823c 0245 44bb
00000010: 5a72 42bc 2697 03bc dbc2 a9bb 429a d3ba
00000020: b99f 813b 846d c73c 8bb4 df3a b54d 9e3b
00000030: 0acb c0bc 6a49 32bc 45fd c8bb 9fdc 0b38
00000040: 31b9 81bc 7ebd 9b3c 4222 27bd 5bef a0bc
00000050: a7ff b43c f83d 5cba 1e2b 88bc 7739 883c
00000060: 05d4 983a da3f c8bc 0310 233a 5727 c9ba
00000070: 88e8 ecbb bf58 a2bc a7a1 71bb 8c26 09bc
00000080: 7c4f 1c3b 83d8 0cbd 6daa 44bc afd2 21bd
00000090: 3ce9 043d 89b2 b4ba aaf4 4a3c 01fc 34bb
000000a0: 8f5f 2c3d f7b7 e8b9 7d01 a73c 5d0d c2bc
000000b0: cfc9 b23b 6fe8 893b 6a22 ed3a 6bfd 88bc
000000c0: 9439 0e3d d334 8d3c 91bf 423b 2a49 66bc
000000d0: abd9 b0bc 3f7e 0c3d 8a3b 41bb f8f8 60bc
000000e0: 899e aebc 5c7f ca3b b716 9e3b d4ff 983c
000000f0: cfd3 04bb dde3 a43c 1ed8 3d3c 89eb c43c
00000100: 2887 023d 1837 d43a f3ba 14bd 58ec 4eba
00000110: 10f5 79bc caa0 86bb 23bf a13a 5adf 08bc
00000120: 7ae9 483d daec e1bb ec8d 8c3c ae0b 0c3a
00000130: c7b8 50bc ecf4 bdbc 04bd 4c3b 79d0 82bc
00000140: 8f1a 443b dd76 573b f55d 72bc d750 f23b
00000150: e500 a3bb a79b 2138 145b 413c 9fc8 83bc
00000160: 60b7 24bc 9d48 d3bc 0755 193d defc aabb
00000170: 2aae ddbb d384 3bbc 1ddd ba3c c6e0 0dbb
00000180: 1b31 b23b 9ff0 783c 78f7 253d 071f d93c
00000190: 8075 5ebc c81a 0ebc c70d d8bb 0d2e ed3c
000001a0: d8ac 773b 3bf2 17bb e30d ccbc 055e 36bc
000001b0: 7b07 73bc cf2d 3cbc 82b7 693c b22f 513b
000001c0: 8e5f aa3b ebd7 533c c8d2 5f3b 9091 d23c
000001d0: 5ca1 3e3c bf8c a23c 2208 89b9 5b67 e33c
000001e0: b7ee b3bb 2f9b 8f3a 8ae2 753c 7cec a43c
000001f0: 46e5 063d 9fbe 633c 6b82 52bc fdf9 7fbc
00000200: e9a6 b3bc 17a9 06bb 7f6d 45bc 6dba 57bc
00000210: df5e 5fbb f25b 523c 28fb 8dbc b26f a83b
00000220: e3e6 233c bd91 6cbb 03b8 debb 7584 1d3d
00000230: cf81 6e3c cc2e 00bd 3fda ab3b ad4d 5539
00000240: f7c8 23bb fb6d f63c 7136 03bc 6f11 c63b
00000250: 6a84 813b 473e 1b3c e544 513c dd38 4b3c
00000260: f7ef 483c eb50 4db8 33e8 67bc 286e b33c
00000270: 5fe8 403d 1dad 143c 61a1 3c3c a0b9 5bbc
00000280: 51cc 92bc 1b6a d6bb 7ad6 2abc 23ba 9639
00000290: e3e0 eebb db3f 893c 95d2 0e3b 7d77 6a3c
000002a0: 3176 883b 6465 2abc 1842 6737 a23d 17bd
000002b0: 32e6 293b bf41 0d3c 8556 13bc 08fb e33c
000002c0: af3a 0f3c aaed 1c3c bd50 a5bc 6b08 043c
000002d0: b894 fa39 7f37 023c 7792 b33c 4da9 55bc
000002e0: 9dc0 56bc 4b5a 0d3c bf92 4cbb f070 cabb
000002f0: 05b1 793c 244b 49ba 951c 64bc e7d1 72bc
00000300: bfd7 403c d736 d93b d3ff cbbb 63f5 ef3c
00000310: 83bf 31bc aa66 743c 2536 5a3c ca53 71bb
00000320: 1d8f 47bb cfe5 5e3b 38d2 19bc 29c6 1fbb
00000330: 9dfb d43c 3f68 b23c f7f0 173c 037e 64bb
00000340: 876f 29bd d58b d6b9 36ac 9ebb 8c38 aa3b
00000350: 97d5 b93c bb30 84bb 7c8f 04bd e7c7 9cbb
00000360: 6dad 833c d044 463c 75fb f03b 79e9 a63c
00000370: 853f 753c ba81 28bc 81e2 493c 02f3 d6ba
00000380: 76f3 03bc 4d5e e73b fc80 953c e146 29bc
00000390: 979d 0bbb 5ab0 06bc c919 29bc 4a36 0f3c
000003a0: b32b 94bb 09e2 41bb 374f 32bc 135f 9cbb
000003b0: f764 fabc 66dc 823b 7dc2 813c 9a1a 4d3b
000003c0: 627d b83c 73ab 6a3a 5f38 0bbc 5bde 92bc
000003d0: 4e32 283d d265 a0bc f3a9 313c b812 a03c
000003e0: 4380 12bc 00ac 653a c964 3b3c 70fa b83b
000003f0: 5b3b 433b 05e7 d4bc caa2 1bbc 6334 993c

network_body._body_endoder.seq_layers.0.bias f4 [128]
0.0 0.0 0.0 0.0 0.0 0.0 0.0 0.0
0.0 0.0 0.0 0.0 0.0 0.0 0.0 0.0
0.0 0.0 0.0 0.0 0.0 0.0 0.0 0.0
0.0 0.0 0.0 0.0 0.0 0.0 0.0 0.0
0.0 0.0 0.0 0.0 0.0 0.0 0.0 0.0
0.0 0.0 0.0 0.0 0.0 0.0 0.0 0.0
0.0 0.0 0.0 0.0 0.0 0.0 0.0 0.0
0.0 0.0 0.0 0.0 0.0 0.0 0.0 0.0
0.0 0.0 0.0 0.0 0.0 0.0 0.0 0.0
0.0 0.0 0.0 0.0 0.0 0.0 0.0 0.0
0.0 0.0 0.0 0.0 0.0 0.0 0.0 0.0
0.0 0.0 0.0 0.0 0.0 0.0 0.0 0.0
0.0 0.0 0.0 0.0 0.0 0.0 0.0 0.0
0.0 0.0 0.0 0.0 0.0 0.0 0.0 0.0
0.0 0.0 0.0 0.0 0.0 0.0 0.0 0.0
0.0 0.0 0.0 0.0 0.0 0.0 0.0 0.0
00000000: 0000 0000 0000 0000 0000 0000 0000 0000
00000010: 0000 0000 0000 0000 0000 0000 0000 0000
00000020: 0000 0000 0000 0000 0000 0000 0000 0000
00000030: 0000 0000 0000 0000 0000 0000 0000 0000
00000040: 0000 0000 0000 0000 0000 0000 0000 0000
00000050: 0000 0000 0000 0000 0000 0000 0000 0000
00000060: 0000 0000 0000 0000 0000 0000 0000 0000
00000070: 0000 0000 0000 0000 0000 0000 0000 0000
00000080: 0000 0000 0000 0000 0000 0000 0000 0000
00000090: 0000 0000 0000 0000 0000 0000 0000 0000
000000a0: 0000 0000 0000 0000 0000 0000 0000 0000
000000b0: 0000 0000 0000 0000 0000 0000 0000 0000
000000c0: 0000 0000 0000 0000 0000 0000 0000 0000
000000d0: 0000 0000 0000 0000 0000 0000 0000 0000
000000e0: 0000 0000 0000 0000 0000 0000 0000 0000
000000f0: 0000 0000 0000 0000 0000 0000 0000 0000
00000100: 0000 0000 0000 0000 0000 0000 0000 0000
00000110: 0000 0000 0000 0000 0000 0000 0000 0000
00000120: 0000 0000 0000 0000 0000 0000 0000 0000
00000130: 0000 0000 0000 0000 0000 0000 0000 0000
00000140: 0000 0000 0000 0000 0000 0000 0000 0000
00000150: 0000 0000 0000 0000 0000 0000 0000 0000
00000160: 0000 0000 0000 0000 0000 0000 0000 0000
00000170: 0000 0000 0000 0000 0000 0000 0000 0000
00000180: 0000 0000 0000 0000 0000 0000 0000 0000
00000190: 0000 0000 0000 0000 0000 0000 0000 0000
000001a0: 0000 0000 0000 0000 0000 0000 0000 0000
000001b0: 0000 0000 0000 0000 0000 0000 0000 0000
000001c0: 0000 0000 0000 0000 0000 0000 0000 0000
000001d0: 0000 0000 0000 0000 0000 0000 0000 0000
000001e0: 0000 0000 0000 0000 0000 0000 0000 0000
000001f0: 0000 0000 0000 0000 0000 0000 0000 0000

network_body._body_endoder.seq_layers.0.weight f4 [128, 9]
-0.074184865 0.09750426 -0.41414833 -0.09576695 0.11623189 -0.12468832 0.87294436 -0.048847795
0.17163458 0.27197433 0.3310309 -0.47140265 -0.16971992 -0.34061882 -0.045243632 0.21190658
-0.89999473 -0.76943564 -0.24414477 -0.016055325 -0.7543354 -0.16836664 0.12816912 -0.4014872
0.02837684 -0.53160715 -0.30453753 -0.12100673 -0.6009088 0.13842063 0.44001234 -0.14368752
0.29757646 0.0907061 -0.046061244 0.2012578 0.09652059 0.17325994 0.20180038 -0.25025898
-0.017911006 -0.026108226 -0.019578528 -0.405197 0.30121705 0.18593034 0.424138 0.16991535
0.36227402 -0.24136168 -0.11533697 -0.1645144 0.0297463 0.1443381 -0.36344382 0.45850003
0.16207296 -0.5212208 0.19342339 -0.31196886 -0.17362736 -0.5251105 -0.34820455 0.026832847
-0.10185634 0.35804236 0.21352437 -0.54366183 0.014888449 -0.09007653 0.47555122 0.055349365
-0.009210901 -0.17133974 0.70527124 0.25808156 0.17578849 -0.03628032 -0.2240952 -0.24001943
-0.03694077 -0.10954213 0.20486055 0.008970935 -0.04363305 0.46607196 -0.66252214 -0.5320105
-0.4754634 -0.09603548 -0.7027971 0.102366 0.8112721 0.053315096 0.12991945 -0.13660383
-0.6825723 -0.29844102 -0.106268704 0.27882624 -0.13832453 0.2270104 -0.077113844 -0.15773685
-0.14110492 0.116752855 0.11109902 0.14672841 0.18420646 -0.7747199 0.018957328 -0.24506661
0.29684353 -0.66259027 0.5806446 0.21124083 -0.25165355 0.31295598 0.66858745 -0.3085717
0.0011184865 0.123202294 0.0808101 -0.40676904 -0.31290394 0.4930808 -0.2230569 -0.22974247
-0.13895571 -0.15252095 0.17039905 0.08849826 0.16070296 -0.63242257 -0.07469521 0.317004
-0.062388834 -0.23611304 -0.53964674 -0.045892693 -0.3379833 0.12006873 0.24444477 -0.45323777
-0.26666975 -0.22660169 0.12747976 0.3102538 -0.30255452 -0.24448884 -0.23168318 0.09505149
0.13036928 0.57736313 -0.44198555 -0.6528547 0.13370529 -0.25667685 -0.43988645 -0.3158952
-0.14076903 0.12012731 0.16185965 -0.24193963 -0.15168619 0.31648472 -0.150464 -0.3427094
0.63714373 0.13207254 0.13537885 0.57651293 0.5592656 -0.31880376 0.3463809 -0.015098284
0.41108665 0.42941698 -0.25616807 -0.33268553 -0.01657896 0.028857602 -0.5877861 0.11127882
-0.06946305 0.02205697 -0.09749314 -0.2742341 -0.10805012 -0.009209614 0.57463866 -0.16444463
0.032502484 0.26290953 0.27133176 -0.14598706 0.058411196 0.15600637 0.31742898 0.8368281
0.26618546 -0.21952727 0.024231363 0.08748086 0.09149744 -0.16246465 -0.624808 0.29731518
-0.22681096 0.31190097 0.25089267 -0.7961168 -0.16736011 -0.14859194 0.41832328 -0.05174784
0.017706431 -0.10845872 0.38973603 -0.12249091 -0.16030326 0.31299424 0.39465976 -0.32945538
-0.13385369 -1.0287653 -0.05896835 0.12870646 -0.08747314 0.7012955 -0.26165783 0.34421954
-0.1888997 -0.71068656 0.11325887 -0.040810786 0.018298198 0.02752988 -0.29539868 -0.15660146
-0.19929007 0.23319703 0.34310985 0.10770598 -0.895563 -0.30808794 0.4370334 0.36600944
0.15967315 -0.06380288 -0.068871126 -0.12371421 0.32937366 0.30645502 0.29294607 0.3029642
00000000: 3cee 97bd 50b0 c73d 400b d4be 7621 c4bd
00000010: fc0a ee3d 975c ffbd 4879 5f3f a014 48bd
00000020: fac0 2f3e 3840 8b3e e27c a93e b05b f1be
00000030: 0fcb 2dbe 9765 aebe 6351 39bd 0afe 583e
00000040: 0e66 66bf bcf9 44bf 1601 7abe 7586 83bc
00000050: 201c 41bf 4e68 2cbe c43e 033e bb8f cdbe
00000060: 8c76 e83c 6817 08bf 58ec 9bbe 60d2 f7bd
00000070: 29d5 19bf 23be 0d3e 4c49 e13e d222 13be
00000080: f15b 983e 1fc4 b93d b7aa 3cbd 8616 4e3e
00000090: 96ac c53d 0e6b 313e c2a4 4e3e f221 80be
000000a0: 1aba 92bc ebe0 d5bc 2663 a0bc fb75 cfbe
000000b0: 1f39 9a3e 8664 3e3e 9e28 d93e 4afe 2d3e
000000c0: fb7b b93e 8427 77be ca35 ecbd 7676 28be
000000d0: 83ae f33c 5ecd 133e 4f15 babe 84c0 ea3e
000000e0: 74f6 253e ba6e 05bf c810 463e 62ba 9fbe
000000f0: 5fcb 31be a46d 06bf de47 b2be 8fd0 db3c
00000100: 0f9a d0bd 5451 b73e 22a6 5a3e 6c2d 0bbf
00000110: aeee 733c 0b7a b8bd 737b f33e 04b6 623d
00000120: 52e9 16bc af73 2fbe a88c 343f 4423 843e
00000130: e601 343e ac9a 14bd 3679 65be a7c7 75be
00000140: 344f 17bd a057 e0bd f7c6 513e d4fa 123c
00000150: 92b8 32bd fca0 ee3e 0d9b 29bf d731 08bf
00000160: f06f f3be 40ae c4bd 83ea 33bf 44a5 d13d
00000170: 87af 4f3f ee60 5a3d 9b09 053e e0e1 0bbe
00000180: 0fbd 2ebf 43cd 98be 68a3 d9bd 50c2 8e3e
00000190: f2a4 0dbe 6a75 683e dded 9dbd c585 21be
000001a0: cf7d 10be 1f1c ef3d e287 e33d f93f 163e
000001b0: 9ea0 3c3e 0b54 46bf 664c 9b3c bef2 7abe
000001c0: e0fb 973e 849f 29bf 20a5 143f 844f 583e
000001d0: bcd8 80be c43b a03e 8c28 2b3f 1cfd 9dbe
000001e0: 2e9a 923a 7c51 fc3d c47f a53d 0844 d0be
000001f0: f234 a0be 1675 fc3e 0769 64be 9c41 6bbe
00000200: 684a 0ebe 742e 1cbe 177d 2e3e 933e b53d
00000210: 518f 243e 72e6 21bf cdf9 98bd 594e a23e
00000220: 6f8b 7fbd 9ec7 71be 4a26 0abf faf9 3bbd
00000230: 260c adbe 98e6 f53d bb4f 7a3e c80e e8be
00000240: f088 88be 460a 68be 0e8a 023e 96d9 9e3e
00000250: 6de8 9abe 485b 7abe 5b3e 6dbe 5baa c23d
00000260: 867f 053e 12ce 133f ee4b e2be 7c21 27bf
00000270: 0aea 083e 266b 83be cc38 e1be 04bd a1be
00000280: c225 10be 4f05 f63d 89be 253e 06bf 77be
00000290: a053 1bbe 490a a23e 3c13 1abe 9b77 afbe
000002a0: da1b 233f 063e 073e c1a0 0a3e 5a96 133f
000002b0: 082c 0f3f 3f3a a3be d658 b13e cb5e 77bc
000002c0: f379 d23e 8bdc db3e 7628 83be c255 aabe
000002d0: 99d0 87bc c766 ec3c 2679 16bf 26e6 e33d
000002e0: a542 8ebd d2b0 b43c 7caa c7bd 6968 8cbe
000002f0: 6249 ddbd ece3 16bc 851b 133f 2c64 28be
00000300: 5321 053d 149c 863e ffeb 8a3e a27d 15be
00000310: 9440 6f3d 22c0 1f3e 0d86 a23e 5e3a 563f
00000320: 7649 883e c2cb 60be da80 c63c 2a29 b33d
00000330: 0363 bb3d 225d 26be 6bf3 1fbf b239 983e
00000340: 2241 68be 7cb1 9f3e 0175 803e 50ce 4bbf
00000350: 7360 2bbe 7c28 18be 782e d63e 8bf5 53bd
00000360: 140d 913c 9b1f debd 7b8b c73e 84dc fabd
00000370: 8a26 24be c840 a03e d810 ca3e 60ae a8be
00000380: f110 09be 95ae 83bf cc88 71bd a0cb 033e
00000390: 1e25 b3bd 1a88 333f 04f8 85be 8b3d b03e
000003a0: ec6e 41be 8eef 35bf 44f4 e73d 3629 27bd
000003b0: 1ae6 953c 5886 e13c 7f3e 97be 225c 20be
000003c0: b212 4cbe 34cb 6e3e 18ac af3e f494 dc3d
000003d0: 9e43 65bf b4bd 9dbe d8c2 df3e 9765 bb3e
000003e0: 5c81 233e 16ab 82bd 4e0c 8dbd e05d fdbd
000003f0: aaa3 a83e ace7 9c3e 07fd 953e 201e 9b3e

network_body._body_endoder.seq_layers.2.bias f4 [128]
0.0 0.0 0.0 0.0 0.0 0.0 0.0 0.0
0.0 0.0 0.0 0.0 0.0 0.0 0.0 0.0
0.0 0.0 0.0 0.0 0.0 0.0 0.0 0.0
0.0 0.0 0.0 0.0 0.0 0.0 0.0 0.0
0.0 0.0 0.0 0.0 0.0 0.0 0.0 0.0
0.0 0.0 0.0 0.0 0.0 0.0 0.0 0.0
0.0 0.0 0.0 0.0 0.0 0.0 0.0 0.0
0.0 0.0 0.0 0.0 0.0 0.0 0.0 0.0
0.0 0.0 0.0 0.0 0.0 0.0 0.0 0.0
0.0 0.0 0.0 0.0 0.0 0.0 0.0 0.0
0.0 0.0 0.0 0.0 0.0 0.0 0.0 0.0
0.0 0.0 0.0 0.0 0.0 0.0 0.0 0.0
0.0 0.0 0.0 0.0 0.0 0.0 0.0 0.0
0.0 0.0 0.0 0.0 0.0 0.0 0.0 0.0
0.0 0.0 0.0 0.0 0.0 0.0 0.0 0.0
0.0 0.0 0.0 0.0 0.0 0.0 0.0 0.0
00000000: 0000 0000 0000 0000 0000 0000 0000 0000
00000010: 0000 0000 0000 0000 0000 0000 0000 0000
00000020: 0000 0000 0000 0000 0000 0000 0000 0000
00000030: 0000 0000 0000 0000 0000 0000 0000 0000
00000040: 0000 0000 0000 0000 0000 0000 0000 0000
00000050: 0000 0000 0000 0000 0000 0000 0000 0000
00000060: 0000 0000 0000 0000 0000 0000 0000 0000
00000070: 0000 0000 0000 0000 0000 0000 0000 0000
00000080: 0000 0000 0000 0000 0000 0000 0000 0000
00000090: 0000 0000 0000 0000 0000 0000 0000 0000
000000a0: 0000 0000 0000 0000 0000 0000 0000 0000
000000b0: 0000 0000 0000 0000 0000 0000 0000 0000
000000c0: 0000 0000 0000 0000 0000 0000 0000 0000
000000d0: 0000 0000 0000 0000 0000 0000 0000 0000
000000e0: 0000 0000 0000 0000 0000 0000 0000 0000
000000f0: 0000 0000 0000 0000 0000 0000 0000 0000
00000100: 0000 0000 0000 0000 0000 0000 0000 0000
00000110: 0000 0000 0000 0000 0000 0000 0000 0000
00000120: 0000 0000 0000 0000 0000 0000 0000 0000
00000130: 0000 0000 0000 0000 0000 0000 0000 0000
00000140: 0000 0000 0000 0000 0000 0000 0000 0000
00000150: 0000 0000 0000 0000 0000 0000 0000 0000
00000160: 0000 0000 0000 0000 0000 0000 0000 0000
00000170: 0000 0000 0000 0000 0000 0000 0000 0000
00000180: 0000 0000 0000 0000 0000 0000 0000 0000
00000190: 0000 0000 0000 0000 0000 0000 0000 0000
000001a0: 0000 0000 0000 0000 0000 0000 0000 0000
000001b0: 0000 0000 0000 0000 0000 0000 0000 0000
000001c0: 0000 0000 0000 0000 0000 0000 0000 0000
000001d0: 0000 0000 0000 0000 0000 0000 0000 0000
000001e0: 0000 0000 0000 0000 0000 0000 0000 0000
000001f0: 0000 0000 0000 0000 0000 0000 0000 0000

network_body._body_endoder.seq_layers.2.weight f4 [128, 128]
-0.09671703 0.12617676 -0.012578561 0.07865152 0.09041776 0.1589732 -0.009374683 0.08264574
0.11370383 0.020692544 -0.169699 -0.1240732 0.0069239265 -0.028712204 0.13271388 0.0042121666
0.22000633 -0.026844634 0.113830924 0.12554502 -0.11461057 -0.12466621 0.009945616 -0.1169446
0.15456463 0.10224087 -0.029384924 -0.10855277 -0.06948707 -0.017953454 -0.045149058 -0.14961533
-0.06691865 -0.045491837 -0.010143925 -0.11106765 -0.15736148 0.008197916 0.0047038677 -0.0035461262
0.03105209 0.117464505 0.0014912023 -0.12024203 0.0049228896 0.10671275 -0.062489077 -0.052243933
-0.013607107 0.08208063 0.15024945 0.110757396 0.07919725 -0.20476875 0.13195339 0.17647578
0.08461809 0.055127103 -0.005057191 0.014385128 0.13177213 -0.07658877 -0.107377075 -0.12666287
-0.17733973 -0.030744884 0.028346958 -0.10629872 0.12296583 0.19125085 -0.016336488 0.08932869
0.061182205 -0.063159175 0.13953756 -0.11413346 0.10198493 -0.10457564 0.074062616 -0.2347705
-0.07171903 0.10497152 -0.064956546 0.11697511 0.062430535 0.20842257 0.24178497 -0.18517044
0.04250299 -0.07018848 0.013621091 0.17068769 -0.010967109 0.043989014 -0.0706952 -0.05806068
0.0010954643 -0.056489103 -0.093798935 -0.01301276 -0.036501657 0.18399973 0.04075496 -0.10569002
-0.07069954 0.09097124 0.010398302 0.08890761 0.060595904 0.04260666 -0.081815995 0.03820784
0.11461834 -0.16509257 0.0490174 0.07044197 -0.0150117185 0.06930907 -0.07257517 0.0010701122
-0.059992 0.08775569 0.14627753 0.083734825 0.05762912 -0.029661572 0.07419037 -0.09143476
0.025727702 -0.026794013 0.0320301 0.1659533 -0.0062566 0.15062326 0.15611722 -0.17593919
-0.0926262 -0.033582512 -0.1625454 0.04040289 -0.041292734 -0.03564703 0.22154659 -0.08204649
-0.14421551 0.18838131 -0.11357584 -0.12822798 0.026356028 -0.24139316 -0.023655277 0.10236859
0.09494119 -0.06174472 0.014001538 -0.104799435 0.010862354 -0.11864478 -0.18379404 0.058504835
-0.01079154 -0.24491134 0.06186475 -0.009153695 -0.18890049 0.018181633 0.04129381 0.020898908
0.121583305 0.10255146 0.059023313 0.07826838 -0.06653196 0.1013174 -0.077226415 0.039881192
-0.19198386 0.051677383 0.029064804 0.246 0.019524151 -0.0642379 -0.18787773 0.14090513
0.07380748 0.0017470128 0.04735022 -0.036087163 -0.062462077 -0.08036557 0.08826773 0.06472945
0.09930355 -0.16555473 -0.09159533 0.04167429 -0.08954172 0.11813728 -0.07459852 -0.106986605
0.02923045 -0.14846607 -0.04047098 0.009490142 0.14800254 0.07445844 -0.00019157642 -0.030686853
0.008279995 0.069107525 0.108992465 -0.08447688 0.04802879 -0.04976458 -0.0605774 -0.024022441
-0.05183047 0.050612886 0.14756668 0.012535354 0.11060558 -1.6828639e-05 -0.07878804 -0.18553144
-0.10764472 0.18719238 -0.08381779 0.05468479 -0.13687679 0.124105155 0.046347525 -0.098000176
0.1454348 -0.06430943 -0.029835135 0.016834231 0.063971855 0.14206754 0.03866516 -0.1483515
0.07485088 -0.0017220359 -0.07791937 0.04509114 -0.0114686685 -0.09224251 0.04332213 0.120945044
-0.09737947 -0.06417081 -0.01003998 0.0009681256 -0.0824033 -0.12649435 0.04203322 -0.010084145
00000000: 9413 c6bd 7b34 013e 4f16 4ebc 0c14 a13d
00000010: f22c b93d dfc9 223e 4598 19bc 2b42 a93d
00000020: 8edd e83d 6983 a93c 93c5 2dbe 171a febd
00000030: 1be2 e23b db35 ebbc 26e6 073e 3706 8a3b
00000040: 5749 613e 47e9 dbbc 3020 e93d e08e 003e
00000050: f2b8 eabd ff50 ffbd f0f2 223c a780 efbd
00000060: 3146 1e3e a963 d13d a7b8 f0bc ea50 debd
00000070: 3d4f 8ebd 1f13 93bc 38ee 38bd c334 19be
00000080: a50c 89bd a655 3abd b532 26bc 7077 e3bd
00000090: 5e23 21be 8d50 063c e722 9a3b 2066 68bb
000000a0: f460 fe3c 3b91 f03d 7274 c33a 7441 f6bd
000000b0: 3150 a13b 378c da3d 8cf4 7fbd bcfd 55bd
000000c0: 58f0 5ebc e419 a83d feda 193e c6d4 e23d
000000d0: 2b32 a23d e6ae 51be ca1e 073e 11b6 343e
000000e0: 404c ad3d f5cc 613d cbb6 a5bb 9aaf 6b3c
000000f0: 46ef 063e 93da 9cbd 83e8 dbbd e9b3 01be
00000100: 8c98 35be b2dc fbbc e137 e83c 25b3 d9bd
00000110: 82d5 fb3d 43d7 433e 19d4 85bc f6f1 b63d
00000120: 319a 7a3d 9959 81bd efe2 0e3e cebe e9bd
00000130: 7add d03d c12b d6bd 24ae 973d ae67 70be
00000140: 6de1 92bd 4ffb d63d f007 85bd a590 ef3d
00000150: 29b7 7f3d ba6c 553e 7b96 773e 529d 3dbe
00000160: 9e17 2e3d fabe 8fbd ff2a 5f3c c1c8 2e3e
00000170: 64af 33bc d32d 343d a5c8 90bd 09d1 6dbd
00000180: af95 8f3a 1e61 67bd a819 c0bd 7933 55bc
00000190: c382 15bd 6d6a 3c3e acee 263d 0274 d8bd
000001a0: ecca 90bd 214f ba3d a45d 2a3c 3115 b63d
000001b0: 6933 783d 5284 2e3d 258f a7bd d37f 1c3d
000001c0: 05bd ea3d 070e 29be 78c6 483d e143 903d
000001d0: b6f3 75bc eaf1 8d3d 4aa2 94bd 0243 8c3a
000001e0: 2cba 75bd 41b9 b33d c7c9 153e 2a7d ab3d
000001f0: 830c 6c3d d3fc f2bc 1ff1 973d 2642 bbbd
00000200: e7c2 d23c 1e7f dbbc fe31 033d a9ef 293e
00000210: 2a04 cdbb fc3c 1a3e 31dd 1f3e 6729 34be
00000220: ceb2 bdbd d18d 09bd 4d72 26be 807d 253d
00000230: 9222 29bd 9f02 12bd 1cdd 623e fd07 a8bd
00000240: 3bad 13be 08e7 403e 739a e8bd 324e 03be
00000250: 99e8 d73c c52f 77be b6c8 c1bc a0a6 d13d
00000260: 8770 c23d 08e8 7cbd b566 653c 16a1 d6bd
00000270: 04f8 313c 09fc f2bd 8134 3cbe c4a2 6f3d
00000280: 00cf 30bc 0aca 7abe e465 7d3d 61f9 15bc
00000290: 216f 41be a6f1 943c b323 293d 3034 ab3c
000002a0: ab00 f93d 8006 d23d 6ec2 713d 2c4b a03d
000002b0: e941 88bd 7f7f cf3d e228 9ebd 765a 233d
000002c0: 6b97 44be aaab 533d 5019 ee3c 6de7 7b3e
000002d0: 1df1 9f3c 298f 83bd 0563 40be 6f49 103e
000002e0: 6028 973d 06fc e43a 4ef2 413d 22d0 13bd
000002f0: 3cd8 7fbd b496 a4bd b6c5 b43d e090 843d
00000300: a95f cb3d 2e87 29be 5596 bbbd a9b2 2a3d
00000310: a661 b7bd f5f1 f13d 1cc7 98bd cb1b dbbd
00000320: b274 ef3c 7d07 18be e6c4 25bd 8a7c 1b3c
00000330: fa8d 173e ab7d 983d e7e1 48b9 ff62 fbbc
00000340: d1a8 073c 3f88 8d3d 7137 df3d 3702 adbd
00000350: d6b9 443d f2d5 4bbd 0220 78bd b6ca c4bc
00000360: 304c 54bd 754f 4f3d b81b 173e 1661 4d3c
00000370: 2e85 e23d 3a2b 8db7 a05b a1bd f4fb 3dbe
00000380: d674 dcbd 5caf 3f3e a9a8 abbd 29fd 5f3d
00000390: 6e29 0cbe d82a fe3d e7d6 3d3d 51b4 c8bd
000003a0: dcec 143e aab4 83bd d068 f4bc f1e7 893c
000003b0: ad03 833d 277a 113e 5c5f 1e3d 75e9 17be
000003c0: 6b4b 993d f0b5 e1ba 3194 9fbd 7db1 383d
000003d0: 15e7 3bbc a4e9 bcbd 8c72 313d 09b2 f73d
000003e0: e36e c7bd fc6b 83bd ba7e 24bc cfc9 7d3a
000003f0: 10c3 a8bd bc87 01be 072b 2c3d f837 25bc
