results/predatorTest1/PredatorBrain/PredatorBrain-0.pt (torch, 152335 bytes, 12 tensors)

network_body._body_endoder.seq_layers.0.weight f4 [128, 9]
000000 3c ee 97 bd 50 b0 c7 3d 40 0b d4 be 76 21 c4 bd
       -0.074184865 0.09750426 -0.41414833 -0.09576695
000010 fc 0a ee 3d 97 5c ff bd 48 79 5f 3f a0 14 48 bd
       0.11623189 -0.12468832 0.87294436 -0.048847795
000020 fa c0 2f 3e 38 40 8b 3e e2 7c a9 3e b0 5b f1 be
       0.17163458 0.27197433 0.3310309 -0.47140265
000030 0f cb 2d be 97 65 ae be 63 51 39 bd 0a fe 58 3e
       -0.16971992 -0.34061882 -0.045243632 0.21190658
000040 0e 66 66 bf bc f9 44 bf 16 01 7a be 75 86 83 bc
       -0.89999473 -0.76943564 -0.24414477 -0.016055325
000050 20 1c 41 bf 4e 68 2c be c4 3e 03 3e bb 8f cd be
       -0.7543354 -0.16836664 0.12816912 -0.4014872
000060 8c 76 e8 3c 68 17 08 bf 58 ec 9b be 60 d2 f7 bd
       0.02837684 -0.53160715 -0.30453753 -0.12100673
000070 29 d5 19 bf 23 be 0d 3e 4c 49 e1 3e d2 22 13 be
       -0.6009088 0.13842063 0.44001234 -0.14368752
000080 f1 5b 98 3e 1f c4 b9 3d b7 aa 3c bd 86 16 4e 3e
       0.29757646 0.0907061 -0.046061244 0.2012578
000090 96 ac c5 3d 0e 6b 31 3e c2 a4 4e 3e f2 21 80 be
       0.09652059 0.17325994 0.20180038 -0.25025898
0000a0 1a ba 92 bc eb e0 d5 bc 26 63 a0 bc fb 75 cf be
       -0.017911006 -0.026108226 -0.019578528 -0.405197
0000b0 1f 39 9a 3e 86 64 3e 3e 9e 28 d9 3e 4a fe 2d 3e
       0.30121705 0.18593034 0.424138 0.16991535
0000c0 fb 7b b9 3e 84 27 77 be ca 35 ec bd 76 76 28 be
       0.36227402 -0.24136168 -0.11533697 -0.1645144
0000d0 83 ae f3 3c 5e cd 13 3e 4f 15 ba be 84 c0 ea 3e
       0.0297463 0.1443381 -0.36344382 0.45850003
0000e0 74 f6 25 3e ba 6e 05 bf c8 10 46 3e 62 ba 9f be
       0.16207296 -0.5212208 0.19342339 -0.31196886
0000f0 5f cb 31 be a4 6d 06 bf de 47 b2 be 8f d0 db 3c
       -0.17362736 -0.5251105 -0.34820455 0.026832847
000100 0f 9a d0 bd 54 51 b7 3e 22 a6 5a 3e 6c 2d 0b bf
       -0.10185634 0.35804236 0.21352437 -0.54366183
000110 ae ee 73 3c 0b 7a b8 bd 73 7b f3 3e 04 b6 62 3d
       0.014888449 -0.09007653 0.47555122 0.055349365
000120 52 e9 16 bc af 73 2f be a8 8c 34 3f 44 23 84 3e
       -0.009210901 -0.17133974 0.70527124 0.25808156
000130 e6 01 34 3e ac 9a 14 bd 36 79 65 be a7 c7 75 be
       0.17578849 -0.03628032 -0.2240952 -0.24001943
000140 34 4f 17 bd a0 57 e0 bd f7 c6 51 3e d4 fa 12 3c
       -0.03694077 -0.10954213 0.20486055 0.008970935
000150 92 b8 32 bd fc a0 ee 3e 0d 9b 29 bf d7 31 08 bf
       -0.04363305 0.46607196 -0.66252214 -0.5320105
000160 f0 6f f3 be 40 ae c4 bd 83 ea 33 bf 44 a5 d1 3d
       -0.4754634 -0.09603548 -0.7027971 0.102366
000170 87 af 4f 3f ee 60 5a 3d 9b 09 05 3e e0 e1 0b be
       0.8112721 0.053315096 0.12991945 -0.13660383
000180 0f bd 2e bf 43 cd 98 be 68 a3 d9 bd 50 c2 8e 3e
       -0.6825723 -0.29844102 -0.106268704 0.27882624
000190 f2 a4 0d be 6a 75 68 3e dd ed 9d bd c5 85 21 be
       -0.13832453 0.2270104 -0.077113844 -0.15773685
0001a0 cf 7d 10 be 1f 1c ef 3d e2 87 e3 3d f9 3f 16 3e
       -0.14110492 0.116752855 0.11109902 0.14672841
0001b0 9e a0 3c 3e 0b 54 46 bf 66 4c 9b 3c be f2 7a be
       0.18420646 -0.7747199 0.018957328 -0.24506661
0001c0 e0 fb 97 3e 84 9f 29 bf 20 a5 14 3f 84 4f 58 3e
       0.29684353 -0.66259027 0.5806446 0.21124083
0001d0 bc d8 80 be c4 3b a0 3e 8c 28 2b 3f 1c fd 9d be
       -0.25165355 0.31295598 0.66858745 -0.3085717
0001e0 2e 9a 92 3a 7c 51 fc 3d c4 7f a5 3d 08 44 d0 be
       0.0011184865 0.123202294 0.0808101 -0.40676904
0001f0 f2 34 a0 be 16 75 fc 3e 07 69 64 be 9c 41 6b be
       -0.31290394 0.4930808 -0.2230569 -0.22974247
000200 68 4a 0e be 74 2e 1c be 17 7d 2e 3e 93 3e b5 3d
       -0.13895571 -0.15252095 0.17039905 0.08849826
000210 51 8f 24 3e 72 e6 21 bf cd f9 98 bd 59 4e a2 3e
       0.16070296 -0.63242257 -0.07469521 0.317004
000220 6f 8b 7f bd 9e c7 71 be 4a 26 0a bf fa f9 3b bd
       -0.062388834 -0.23611304 -0.53964674 -0.045892693
000230 26 0c ad be 98 e6 f5 3d bb 4f 7a 3e c8 0e e8 be
       -0.3379833 0.12006873 0.24444477 -0.45323777
000240 f0 88 88 be 46 0a 68 be 0e 8a 02 3e 96 d9 9e 3e
       -0.26666975 -0.22660169 0.12747976 0.3102538
000250 6d e8 9a be 48 5b 7a be 5b 3e 6d be 5b aa c2 3d
       -0.30255452 -0.24448884 -0.23168318 0.09505149
000260 86 7f 05 3e 12 ce 13 3f ee 4b e2 be 7c 21 27 bf
       0.13036928 0.57736313 -0.44198555 -0.6528547
000270 0a ea 08 3e 26 6b 83 be cc 38 e1 be 04 bd a1 be
       0.13370529 -0.25667685 -0.43988645 -0.3158952
000280 c2 25 10 be 4f 05 f6 3d 89 be 25 3e 06 bf 77 be
       -0.14076903 0.12012731 0.16185965 -0.24193963
000290 a0 53 1b be 49 0a a2 3e 3c 13 1a be 9b 77 af be
       -0.15168619 0.31648472 -0.150464 -0.3427094
0002a0 da 1b 23 3f 06 3e 07 3e c1 a0 0a 3e 5a 96 13 3f
       0.63714373 0.13207254 0.13537885 0.57651293
0002b0 08 2c 0f 3f 3f 3a a3 be d6 58 b1 3e cb 5e 77 bc
       0.5592656 -0.31880376 0.3463809 -0.015098284
0002c0 f3 79 d2 3e 8b dc db 3e 76 28 83 be c2 55 aa be
       0.41108665 0.42941698 -0.25616807 -0.33268553
0002d0 99 d0 87 bc c7 66 ec 3c 26 79 16 bf 26 e6 e3 3d
       -0.01657896 0.028857602 -0.5877861 0.11127882
0002e0 a5 42 8e bd d2 b0 b4 3c 7c aa c7 bd 69 68 8c be
       -0.06946305 0.02205697 -0.09749314 -0.2742341
0002f0 62 49 dd bd ec e3 16 bc 85 1b 13 3f 2c 64 28 be
       -0.10805012 -0.009209614 0.57463866 -0.16444463
000300 53 21 05 3d 14 9c 86 3e ff eb 8a 3e a2 7d 15 be
       0.032502484 0.26290953 0.27133176 -0.14598706
000310 94 40 6f 3d 22 c0 1f 3e 0d 86 a2 3e 5e 3a 56 3f
       0.058411196 0.15600637 0.31742898 0.8368281
000320 76 49 88 3e c2 cb 60 be da 80 c6 3c 2a 29 b3 3d
       0.26618546 -0.21952727 0.024231363 0.08748086
000330 03 63 bb 3d 22 5d 26 be 6b f3 1f bf b2 39 98 3e
       0.09149744 -0.16246465 -0.624808 0.29731518
000340 22 41 68 be 7c b1 9f 3e 01 75 80 3e 50 ce 4b bf
       -0.22681096 0.31190097 0.25089267 -0.7961168
000350 73 60 2b be 7c 28 18 be 78 2e d6 3e 8b f5 53 bd
       -0.16736011 -0.14859194 0.41832328 -0.05174784
000360 14 0d 91 3c 9b 1f de bd 7b 8b c7 3e 84 dc fa bd
       0.017706431 -0.10845872 0.38973603 -0.12249091
000370 8a 26 24 be c8 40 a0 3e d8 10 ca 3e 60 ae a8 be
       -0.16030326 0.31299424 0.39465976 -0.32945538
000380 f1 10 09 be 95 ae 83 bf cc 88 71 bd a0 cb 03 3e
       -0.13385369 -1.0287653 -0.05896835 0.12870646
000390 1e 25 b3 bd 1a 88 33 3f 04 f8 85 be 8b 3d b0 3e
       -0.08747314 0.7012955 -0.26165783 0.34421954
0003a0 ec 6e 41 be 8e ef 35 bf 44 f4 e7 3d 36 29 27 bd
       -0.1888997 -0.71068656 0.11325887 -0.040810786
0003b0 1a e6 95 3c 58 86 e1 3c 7f 3e 97 be 22 5c 20 be
       0.018298198 0.02752988 -0.29539868 -0.15660146
0003c0 b2 12 4c be 34 cb 6e 3e 18 ac af 3e f4 94 dc 3d
       -0.19929007 0.23319703 0.34310985 0.10770598
0003d0 9e 43 65 bf b4 bd 9d be d8 c2 df 3e 97 65 bb 3e
       -0.895563 -0.30808794 0.4370334 0.36600944
0003e0 5c 81 23 3e 16 ab 82 bd 4e 0c 8d bd e0 5d fd bd
       0.15967315 -0.06380288 -0.068871126 -0.12371421
0003f0 aa a3 a8 3e ac e7 9c 3e 07 fd 95 3e 20 1e 9b 3e
       0.32937366 0.30645502 0.29294607 0.3029642

network_body._body_endoder.seq_layers.0.bias f4 [128]
000000 00 00 00 00 00 00 00 00 00 00 00 00 00 00 00 00
       0.0 0.0 0.0 0.0
000010 00 00 00 00 00 00 00 00 00 00 00 00 00 00 00 00
       0.0 0.0 0.0 0.0
000020 00 00 00 00 00 00 00 00 00 00 00 00 00 00 00 00
       0.0 0.0 0.0 0.0
000030 00 00 00 00 00 00 00 00 00 00 00 00 00 00 00 00
       0.0 0.0 0.0 0.0
000040 00 00 00 00 00 00 00 00 00 00 00 00 00 00 00 00
       0.0 0.0 0.0 0.0
000050 00 00 00 00 00 00 00 00 00 00 00 00 00 00 00 00
       0.0 0.0 0.0 0.0
000060 00 00 00 00 00 00 00 00 00 00 00 00 00 00 00 00
       0.0 0.0 0.0 0.0
000070 00 00 00 00 00 00 00 00 00 00 00 00 00 00 00 00
       0.0 0.0 0.0 0.0
000080 00 00 00 00 00 00 00 00 00 00 00 00 00 00 00 00
       0.0 0.0 0.0 0.0
000090 00 00 00 00 00 00 00 00 00 00 00 00 00 00 00 00
       0.0 0.0 0.0 0.0
0000a0 00 00 00 00 00 00 00 00 00 00 00 00 00 00 00 00
       0.0 0.0 0.0 0.0
0000b0 00 00 00 00 00 00 00 00 00 00 00 00 00 00 00 00
       0.0 0.0 0.0 0.0
0000c0 00 00 00 00 00 00 00 00 00 00 00 00 00 00 00 00
       0.0 0.0 0.0 0.0
0000d0 00 00 00 00 00 00 00 00 00 00 00 00 00 00 00 00
       0.0 0.0 0.0 0.0
0000e0 00 00 00 00 00 00 00 00 00 00 00 00 00 00 00 00
       0.0 0.0 0.0 0.0
0000f0 00 00 00 00 00 00 00 00 00 00 00 00 00 00 00 00
       0.0 0.0 0.0 0.0
000100 00 00 00 00 00 00 00 00 00 00 00 00 00 00 00 00
       0.0 0.0 0.0 0.0
000110 00 00 00 00 00 00 00 00 00 00 00 00 00 00 00 00
       0.0 0.0 0.0 0.0
000120 00 00 00 00 00 00 00 00 00 00 00 00 00 00 00 00
       0.0 0.0 0.0 0.0
000130 00 00 00 00 00 00 00 00 00 00 00 00 00 00 00 00
       0.0 0.0 0.0 0.0
000140 00 00 00 00 00 00 00 00 00 00 00 00 00 00 00 00
       0.0 0.0 0.0 0.0
000150 00 00 00 00 00 00 00 00 00 00 00 00 00 00 00 00
       0.0 0.0 0.0 0.0
000160 00 00 00 00 00 00 00 00 00 00 00 00 00 00 00 00
       0.0 0.0 0.0 0.0
000170 00 00 00 00 00 00 00 00 00 00 00 00 00 00 00 00
       0.0 0.0 0.0 0.0
000180 00 00 00 00 00 00 00 00 00 00 00 00 00 00 00 00
       0.0 0.0 0.0 0.0
000190 00 00 00 00 00 00 00 00 00 00 00 00 00 00 00 00
       0.0 0.0 0.0 0.0
0001a0 00 00 00 00 00 00 00 00 00 00 00 00 00 00 00 00
       0.0 0.0 0.0 0.0
0001b0 00 00 00 00 00 00 00 00 00 00 00 00 00 00 00 00
       0.0 0.0 0.0 0.0
0001c0 00 00 00 00 00 00 00 00 00 00 00 00 00 00 00 00
       0.0 0.0 0.0 0.0
0001d0 00 00 00 00 00 00 00 00 00 00 00 00 00 00 00 00
       0.0 0.0 0.0 0.0
0001e0 00 00 00 00 00 00 00 00 00 00 00 00 00 00 00 00
       0.0 0.0 0.0 0.0
0001f0 00 00 00 00 00 00 00 00 00 00 00 00 00 00 00 00
       0.0 0.0 0.0 0.0

network_body._body_endoder.seq_layers.2.weight f4 [128, 128]
000000 94 13 c6 bd 7b 34 01 3e 4f 16 4e bc 0c 14 a1 3d
       -0.09671703 0.12617676 -0.012578561 0.07865152
000010 f2 2c b9 3d df c9 22 3e 45 98 19 bc 2b 42 a9 3d
       0.09041776 0.1589732 -0.009374683 0.08264574
000020 8e dd e8 3d 69 83 a9 3c 93 c5 2d be 17 1a fe bd
       0.11370383 0.020692544 -0.169699 -0.1240732
000030 1b e2 e2 3b db 35 eb bc 26 e6 07 3e 37 06 8a 3b
       0.0069239265 -0.028712204 0.13271388 0.0042121666
000040 57 49 61 3e 47 e9 db bc 30 20 e9 3d e0 8e 00 3e
       0.22000633 -0.026844634 0.113830924 0.12554502
000050 f2 b8 ea bd ff 50 ff bd f0 f2 22 3c a7 80 ef bd
       -0.11461057 -0.12466621 0.009945616 -0.1169446
000060 31 46 1e 3e a9 63 d1 3d a7 b8 f0 bc ea 50 de bd
       0.15456463 0.10224087 -0.029384924 -0.10855277
000070 3d 4f 8e bd 1f 13 93 bc 38 ee 38 bd c3 34 19 be
       -0.06948707 -0.017953454 -0.045149058 -0.14961533
000080 a5 0c 89 bd a6 55 3a bd b5 32 26 bc 70 77 e3 bd
       -0.06691865 -0.045491837 -0.010143925 -0.11106765
000090 5e 23 21 be 8d 50 06 3c e7 22 9a 3b 20 66 68 bb
       -0.15736148 0.008197916 0.0047038677 -0.0035461262
0000a0 f4 60 fe 3c 3b 91 f0 3d 72 74 c3 3a 74 41 f6 bd
       0.03105209 0.117464505 0.0014912023 -0.12024203
0000b0 31 50 a1 3b 37 8c da 3d 8c f4 7f bd bc fd 55 bd
       0.0049228896 0.10671275 -0.062489077 -0.052243933
0000c0 58 f0 5e bc e4 19 a8 3d fe da 19 3e c6 d4 e2 3d
       -0.013607107 0.08208063 0.15024945 0.110757396
0000d0 2b 32 a2 3d e6 ae 51 be ca 1e 07 3e 11 b6 34 3e
       0.07919725 -0.20476875 0.13195339 0.17647578
0000e0 40 4c ad 3d f5 cc 61 3d cb b6 a5 bb 9a af 6b 3c
       0.08461809 0.055127103 -0.005057191 0.014385128
0000f0 46 ef 06 3e 93 da 9c bd 83 e8 db bd e9 b3 01 be
       0.13177213 -0.07658877 -0.107377075 -0.12666287
000100 8c 98 35 be b2 dc fb bc e1 37 e8 3c 25 b3 d9 bd
       -0.17733973 -0.030744884 0.028346958 -0.10629872
000110 82 d5 fb 3d 43 d7 43 3e 19 d4 85 bc f6 f1 b6 3d
       0.12296583 0.19125085 -0.016336488 0.08932869
000120 31 9a 7a 3d 99 59 81 bd ef e2 0e 3e ce be e9 bd
       0.061182205 -0.063159175 0.13953756 -0.11413346
000130 7a dd d0 3d c1 2b d6 bd 24 ae 97 3d ae 67 70 be
       0.10198493 -0.10457564 0.074062616 -0.2347705
000140 6d e1 92 bd 4f fb d6 3d f0 07 85 bd a5 90 ef 3d
       -0.07171903 0.10497152 -0.064956546 0.11697511
000150 29 b7 7f 3d ba 6c 55 3e 7b 96 77 3e 52 9d 3d be
       0.062430535 0.20842257 0.24178497 -0.18517044
000160 9e 17 2e 3d fa be 8f bd ff 2a 5f 3c c1 c8 2e 3e
       0.04250299 -0.07018848 0.013621091 0.17068769
000170 64 af 33 bc d3 2d 34 3d a5 c8 90 bd 09 d1 6d bd
       -0.010967109 0.043989014 -0.0706952 -0.05806068
000180 af 95 8f 3a 1e 61 67 bd a8 19 c0 bd 79 33 55 bc
       0.0010954643 -0.056489103 -0.093798935 -0.01301276
000190 c3 82 15 bd 6d 6a 3c 3e ac ee 26 3d 02 74 d8 bd
       -0.036501657 0.18399973 0.04075496 -0.10569002
0001a0 ec ca 90 bd 21 4f ba 3d a4 5d 2a 3c 31 15 b6 3d
       -0.07069954 0.09097124 0.010398302 0.08890761
0001b0 69 33 78 3d 52 84 2e 3d 25 8f a7 bd d3 7f 1c 3d
       0.060595904 0.04260666 -0.081815995 0.03820784
0001c0 05 bd ea 3d 07 0e 29 be 78 c6 48 3d e1 43 90 3d
       0.11461834 -0.16509257 0.0490174 0.07044197
0001d0 b6 f3 75 bc ea f1 8d 3d 4a a2 94 bd 02 43 8c 3a
       -0.0150117185 0.06930907 -0.07257517 0.0010701122
0001e0 2c ba 75 bd 41 b9 b3 3d c7 c9 15 3e 2a 7d ab 3d
       -0.059992 0.08775569 0.14627753 0.083734825
0001f0 83 0c 6c 3d d3 fc f2 bc 1f f1 97 3d 26 42 bb bd
       0.05762912 -0.029661572 0.07419037 -0.09143476
000200 e7 c2 d2 3c 1e 7f db bc fe 31 03 3d a9 ef 29 3e
       0.025727702 -0.026794013 0.0320301 0.1659533
000210 2a 04 cd bb fc 3c 1a 3e 31 dd 1f 3e 67 29 34 be
       -0.0062566 0.15062326 0.15611722 -0.17593919
000220 ce b2 bd bd d1 8d 09 bd 4d 72 26 be 80 7d 25 3d
       -0.0926262 -0.033582512 -0.1625454 0.04040289
000230 92 22 29 bd 9f 02 12 bd 1c dd 62 3e fd 07 a8 bd
       -0.041292734 -0.03564703 0.22154659 -0.08204649
000240 3b ad 13 be 08 e7 40 3e 73 9a e8 bd 32 4e 03 be
       -0.14421551 0.18838131 -0.11357584 -0.12822798
000250 99 e8 d7 3c c5 2f 77 be b6 c8 c1 bc a0 a6 d1 3d
       0.026356028 -0.24139316 -0.023655277 0.10236859
000260 87 70 c2 3d 08 e8 7c bd b5 66 65 3c 16 a1 d6 bd
       0.09494119 -0.06174472 0.014001538 -0.104799435
000270 04 f8 31 3c 09 fc f2 bd 81 34 3c be c4 a2 6f 3d
       0.010862354 -0.11864478 -0.18379404 0.058504835
000280 00 cf 30 bc 0a ca 7a be e4 65 7d 3d 61 f9 15 bc
       -0.01079154 -0.24491134 0.06186475 -0.009153695
000290 21 6f 41 be a6 f1 94 3c b3 23 29 3d 30 34 ab 3c
       -0.18890049 0.018181633 0.04129381 0.020898908
0002a0 ab 00 f9 3d 80 06 d2 3d 6e c2 71 3d 2c 4b a0 3d
       0.121583305 0.10255146 0.059023313 0.07826838
0002b0 e9 41 88 bd 7f 7f cf 3d e2 28 9e bd 76 5a 23 3d
       -0.06653196 0.1013174 -0.077226415 0.039881192
0002c0 6b 97 44 be aa ab 53 3d 50 19 ee 3c 6d e7 7b 3e
       -0.19198386 0.051677383 0.029064804 0.246
0002d0 1d f1 9f 3c 29 8f 83 bd 05 63 40 be 6f 49 10 3e
       0.019524151 -0.0642379 -0.18787773 0.14090513
0002e0 60 28 97 3d 06 fc e4 3a 4e f2 41 3d 22 d0 13 bd
       0.07380748 0.0017470128 0.04735022 -0.036087163
0002f0 3c d8 7f bd b4 96 a4 bd b6 c5 b4 3d e0 90 84 3d
       -0.062462077 -0.08036557 0.08826773 0.06472945
000300 a9 5f cb 3d 2e 87 29 be 55 96 bb bd a9 b2 2a 3d
       0.09930355 -0.16555473 -0.09159533 0.04167429
000310 a6 61 b7 bd f5 f1 f1 3d 1c c7 98 bd cb 1b db bd
       -0.08954172 0.11813728 -0.07459852 -0.106986605
000320 b2 74 ef 3c 7d 07 18 be e6 c4 25 bd 8a 7c 1b 3c
       0.02923045 -0.14846607 -0.04047098 0.009490142
000330 fa 8d 17 3e ab 7d 98 3d e7 e1 48 b9 ff 62 fb bc
       0.14800254 0.07445844 -0.00019157642 -0.030686853
000340 d1 a8 07 3c 3f 88 8d 3d 71 37 df 3d 37 02 ad bd
       0.008279995 0.069107525 0.108992465 -0.08447688
000350 d6 b9 44 3d f2 d5 4b bd 02 20 78 bd b6 ca c4 bc
       0.04802879 -0.04976458 -0.0605774 -0.024022441
000360 30 4c 54 bd 75 4f 4f 3d b8 1b 17 3e 16 61 4d 3c
       -0.05183047 0.050612886 0.14756668 0.012535354
000370 2e 85 e2 3d 3a 2b 8d b7 a0 5b a1 bd f4 fb 3d be
       0.11060558 -1.6828639e-05 -0.07878804 -0.18553144
000380 d6 74 dc bd 5c af 3f 3e a9 a8 ab bd 29 fd 5f 3d
       -0.10764472 0.18719238 -0.08381779 0.05468479
000390 6e 29 0c be d8 2a fe 3d e7 d6 3d 3d 51 b4 c8 bd
       -0.13687679 0.124105155 0.046347525 -0.098000176
0003a0 dc ec 14 3e aa b4 83 bd d0 68 f4 bc f1 e7 89 3c
       0.1454348 -0.06430943 -0.029835135 0.016834231
0003b0 ad 03 83 3d 27 7a 11 3e 5c 5f 1e 3d 75 e9 17 be
       0.063971855 0.14206754 0.03866516 -0.1483515
0003c0 6b 4b 99 3d f0 b5 e1 ba 31 94 9f bd 7d b1 38 3d
       0.07485088 -0.0017220359 -0.07791937 0.04509114
0003d0 15 e7 3b bc a4 e9 bc bd 8c 72 31 3d 09 b2 f7 3d
       -0.0114686685 -0.09224251 0.04332213 0.120945044
0003e0 e3 6e c7 bd fc 6b 83 bd ba 7e 24 bc cf c9 7d 3a
       -0.09737947 -0.06417081 -0.01003998 0.0009681256
0003f0 10 c3 a8 bd bc 87 01 be 07 2b 2c 3d f8 37 25 bc
       -0.0824033 -0.12649435 0.04203322 -0.010084145

network_body._body_endoder.seq_layers.2.bias f4 [128]
000000 00 00 00 00 00 00 00 00 00 00 00 00 00 00 00 00
       0.0 0.0 0.0 0.0
000010 00 00 00 00 00 00 00 00 00 00 00 00 00 00 00 00
       0.0 0.0 0.0 0.0
000020 00 00 00 00 00 00 00 00 00 00 00 00 00 00 00 00
       0.0 0.0 0.0 0.0
000030 00 00 00 00 00 00 00 00 00 00 00 00 00 00 00 00
       0.0 0.0 0.0 0.0
000040 00 00 00 00 00 00 00 00 00 00 00 00 00 00 00 00
       0.0 0.0 0.0 0.0
000050 00 00 00 00 00 00 00 00 00 00 00 00 00 00 00 00
       0.0 0.0 0.0 0.0
000060 00 00 00 00 00 00 00 00 00 00 00 00 00 00 00 00
       0.0 0.0 0.0 0.0
000070 00 00 00 00 00 00 00 00 00 00 00 00 00 00 00 00
       0.0 0.0 0.0 0.0
000080 00 00 00 00 00 00 00 00 00 00 00 00 00 00 00 00
       0.0 0.0 0.0 0.0
000090 00 00 00 00 00 00 00 00 00 00 00 00 00 00 00 00
       0.0 0.0 0.0 0.0
0000a0 00 00 00 00 00 00 00 00 00 00 00 00 00 00 00 00
       0.0 0.0 0.0 0.0
0000b0 00 00 00 00 00 00 00 00 00 00 00 00 00 00 00 00
       0.0 0.0 0.0 0.0
0000c0 00 00 00 00 00 00 00 00 00 00 00 00 00 00 00 00
       0.0 0.0 0.0 0.0
0000d0 00 00 00 00 00 00 00 00 00 00 00 00 00 00 00 00
       0.0 0.0 0.0 0.0
0000e0 00 00 00 00 00 00 00 00 00 00 00 00 00 00 00 00
       0.0 0.0 0.0 0.0
0000f0 00 00 00 00 00 00 00 00 00 00 00 00 00 00 00 00
       0.0 0.0 0.0 0.0
000100 00 00 00 00 00 00 00 00 00 00 00 00 00 00 00 00
       0.0 0.0 0.0 0.0
000110 00 00 00 00 00 00 00 00 00 00 00 00 00 00 00 00
       0.0 0.0 0.0 0.0
000120 00 00 00 00 00 00 00 00 00 00 00 00 00 00 00 00
       0.0 0.0 0.0 0.0
000130 00 00 00 00 00 00 00 00 00 00 00 00 00 00 00 00
       0.0 0.0 0.0 0.0
000140 00 00 00 00 00 00 00 00 00 00 00 00 00 00 00 00
       0.0 0.0 0.0 0.0
000150 00 00 00 00 00 00 00 00 00 00 00 00 00 00 00 00
       0.0 0.0 0.0 0.0
000160 00 00 00 00 00 00 00 00 00 00 00 00 00 00 00 00
       0.0 0.0 0.0 0.0
000170 00 00 00 00 00 00 00 00 00 00 00 00 00 00 00 00
       0.0 0.0 0.0 0.0
000180 00 00 00 00 00 00 00 00 00 00 00 00 00 00 00 00
       0.0 0.0 0.0 0.0
000190 00 00 00 00 00 00 00 00 00 00 00 00 00 00 00 00
       0.0 0.0 0.0 0.0
0001a0 00 00 00 00 00 00 00 00 00 00 00 00 00 00 00 00
       0.0 0.0 0.0 0.0
0001b0 00 00 00 00 00 00 00 00 00 00 00 00 00 00 00 00
       0.0 0.0 0.0 0.0
0001c0 00 00 00 00 00 00 00 00 00 00 00 00 00 00 00 00
       0.0 0.0 0.0 0.0
0001d0 00 00 00 00 00 00 00 00 00 00 00 00 00 00 00 00
       0.0 0.0 0.0 0.0
0001e0 00 00 00 00 00 00 00 00 00 00 00 00 00 00 00 00
       0.0 0.0 0.0 0.0
0001f0 00 00 00 00 00 00 00 00 00 00 00 00 00 00 00 00
       0.0 0.0 0.0 0.0

action_model._continuous_distribution.log_sigma f4 [1, 2]
000000 00 00 00 00 00 00 00 00
       0.0 0.0

action_model._continuous_distribution.mu.weight f4 [2, 128]
000000 17 34 1f bc 4d 06 1d bc 11 0f 82 3c 02 45 44 bb
       -0.009717009 -0.009584022 0.015876325 -0.0029948358
000010 5a 72 42 bc 26 97 03 bc db c2 a9 bb 42 9a d3 ba
       -0.011868084 -0.008031642 -0.0051806993 -0.0016143995
000020 b9 9f 81 3b 84 6d c7 3c 8b b4 df 3a b5 4d 9e 3b
       0.003955808 0.024344213 0.0017067356 0.0048310407
000030 0a cb c0 bc 6a 49 32 bc 45 fd c8 bb 9f dc 0b 38
       -0.023534317 -0.010881761 -0.0061337077 3.3345652e-05
000040 31 b9 81 bc 7e bd 9b 3c 42 22 27 bd 5b ef a0 bc
       -0.015835376 0.019011255 -0.040804155 -0.019645384
000050 a7 ff b4 3c f8 3d 5c ba 1e 2b 88 bc 77 39 88 3c
       0.02209456 -0.0008401568 -0.016622122 0.016628964
000060 05 d4 98 3a da 3f c8 bc 03 10 23 3a 57 27 c9 ba
       0.0011659866 -0.02444451 0.00062203425 -0.0015346807
000070 88 e8 ec bb bf 58 a2 bc a7 a1 71 bb 8c 26 09 bc
       -0.0072298683 -0.019817708 -0.0036870034 -0.008371007
000080 7c 4f 1c 3b 83 d8 0c bd 6d aa 44 bc af d2 21 bd
       0.0023851087 -0.03438617 -0.012003523 -0.039507564
000090 3c e9 04 3d 89 b2 b4 ba aa f4 4a 3c 01 fc 34 bb
       0.032448992 -0.0013786118 0.012387434 -0.0027616026
0000a0 8f 5f 2c 3d f7 b7 e8 b9 7d 01 a7 3c 5d 0d c2 bc
       0.04208332 -0.00044387553 0.020386452 -0.023688013
0000b0 cf c9 b2 3b 6f e8 89 3b 6a 22 ed 3a 6b fd 88 bc
       0.0054561864 0.0042086164 0.0018091921 -0.016722402
0000c0 94 39 0e 3d d3 34 8d 3c 91 bf 42 3b 2a 49 66 bc
       0.03472288 0.017237103 0.0029716233 -0.01405553
0000d0 ab d9 b0 bc 3f 7e 0c 3d 8a 3b 41 bb f8 f8 60 bc
       -0.021588167 0.034300085 -0.002948495 -0.013731234
0000e0 89 9e ae bc 5c 7f ca 3b b7 16 9e 3b d4 ff 98 3c
       -0.02131583 0.006179733 0.004824485 0.018676676
0000f0 cf d3 04 bb dd e3 a4 3c 1e d8 3d 3c 89 eb c4 3c
       -0.002026785 0.020128185 0.011587171 0.024038093
000100 28 87 02 3d 18 37 d4 3a f3 ba 14 bd 58 ec 4e ba
       0.031867176 0.0016190736 -0.0363111 -0.00078934943
000110 10 f5 79 bc ca a0 86 bb 23 bf a1 3a 5a df 08 bc
       -0.015256181 -0.004108523 0.0012340288 -0.008354032
000120 7a e9 48 3d da ec e1 bb ec 8d 8c 3c ae 0b 0c 3a
       0.049050786 -0.00689469 0.017157517 0.00053423166
000130 c7 b8 50 bc ec f4 bd bc 04 bd 4c 3b 79 d0 82 bc
       -0.012739367 -0.023188077 0.0031240592 -0.015968548
000140 8f 1a 44 3b dd 76 57 3b f5 5d 72 bc d7 50 f2 3b
       0.0029923057 0.0032877245 -0.014792909 0.0073948908
000150 e5 00 a3 bb a7 9b 21 38 14 5b 41 3c 9f c8 83 bc
       -0.004974472 3.8530354e-05 0.0118015 -0.016086875
000160 60 b7 24 bc 9d 48 d3 bc 07 55 19 3d de fc aa bb
       -0.010053486 -0.02579146 0.037434604 -0.0052181324
000170 2a ae dd bb d3 84 3b bc 1d dd ba 3c c6 e0 0d bb
       -0.0067651467 -0.011445242 0.022810513 -0.0021648868
000180 1b 31 b2 3b 9f f0 78 3c 78 f7 25 3d 07 1f d9 3c
       0.0054379827 0.015194087 0.040519208 0.026504053
000190 80 75 5e bc c8 1a 0e bc c7 0d d8 bb 0d 2e ed 3c
       -0.013577819 -0.008673377 -0.0065934393 0.028952623
0001a0 d8 ac 77 3b 3b f2 17 bb e3 0d cc bc 05 5e 36 bc
       0.0037792232 -0.0023185152 -0.024908965 -0.011130814
0001b0 7b 07 73 bc cf 2d 3c bc 82 b7 69 3c b2 2f 51 3b
       -0.014833326 -0.011485531 0.014264943 0.0031919298
0001c0 8e 5f aa 3b eb d7 53 3c c8 d2 5f 3b 90 91 d2 3c
       0.0051993793 0.012929897 0.0034152735 0.025704175
0001d0 5c a1 3e 3c bf 8c a2 3c 22 08 89 b9 5b 67 e3 3c
       0.011635151 0.019842504 -0.00026136736 0.027759245
0001e0 b7 ee b3 bb 2f 9b 8f 3a 8a e2 75 3c 7c ec a4 3c
       -0.0054911035 0.0010956282 0.015007624 0.020132296
0001f0 46 e5 06 3d 9f be 63 3c 6b 82 52 bc fd f9 7f bc
       0.032933496 0.013900428 -0.012848477 -0.015623567
000200 e9 a6 b3 bc 17 a9 06 bb 7f 6d 45 bc 6d ba 57 bc
       -0.021930175 -0.0020547563 -0.012050032 -0.013167006
000210 df 5e 5f bb f2 5b 52 3c 28 fb 8d bc b2 6f a8 3b
       -0.0034083647 0.012839304 -0.017331675 0.0051402682
000220 e3 e6 23 3c bd 91 6c bb 03 b8 de bb 75 84 1d 3d
       0.010003778 -0.003609761 -0.0067968383 0.0384564
000230 cf 81 6e 3c cc 2e 00 bd 3f da ab 3b ad 4d 55 39
       0.014557316 -0.03129463 0.005244523 0.000203422
000240 f7 c8 23 bb fb 6d f6 3c 71 36 03 bc 6f 11 c6 3b
       -0.002499161 0.03008174 -0.008008585 0.0060445587
000250 6a 84 81 3b 47 3e 1b 3c e5 44 51 3c dd 38 4b 3c
       0.0039525526 0.009475297 0.012772773 0.012403694
000260 f7 ef 48 3c eb 50 4d b8 33 e8 67 bc 28 6e b3 3c
       0.012264243 -4.895117e-05 -0.014154482 0.021903113
000270 5f e8 40 3d 1d ad 14 3c 61 a1 3c 3c a0 b9 5b bc
       0.047096606 0.009074477 0.011513085 -0.013410956
000280 51 cc 92 bc 1b 6a d6 bb 7a d6 2a bc 23 ba 96 39
       -0.017919691 -0.0065434105 -0.010427112 0.00028748912
000290 e3 e0 ee bb db 3f 89 3c 95 d2 0e 3b 7d 77 6a 3c
       -0.007289992 0.016754081 0.0021792997 0.014310715
0002a0 31 76 88 3b 64 65 2a bc 18 42 67 37 a2 3d 17 bd
       0.00416448 -0.01040015 1.3784062e-05 -0.036924012
0002b0 32 e6 29 3b bf 41 0d 3c 85 56 13 bc 08 fb e3 3c
       0.002592456 0.008621632 -0.008992796 0.027829662
0002c0 af 3a 0f 3c aa ed 1c 3c bd 50 a5 bc 6b 08 04 3c
       0.008742019 0.009578148 -0.0201801 0.008058648
0002d0 b8 94 fa 39 7f 37 02 3c 77 92 b3 3c 4d a9 55 bc
       0.0004779452 0.007947802 0.021920426 -0.013040853
0002e0 9d c0 56 bc 4b 5a 0d 3c bf 92 4c bb f0 70 ca bb
       -0.013107446 0.008627485 -0.0031215397 -0.006178014
0002f0 05 b1 79 3c 24 4b 49 ba 95 1c 64 bc e7 d1 72 bc
       0.015239959 -0.00076787383 -0.01392283 -0.014820552
000300 bf d7 40 3c d7 36 d9 3b d3 ff cb bb 63 f5 ef 3c
       0.011770188 0.006628852 -0.006225565 0.029291814
000310 83 bf 31 bc aa 66 74 3c 25 36 5a 3c ca 53 71 bb
       -0.010848883 0.014917055 0.013318573 -0.0036823624
000320 1d 8f 47 bb cf e5 5e 3b 38 d2 19 bc 29 c6 1f bb
       -0.0030450292 0.0034011488 -0.009388499 -0.0024379587
000330 9d fb d4 3c 3f 68 b2 3c f7 f0 17 3c 03 7e 64 bb
       0.025998885 0.021778224 0.009273759 -0.0034865148
000340 87 6f 29 bd d5 8b d6 b9 36 ac 9e bb 8c 38 aa 3b
       -0.041366126 -0.00040921444 -0.0048423065 0.005194729
000350 97 d5 b9 3c bb 30 84 bb 7c 8f 04 bd e7 c7 9c bb
       0.022684855 -0.0040341294 -0.0323634 -0.0047845724
000360 6d ad 83 3c d0 44 46 3c 75 fb f0 3b 79 e9 a6 3c
       0.016073907 0.012101367 0.0073541948 0.020375
000370 85 3f 75 3c ba 81 28 bc 81 e2 49 3c 02 f3 d6 ba
       0.0149687575 -0.0102848355 0.012322069 -0.0016399326
000380 76 f3 03 bc 4d 5e e7 3b fc 80 95 3c e1 46 29 bc
       -0.008053651 0.007060802 0.018249981 -0.01033184
000390 97 9d 0b bb 5a b0 06 bc c9 19 29 bc 4a 36 0f 3c
       -0.0021303648 -0.008220756 -0.010321089 0.008740971
0003a0 b3 2b 94 bb 09 e2 41 bb 37 4f 32 bc 13 5f 9c bb
       -0.004521811 -0.002958419 -0.010883144 -0.004772076
0003b0 f7 64 fa bc 66 dc 82 3b 7d c2 81 3c 9a 1a 4d 3b
       -0.030565722 0.0039935587 0.01583981 0.0031296373
0003c0 62 7d b8 3c 73 ab 6a 3a 5f 38 0b bc 5b de 92 bc
       0.022520725 0.00089519395 -0.008497327 -0.017928293
0003d0 4e 32 28 3d d2 65 a0 bc f3 a9 31 3c b8 12 a0 3c
       0.0410636 -0.019579802 0.010843742 0.019540176
0003e0 43 80 12 bc 00 ac 65 3a c9 64 3b 3c 70 fa b8 3b
       -0.008941713 0.0008761287 0.011437603 0.005645089
0003f0 5b 3b 43 3b 05 e7 d4 bc ca a2 1b bc 63 34 99 3c
       0.0029790017 -0.025989065 -0.009499261 0.018701738

action_model._continuous_distribution.mu.bias f4 [2]
000000 00 00 00 00 00 00 00 00
       0.0 0.0

network_body._body_endoder.seq_layers.0.weight f4 [128, 9]
000000 2a 80 13 bf 1c 26 ea 3c c6 44 b4 3b 44 25 ac 3e
       -0.5761744 0.028582625 0.0055013625 0.3362218
000010 c6 1c c4 bc 74 87 a7 be 03 21 74 bd 53 7b ab 3e
       -0.023939501 -0.3272053 -0.059601795 0.33492526
000020 24 ec 9e be c8 0a 51 be 4e c6 a4 bd a3 f4 ba 3c
       -0.31039536 -0.20414269 -0.08045636 0.02282173
000030 6e 71 c0 be 1b eb c8 be c0 29 b9 bd 5a 68 08 3e
       -0.3758654 -0.3924187 -0.09041166 0.13321057
000040 8b ae ba 3e 3a 7e a3 3a 7e 34 05 be 70 96 31 3e
       0.3646129 0.0012473532 -0.13008305 0.17342544
000050 88 1e 31 3e 3f ae eb be 88 6a 39 be 36 57 36 3e
       0.17296803 -0.46031377 -0.18107045 0.17806706
000060 bc f2 fe 3e 7c 83 20 bf 47 16 de 3e 06 bd e9 bd
       0.49794567 -0.6270063 0.4337637 -0.114130065
000070 5d 13 06 3e e2 91 87 bc 8a 02 8f bd a4 00 53 3e
       0.13093324 -0.016549055 -0.06982906 0.20605713
000080 cc d0 2d bf b3 15 12 be 07 f9 2c 3e 97 1a e0 3d
       -0.67896724 -0.1426609 0.16891871 0.109425716
000090 e8 57 07 bf 33 23 77 bf 8f 0e 1b 3c 8f 68 3f bf
       -0.5286851 -0.96538085 0.00946392 -0.7476892
0000a0 37 82 04 3f 22 f3 cd be c1 41 00 3e 73 02 bf 3e
       0.5176119 -0.40224558 0.12525083 0.37306556
0000b0 47 ce 4e bf 35 41 aa 3e 19 42 26 3f fa 56 cf bd
       -0.80783504 0.33252874 0.64944607 -0.10124011
0000c0 92 7a 22 bf 3c 2b e9 be 5c 2f ae 3e f8 5f 3d 3d
       -0.6346828 -0.45540798 0.34020507 0.0462341
0000d0 ba 61 90 be 2c 45 8a 3e ef 8a ca be 9e 37 c7 be
       -0.2819956 0.270059 -0.39559123 -0.3890962
0000e0 4e 61 cf bd 60 78 41 3b 0b 0e 81 be 7c 10 f0 be
       -0.10125981 0.0029521212 -0.25206026 -0.46887577
0000f0 ee 5d 6f be 26 31 82 be 16 fe 8b be e4 6e 7a be
       -0.23375675 -0.25428122 -0.2734229 -0.24456364
000100 64 26 16 3e e8 4b 36 be 2c c5 ba be a5 4a 03 bf
       0.14663082 -0.17802393 -0.36478555 -0.51285774
000110 e0 09 c3 3d bb 25 ba bd 77 10 e9 bd fc 85 33 3e
       0.09523368 -0.09089228 -0.113800935 0.1753158
000120 8f 36 74 be ab 81 43 bf 34 64 ff 3d ae 39 33 3d
       -0.23848937 -0.7636973 0.12470284 0.04375618
000130 2b 83 07 bf e8 ae 32 3e 3c 32 8f 3e d8 f1 c8 be
       -0.5293452 0.17449534 0.27968013 -0.39247012
000140 d6 8c 15 3d 7a 38 f0 bd 1b 39 0e 3d f0 b8 82 3e
       0.036511265 -0.11729522 0.03472243 0.2553172
000150 32 12 5c 3e da ca 2f be e4 1e 8c 3e 27 e8 38 bf
       0.21491316 -0.17167225 0.27367318 -0.72229236
000160 1e 52 2c 3f ce 17 fa be e2 7f 83 bd 3c 81 d8 be
       0.673128 -0.48846287 -0.06420876 -0.42286098
000170 e3 c7 53 bc d0 82 26 3e 73 b0 60 be de 62 a4 3e
       -0.012926075 0.16260839 -0.2194231 0.3210668
000180 f7 d6 ce 3e 27 f8 d7 3e 4b 15 8d 3e fa 4f fe be
       0.4039838 0.42181513 0.27555308 -0.49670392
000190 c0 a9 1a 3f f6 40 f3 3e 51 4d 1a 3e a0 69 00 3f
       0.6041527 0.475105 0.15068556 0.5016117
0001a0 1e 4c c4 3d 3b fc 30 3b 85 1a 1c bf f3 0e ab 3e
       0.09584831 0.002700581 -0.60977966 0.33409843
0001b0 bf 39 f1 bc 16 71 75 bd 77 75 e3 3d 63 33 f5 3e
       -0.02944648 -0.0599223 0.11106389 0.47890767
0001c0 26 86 6c 3e 68 8c e6 bd 8a 6c 4f 3f 1e a9 74 3c
       0.23098049 -0.11257249 0.8102499 0.014932899
0001d0 57 4c 07 bd bc a8 61 be 54 5b 63 3d 95 03 12 3d
       -0.033031788 -0.22037023 0.05550702 0.035647947
0001e0 1b 4e 2e 3e 77 fc f4 be ec 6a 00 3f e3 92 6d bd
       0.17021982 -0.47848865 0.5016315 -0.05800141
0001f0 08 dd b5 bd 2c 9e 25 be c4 19 a7 be f3 63 24 3e
       -0.08880049 -0.16173619 -0.32636845 0.16053753
000200 ca 4c e5 3d 5c 48 14 3f 56 8f 2b be 46 5c 95 be
       0.11196287 0.5792291 -0.16753897 -0.29171962
000210 8b b6 3b 3e a6 6d e5 3e 5c c9 8e 3d 11 5f 80 3e
       0.18331353 0.44810218 0.06972 0.2507253
000220 e7 bc d9 be 60 4c 02 3e b8 81 e5 be e8 d6 0c 3f
       -0.42526934 0.12724447 -0.4482553 0.5501542
000230 56 df d4 3e 77 c9 54 3e 5b 37 bb 3e a6 29 e5 be
       0.41576642 0.20779978 0.3656567 -0.44758338
000240 ff 5b 2c bd fa cb 92 3d 3a 56 2c be 07 c6 18 bf
       -0.04207992 0.07167812 -0.16829768 -0.59677166
000250 be 4f 87 3e 47 2c 64 bd b6 ca b6 bb 77 7e 3f 3e
       0.26428026 -0.05570629 -0.0055783642 0.18700586
000260 d7 9a 1a 3e 07 e3 1d 3e ee d5 bd be f2 59 d7 3e
       0.15098129 0.15418635 -0.37077278 0.4206081
000270 2f 9b dc 3e db 1f 9a 3e 30 c9 99 be 74 2a 33 bd
       0.43087146 0.3010243 -0.30036306 -0.04374166
000280 fc 7b ef 3b 6a e9 ad bd f8 0f e0 bd f2 7f 00 bd
       0.0073084813 -0.08491786 -0.10940546 -0.03137202
000290 a8 bf 17 bd 26 d8 49 be 0b 4a 11 3f 6c d9 45 3c
       -0.037048012 -0.1971136 0.56753606 0.012075763
0002a0 b6 ce d6 3e be 97 ab 3d f3 75 8f 3e f6 a4 4e 3f
       0.41954583 0.08378552 0.28019676 0.8072046
0002b0 a9 ce 99 be f8 af 36 3e da 0a 9b be 93 6d 8a 3d
       -0.30040482 0.17840564 -0.30281717 0.06759181
0002c0 bf 5b 4c 3e 6c 24 18 be 76 3b ec 3d 77 fa f6 3d
       0.19956873 -0.14857644 0.11534779 0.12059491
0002d0 9b b1 e0 bd b3 b4 7a 3e 68 43 68 bd 48 54 31 be
       -0.109713756 0.24482994 -0.05670491 -0.17317307
0002e0 fb c1 ba 3c a0 a4 49 3e 0a 66 25 3e d6 a9 5f be
       0.022797575 0.19691706 0.16152206 -0.21842131
0002f0 c6 f4 47 be 5d 2c 91 3e 44 f2 cc 3d 4c d9 b2 bd
       -0.19526967 0.2835416 0.10007146 -0.08732852
000300 04 86 40 ba ff 42 13 bd de cd d0 bd 46 73 b5 be
       -0.00073441886 -0.035952564 -0.10195516 -0.3543951
000310 f4 fd 2a 3d f4 4a 28 be 94 91 0b 3b 3f 65 db 3e
       0.041746095 -0.16434842 0.0021296488 0.42850682
000320 10 95 8e 3c 1e 77 65 be 28 61 03 bf b1 54 84 3e
       0.017405063 -0.22408721 -0.51320124 0.25845864
000330 27 a5 c9 3e 54 69 39 bf cf 46 d7 be 18 69 e1 3e
       0.39383814 -0.7242634 -0.4204621 0.44025493
000340 fc e9 5b 3d cc c4 8a be 2a 34 2e be 76 66 82 bc
       0.05368994 -0.2710327 -0.17012087 -0.015917998
000350 4d 64 8c bd 7e fc d6 3d 4e e7 23 be 52 3a 7e 3e
       -0.06855068 0.10497378 -0.16006204 0.24826935
000360 ca ce b4 be be 29 fd 3d 8a 39 b7 3e 64 07 80 3e
       -0.35314018 0.12361477 0.35786086 0.2500564
000370 0f c8 4f 3e a7 4e 9a be 64 e9 ae be 32 ed dd 3c
       0.2029116 -0.30138132 -0.34162438 0.027090643
000380 be 03 9f bd 27 8b c5 3e 3e be f6 3c c4 57 d9 be
       -0.07764386 0.38582727 0.030120011 -0.42449772
000390 b4 40 b3 bc c8 44 4c 3e f0 07 36 be 96 b2 6a 3e
       -0.021881439 0.19948113 -0.17776465 0.22919688
0003a0 22 49 bd be 22 39 d6 3a 58 35 82 be ac bb 76 3d
       -0.36969858 0.0016343931 -0.25431323 0.06023757
0003b0 47 49 a1 3d a6 88 8c be 22 3b f1 3d da aa b9 3d
       0.07875305 -0.27448004 0.11778857 0.090657905
0003c0 e3 20 54 3f 78 33 35 3e 5e b4 a9 3e 27 f2 bc be
       0.8286268 0.17695415 0.33145422 -0.36903498
0003d0 dc 32 e7 be 70 ac a8 bd d7 e7 c3 bc 16 21 0e bf
       -0.4515599 -0.08236015 -0.02391426 -0.55519235
0003e0 68 55 0a bd 9d 8c 07 bf 16 64 2e bf 6a 18 63 3e
       -0.033772856 -0.52948934 -0.6812147 0.22177282
0003f0 ea 8f bb bd f5 b6 07 bf a7 30 b0 be e4 bd 7e be
       -0.09158309 -0.53013545 -0.3441212 -0.24877125

network_body._body_endoder.seq_layers.0.bias f4 [128]
000000 00 00 00 00 00 00 00 00 00 00 00 00 00 00 00 00
       0.0 0.0 0.0 0.0
000010 00 00 00 00 00 00 00 00 00 00 00 00 00 00 00 00
       0.0 0.0 0.0 0.0
000020 00 00 00 00 00 00 00 00 00 00 00 00 00 00 00 00
       0.0 0.0 0.0 0.0
000030 00 00 00 00 00 00 00 00 00 00 00 00 00 00 00 00
       0.0 0.0 0.0 0.0
000040 00 00 00 00 00 00 00 00 00 00 00 00 00 00 00 00
       0.0 0.0 0.0 0.0
000050 00 00 00 00 00 00 00 00 00 00 00 00 00 00 00 00
       0.0 0.0 0.0 0.0
000060 00 00 00 00 00 00 00 00 00 00 00 00 00 00 00 00
       0.0 0.0 0.0 0.0
000070 00 00 00 00 00 00 00 00 00 00 00 00 00 00 00 00
       0.0 0.0 0.0 0.0
000080 00 00 00 00 00 00 00 00 00 00 00 00 00 00 00 00
       0.0 0.0 0.0 0.0
000090 00 00 00 00 00 00 00 00 00 00 00 00 00 00 00 00
       0.0 0.0 0.0 0.0
0000a0 00 00 00 00 00 00 00 00 00 00 00 00 00 00 00 00
       0.0 0.0 0.0 0.0
0000b0 00 00 00 00 00 00 00 00 00 00 00 00 00 00 00 00
       0.0 0.0 0.0 0.0
0000c0 00 00 00 00 00 00 00 00 00 00 00 00 00 00 00 00
       0.0 0.0 0.0 0.0
0000d0 00 00 00 00 00 00 00 00 00 00 00 00 00 00 00 00
       0.0 0.0 0.0 0.0
0000e0 00 00 00 00 00 00 00 00 00 00 00 00 00 00 00 00
       0.0 0.0 0.0 0.0
0000f0 00 00 00 00 00 00 00 00 00 00 00 00 00 00 00 00
       0.0 0.0 0.0 0.0
000100 00 00 00 00 00 00 00 00 00 00 00 00 00 00 00 00
       0.0 0.0 0.0 0.0
000110 00 00 00 00 00 00 00 00 00 00 00 00 00 00 00 00
       0.0 0.0 0.0 0.0
000120 00 00 00 00 00 00 00 00 00 00 00 00 00 00 00 00
       0.0 0.0 0.0 0.0
000130 00 00 00 00 00 00 00 00 00 00 00 00 00 00 00 00
       0.0 0.0 0.0 0.0
000140 00 00 00 00 00 00 00 00 00 00 00 00 00 00 00 00
       0.0 0.0 0.0 0.0
000150 00 00 00 00 00 00 00 00 00 00 00 00 00 00 00 00
       0.0 0.0 0.0 0.0
000160 00 00 00 00 00 00 00 00 00 00 00 00 00 00 00 00
       0.0 0.0 0.0 0.0
000170 00 00 00 00 00 00 00 00 00 00 00 00 00 00 00 00
       0.0 0.0 0.0 0.0
000180 00 00 00 00 00 00 00 00 00 00 00 00 00 00 00 00
       0.0 0.0 0.0 0.0
000190 00 00 00 00 00 00 00 00 00 00 00 00 00 00 00 00
       0.0 0.0 0.0 0.0
0001a0 00 00 00 00 00 00 00 00 00 00 00 00 00 00 00 00
       0.0 0.0 0.0 0.0
0001b0 00 00 00 00 00 00 00 00 00 00 00 00 00 00 00 00
       0.0 0.0 0.0 0.0
0001c0 00 00 00 00 00 00 00 00 00 00 00 00 00 00 00 00
       0.0 0.0 0.0 0.0
0001d0 00 00 00 00 00 00 00 00 00 00 00 00 00 00 00 00
       0.0 0.0 0.0 0.0
0001e0 00 00 00 00 00 00 00 00 00 00 00 00 00 00 00 00
       0.0 0.0 0.0 0.0
0001f0 00 00 00 00 00 00 00 00 00 00 00 00 00 00 00 00
       0.0 0.0 0.0 0.0

network_body._body_endoder.seq_layers.2.weight f4 [128, 128]
000000 f7 8b 68 bd f5 55 a0 bc 4a c2 bd bd 50 d8 90 bd
       -0.056774106 -0.019572238 -0.09265573 -0.07072508
000010 c4 1b b7 bd 94 7b 0a bd 16 32 21 3e 38 d4 69 3d
       -0.08940843 -0.03380926 0.15741763 0.057087153
000020 9c a0 05 bd c2 6d 2e be aa c7 50 3d bb fe d3 3c
       -0.032623872 -0.17034057 0.050971664 0.0258783
000030 fc 71 0c 3e 42 0d 08 bb 5a e4 8e bc d3 03 66 3e
       0.13715357 -0.0020759855 -0.01744287 0.22462396
000040 56 10 0e be 21 b4 4d 3e 91 41 ed 3b a7 24 a1 bd
       -0.13873419 0.20088245 0.007240482 -0.07868319
000050 2e 02 b2 3d 01 8b 45 bd 96 3f a4 3d 6b 4a bc bd
       0.08691822 -0.048228268 0.080199406 -0.091938816
000060 c9 a2 09 be 0c 3b d6 3c 35 13 1c 3e 20 a4 a5 3d
       -0.13441004 0.026151203 0.15241702 0.08087945
000070 f1 d2 0c bd 0c 2a 41 bd 8e 04 1d 3e be a3 0b 3d
       -0.034380857 -0.04715924 0.15333769 0.034091704
000080 fb 86 da 3d 2d f3 6e 3d 0a 22 4c 3d 43 c0 a0 bd
       0.10670277 0.05833738 0.04983715 -0.07849171
000090 3a 3f a3 3b 1e e1 96 bc b1 30 bc ba 1b 4c 7d be
       0.0049819024 -0.018417891 -0.0014357773 -0.24736063
0000a0 62 66 67 bd 94 73 b9 3c 7f be ff bd d6 00 06 3e
       -0.056494124 0.02263812 -0.12487506 0.13086256
0000b0 c4 22 f5 3d 5f 2d 8c 3c 12 e0 98 3d 22 d0 70 3d
       0.11969522 0.017111478 0.07464613 0.05879224
0000c0 9b 04 c4 bd d8 e2 3d bc da 10 45 bd ac cf 3e 3d
       -0.09571191 -0.011589728 -0.048111774 0.04658477
0000d0 6a 0a cb 3d da 27 46 3e ac aa 03 be 1f 70 02 3e
       0.09914096 0.1935114 -0.12858075 0.12738083
0000e0 57 05 2a be dd 6e 86 bd fb 0d ad 3d 88 f7 cb bd
       -0.166036 -0.06564114 0.08449932 -0.09959322
0000f0 f9 d4 8b bd db fb ea bd 97 69 18 bc 4b 4d a5 bd
       -0.06827731 -0.11473819 -0.009302518 -0.08071383
000100 c0 1f c4 3d 8e cc 91 bd 7f f8 af bd ee b6 46 3d
       0.09576368 -0.07119094 -0.08592319 0.0485143
000110 e6 fa 0b 3e d7 08 50 3d e4 23 78 bd 29 48 2d bd
       0.13669929 0.05078968 -0.060581103 -0.042305145
000120 87 dd 56 bd 82 7b b7 bd a0 c5 d8 bd d6 45 f0 3d
       -0.05245736 -0.08959104 -0.10584569 0.1173207
000130 50 02 81 3d e5 90 05 3d ab 43 2b bd 88 de f9 bd
       0.06299269 0.032608885 -0.04181258 -0.122006476
000140 83 02 b5 3d 6d e2 45 3d bd fa 94 3d 41 09 08 bd
       0.0883837 0.04831164 0.07274387 -0.03321195
000150 cb 6a 04 3d aa a4 05 bd 5d a3 a5 bd 58 13 16 be
       0.03232841 -0.03262774 -0.080878 -0.14655817
000160 ee cb 3a bd 4a 71 cf 3d d6 83 32 3c da 5a 25 3d
       -0.04560464 0.1012903 0.01089569 0.040369846
000170 0b 09 cd bd fe 02 21 3e 24 f8 1a 3d b9 b0 ae 3c
       -0.100114904 0.15723798 0.0378343 0.021324502
000180 0a b8 ef 3c 00 11 25 bd dc f1 be 3d d5 26 ea 3d
       0.029262561 -0.040299416 0.09323475 0.11433188
000190 3b b7 2f 3e 82 38 91 3d 0e d1 d8 bd aa 54 9c 3c
       0.1715974 0.07090856 -0.10586749 0.01908334
0001a0 97 32 48 3d f6 c8 c1 3b 51 17 ef 3d d9 1c 27 bc
       0.04887637 0.005913849 0.11674369 -0.010199749
0001b0 76 ae 46 3e 76 d2 3f 3d d4 f7 26 bd 7b 82 09 bd
       0.19402489 0.04683157 -0.04076369 -0.0335717
0001c0 ab 3c e5 bc 31 c0 31 bd 30 2b d7 bd 05 4b e2 3d
       -0.02798303 -0.04339618 -0.10506284 0.11049465
0001d0 a5 9d 56 be e2 b3 14 3e 81 ad 09 be dd f3 80 3d
       -0.20958574 0.14521745 -0.13445093 0.06296513
0001e0 11 18 c2 bd 8e b5 97 be ac 7b b9 3c 05 4d a0 3d
       -0.094772466 -0.29630703 0.02264198 0.0782719
0001f0 79 a4 10 3e 22 d2 16 be 53 11 47 bd 31 f3 23 be
       0.14125241 -0.14728597 -0.048600506 -0.16010739
000200 b6 5d 33 3d cc 97 66 bd d7 a7 cb bd 16 80 2d 3d
       0.04379054 -0.05629711 -0.09944122 0.04235848
000210 8d 65 a2 bd e3 5d b9 bd 2c aa 09 3e ae 70 a8 bd
       -0.079295255 -0.090511106 0.13443822 -0.08224617
000220 b2 58 5a be cb 98 c0 3d 8a 8c 91 bd fd d1 0a bd
       -0.21322897 0.09404143 -0.07106884 -0.033891667
000230 7f 70 8a 3a 3e d6 a9 bd 9c 21 11 be 71 68 2c bd
       0.0010562091 -0.082928166 -0.14172977 -0.04209179
000240 6c c8 3e be ed 5c 9e bc 13 25 02 3c 9e 1f 44 bc
       -0.18631142 -0.01933142 0.0079434095 -0.011970429
000250 af f0 92 bc f6 1c 31 3c ab 49 44 be 7b 18 fa 3d
       -0.017937033 0.0108101275 -0.19168727 0.122117005
000260 65 48 85 be 1e c3 65 3d a3 93 a8 bd b7 20 a4 3b
       -0.26031795 0.05609428 -0.082312845 0.0050087827
000270 c1 58 a7 bc ad df c0 bd 2f 2e 1e bd 91 eb 1e 3c
       -0.020428063 -0.09417663 -0.038618263 0.009699718
000280 dd c1 e0 3c 60 3c 07 be 10 49 82 bd 19 f3 1b be
       0.027436191 -0.13206625 -0.06361592 -0.15229453
000290 e1 c6 cf 3d 9a db 98 3d ad a5 7d 3d f5 2b 16 3d
       0.10145355 0.07463761 0.06192558 0.036663014
0002a0 30 ed 9a 3d 88 11 b4 3b c0 1c bf bb a6 14 a2 3d
       0.07564771 0.005495254 -0.0058322847 0.079140946
0002b0 8f ea 29 b9 65 a0 56 bd ff 98 64 be e2 85 28 bd
       -0.00016204476 -0.052399058 -0.22323988 -0.041143306
0002c0 28 f1 d1 3d d4 d0 f1 bd d6 9e 81 bd 7e e7 6b be
       0.10251075 -0.11807409 -0.06329124 -0.23037526
0002d0 5e 37 7a bc 4a 0a d5 bb 08 5a 29 be 66 c5 a8 bd
       -0.01527199 -0.0065014707 -0.1653825 -0.08240776
0002e0 eb 94 f7 bd 8d bd 90 3d 6f e1 25 be c0 8b 7d bb
       -0.12088951 0.07067404 -0.16199277 -0.0038688034
0002f0 64 26 9c bd 8d 52 2f 3d 0c 72 b2 bc db ee 99 3d
       -0.0762451 0.042803336 -0.021782897 0.07516261
000300 4b a0 b1 bc 13 ec 93 3b 3c 05 18 3e 9d 5d 7e 3d
       -0.021682879 0.004514226 0.14845747 0.062100995
000310 73 1c eb 3d 7f 91 fe 3b 7e 56 c2 3d 6c 4b 80 3b
       0.11480036 0.0077688093 0.09489153 0.003915241
000320 fa 7b 13 be 8c a9 2b be ee a8 bb bd ff 4d cc 3b
       -0.14402762 -0.16763896 -0.0916308 0.006234884
000330 39 af 0c 3e 9b a8 48 bd 49 e4 4b 3d 61 43 de 3c
       0.13738717 -0.04898892 0.049778257 0.027131738
000340 38 bb 95 bc 2f fc b8 bc a0 2b b8 3d 99 c3 1d bd
       -0.01827775 -0.022581188 0.08992696 -0.038516615
000350 48 f1 c4 bd 56 58 82 3d 59 6a 33 bd fd 32 ac 3d
       -0.09616333 0.06364505 -0.043802593 0.08408163
000360 72 83 84 3d 57 c9 c6 3d f0 54 a5 3d e7 05 87 bd
       0.06470384 0.09706371 0.08072841 -0.06592923
000370 45 7c ca 3c 93 aa 8e bc 5e a6 41 bd 82 84 86 bc
       0.02471746 -0.01741532 -0.0472778 -0.016420607
000380 a9 c9 fb 3d 78 e2 eb bd 5b c6 f6 3d f2 37 fa 3b
       0.12294323 -0.11517805 0.12049552 0.0076360637
000390 90 c6 f0 3c 94 02 28 be 9a 4b ad bc 40 ad a9 bd
       0.029391557 -0.16407233 -0.021154214 -0.08284998
0003a0 bf c9 a9 ba 29 a5 3d bd 67 d5 88 bd 97 a0 a0 bd
       -0.0012953802 -0.046300087 -0.06681328 -0.0784313
0003b0 ec 66 1a 3e 41 84 c2 bc 6b 0f 28 bd 1b a5 84 bc
       0.15078324 -0.023744704 -0.04103033 -0.01619201
0003c0 ad e7 38 3e f5 61 73 3b 1e 9f aa 3c 8c 3a 87 3d
       0.18057127 0.0037137244 0.020827826 0.06602964
0003d0 be ab 1e 3d b1 c3 e5 bd 25 35 10 3d 56 04 dd 3c
       0.038738005 -0.11218966 0.035206933 0.026979607
0003e0 fb 5b 83 bd 07 fb a8 bc cf 8b 0a bd 05 28 83 bd
       -0.06414028 -0.020627512 -0.033824738 -0.064041175
0003f0 52 e7 54 3d 58 22 1d be cc 17 74 bc 4c 0f 0a be
       0.051978417 -0.15345132 -0.014898252 -0.13482398

network_body._body_endoder.seq_layers.2.bias f4 [128]
000000 00 00 00 00 00 00 00 00 00 00 00 00 00 00 00 00
       0.0 0.0 0.0 0.0
000010 00 00 00 00 00 00 00 00 00 00 00 00 00 00 00 00
       0.0 0.0 0.0 0.0
000020 00 00 00 00 00 00 00 00 00 00 00 00 00 00 00 00
       0.0 0.0 0.0 0.0
000030 00 00 00 00 00 00 00 00 00 00 00 00 00 00 00 00
       0.0 0.0 0.0 0.0
000040 00 00 00 00 00 00 00 00 00 00 00 00 00 00 00 00
       0.0 0.0 0.0 0.0
000050 00 00 00 00 00 00 00 00 00 00 00 00 00 00 00 00
       0.0 0.0 0.0 0.0
000060 00 00 00 00 00 00 00 00 00 00 00 00 00 00 00 00
       0.0 0.0 0.0 0.0
000070 00 00 00 00 00 00 00 00 00 00 00 00 00 00 00 00
       0.0 0.0 0.0 0.0
000080 00 00 00 00 00 00 00 00 00 00 00 00 00 00 00 00
       0.0 0.0 0.0 0.0
000090 00 00 00 00 00 00 00 00 00 00 00 00 00 00 00 00
       0.0 0.0 0.0 0.0
0000a0 00 00 00 00 00 00 00 00 00 00 00 00 00 00 00 00
       0.0 0.0 0.0 0.0
0000b0 00 00 00 00 00 00 00 00 00 00 00 00 00 00 00 00
       0.0 0.0 0.0 0.0
0000c0 00 00 00 00 00 00 00 00 00 00 00 00 00 00 00 00
       0.0 0.0 0.0 0.0
0000d0 00 00 00 00 00 00 00 00 00 00 00 00 00 00 00 00
       0.0 0.0 0.0 0.0
0000e0 00 00 00 00 00 00 00 00 00 00 00 00 00 00 00 00
       0.0 0.0 0.0 0.0
0000f0 00 00 00 00 00 00 00 00 00 00 00 00 00 00 00 00
       0.0 0.0 0.0 0.0
000100 00 00 00 00 00 00 00 00 00 00 00 00 00 00 00 00
       0.0 0.0 0.0 0.0
000110 00 00 00 00 00 00 00 00 00 00 00 00 00 00 00 00
       0.0 0.0 0.0 0.0
000120 00 00 00 00 00 00 00 00 00 00 00 00 00 00 00 00
       0.0 0.0 0.0 0.0
000130 00 00 00 00 00 00 00 00 00 00 00 00 00 00 00 00
       0.0 0.0 0.0 0.0
000140 00 00 00 00 00 00 00 00 00 00 00 00 00 00 00 00
       0.0 0.0 0.0 0.0
000150 00 00 00 00 00 00 00 00 00 00 00 00 00 00 00 00
       0.0 0.0 0.0 0.0
000160 00 00 00 00 00 00 00 00 00 00 00 00 00 00 00 00
       0.0 0.0 0.0 0.0
000170 00 00 00 00 00 00 00 00 00 00 00 00 00 00 00 00
       0.0 0.0 0.0 0.0
000180 00 00 00 00 00 00 00 00 00 00 00 00 00 00 00 00
       0.0 0.0 0.0 0.0
000190 00 00 00 00 00 00 00 00 00 00 00 00 00 00 00 00
       0.0 0.0 0.0 0.0
0001a0 00 00 00 00 00 00 00 00 00 00 00 00 00 00 00 00
       0.0 0.0 0.0 0.0
0001b0 00 00 00 00 00 00 00 00 00 00 00 00 00 00 00 00
       0.0 0.0 0.0 0.0
0001c0 00 00 00 00 00 00 00 00 00 00 00 00 00 00 00 00
       0.0 0.0 0.0 0.0
0001d0 00 00 00 00 00 00 00 00 00 00 00 00 00 00 00 00
       0.0 0.0 0.0 0.0
0001e0 00 00 00 00 00 00 00 00 00 00 00 00 00 00 00 00
       0.0 0.0 0.0 0.0
0001f0 00 00 00 00 00 00 00 00 00 00 00 00 00 00 00 00
       0.0 0.0 0.0 0.0

value_heads.value_heads.extrinsic.weight f4 [1, 128]
000000 86 7d 0e be 68 fd 43 3d 58 b5 80 bc 68 d1 de 3d
       -0.13915071 0.04784909 -0.015711471 0.10879785
000010 e0 26 cf bb fc 8a 50 bd 88 d5 18 3d b9 5d 2f be
       -0.006321773 -0.050913796 0.037313014 -0.17125596
000020 d0 9d ee 3d 26 14 1a be e8 21 15 3e c2 c1 07 be
       0.11651194 -0.15046749 0.14563715 -0.13257506
000030 4a db 52 3e 3a 3c 81 bd d6 a3 25 be 32 89 c4 bd
       0.20591465 -0.063103154 -0.1617578 -0.095964804
000040 10 6d bc 3d 7a 27 2f 3e 2a 16 46 3e f0 6e 53 3d
       0.092004895 0.17104903 0.19344392 0.05161947
000050 a3 73 32 be 70 c9 1c 3c 4d 9e 51 be 40 3c 4c bb
       -0.17426924 0.009569511 -0.20470543 -0.0031163841
000060 50 05 6f 3d d0 f2 fb 3d 98 87 04 bd 0b 8f 4a be
       0.058354676 0.12302172 -0.032355875 -0.19781129
000070 c0 e5 39 3e fe b2 2c be 6f c9 14 be 14 be 59 3e
       0.18154049 -0.16865155 -0.14529966 0.21263915
000080 d0 71 3b 3c 94 49 1e 3e b0 9b e1 3d 8e d5 ff bd
       0.011440709 0.15457755 0.11016023 -0.12491904
000090 b8 fc 13 be 60 00 51 3d 75 df 42 be b2 8f 8e bd
       -0.14451873 0.05102575 -0.19030555 -0.069610015
0000a0 5e 4d 4b be b8 b2 a4 3d 60 fa b5 3d 0c ce 23 3e
       -0.19853732 0.080419004 0.08885646 0.1599657
0000b0 6c 89 18 bd 2e 2a 3d 3e 30 37 32 3c 30 30 eb bd
       -0.03724043 0.18473122 0.010877416 -0.114838004
0000c0 69 db e6 bd e0 b5 97 bd 84 3c 46 be a8 7d aa 3d
       -0.11272318 -0.07407737 -0.19359022 0.08324748
0000d0 42 6a cd bd 8c 56 9b bd 32 c6 28 3e e2 9c b5 bd
       -0.10030033 -0.07584867 0.16481856 -0.08867814
0000e0 3f c6 05 be de d9 25 3e 8e 58 3e 3e dc 46 5a 3e
       -0.13063906 0.16196391 0.18588468 0.21316093
0000f0 ac f4 4d 3e b4 05 e0 bd ee 18 1f be 00 81 4c 3a
       0.20112866 -0.10938588 -0.15536854 0.0007801205
000100 e6 87 b5 bd 38 ea 7e 3d e0 00 3f 3d 80 6a e4 3a
       -0.08863811 0.062235087 0.046631694 0.0017426759
000110 40 1f 88 bb d7 26 5b be 90 dc 0a bd 00 9a a6 39
       -0.004154116 -0.21401535 -0.03390175 0.00031776726
000120 bb 68 fe bd 18 91 6c bd 36 88 34 be ec bd cd 3d
       -0.124223195 -0.05775556 -0.17630085 0.1004599
000130 c8 94 f6 bc f4 3d 09 be 31 62 57 be 98 dd 06 3d
       -0.030100241 -0.1340254 -0.21033551 0.032926172
000140 fc a6 27 3e 40 ac 4f 3e 6c 9d 02 be 98 f7 20 be
       0.16372293 0.20280552 -0.12755364 -0.1571945
000150 e0 67 95 3d ac 07 4f 3e 9c fa 5b bd 22 fd 0b 3e
       0.07295203 0.2021777 -0.053705797 0.13670781
000160 65 2b 50 be 26 ce fe bd 80 63 25 3b d1 3a 51 be
       -0.20329054 -0.124416634 0.0025236309 -0.20432593
000170 48 28 1e 3d 30 cb 60 3d 58 41 b6 3d 8e 7e 04 3e
       0.038612634 0.054881275 0.08899182 0.12938902
000180 0a 76 23 be 19 3e d0 bd 8f 4d 07 be e0 58 3f bd
       -0.15962997 -0.10168094 -0.1321318 -0.046715617
000190 af ef 0a be 8c 3d 0b be 7e 04 07 3e 80 a5 8f 3d
       -0.13567995 -0.13597697 0.13185307 0.070139885
0001a0 5a 8a 2d 3e 51 5a dc bd 80 72 2b 3c f8 be b6 bc
       0.16947308 -0.10759414 0.010464311 -0.022307858
0001b0 8a 44 28 be 0a 46 ca bd bb 88 ee bd 89 67 42 be
       -0.16432396 -0.0987664 -0.11647173 -0.18984808
0001c0 14 8f 8b 3d d6 03 52 be 04 6b 04 bd 9c ca 2c be
       0.06814399 -0.20509276 -0.03232862 -0.16874164
0001d0 48 6d 99 3c 60 a9 74 bd 8c 37 54 3e 0d 40 c8 bd
       0.018728867 -0.05973184 0.20724314 -0.09777842
0001e0 74 34 02 bd 08 1e 56 3d 92 2f 17 3e 3a 91 49 3e
       -0.031788304 0.052274734 0.1476424 0.19684306
0001f0 8c c0 27 3e 54 90 b0 3d 1f 24 e3 bd 90 da ad bc
       0.16382045 0.086212784 -0.11090874 -0.021222383
