results/MoveToGoal2/MoveToGoal/MoveToGoal-0.onnx (onnx, 72461 bytes, 7 tensors)

action_model._continuous_distribution.log_sigma f4 [1, 2]
0.0 0.0
00000000: 0000 0000 0000 0000

action_model._continuous_distribution.mu.bias f4 [2]
0.0 0.0
00000000: 0000 0000 0000 0000

action_model._continuous_distribution.mu.weight f4 [2, 128]
0.002977437 -0.013006217 0.002314288 -0.016983984 -0.016161926 0.0069443295 -0.022002837 0.0075990306
-0.026221259 0.023435634 -0.0021107516 0.018031506 0.015333182 -0.027724465 0.018096983 -0.006187524
0.013200516 -0.042864297 0.0058278567 0.019129708 -0.015936533 0.046734534 -0.0036939215 0.005645757
-0.0035254972 0.004892372 9.189832e-05 0.013883114 0.009942215 0.02836042 0.018071 0.014623954
-0.0029445086 -0.0022067255 0.015483853 0.007960738 0.03540598 -0.022499979 0.015210775 -0.01065051
0.01698072 0.034657117 -0.015191885 -0.011018766 0.005345808 -0.013657979 0.016603526 0.0014427584
-0.020030484 -0.011204938 -0.009965912 -0.0074987197 -0.016490564 -0.034343638 0.015802193 -0.015391545
-0.009808695 -0.002333032 0.0013620091 -0.002081202 0.011444306 0.0049692425 0.020059977 -0.011920722
0.00072072656 0.0041287555 0.046825524 0.0286816 0.011065069 0.012074079 0.0066457535 -0.00054392865
-0.01862326 -0.005047966 0.0047064484 -0.0242848 -0.010026208 0.0036637285 -0.0027788042 -0.0015210635
0.008029995 -0.01194388 0.018486788 -0.0017935276 0.0050696274 0.03367733 0.0144155985 -0.013370733
0.025044603 0.0072087436 0.011725912 -0.013143745 0.021430477 0.029839484 -0.011346354 -0.0033511433
-0.014456244 -0.00050588726 -0.010502896 0.02706615 -0.01300447 0.00080862286 0.027015118 -0.008739494
-0.016492601 -0.0003179624 -0.016916504 -0.00807619 0.00578816 -0.003990092 0.040970106 -0.034195814
0.0080227805 -0.007623337 -0.008571723 0.017782615 0.0064104074 0.004876425 0.031526484 0.00015154509
-0.019520776 0.0004944599 -0.011819326 -0.0017245057 0.008606994 -0.032848835 0.030963162 0.00078227854
0.016328093 -0.0076767826 0.008554671 0.0048946477 0.017656961 0.028374273 -0.015588139 0.0042108907
-0.0055655236 -0.0081408005 -0.0031360392 -0.013477965 0.012137489 0.02244889 0.021127425 -0.005377226
0.010444743 -0.016043369 0.032761674 -0.02947335 -0.00052461366 -0.03190579 0.0120618185 0.019004893
0.015721504 -0.009568409 0.009692377 -0.02817951 0.012456136 0.012821308 0.005992695 -0.010143645
-0.00075621984 -0.022259086 0.015791183 0.01416667 -0.017378872 -0.006912764 -0.03004159 -0.021304123
0.0073928335 -0.0054714615 0.015730504 0.0010066176 -0.015853735 -0.013958419 -0.019926688 -0.02092394
0.03126303 -0.010638498 0.011473126 -0.010870102 -0.026892995 0.002597829 -0.023673132 0.004990293
0.021398518 -0.011897424 0.014793693 -0.021329943 -0.0122494185 -0.0008918402 -0.018603848 0.0047721234
-0.01451617 -0.023086397 -0.022459254 -0.0062387823 0.00060718216 -0.0080228485 -0.0019902836 -0.0026162078
-0.0041098925 -0.0051623327 0.003362044 0.0089431675 0.019128535 0.0042243595 -0.015506682 0.014000251
0.000712356 0.0021739544 -0.032411758 -0.01134852 -0.006162628 0.0118457405 0.015473232 -0.01702346
0.025258867 -0.020733073 0.017121105 -0.0043825493 0.0073641906 -0.017005255 -0.02237801 0.01614245
0.018714761 -0.009278103 0.0053052013 -0.017897977 -0.012437014 0.007699369 -0.024636837 -0.024718506
-0.0005443738 -0.01486861 -0.0001192346 -0.020885324 -0.030308608 -0.020966945 0.008073719 0.011260784
-0.020292329 0.014264571 0.035768863 0.0028390817 -0.0146500785 -0.022474004 -0.00860063 -0.0060306787
0.014456414 -0.012647959 0.0041199164 0.016085587 0.025948687 0.034858428 -0.0058252434 0.014041446
00000000: 1b21 433b 0718 55bc 4fab 173b ff21 8bbc
00000010: 0466 84bc 428d e33b 4b3f b4bc 4a01 f93b
00000020: f7cd d6bc 16fc bf3c 8954 0abb cfb6 933c
00000030: 0738 7b3c 6b1e e3bc 2040 943c b7c0 cabb
00000040: fa46 583c 7992 2fbd 9bf7 be3b e8b5 9c3c
00000050: 558d 82bc b66c 3f3d b815 72bb 0b00 b93b
00000060: 070c 67bb 3150 a03b 89b9 c038 0076 633c
00000070: ace4 223c 1d54 e83c a209 943c 4f99 6f3c
00000080: a8f8 40bb b69e 10bb fdaf 7d3c c16d 023c
00000090: dc05 113d e051 b8bc 9d36 793c 7a7f 2ebc
000000a0: 271b 8b3c 9ff4 0d3d 62e7 78bc 0e88 34bc
000000b0: e32b af3b b7c5 5fbc 1e04 883c f01a bd3a
000000c0: f816 a4bc eb94 37bc 1148 23bc d2b7 f5bb
000000d0: 3817 87bc eaab 0cbd 9a73 813c d22c 7cbc
000000e0: a6b4 20bc c8e5 18bb 7185 b23a c764 08bb
000000f0: e680 3b3c 07d5 a23b d254 a43c 224f 43bc
00000100: 24ef 3c3a 834a 873b 1fcc 3f3d adf5 ea3c
00000110: 434a 353c 5cd2 453c 9fc4 d93b 6f96 0eba
00000120: cf8f 98bc 6869 a5bb 8d38 9a3b ebf0 c6bc
00000130: f744 24bc 2a1b 703b 991c 36bb 6c5e c7ba
00000140: 3d90 033c 43b0 43bc 9b71 973c cd14 ebba
00000150: 1e1f a63b 3df1 093d 672f 6c3c eb10 5bbc
00000160: 572a cd3c 5337 ec3b 0a1e 403c dd58 57bc
00000170: f88e af3c ef71 f43c 0fe6 39bc db9e 5bbb
00000180: e2d9 6cbc 859d 04ba 5714 2cbc d5b9 dd3c
00000190: b310 55bc c3f9 533a cf4e dd3c 1830 0fbc
000001a0: 7e1b 87bc 31b4 a6b9 7b94 8abc ff51 04bc
000001b0: 9baa bd3b 51bf 82bb 45d0 273d e910 0cbd
000001c0: fb71 033c 30cd f9bb 6970 0cbc d9ac 913c
000001d0: 650e d23b 6bca 9f3b ea21 013d 13e8 1e39
000001e0: 09ea 9fbc a49e 013a d9a5 41bc cf08 e2ba
000001f0: 5904 0d3c 808c 06bd 75a6 fd3c d311 4d3a
00000200: 7ec2 853c 858d fbbb e428 0c3c 4863 a03b
00000210: 55a5 903c 2a71 e83c 6565 7fbc 83fb 893b
00000220: ff5e b6bb fe60 05bc 0286 4dbb afd2 5cbc
00000230: 52dc 463c bce6 b73c 6c13 ad3c 7133 b0bb
00000240: 6d20 2b3c 626d 83bc 1b31 063d 1872 f1bc
00000250: 3a86 09ba a5af 02bd ef9e 453c 26b0 9b3c
00000260: 62ca 803c d1c4 1cbc c7cc 1e3c b7d8 e6bc
00000270: d214 4c3c 7710 523c 5f5e c43b 8831 26bc
00000280: 0e3d 46ba b058 b6bc 835c 813c 521b 683c
00000290: 235e 8ebc 7884 e2bb c819 f6bc fc85 aebc
000002a0: 953f f23b f249 b3bb 42dd 803c 7bf0 833a
000002b0: b1df 81bc dab1 64bc 4b3d a3bc af68 abbc
000002c0: aa0d 003d 184d 2ebc c7f9 3b3c 8318 32bc
000002d0: b34e dcbc 5740 2a3b 28ee c1bc 9d85 a33b
000002e0: f24b af3c 6aed 42bc 3f61 723c 22bc aebc
000002f0: c9b1 48bc 62ca 69ba 1967 98bc 795f 9c3b
00000300: 3bd5 6dbc af1f bdbc 78fc b7bc b36e ccbb
00000310: 4e2b 1f3a 4472 03bc 6b6f 02bb af74 2bbb
00000320: 47ac 86bb c928 a9bb bd55 5c3b 5d86 123c
00000330: 72b3 9c3c 7f6c 8a3b bd0f 7ebc 4f61 653c
00000340: 67bd 3a3a e778 0e3b 31c2 04bd 25ef 39bc
00000350: dfef c9bb a314 423c 7083 7d3c c874 8bbc
00000360: afeb ce3c 68d8 a9bc 8f41 8c3c 7d9b 8fbb
00000370: 4f4f f13b 9b4e 8bbc 1752 b7bc 2c3d 843c
00000380: b34f 993c 2f03 18bc 41d7 ad3b c79e 92bc
00000390: 9ec4 4bbc fd4a fc3b 31d3 c9bc 777e cabc
000003a0: 4fb4 0eba 789b 73bc 970d fab8 b317 abbc
000003b0: c249 f8bc dfc2 abbc a247 043c 277f 383c
000003c0: 193c a6bc f2b5 693c 5f82 123d e30f 3a3b
000003d0: e206 70bc 671b b8bc a8e9 0cbc 009d c5bb
000003e0: 98da 6c3c 6339 4fbc 5d00 873b ecc5 833c
000003f0: 5792 d43c b6c7 0e3d afe1 bebb 180e 663c

network_body._body_endoder.seq_layers.0.bias f4 [128]
0.0 0.0 0.0 0.0 0.0 0.0 0.0 0.0
0.0 0.0 0.0 0.0 0.0 0.0 0.0 0.0
0.0 0.0 0.0 0.0 0.0 0.0 0.0 0.0
0.0 0.0 0.0 0.0 0.0 0.0 0.0 0.0
0.0 0.0 0.0 0.0 0.0 0.0 0.0 0.0
0.0 0.0 0.0 0.0 0.0 0.0 0.0 0.0
0.0 0.0 0.0 0.0 0.0 0.0 0.0 0.0
0.0 0.0 0.0 0.0 0.0 0.0 0.0 0.0
0.0 0.0 0.0 0.0 0.0 0.0 0.0 0.0
0.0 0.0 0.0 0.0 0.0 0.0 0.0 0.0
0.0 0.0 0.0 0.0 0.0 0.0 0.0 0.0
0.0 0.0 0.0 0.0 0.0 0.0 0.0 0.0
0.0 0.0 0.0 0.0 0.0 0.0 0.0 0.0
0.0 0.0 0.0 0.0 0.0 0.0 0.0 0.0
0.0 0.0 0.0 0.0 0.0 0.0 0.0 0.0
0.0 0.0 0.0 0.0 0.0 0.0 0.0 0.0
00000000: 0000 0000 0000 0000 0000 0000 0000 0000
00000010: 0000 0000 0000 0000 0000 0000 0000 0000
00000020: 0000 0000 0000 0000 0000 0000 0000 0000
00000030: 0000 0000 0000 0000 0000 0000 0000 0000
00000040: 0000 0000 0000 0000 0000 0000 0000 0000
00000050: 0000 0000 0000 0000 0000 0000 0000 0000
00000060: 0000 0000 0000 0000 0000 0000 0000 0000
00000070: 0000 0000 0000 0000 0000 0000 0000 0000
00000080: 0000 0000 0000 0000 0000 0000 0000 0000
00000090: 0000 0000 0000 0000 0000 0000 0000 0000
000000a0: 0000 0000 0000 0000 0000 0000 0000 0000
000000b0: 0000 0000 0000 0000 0000 0000 0000 0000
000000c0: 0000 0000 0000 0000 0000 0000 0000 0000
000000d0: 0000 0000 0000 0000 0000 0000 0000 0000
000000e0: 0000 0000 0000 0000 0000 0000 0000 0000
000000f0: 0000 0000 0000 0000 0000 0000 0000 0000
00000100: 0000 0000 0000 0000 0000 0000 0000 0000
00000110: 0000 0000 0000 0000 0000 0000 0000 0000
00000120: 0000 0000 0000 0000 0000 0000 0000 0000
00000130: 0000 0000 0000 0000 0000 0000 0000 0000
00000140: 0000 0000 0000 0000 0000 0000 0000 0000
00000150: 0000 0000 0000 0000 0000 0000 0000 0000
00000160: 0000 0000 0000 0000 0000 0000 0000 0000
00000170: 0000 0000 0000 0000 0000 0000 0000 0000
00000180: 0000 0000 0000 0000 0000 0000 0000 0000
00000190: 0000 0000 0000 0000 0000 0000 0000 0000
000001a0: 0000 0000 0000 0000 0000 0000 0000 0000
000001b0: 0000 0000 0000 0000 0000 0000 0000 0000
000001c0: 0000 0000 0000 0000 0000 0000 0000 0000
000001d0: 0000 0000 0000 0000 0000 0000 0000 0000
000001e0: 0000 0000 0000 0000 0000 0000 0000 0000
000001f0: 0000 0000 0000 0000 0000 0000 0000 0000

network_body._body_endoder.seq_layers.0.weight f4 [128, 6]
0.68025404 -0.14234489 0.058001902 -0.01341152 -0.19714652 -0.72577894 0.2711365 -0.43240824
0.59200907 -0.085330494 0.027706772 0.23840527 -0.9935509 0.47694132 -0.39635527 0.07233634
0.17539023 1.0675546 0.43532258 -0.7630921 -0.5625345 -0.47148016 0.24340871 0.4111019
-0.28913516 0.023488836 0.18626149 0.027197128 0.04951888 0.5069239 -0.7014273 0.13795787
-0.15390635 -0.55543345 -0.47770047 0.075109005 0.5976912 -0.40189984 0.06582688 1.0916737
0.0822972 0.28692865 0.43933177 -0.7211609 0.012366214 -0.6244687 -0.3910288 0.12599184
-0.37704542 -0.1535024 -0.452929 0.19769852 -0.30415636 0.0349902 0.44265237 0.5040269
0.28447977 -0.29819253 -0.20753008 0.29185006 -0.443731 -0.41994718 0.63488746 -0.32497495
0.2841294 -0.38628495 -0.5299134 -0.4889439 -0.50082946 0.02715667 0.65736896 0.18388735
0.06343085 0.8975484 0.06716697 -0.26935476 -0.53219706 -0.62904155 -0.012940787 -0.7481907
-0.38225815 0.18140744 0.10095613 0.43299815 -0.30798894 0.16299106 0.037441816 -0.14105551
0.24143972 -0.6182752 -0.16172323 -0.0007370215 -0.03972026 0.47822326 -0.16013335 -0.3845176
-0.11259231 0.14231302 0.548898 0.13022597 0.32661968 -0.007584894 -0.5304064 0.5934083
0.37605363 -0.54736793 -1.0692047 -0.114403486 -0.2652601 -0.2283159 -0.23334345 0.1007636
-0.13931108 -0.2159474 -0.53110826 -0.17695937 -0.16097179 -0.9088801 0.19774586 0.088008255
0.2202023 0.2659627 0.10378943 -0.17649028 0.09882795 -0.40126547 -0.49409524 -0.08862143
0.27151984 0.22928287 0.053919807 -0.6896111 -0.68271536 0.68822366 -0.4100543 -0.18693587
-0.25888532 0.22356768 0.7461118 -0.44144884 -0.5352105 0.8533209 0.26011574 0.27846792
0.7532234 -0.2989722 0.19268562 -0.689965 0.28679293 0.2814807 0.016197821 -0.12594636
0.23656282 1.1079179 0.49650112 -0.19086567 0.14510858 0.18106706 -0.014051329 -0.44841945
0.04438803 -0.5776359 0.3389274 -0.05429495 -0.00484933 -0.27777764 0.05844992 -0.1775573
-0.07704362 -0.53536075 -0.0373132 -0.19918624 0.16572584 0.22016655 0.11832842 -0.23850629
0.65880543 0.55309033 -0.32699218 -0.28420725 0.23045559 0.16310267 -0.20445672 -0.004901777
-0.21094155 0.47526184 -0.082017586 -0.27404866 -0.041544713 -0.5528584 -0.02789476 -0.0065220967
0.35766628 0.006402315 0.4837018 -0.28375652 0.085059956 0.2861312 -0.072343156 0.22184604
0.36883527 -0.30660433 -0.56921554 -0.24761614 -0.7555136 -0.69737124 0.2209678 -0.1642999
0.92847526 -0.7470379 0.09948434 -1.0007188 -0.8124525 0.20763268 0.60084945 -1.0601498
-0.02313823 0.05196951 -0.038779046 -0.5410114 -0.107549936 0.13149436 0.13201596 -0.10501429
-0.030450605 -0.054262217 -0.23647009 -0.51218224 -0.13934067 0.15384065 0.15585649 -0.1959832
0.20241301 -0.06374484 0.16155992 -0.1674769 0.35352153 0.20996557 -0.3430539 -0.067704506
-0.3467182 -0.43481728 -0.37550178 -0.19334842 0.82664514 0.072948635 -0.7208216 -0.6954054
0.43102977 0.29850417 0.08480462 -0.89960563 0.2443117 0.05715248 -0.4434812 -0.6053465
00000000: 2125 2e3f dcc2 11be 6793 6d3d febb 5bbc
00000010: c7e0 49be a6cc 39bf 67d2 8a3e 9d64 ddbe
00000020: e88d 173f c1c1 aebd 50f9 e23c 8320 743e
00000030: 5a59 7ebf a731 f43e 14ef cabe 1325 943d
00000040: 7f99 333e a1a5 883f 9ae2 de3e 015a 43bf
00000050: 4302 10bf d965 f1be 2240 793e f37b d23e
00000060: 8609 94be a96b c03c 55bb 3e3e 83cc de3c
00000070: 4fd4 4a3d c4c5 013f bd90 33bf d444 0d3e
00000080: a099 1dbe e330 0ebf 2895 f4be c0d2 993d
00000090: 4a02 193f d1c5 cdbe 3ed0 863d f7bb 8b3f
000000a0: 6f8b a83d 50e8 923e 18f0 e03e 009e 38bf
000000b0: a99b 4a3c 2edd 1fbf ed34 c8be 0104 013e
000000c0: 190c c1be bc2f 1dbe 4fe6 e7be 7b71 4a3e
000000d0: 62ba 9bbe e251 0f3d 55a3 e23e e807 013f
000000e0: 55a7 913e b1ac 98be c482 54be 5f6d 953e
000000f0: b630 e3be 5103 d7be fc87 223f 1e63 a6be
00000100: 6979 913e 24c7 c5be 68a8 07bf db56 fabe
00000110: 5c36 00bf aa77 de3c 5549 283f f74c 3c3e
00000120: 09e8 813d bbc5 653f d68e 893d dee8 89be
00000130: 113e 08bf de08 21bf 9805 54bc 6d89 3fbf
00000140: 57b7 c3be dfc2 393e 16c2 ce3d efb1 dd3e
00000150: bab0 9dbe 21e7 263e 975c 193d db70 10be
00000160: f93b 773e 4947 1ebf c69a 25be ad34 41ba
00000170: b6b1 22bd aed9 f43e fff9 23be 7edf c4be
00000180: cc96 e6bd 81ba 113e 9484 0c3f f559 053e
00000190: b23a a73e b48a f8bb b7c8 07bf 9be9 173f
000001a0: 1a8a c03e 4e20 0cbf b3db 88bf 604c eabd
000001b0: 2cd0 87be a5cb 69be 96f1 6ebe 255d ce3d
000001c0: 90a7 0ebe 5121 5dbe b6f6 07bf d634 35be
000001d0: cad5 24be 5eac 68bf e47d 4a3e ac3d b43d
000001e0: b67c 613e 432c 883e 8d8f d43d deb9 34be
000001f0: 4f66 ca3d ab72 cdbe 0dfa fcbe 277f b5bd
00000200: a604 8b3e 21c9 6a3e 04db 5c3d 5a8a 30bf
00000210: 6fc6 2ebf 6d2f 303f a3f2 d1be 1e6c 3fbe
00000220: 9e8c 84be edee 643e 2f01 3f3f 9505 e2be
00000230: 8e03 09bf 3d73 5a3f e42d 853e 5993 8e3e
00000240: 40d3 403f e212 99be 614f 453e 8ca1 30bf
00000250: 86d6 923e 3d1e 903e 4bb1 843c 15f8 00be
00000260: 863d 723e 41d0 8d3f 6535 fe3e 4a72 43be
00000270: 5897 143e a569 393e 8c37 66bc 3c97 e5be
00000280: 39d0 353d f2df 13bf e487 ad3e 6264 5ebd
00000290: 21e7 9ebb df38 8ebe 2f69 6f3d 95d1 35be
000002a0: 0cc9 9dbd 670d 09bf bad5 18bd 7af7 4bbe
000002b0: 09b4 293e 5773 613e 2c56 f23d fe3a 74be
000002c0: 79a7 283f 5497 0d3f 856b a7be 9d83 91be
000002d0: 8dfc 6b3e 6304 273e 1a5d 51be 169f a0bb
000002e0: 1001 58be 8555 f33e d6f8 a7bd 1b50 8cbe
000002f0: ca2a 2abd 2188 0dbf 8d83 e4bc 50b7 d5bb
00000300: 0920 b73e 83ca d13b c3a7 f73e 8948 91be
00000310: ea33 ae3d ca7f 923e a628 94bd 9c2b 633e
00000320: fad7 bc3e 3efb 9cbe 1cb8 11bf 168f 7dbe
00000330: 5769 41bf ec86 32bf 6245 623e 3c3e 28be
00000340: 8eb0 6d3f e03d 3fbf 72be cb3d 8e17 80bf
00000350: e3fc 4fbf a99d 543e 45d1 193f fdb2 87bf
00000360: 638c bdbc fbdd 543d c7d6 1ebd b97f 0abf
00000370: 2443 dcbd 75a6 063e 312f 073e bb11 d7bd
00000380: 8c73 f9bc 0f42 5ebd 3725 72be 601e 03bf
00000390: 52af 0ebe 6788 1d3e d898 1f3e d2af 48be
000003a0: 5b45 4f3e a88c 82bd f76f 253e 117f 2bbe
000003b0: c600 b53e 3701 573e c3a4 afbe a9a8 8abd
000003c0: 0c85 b1be 5fa0 debe c541 c0be 21fd 45be
000003d0: 049f 533f 1866 953d c487 38bf 1706 32bf
000003e0: efaf dc3e 8ad5 983e 0bae ad3d 8e4c 66bf
000003f0: d92c 7a3e b818 6a3d f80f e3be fdf7 1abf

network_body._body_endoder.seq_layers.2.bias f4 [128]
0.0 0.0 0.0 0.0 0.0 0.0 0.0 0.0
0.0 0.0 0.0 0.0 0.0 0.0 0.0 0.0
0.0 0.0 0.0 0.0 0.0 0.0 0.0 0.0
0.0 0.0 0.0 0.0 0.0 0.0 0.0 0.0
0.0 0.0 0.0 0.0 0.0 0.0 0.0 0.0
0.0 0.0 0.0 0.0 0.0 0.0 0.0 0.0
0.0 0.0 0.0 0.0 0.0 0.0 0.0 0.0
0.0 0.0 0.0 0.0 0.0 0.0 0.0 0.0
0.0 0.0 0.0 0.0 0.0 0.0 0.0 0.0
0.0 0.0 0.0 0.0 0.0 0.0 0.0 0.0
0.0 0.0 0.0 0.0 0.0 0.0 0.0 0.0
0.0 0.0 0.0 0.0 0.0 0.0 0.0 0.0
0.0 0.0 0.0 0.0 0.0 0.0 0.0 0.0
0.0 0.0 0.0 0.0 0.0 0.0 0.0 0.0
0.0 0.0 0.0 0.0 0.0 0.0 0.0 0.0
0.0 0.0 0.0 0.0 0.0 0.0 0.0 0.0
00000000: 0000 0000 0000 0000 0000 0000 0000 0000
00000010: 0000 0000 0000 0000 0000 0000 0000 0000
00000020: 0000 0000 0000 0000 0000 0000 0000 0000
00000030: 0000 0000 0000 0000 0000 0000 0000 0000
00000040: 0000 0000 0000 0000 0000 0000 0000 0000
00000050: 0000 0000 0000 0000 0000 0000 0000 0000
00000060: 0000 0000 0000 0000 0000 0000 0000 0000
00000070: 0000 0000 0000 0000 0000 0000 0000 0000
00000080: 0000 0000 0000 0000 0000 0000 0000 0000
00000090: 0000 0000 0000 0000 0000 0000 0000 0000
000000a0: 0000 0000 0000 0000 0000 0000 0000 0000
000000b0: 0000 0000 0000 0000 0000 0000 0000 0000
000000c0: 0000 0000 0000 0000 0000 0000 0000 0000
000000d0: 0000 0000 0000 0000 0000 0000 0000 0000
000000e0: 0000 0000 0000 0000 0000 0000 0000 0000
000000f0: 0000 0000 0000 0000 0000 0000 0000 0000
00000100: 0000 0000 0000 0000 0000 0000 0000 0000
00000110: 0000 0000 0000 0000 0000 0000 0000 0000
00000120: 0000 0000 0000 0000 0000 0000 0000 0000
00000130: 0000 0000 0000 0000 0000 0000 0000 0000
00000140: 0000 0000 0000 0000 0000 0000 0000 0000
00000150: 0000 0000 0000 0000 0000 0000 0000 0000
00000160: 0000 0000 0000 0000 0000 0000 0000 0000
00000170: 0000 0000 0000 0000 0000 0000 0000 0000
00000180: 0000 0000 0000 0000 0000 0000 0000 0000
00000190: 0000 0000 0000 0000 0000 0000 0000 0000
000001a0: 0000 0000 0000 0000 0000 0000 0000 0000
000001b0: 0000 0000 0000 0000 0000 0000 0000 0000
000001c0: 0000 0000 0000 0000 0000 0000 0000 0000
000001d0: 0000 0000 0000 0000 0000 0000 0000 0000
000001e0: 0000 0000 0000 0000 0000 0000 0000 0000
000001f0: 0000 0000 0000 0000 0000 0000 0000 0000

network_body._body_endoder.seq_layers.2.weight f4 [128, 128]
0.08307052 -0.016060237 -0.039149363 0.053253174 0.16562916 -0.31918183 0.15088761 0.17966734
-0.036559995 0.03970485 0.07858154 0.094263814 0.11780022 -0.030179746 0.08906138 -0.01050821
-0.035183806 0.010514461 0.078886226 -0.04008816 -0.16643487 0.0056435033 -0.10147493 0.14254996
-0.055429917 -0.049029116 -0.030592667 0.054001503 -0.12009539 -0.04558013 0.026074788 -0.02789203
-0.06894246 0.1976978 -0.12351424 0.03773799 -0.11534451 -0.07249716 0.13148238 0.08817465
-0.061467346 0.10576936 -0.044567253 0.08301877 -0.00176264 0.09075212 0.0419742 -0.08730795
-0.07800604 0.004420005 0.25836435 -0.3069321 -0.10178495 0.05108395 0.029171111 0.028897723
0.170919 0.06543997 -0.08340521 0.16818789 -0.021740682 0.027688276 -0.063297085 -0.025483536
0.030391151 -0.1352837 0.10461998 -0.17814316 0.003198502 0.021616384 0.0059680613 -0.079266965
-0.027457954 -0.109166875 -0.115867384 -0.068132274 0.014622755 0.1316526 0.039719094 -0.14774907
0.06546949 0.017366264 -0.057840712 0.045917604 0.0009298696 -0.021751845 -0.07741397 -0.047401555
-0.030196803 -0.11195056 0.10564163 -0.009848345 -0.086218335 0.23178294 0.13972129 0.029754
-0.0372151 0.06336488 0.08748331 0.06768559 0.077675916 -0.03797625 -0.074940145 -0.109395884
-0.03630264 0.18814828 0.13227026 -0.14404607 0.18754591 -0.041249197 -0.086244576 0.105406
-0.027594753 0.026199976 0.029878711 -0.09237432 -0.010613302 -0.10041146 -0.00055046263 0.05191141
-0.11165583 -0.093600005 -0.058710203 -0.20322652 0.04100717 0.07254567 -0.04421085 0.30158755
-0.09112973 -0.0845973 -0.070972286 0.037251692 -0.024977345 0.027060542 -0.043376025 0.032648515
-0.11471143 0.035013687 -0.113044396 0.017638698 0.025186548 0.10814946 0.086637504 0.032088842
-0.00045962137 0.018212618 -0.015286327 0.013169457 -0.060301058 -0.020627622 -0.010352675 -0.059341215
-0.039120566 0.11762188 -0.12619238 -0.0031448274 0.054335117 0.07977709 -0.027564093 0.033625275
0.0036556756 -0.08981901 0.035210084 0.122628175 -0.0347794 0.07120419 0.02758758 0.019485475
-0.13056628 0.021769103 0.09174595 0.024544643 0.03239556 -0.08133409 -0.03018801 0.10953556
0.0057166014 -0.14849964 0.050864507 -0.01465762 0.03018574 0.083793014 -0.0073620733 0.16221848
-0.06001981 -0.0006590474 0.071308054 -0.048632015 0.13419802 -0.05605409 -0.108001895 0.05954699
0.07915655 0.059182458 0.012031686 0.063787155 -0.09983905 -0.20627227 0.02732938 -0.013259251
0.17206071 -0.018081522 0.0082482975 -0.07155487 0.13280877 0.11072796 -0.20025367 -0.07165019
-0.122514114 0.016434804 -0.044160943 0.013704225 -0.05998557 -0.046326503 0.035480324 -0.15442394
-0.06803737 0.00015315803 0.060511462 0.09783396 0.03802564 0.0952838 -0.10902802 -0.008918464
-0.10232664 -0.10056361 -0.105319485 -0.06161234 0.07617383 0.049244154 -0.0773363 -0.014666753
0.06155794 0.093433686 0.11085103 0.03956271 0.016136078 -0.030743351 0.0046797195 -0.021010907
-0.108542755 0.065711804 0.003977944 -0.010546316 0.101075664 0.025903407 -0.053082734 -0.12996238
0.1949917 -0.17527308 -0.08148163 0.19085525 -0.19325326 -0.14218909 0.03265965 0.09595914
00000000: e020 aa3d c290 83bc 155b 20bd 0020 5a3d
00000010: b19a 293e cd6b a3be 4882 1a3e b7fa 373e
00000020: efbf 15bd 8ea1 223d 5cef a03d 630d c13d
00000030: 3e41 f13d 843b f7bc d065 b63d a12a 2cbc
00000040: e51c 10bd d944 2c3c 1a8f a13d 7c33 24bd
00000050: e76d 2abe 23ed b83b 17d2 cfbd 9ef8 113e
00000060: 7b0a 63bd c1d2 48bd 799d fabc ae30 5d3d
00000070: 92f4 f5bd 3bb2 3abd cb9a d53c d47d e4bc
00000080: b431 8dbd 4b71 4a3e 09f5 fcbd 2793 1a3d
00000090: be39 ecbd 6479 94bd 51a3 063e e994 b43d
000000a0: 2fc5 7bbd 9b9d d83d 278c 36bd bf05 aa3d
000000b0: 6208 e7ba 3fdc b93d 24ed 2b3d 83ce b2bd
000000c0: a1c1 9fbd b0d5 903b 5548 843e 3426 9dbe
000000d0: a174 d0bd 673d 513d 41f8 ee3c ebba ec3c
000000e0: 6405 2f3e 6405 863d 5ad0 aabd 7239 2c3e
000000f0: 8419 b2bc 86d2 e23c e7a1 81bd d9c2 d0bc
00000100: ddf6 f83c cf87 0abe 0043 d63d 296b 36be
00000110: f59d 513b d814 b13c ba8f c33b b856 a2bd
00000120: 81ef e0bc e292 dfbd e14b edbd ef88 8bbd
00000130: 4894 6f3c f0cf 063e 7db0 223d 884b 17be
00000140: de14 863d b243 8e3c 62ea 6cbd 1914 3c3d
00000150: 7ec2 733a ed30 b2bc 378b 9ebd 2228 42bd
00000160: 495f f7bc 5646 e5bd a45a d83d f45a 21bc
00000170: 3d93 b0bd 8258 6d3e 1913 0f3e a9be f33c
00000180: dc6e 18bd 72c5 813d 732a b33d be9e 8a3d
00000190: 8d14 9f3d fc8c 1bbd 387a 99bd f30a e0bd
000001a0: 14b2 14bd f1a9 403e db71 073e d080 13be
000001b0: 090c 403e ebf4 28bd ffa0 b0bd 1adf d73d
000001c0: 640e e2bc 55a1 d63c 33c4 f43c bf2e bdbd
000001d0: 6ae3 2dbc 86a4 cdbd ec4c 10ba 0fa1 543d
000001e0: d0ab e4bd 5cb1 bfbd 1c7a 70bd 9d1a 50be
000001f0: 22f7 273d d392 943d 7016 35bd af69 9a3e
00000200: 39a2 babd 5941 adbd eb59 91bd 3b95 183d
00000210: 4a9d ccbc 12ae dd3c 0fab 31bd 73ba 053d
00000220: d4ed eabd 836a 0f3d d283 e7bd 087f 903c
00000230: 0554 ce3c 777d dd3d 016f b13d 976f 033d
00000240: 56f9 f0b9 a132 953c 8173 7abc b5c4 573c
00000250: 3efe 76bd 42fb a8bc 449e 29bc c60f 73bd
00000260: e33c 20bd bde3 f03d 9338 01be 7319 4ebb
00000270: 808e 5e3d 2c62 a33d 18ce e1bc a8ba 093d
00000280: 0f94 6f3b 07f3 b7bd 7338 103d 7b24 fb3d
00000290: d874 0ebd 81d3 913d 59ff e13c 01a0 9f3c
000002a0: 2bb3 05be 1e55 b23c 4de5 bb3d d911 c93c
000002b0: 35b1 043d 7d92 a6bd d84c f7bc 2e54 e03d
000002c0: 5452 bb3b 4a10 18be 4d57 503d 8426 70bc
000002d0: 1648 f73c ac9b ab3d 8c3d f1bb 9a1c 263e
000002e0: 55d7 75bd ecc3 2cba f509 923d 5d32 47bd
000002f0: 356b 093e f998 65bd 1930 ddbd 8be7 733d
00000300: d41c a23d 4e69 723d 8c20 453c d7a2 823d
00000310: 6a78 ccbd 0a39 53be dde1 df3c 543d 59bc
00000320: af30 303e b31f 94bc de23 073c 5c8b 92bd
00000330: 06ff 073e 57c5 e23d 4c0f 4dbe 56bd 92bd
00000340: aee8 fabd 48a2 863c 1be2 34bd b087 603c
00000350: 6eb3 75bd dcc0 3dbd d153 113d 4f21 1ebe
00000360: 2d57 8bbd 0c99 2039 deda 773d 2c5d c83d
00000370: c6c0 1b3d 2724 c33d 154a dfbd c01e 12bc
00000380: a190 d1bd 4bf4 cdbd beb1 d7bd 395d 7cbd
00000390: 0601 9c3d 3db4 493d 7e62 9ebd d24c 70bc
000003a0: 2e24 7c3d 295a bf3d dd05 e33d 820c 223d
000003b0: cf2f 843c 7bd9 fbbc 5558 993b 111f acbc
000003c0: aa4b debd e993 863d 6a59 823b 75ca 2cbc
000003d0: c200 cf3d 6233 d43c 486d 59bd dc14 05be
000003e0: e7ab 473e c97a 33be d7df a6bd 8f6f 433e
000003f0: 2fe4 45be 049a 11be 20c6 053d 3a86 c43d
