results/ppo/MoveToGoal/MoveToGoal-499993.pt (torch, 438559 bytes, 36 tensors)

network_body._body_endoder.seq_layers.0.weight f4 [128, 6]
00000000: 124f 0a3e 05bf 073d 6ca8 223e 3dd3 753e
00000010: 5021 5cbe e8ca 413f 0f21 52be c6af df3e
00000020: cfed 3dbc d583 983e 04dd 10bf 0916 163f
00000030: 24d2 3ebc 558b 30bf 21a2 17bf f7f7 593e
00000040: c106 23bf 45eb 6cbf 3338 dcbe feec d83e
00000050: 07ed 6a3e 70e6 7ebe fa7d e8be 2ee1 02be
00000060: 16fe bebe 8b06 febe 1e70 4a3e 7028 e6be
00000070: 4ed5 453e 727a 25be b59f f1be 1222 55be
00000080: fa40 2b3f f088 27be 95de 7dbf dc19 11be
00000090: 3271 853e d9cb 5e3e ccd3 e9be 1117 bdbe
000000a0: 53a1 7dbe b9d0 7ebe 1896 4a3f 6e34 03bf
000000b0: f7d7 0abf 94d0 4dbf a55e c33d 9017 79be
000000c0: 19bc 8c3e dbcb 3c3d fce3 82bd 6f83 5a3e
000000d0: 2ae7 fdbe 4336 5cbe ccc0 d43b 9685 38bf
000000e0: 9ca4 a33e 9f40 1dbf f9a3 c73d 21b4 2c3e
000000f0: e79a 1bbe f3fe a53e ae7d 303f 6fc2 5ebe
00000100: a7c0 53bd 3427 303f 0723 e13e ab26 833e
00000110: 22a3 f13d bea6 f6bd 166f 07bf 9359 f4bd
00000120: 89a8 183e 17dd 183f bc09 ef3c b708 073e
00000130: 1c68 b0bb 6a4b 77be e206 ed3e 7cfe 5e3e
00000140: 620c 02bf d335 283e a08b 1bbc ca3d 96bd
00000150: 1433 06bf 2c18 453e 25f6 363e 7516 0f3f
00000160: 4009 073f 91dc 883e 15a5 3c3d d52c 4cbc
00000170: de80 d7bb 537d ffbe eacd 84be 300f 8e3e
00000180: 10c5 c7bd 80c2 dfbe 815d 89be 72db 813d
00000190: d3e9 533e 449b 07be b88c 8cbf 89ce c0be
000001a0: 4dbe 523f 7876 043f 9aaf 9fbd 8d83 cdbd
000001b0: 37b3 7abd 1862 083e d637 afbe a246 ddbe
000001c0: e666 123f cc47 323f 8c54 01be af36 173c
000001d0: 0f13 e93e 8b1f 51be 527d a1be 2c45 edbd
000001e0: 4fdd e73e f021 a13d f6b2 5e3f 7ccf 26be
000001f0: 4438 06bf 76cb 70bf 5791 bc3e 25ac 1a3f
00000200: c357 183e b4b8 113f da4b 133e 126c 893e
00000210: 5242 e5bd 0597 e03c 1695 e13c c795 f8bc
00000220: ed77 213e bfb3 a3be bc73 d13e 3e22 393f
00000230: 0dff 20bf 06d7 db3e 2b8b 433f db83 41bc
00000240: 0717 46bd c0d3 1a3e cf1e 28bf c0f8 473f
00000250: 529f 0f3e 0240 02bf a23f 23be 1cda 6cbe
00000260: 6628 17bf 665e 0abf d78c 00bf 283b 473e
00000270: bb71 883c 0aa6 05bf e9c2 b23d f68b bb3e
00000280: 4f4a 433d 7acc f1be 56d4 b4bd b93d 513e
00000290: 6b7c 023f 0e66 853e f5f9 723e 6b6e c9be
000002a0: 77c5 b63d 6e5f 14be ba08 25bf 1003 83be
000002b0: b998 893e 32c8 e9bd 777b 3fbf aff6 37bf
000002c0: 332d 4abf 8cd7 193d 0778 ebbd 1c33 8a3e
000002d0: 03c8 003f 7a4f d53c 4515 53be 3633 95bd
000002e0: 54e1 3c3f fef3 173f 4a05 4ebe 7e8d 4c3f
000002f0: 210b 1e3f 70d6 5ebd ab01 dd3e 3ee5 b3bd
00000300: 918a 043e d1a3 2f3f 1cd1 3ebe b7a3 19be
00000310: b8ad 143d 6d0d d0be 5e34 0b3f cd63 873f
00000320: 9536 53bf b2e3 00bf 1913 0f3e 1d30 e5bd
00000330: 9b0a 553e 1286 00be e6c5 91bf 4213 4a3e
00000340: cb92 12be 0a6f e13e 8594 58bf cdc8 263f
00000350: 88cd 583f 47ec c9bd 3684 7f3e ab3c 65be
00000360: ab79 3e3c 963c 463e e611 c9be 2438 e0bd
00000370: 3a41 06be 9ae4 d1be f493 24bf 921b 68be
00000380: 73c9 7ebe 68a5 413e a64b 2bbf 5364 f1be
00000390: e553 29bf a3ad dc3e c949 61bf d0f6 193f
000003a0: ad30 4c3e d5a3 d8be c39a 8a3e 1621 943f
000003b0: 8b4d 0f3f fda7 01be 2cd3 7a3e a0d7 c5be
000003c0: fa1e 8b3e d096 ff3e 25be e53e 2c57 e8bd
000003d0: f264 08be ad97 d53e 88e4 b5bd 3a6b 803d
000003e0: f0e2 613e 90ae c43d 9b6f 253e d0d0 1fbe
000003f0: 0369 64bd d515 413d 8130 233d 5df2 813e
0.13506725 0.033141155 0.1588456 0.24006362 -0.21497083 0.75700235 -0.20520423 0.43688792
-0.0115923425 0.2978808 -0.56587243 0.5862737 -0.011646781 -0.68962604 -0.59231764 0.21285997
-0.6368218 -0.9254649 -0.43011627 0.4236831 0.22941981 -0.24892592 -0.45408612 -0.12781212
-0.37303227 -0.49614367 0.19769332 -0.44952726 0.1931965 -0.1615999 -0.4719216 -0.20813778
0.6689602 -0.16360831 -0.9916776 -0.14170021 0.26062924 0.21757449 -0.456694 -0.3693166
-0.24768572 -0.24884309 0.79135275 -0.51251876 -0.54235786 -0.8039639 0.095395364 -0.24325395
0.27487257 0.04609285 -0.06391141 0.213392 -0.49590427 -0.21505074 0.0064927097 -0.72078836
0.31961524 -0.6142673 0.09748072 0.16865589 -0.1519581 0.32421073 0.6894177 -0.21753858
-0.0516974 0.6880982 0.43972036 0.2561544 0.11798693 -0.12043522 -0.5290388 -0.119311474
0.14908041 0.59712356 0.029179446 0.13186918 -0.0053835046 -0.24149862 0.46294314 0.21776766
-0.50800145 0.16426782 -0.009493738 -0.07336004 -0.5242169 0.19247502 0.17867334 0.5589364
0.5274849 0.2673078 0.046055872 -0.012461861 -0.0065766415 -0.49900302 -0.2593835 0.27745962
-0.097543836 -0.4370308 -0.2682915 0.06340684 0.20694666 -0.13242823 -1.0980444 -0.37657574
0.82321626 0.5174327 -0.07797165 -0.10034857 -0.06120607 0.1331867 -0.34222287 -0.4321795
0.5718826 0.69640803 -0.12629908 0.009229346 0.45522353 -0.20422189 -0.31540924 -0.11585459
0.45286033 0.07867801 0.8699182 -0.16290087 -0.52429605 -0.94060457 0.36829636 0.6041892
0.14877228 0.5692246 0.14384404 0.26840264 -0.1119429 0.027415762 0.02753691 -0.030344857
0.15768404 -0.31973073 0.4090861 0.72317874 -0.62889177 0.42937487 0.7638423 -0.011811222
-0.048361804 0.15119839 -0.6567201 0.7811394 0.1402562 -0.5087892 -0.15942243 -0.23130077
-0.5904602 -0.5405029 -0.50214905 0.1945616 0.016655793 -0.5220648 0.087285824 0.3663022
0.047678288 -0.47226316 -0.08829562 0.20433702 0.50971097 0.26054424 0.23728164 -0.39342055
0.08924382 -0.14489529 -0.6446644 -0.25588274 0.2687433 -0.11415137 -0.7479777 -0.71860784
-0.7897522 0.037559077 -0.11497503 0.26992118 0.50305194 0.026038874 -0.20613582 -0.07285158
0.73781323 0.5935668 -0.20119205 0.799034 0.6173573 -0.054403722 0.43165335 -0.08783959
0.12943484 0.6860934 -0.18634456 -0.15003859 0.036298484 -0.40635243 0.5437678 1.0577332
-0.8250516 -0.50347435 0.13972129 -0.111908175 0.20804827 -0.12551144 -1.1388519 0.19733909
-0.1431381 0.4403003 -0.8460162 0.6515015 0.84688616 -0.098595195 0.24952778 -0.22386424
0.011625688 0.19359049 -0.39271468 -0.10948208 -0.1311082 -0.40994722 -0.6428826 -0.22666767
-0.24881534 0.18910754 -0.66912305 -0.47146854 -0.6614364 0.43101224 -0.8800321 0.6014223
0.19940443 -0.42312494 0.270712 1.1572597 0.55977696 -0.12661739 0.24494618 -0.3864107
0.2717207 0.49919748 0.4487163 -0.11344752 -0.13319758 0.41717282 -0.088814795 0.06270452
0.22059226 0.09603608 0.16155855 -0.15607 -0.05576421 0.04713996 0.03984118 0.2538022

network_body._body_endoder.seq_layers.0.bias f4 [128]
00000000: e162 8a3c 7c20 cc3c 6515 14bc 90f8 53ba
00000010: c68d 0d3d 6fcd 173d 6084 96bb 572a 6b3d
00000020: f4b1 793d 1b5a 06bc 97f3 163c fa60 56bd
00000030: 8a8c 7e3b 7c8c dc3c 081f a43c fa0e 89bb
00000040: bac6 d6ba 61fd 3fbc b54b 543c dfdc e53c
00000050: 54ab 8ebc 4eb6 303c fb91 9f3b 02e9 583c
00000060: 5d39 953b 91d0 0fbc f365 ef3b 57d1 453c
00000070: 1fe2 b0bc 05ab 0a3c 962f ec3c 6f3c 59ba
00000080: ff70 c53c 0658 7d3c cb4d 5e3d 39ab aaba
00000090: 571a 203d 2c75 f13b 42c3 5abb 22d8 873c
000000a0: 3a52 6d3d c191 e63b 41b0 76bc 1fcf f23c
000000b0: 0039 bfbc fcdd a9ba fbce ac3a 38b5 073d
000000c0: 61f8 333c 7385 c8bb c3d1 1b3c 94c9 c03b
000000d0: b20c 7a3b e9de 443c 5607 133c f8ad 323c
000000e0: 9422 1cbc 81a7 a43c 929c a93d 3cc7 dbbc
000000f0: f034 6bbc 099a 143d 8e65 053b 8b6a 073d
00000100: 120a dc3c 43be 6d3c 514b 85bc 5a5f ac3c
00000110: 4867 53bc 0e3b 94bc 6db3 68ba 121d d13c
00000120: 4fea 323c dc9e cf3c 673d 113d 6c68 6a3d
00000130: ee92 f5bc 3cd6 e53b cc7f 403c f339 863b
00000140: 33cf 90bc 7ea1 023d b6ff 02bc 6972 503c
00000150: a150 8d3d c33f 1e3c 8dfe 0fbc 4359 063c
00000160: 3fe2 1339 f0c6 023d a6e1 f23c f1e1 3cbc
00000170: 4f31 813c 8ea7 fe3a 1449 903c cc42 13bd
00000180: c603 433a bdf0 6dba 0e63 983c a9a8 e53c
00000190: 15e6 af3b 8fce 913b 9164 623c d1aa 493d
000001a0: 92fb 803c 43af c73c 010e 0ebc 0601 173c
000001b0: 5c81 0fbc 06e5 6d3c 1f17 6c3c 1e7b cc3a
000001c0: 92d0 52bb 4b29 6cbc b920 80bc 9052 3d3c
000001d0: 6ab5 043c 19ff f9bc e8de 703b 5bde d03c
000001e0: 520f 7c3d 86ab 7e3b db60 113d e875 233d
000001f0: 59ad 0e3b ea53 a33c 26f1 f53b 883c 113d
0.016892852 0.024917834 -0.009038304 -0.000808605 0.034559034 0.03706115 -0.004593417 0.057413425
0.060960725 -0.008200194 0.00921335 -0.052338578 0.0038841092 0.026922457 0.020034328 -0.0041826935
-0.001638613 -0.011718125 0.012957503 0.028059421 -0.01741568 0.010785652 0.004869697 0.013239147
0.0045539574 -0.008777753 0.0073058545 0.012073836 -0.021592198 0.008463626 0.028831284 -0.00082868984
0.024101732 0.015462881 0.054273408 -0.0013020999 0.03908762 0.0073687043 -0.0033380543 0.016582552
0.057939745 0.007036418 -0.015056671 0.029639779 -0.02334261 -0.0012959833 0.0013184244 0.033131808
0.010984511 -0.006119424 0.00951046 0.005883405 0.003815454 0.012016037 0.008973917 0.010905735
-0.009529728 0.020099403 0.082818165 -0.0268284 -0.014355883 0.036279712 0.002035472 0.03306059
0.02686027 0.014510694 -0.016271265 0.02104156 -0.012903042 -0.018094566 -0.0008876834 0.025526557
0.010920121 0.025344305 0.03545895 0.05722849 -0.029977288 0.007014064 0.011749219 0.0040962636
-0.017676925 0.031892292 -0.007995537 0.01272259 0.06900144 0.009658757 -0.008788717 0.008199993
0.00014103296 0.031928003 0.029648613 -0.011528478 0.015770582 0.0019428597 0.017612971 -0.035952374
0.0007439222 -0.00090767053 0.01860192 0.028034525 0.005368004 0.0044496725 0.013817922 0.04923517
0.015744958 0.024375563 -0.008670331 0.009216553 -0.008758869 0.0145199355 0.014409809 0.0015600657
-0.0032167775 -0.014414142 -0.015640603 0.011555329 0.008099893 -0.030517148 0.0036753956 0.025496652
0.061538048 0.003885956 0.03549276 0.039907366 0.0021770804 0.019937474 0.007505554 0.035458118

network_body._body_endoder.seq_layers.2.weight f4 [128, 128]
00000000: ba92 893d 07f1 253e 624d ac3b f83d c4bd
00000010: 4d43 27bd 5b1a bc3c 9c0a ef3c 85f5 823d
00000020: 3347 093e 8dd0 193d d4ff e63d feca 853d
00000030: e27d 083e c470 323c c80b 11be a835 043e
00000040: de54 0bbe 9a6f 9c3d 2657 9cba 4c78 cbbd
00000050: c762 32bd 8103 0b3c b1a1 c93b 2f65 e53d
00000060: f652 393d d56f 00be 36e5 073e 5bc2 a83c
00000070: 3ed7 c0bd 085b 57be b7ad 803c 14bb 5fbd
00000080: a6ea 55bd 739c 873c ed7d 17bb 34d1 b4bd
00000090: 98ff 333d b6a1 95be a602 90bc 3e9c 573c
000000a0: 8865 f03d 97d0 ffbd ce94 853e 1936 eebd
000000b0: 2cb8 6cbd 827f 5ebd 1ff8 2b3e 2f81 023e
000000c0: 8b37 3abc f56c 4a3c 92f6 49bc 6739 003e
000000d0: 74e4 82bd 055c 283e 756b 8fbd 55d5 e6bd
000000e0: feaa f9bd ae7c 22be 1b3b 073e 9039 08be
000000f0: 1c2e 85bc f77e 863d 387f 003d 6769 843d
00000100: 9d74 1b3d dec5 9f3d 8860 f9bd 108d 623c
00000110: fa52 efbd 7d75 03be 73ae 223e b9b7 ecbc
00000120: f696 97bd 360d 2abd d265 a0bc 2031 653e
00000130: 5551 02bd 5225 a63c dca1 e4bc ad55 873c
00000140: df23 743c 53a6 5ebe 965a acbd 8ce0 31bd
00000150: 5def c4bc 7424 3fbd 60c5 883d f1fc 2dbd
00000160: 8519 05bd f996 3abd e1eb 9abc e0b5 02bd
00000170: a1a2 0cbe 5b08 18be 7e9e 5dbd 6229 3fbe
00000180: 0d59 02bd f52a fbbd f37b 80bd 6053 713d
00000190: ed66 d8bd 9c97 92bd 2b6a 50bb 3b5d 28be
000001a0: f622 883d a76f 16be 6c85 773d efb5 753c
000001b0: a53c a8bd c112 ae3a 256c 48bd d16c 85bd
000001c0: 1b5f aaba 8e8a 033d da97 b9bd 5a57 a3bd
000001d0: 3778 eb3d d05d 923d 667b 773d f3d1 13be
000001e0: 8f70 f8bd 52fe e1bd 6ffc 063d 3ddf 313d
000001f0: c7df a8bd 7165 cfbc d6df 3d3d bf32 4c3d
00000200: 5840 763d 70a5 2fbd 38ed 7b3d 9caa 84be
00000210: 3877 623d b235 a3bd 7c27 fc3b 0029 32be
00000220: 4d36 22bc f33e dc3d 1850 01bd 3b57 863d
00000230: 8149 993d aa04 283d 0649 75bc 5de3 cabd
00000240: ff70 0d3e 0bf4 303d 29f9 ec3d 1012 f73a
00000250: c479 f43d 7074 18bd 0f53 de3c 63e0 533d
00000260: 086e 473d 7974 393d 59b0 a3bd b37d eabb
00000270: 1f64 8e3d 0a57 bbbd 920b c63d 3ba8 67bd
00000280: 9c06 da3b 0d52 9bbd 4980 53bd 31ef b33d
00000290: 490f d73c 5150 00be d06f 13be b84e 15be
000002a0: 1489 06bc 7a72 3cbd 6386 63bd 1f9e 60bb
000002b0: df5e c9bd 0b89 a9bd c275 143d ed8d ca3c
000002c0: fdec cc3d d80f cabd 0198 1dbe f37a 583d
000002d0: a577 d4bd 6f7a 53bc 3ab6 c03d d0e0 083e
000002e0: 6036 f33d 0cff 893d 7329 4f3c 8f9b 1cbe
000002f0: 4ff8 803d 2b19 bcbd c0e6 383e 5b6c 603d
00000300: 523a b5bc 33eb 92bd 8457 83bd 4819 923d
00000310: 4d65 13be afa1 8b3d 8e27 b53d 7db8 233e
00000320: 4f69 be3b a32e 3c3d 1c42 603d 618c 1abd
00000330: ec09 d13b 0e06 11be e15c 573c 7bc8 fc3c
00000340: 60c9 76bd 7fc1 44be deee 4f3d 50c9 323d
00000350: 1d4f 56bd d2c8 d13d 543f 75bd 64b3 5dbd
00000360: 3498 60bd 1a3b 29bd 61a1 3d3e 14c6 12be
00000370: bda4 9c3c 987e 62bd 066e 0f3e 4efe e73c
00000380: 886d 90bd f523 08be e9e7 92bb 3388 4f3e
00000390: 79b0 6ebd 5e71 0f3e 7a85 35bd 4b55 36be
000003a0: cec4 1abe 5f76 2cbd b31b 92bc 7b38 993c
000003b0: 39de 813c 6e8c f2bd 8f30 b6bd 77ff 0b3e
000003c0: e6a9 9ebd 4b41 453d 2cca 9d3c dec4 8b3d
000003d0: be3c 323e d50a 913c 9bbe 85bc 5b03 073e
000003e0: 9e69 a93d 57a5 14be 2b53 ac3c de30 c73a
000003f0: cda1 6bbd d4c5 833c 4083 7e3c 737a fdbd
0.06717439 0.16205226 0.005258248 -0.09582132 -0.040835667 0.022961786 0.029179864 0.063944854
0.13406067 0.037552405 0.11279264 0.06532858 0.1332927 0.010891143 -0.1416465 0.12911093
-0.13606593 0.07638474 -0.0011927828 -0.09935054 -0.043551233 0.008484722 0.0061533083 0.1120094
0.045245133 -0.1254266 0.13271031 0.020600488 -0.09416054 -0.2103082 0.015707834 -0.05462177
-0.05222573 0.016554093 -0.002311583 -0.08828965 0.043944925 -0.29224938 -0.017579388 0.01315981
0.117381155 -0.12490957 0.2609009 -0.11631412 -0.057792827 -0.05432082 0.1679387 0.12744592
-0.011365782 0.012355079 -0.012326853 0.12521897 -0.0639123 0.16441353 -0.07002918 -0.112711586
-0.12190817 -0.15867874 0.1320614 -0.13303208 -0.016257338 0.06567185 0.031371325 0.064654164
0.037953008 0.07801412 -0.12176615 0.013827577 -0.116857484 -0.12837787 0.1588686 -0.0288962
-0.074018404 -0.041516505 -0.019579802 0.22382021 -0.031815846 0.020281468 -0.027909212 0.016520346
0.01490113 -0.21743135 -0.084157154 -0.043427035 -0.024039919 -0.046665624 0.06678271 -0.04247755
-0.03249504 -0.045554135 -0.018911304 -0.03191173 -0.13733913 -0.14846937 -0.054106228 -0.1866813
-0.031823207 -0.12264053 -0.062736414 0.058917403 -0.105665065 -0.071578234 -0.0031801562 -0.16441815
0.06647293 -0.1469103 0.060429975 0.01499699 -0.08214692 0.0013280736 -0.04893126 -0.06514896
-0.0012998314 0.032114558 -0.090621665 -0.07975645 0.114975385 0.071467996 0.060420416 -0.14435558
-0.12130844 -0.11034836 0.032955583 0.043425787 -0.08245807 -0.025316926 0.046356045 0.049853083
0.060119957 -0.042882383 0.061505526 -0.25911415 0.055289477 -0.07969226 0.0076951366 -0.17398453
-0.009900642 0.10754194 -0.031570524 0.06559607 0.07484723 0.041020073 -0.014971023 -0.09906647
0.13812636 0.043201488 0.11570961 0.0018849988 0.119372874 -0.03722042 0.027139215 0.051727664
0.04868892 0.045277093 -0.0799262 -0.007156098 0.0695269 -0.09147461 0.096701756 -0.05655692
0.00665362 -0.07584009 -0.051636014 0.087858565 0.026252406 -0.12530638 -0.14398122 -0.1458081
-0.008211393 -0.04600761 -0.055548083 -0.0034273935 -0.09832548 -0.08278092 0.036245115 0.024725879
0.100061394 -0.09866303 -0.15390016 0.05285163 -0.10374383 -0.012907608 0.09409757 0.13367009
0.118756056 0.067380995 0.01264416 -0.15293716 0.06297361 -0.09184488 0.18056774 0.054790836
-0.022122536 -0.07173767 -0.06413177 0.07133728 -0.14394112 0.06817948 0.08845435 0.15988345
0.0058108936 0.045942914 0.054750547 -0.037731532 0.0063793566 -0.14162466 0.013144703 0.030857315
-0.06025064 -0.19214438 0.05076491 0.043649018 -0.052321542 0.102433816 -0.059874848 -0.05412616
-0.054832652 -0.04131613 0.18518592 -0.14333373 0.019121522 -0.05529651 0.14006814 0.028319504
-0.070521414 -0.13294967 -0.0044832123 0.202668 -0.058273766 0.1400809 -0.044316746 -0.17805974
-0.15114138 -0.042105075 -0.017835474 0.01870369 0.015853034 -0.11843191 -0.088959806 0.13671671
-0.07747249 0.04815797 0.019261442 0.06824659 0.17405984 0.01770536 -0.01632624 0.13184874
0.08272098 -0.14516197 0.021035751 0.0015197059 -0.057527352 0.016085543 0.015534222 -0.12376871

network_body._body_endoder.seq_layers.2.bias f4 [128]
00000000: 1396 e43b 6600 1ebc b43b d33c f301 bb3c
00000010: a4e1 f6ba 46a7 0f3d 465a 26bc 1360 2cbc
00000020: 56c5 fa3c ffeb 1e3a 3b70 8bbb 3e1d 203c
00000030: edbd a9bb 36a1 16bc a74e 71bb a7b0 d53c
00000040: 53bd b93b 26ca 613c 3ee3 553c d40e 943c
00000050: e1d4 f03b 0edf fbbb 1db8 8f3c c52e 503c
00000060: 85f6 84b9 a37d 643b ea60 fbba 7051 95ba
00000070: 5f2f 003d 04bb e83c f40d 12bc 8b1e 673c
00000080: 99f2 873b ace0 d23c 117f c83b e0d6 cbbb
00000090: c071 e5b9 0338 81bb 0f32 393b 50f5 86bc
000000a0: 3fd0 9a3c bc2e 933b 241a 813c 7a8d ba3c
000000b0: 95af 3ebb 8c1e a03a 12ae 053d baa0 c73b
000000c0: f23c 2cbb e0cc d03b 425a 61bb 6796 b7bb
000000d0: 398a ce3b 553d c53c 33e6 d8bb 52a5 813c
000000e0: 34aa 17bc ee61 9e3a 8259 fa3b 2964 293b
000000f0: 5fb8 b3bb 58cc 08ba 17d7 0e3d ffb5 673c
00000100: 1ae4 823b faf7 a53b 0bd3 e93c 91e3 793c
00000110: 705f 743c a859 a7bb 38b7 41bc 144c 813b
00000120: 5bcd 8fbb 87ed 42bc 382e b53c 7b4e 6d3c
00000130: 516e 633c a8e6 d33b e067 9f3b f313 1c3b
00000140: 061d 383c edba 8c3c 0e7e f03a d659 8d3c
00000150: b83b f43b b674 973c b69c 0b3b b6a1 4e3c
00000160: 2fe3 af3c c191 d938 65f6 aa3c 0df3 7e3c
00000170: bc8c 1938 25e9 08bb bc28 033c 4a04 f2ba
00000180: f6df ba3c b1ec 9e3c 1c9f 683b a725 483b
00000190: 22e0 6a3c 8093 4ebb f325 b93c 2736 533b
000001a0: a070 8d3c 6aeb 5cbb 4ebd a7bb eb92 7a3c
000001b0: ebf6 7e3c da4e 963b 2839 0e3a 161b e6ba
000001c0: e7d3 21bb 133d bd3c 289d 803c 915d 9d3b
000001d0: 0ae8 34bc 178c f43c 0f7e aabc 1a4e f13c
000001e0: e90a a23c e84a e0bb 5f75 87b9 36aa 163c
000001f0: 1543 cb3c b6df 283b 0775 e63c c2c4 873c
0.006975898 -0.00964365 0.025785305 0.022828078 -0.0018835557 0.035071634 -0.010153359 -0.010520953
0.030611675 0.0006062388 -0.0042553223 0.009772597 -0.0051801116 -0.009193709 -0.0036820562 0.026085211
0.005668321 0.013781106 0.013054667 0.018073477 0.007349596 -0.0076865023 0.017543847 0.012706463
-0.00025360673 0.0034864924 -0.0019178663 -0.0011392068 0.031295177 0.028409488 -0.0089144595 0.014106403
0.004148793 0.025741898 0.006118663 -0.0062206835 -0.00043763034 -0.0039434447 0.0028258597 -0.016474396
0.018898128 0.004491655 0.015759535 0.02277254 -0.0029096354 0.0012216135 0.03263671 0.006092158
-0.0026281443 0.0063720793 -0.0034386073 -0.005602646 0.0063030985 0.024077097 -0.0066192388 0.015825901
-0.009256888 0.0012083629 0.0076400647 0.0025847054 -0.005484625 -0.0005218438 0.034873094 0.014142512
0.003994477 0.0050649615 0.028543016 0.01525201 0.014915332 -0.0051071234 -0.011823468 0.003945837
-0.004388494 -0.011897451 0.022116765 0.014484043 0.013881282 0.0064667054 0.004864678 0.0023815602
0.0112373885 0.017178977 0.0018348114 0.017254751 0.007453408 0.01848827 0.0021303124 0.012611797
0.021470634 0.00010374515 0.020869443 0.0155608775 3.660911e-05 -0.0020890918 0.008005317 -0.0018464413
0.022811871 0.019399973 0.0035495227 0.003054002 0.014335664 -0.0031521022 0.022601103 0.0032228322
0.017265618 -0.0033709654 -0.0051190024 0.015293817 0.0155617995 0.0045870366 0.0005425387 -0.001755568
-0.0024692954 0.023100412 0.015699938 0.0048024138 -0.011041651 0.029851956 -0.020812063 0.029456187
0.019780593 -0.006844867 -0.00025836655 0.009195855 0.02481226 0.0025768108 0.028131975 0.016573314

action_model._continuous_distribution.log_sigma f4 [1, 2]
00000000: 3bc2 b8bd 9fff 99bd
-0.090214215 -0.07519459

action_model._continuous_distribution.mu.weight f4 [2, 128]
00000000: 8889 393d 832b 133d 0899 9b3b 8d8b 86bd
00000010: 2599 cdbb ecfc 6c3c ccc5 d23c bec5 d53c
00000020: 3764 12bd 93e8 783d 6cc4 ca3b 92d3 ecbc
00000030: c8f9 843a 0e04 0d3d 0a1f f43b 1066 90bc
00000040: c0a7 a93c d11c 5e3d a9be cbbc b1ed c93c
00000050: 0855 723d 1692 ca3c e0f9 46bd def9 b03d
00000060: c8a9 d73b 31fb e2bc 3fb6 023d c9b8 6e3d
00000070: 63ac edbc 4d25 29bd a8fc e43c 0a8a 81bc
00000080: e9e5 893c 14c0 f6bc 3ca1 a43d c5e5 f83c
00000090: ed4a ed3a c7f5 323d db95 cebb dcdd 0d3d
000000a0: bb36 6abd 8ef5 743d a1d8 b0bc e5a5 b4bd
000000b0: 147e e539 d2be 0ebb 000a 79bd 1567 43bc
000000c0: 8b2c 2b3d 2e95 f9bc 974f 113d 8ca0 e83c
000000d0: 6253 6fbc f134 31bd 58ba 5dbc 3902 9e3d
000000e0: c8c7 96ba 0ea7 20bc 1720 9e3d 37d3 5dbc
000000f0: 800d f1bb daf5 083d 14f8 e9bc 3e6e 9f3d
00000100: 1ba9 1e3d e22a a5bc 2279 84bc aa88 95bd
00000110: 1118 633d 0ac1 033d 9e1f 753c 5169 35bd
00000120: dbb4 d0bc 5f6e 9dba b46a 77bd ae4c 3c3d
00000130: b3e1 4dbd ed0c 1cbd c52e 8c3c bfce a13d
00000140: 2879 953d 53dd 9c3c 2ea9 643d d506 633c
00000150: c9f3 7ebc 9166 f0bb 06a4 f53c b7ed 43bd
00000160: ea39 9b3c 2f63 ba3c 3dbc 6b3d f98e 92bd
00000170: 3b05 f23b 6c25 fb3b fa7c 743d 1c53 2bbc
00000180: d1b8 a9bc 49d9 b5bc 8bf1 863c 5fbe 84bc
00000190: a7e1 50bc bb4e f73c 9a51 70bd 8b2a c43c
000001a0: 7094 50bd 8132 203b cfa2 b03c 73ea e5bc
000001b0: 84be 33bd 067e 89bc e3f7 203d c0e4 193b
000001c0: 8256 593c aeb6 92ba 5b24 9d3d 51e9 da3c
000001d0: cfa7 5e3d 4620 a7bd dccb 793c 86bb 00bd
000001e0: 247d 003d e772 993c f779 71bc 75d1 033d
000001f0: a9d8 24bd 9fe1 293d faf1 41bd 8760 aebc
00000200: 1c21 b23c 8eb7 e4bb 89ad 163d 863b c83c
00000210: f740 e1bb ded3 953d b8ef 0c3c 4b5c 633b
00000220: 8c1c 743d dd93 ad3c c225 483c db23 15bc
00000230: ec59 8c3c a594 393b 55c6 89bc 3189 cabd
00000240: f91c 62bd 7fff a6bc 698f 2ebd 76b7 52bd
00000250: 0295 903d adaf 0cba 26a5 8d3d c788 893c
00000260: 13ce babc 2cba 013c dbb5 593c 70a1 b7bc
00000270: 9c8f 863d 8168 42bd 8aff 473c b3b9 abbd
00000280: a7b3 093d d559 03bc 9389 f23c 398d 8e3c
00000290: b3c7 b1bc 6fa7 95bc 4b20 81bc 2c33 1fbc
000002a0: a752 d0bc 0142 03bc 5ccc d13d 3d38 f93b
000002b0: 6947 5b3d d0db 9dbc c5e7 0fbc a15c b5bc
000002c0: a846 14bd 0c96 3a3d 0824 133c d1ce 423c
000002d0: 4058 393d 6f82 00bd 6845 ab3c 8380 00bd
000002e0: 335a 8fb9 72de b8bb e030 e93c b1f8 713b
000002f0: d39c b138 08d1 223d cf82 143d b42c 1c3d
00000300: c085 c8bc a9a7 b9bb 6498 84bd 6da0 26bc
00000310: f07b 58bd d89b b23b 3364 cdbc 4a17 783c
00000320: 646e 383c 9a90 45bc fc23 0c3d 3c4c 213d
00000330: d28f 95bb b7d4 123a 8e95 06bd cf1b 7b3d
00000340: 3eac fe3c 7e7f ae3d 73ac bbbc 7345 90bd
00000350: e852 fdbc dc37 8cbd 5e27 19bd f860 2e3d
00000360: a35e 5dbd 1cd1 f0bc 5406 61bd 4d74 39bd
00000370: c0e2 263d 07d6 b0bc 43ef bfbc ad5b 6e3c
00000380: 500c 6dbd 992d 94bd 04be 33bd d6f4 ebbb
00000390: f394 1dbd b1b7 66bc c29e c13c 97d1 243d
000003a0: 8cd4 a3bc 2c57 563c 061a d3bb 797a 60bd
000003b0: 9b59 263c bd7f a73a 1dfc 37bc ad04 7abc
000003c0: 2fcb b4bc cdde 953d 9113 a3bc fb2c dbbb
000003d0: 62e2 f3bb a8a5 053c 7b3d 9cbc 65e8 733d
000003e0: 694b 74bd ff9a 063c 3744 093d a56e 54bd
000003f0: 8b1a 483d 1262 d0bc 6fd8 313d a4eb 633d
0.045297176 0.035930168 0.0047484674 -0.06569586 -0.0062743598 0.014464598 0.025729083 0.026095267
-0.035740104 0.060768675 0.006187966 -0.028909478 0.0010145241 0.034427695 0.007449989 -0.017626792
0.020709872 0.0542267 -0.024871187 0.024649473 0.059163123 0.024727862 -0.048578143 0.086414084
0.006581519 -0.027707668 0.031912085 0.058281694 -0.029012864 -0.04129534 0.027952507 -0.015812892
0.016833263 -0.030120887 0.080385655 0.030383 0.0018103995 0.043691423 -0.0063044853 0.03463541
-0.0571811 0.05980449 -0.021587672 -0.08820704 0.0004377222 -0.0021781218 -0.060800552 -0.011926432
0.041790526 -0.030466642 0.035476293 0.028396867 -0.014607282 -0.04326338 -0.013533197 0.07715268
-0.0011503631 -0.009805454 0.077209644 -0.013539127 -0.0073563457 0.033437587 -0.028560676 0.07784699
0.03873549 -0.02016205 -0.016171042 -0.07301457 0.055442873 0.03216652 0.014961151 -0.04428989
-0.025476864 -0.0012011043 -0.060404494 0.045971565 -0.05026407 -0.038098264 0.017112145 0.07900762
0.07298499 0.019148504 0.055825405 0.013856609 -0.015561053 -0.0073364456 0.029985439 -0.047834124
0.018948514 0.022752373 0.057552565 -0.07156176 0.0073858774 0.007664373 0.0596895 -0.010456827
-0.02071801 -0.022198336 0.016472599 -0.016204057 -0.012749112 0.030188909 -0.05867157 0.023946067
-0.05092281 0.0024444165 0.021562008 -0.028065896 -0.04388286 -0.016783725 0.039298903 0.0023482293
0.013265254 -0.0011193359 0.0767295 0.026722582 0.054359253 -0.081604525 0.015246358 -0.031428836
0.031369343 0.018731548 -0.014738551 0.032182176 -0.040245686 0.041474935 -0.047349907 -0.021286262
0.021744303 -0.0069798892 0.03678659 0.024442445 -0.0068741995 0.07315801 0.008602075 0.0034692462
0.059597537 0.02118867 0.012216033 -0.009102787 0.017132722 0.0028317359 -0.016818205 -0.098894484
-0.05520341 -0.020385502 -0.042617235 -0.051444493 0.07059671 -0.0005366754 0.06916265 0.016788853
-0.022803342 0.007917922 0.013287987 -0.022415847 0.0657036 -0.047462944 0.012206921 -0.08385029
0.033618595 -0.008017023 0.029606616 0.017401325 -0.02170167 -0.018268315 -0.015762469 -0.00971679
-0.025430037 -0.008011342 0.102440566 0.007605581 0.0535349 -0.019269854 -0.0087832855 -0.022138895
-0.036200196 0.045553252 0.0089807585 0.011890129 0.045250177 -0.03137439 0.020907119 -0.03137256
-0.0002734229 -0.005641752 0.028465688 0.0036921913 8.4692285e-05 0.03975013 0.03625756 0.03812857
-0.02447784 -0.0056657386 -0.06474379 -0.010170084 -0.05285257 0.005450707 -0.025072193 0.015142271
0.011256788 -0.0120584015 0.034214005 0.039379343 -0.004564264 0.0005601155 -0.03285747 0.061305817
0.03108799 0.08520411 -0.022909379 -0.070444964 -0.030923322 -0.06846592 -0.03739106 0.042572945
-0.05404533 -0.029396586 -0.054937676 -0.04527693 0.04074359 -0.021586431 -0.023429519 0.014548224
-0.05787307 -0.072352596 -0.043882385 -0.0072008176 -0.038472127 -0.014081881 0.023635272 0.040238943
-0.019998811 0.013082307 -0.006442311 -0.0548043 0.0101532 0.0012779158 -0.011229542 -0.015259904
-0.022069542 0.073178865 -0.01990679 -0.0066887117 -0.0074427584 0.008157171 -0.019072285 0.0595478
-0.05964223 0.008215665 0.03351232 -0.05186333 0.04885344 -0.025437389 0.043419298 0.055644646

action_model._continuous_distribution.mu.bias f4 [2]
00000000: b9db dabb fb1f 34bb
-0.006679025 -0.0027484882

exp_avg f4 [128, 6]
00000000: 073f d03a a49f 55ba dcb7 61b7 b937 20bb
00000010: b937 20ba 0000 0000 0018 3a3a 7cc9 a1b9
00000020: f4c8 2839 3aae 72ba 3aae 72b9 0000 0000
00000030: c8fb 8738 559c ffb6 0614 ab38 44b5 bfb7
00000040: 44b5 bfb6 0000 0000 adc4 2bbb 3706 ad3a
00000050: b48c d0b9 abc4 813b abc4 813a 0000 0000
00000060: 4aaf e0b8 f82b 6938 d07f 04b8 fee0 2e39
00000070: fee0 2e38 0000 0000 5267 04ba a90b 9339
00000080: d796 19b9 7e91 5c3a 7e91 5c39 0000 0000
00000090: 0c70 ec38 2441 6fb8 917a 2137 d570 33b9
000000a0: d570 33b8 0000 0000 7c00 4139 443c b3b8
000000b0: aa77 dd37 316d 86b9 316d 86b8 0000 0000
000000c0: 6bd9 6f3a 70c5 ebb9 eaa1 6d38 0dd4 b0ba
000000d0: 0dd4 b0b9 0000 0000 7aeb d238 c2d2 57b8
000000e0: 3ddf 0836 0dde 21b9 0dde 21b8 0000 0000
000000f0: 2bc6 dab9 d582 5339 71eb b4b9 11a2 1e3a
00000100: 11a2 1e39 0000 0000 f372 1e38 370c b1b7
00000110: 7984 1a36 26c9 84b8 26c9 84b7 0000 0000
00000120: f9cc 2139 a3b1 b9b8 d446 0cb9 3445 8bb9
00000130: 3445 8bb8 0000 0000 0b10 613a 0b66 d2b9
00000140: fe1b f938 89cc 9dba 89cc 9db9 0000 0000
00000150: d8d1 cc3a 65bf 42ba a47a 6139 8a0f 12bb
00000160: 8a0f 12ba 0000 0000 dfd8 5938 4dfa e2b7
00000170: 9e68 6036 ba3b aab8 ba3b aab7 0000 0000
00000180: e9a7 6138 fee4 9738 d1c0 d439 36d7 6339
00000190: 36d7 6338 0000 0000 5669 42bb 7def b93a
000001a0: b0b8 47ba a473 8b3b a473 8b3a 0000 0000
000001b0: baf2 0fb9 502f a438 2917 0738 f646 7639
000001c0: f646 7638 0000 0000 14a6 3ab9 239a bf38
000001d0: 21d7 c6b8 8eb3 8f39 8eb3 8f38 0000 0000
000001e0: 0bd1 93b8 4135 e437 e475 35b8 f927 ab38
000001f0: f927 ab37 0000 0000 7a44 623b 294d dfba
00000200: 6029 9539 df79 a7bb df79 a7ba 0000 0000
00000210: 2174 40ba d704 c339 4cf2 bcb8 9f43 923a
00000220: 9f43 9239 0000 0000 ee23 b23b 3690 28bb
00000230: fcc7 973a 57d8 fcbb 57d8 fcba 0000 0000
00000240: 31cd 003b faeb 77ba 05c0 bb39 00f1 39bb
00000250: 00f1 39ba 0000 0000 9312 0939 9a2d 84b8
00000260: 8299 d137 6a44 46b9 6a44 46b8 0000 0000
00000270: be1b 9a3a f2e0 1bba 50a1 9337 67d1 e9ba
00000280: 67d1 e9b9 0000 0000 7229 443a 521e d8b9
00000290: 4884 82b9 c016 a2ba c016 a2b9 0000 0000
000002a0: ad1f e837 28fe 1fb7 5140 5c37 3cfd efb7
000002b0: 3cfd efb6 0000 0000 9a1b e4ba 0035 823a
000002c0: e6e9 4d39 7a4f 433b 7a4f 433a 0000 0000
000002d0: 0499 8e38 c064 10b8 2bd5 44b6 2197 d8b8
000002e0: 2197 d8b7 0000 0000 9145 01ba b6fb 2639
000002f0: d72f 1eba 7079 fa39 7079 fa38 0000 0000
00000300: d87e 063b cd69 7dba 72f2 da39 580f 3ebb
00000310: 580f 3eba 0000 0000 27b4 3138 54c5 c4b7
00000320: eca5 abb5 fe93 93b8 fe93 93b7 0000 0000
00000330: ce5c 783b bc52 d4ba d99d 803a 093e 9fbb
00000340: 093e 9fba 0000 0000 908e d9ba 9dd4 433a
00000350: 1b1d 28ba 76df 123b 76df 123a 0000 0000
00000360: e048 303a 6386 97b9 144f 6339 9f49 63ba
00000370: 9f49 63b9 0000 0000 b6e3 beba 3b20 4c3a
00000380: 1bba 01b9 2b18 193b 2b18 193a 0000 0000
00000390: d8f7 873a 1189 ebb9 8395 c339 c6a6 b0ba
000003a0: c6a6 b0b9 0000 0000 4918 153b 7224 97ba
000003b0: 0c7c 5cb9 acb6 62bb acb6 62ba 0000 0000
000003c0: 2659 1238 a0b4 a7b7 f8c8 3ab8 138f 7bb8
000003d0: 138f 7bb7 0000 0000 3f02 1dba cf6a 9a39
000003e0: 8968 30b9 32a0 673a 32a0 6739 0000 0000
000003f0: 4fbb 24b9 00d3 9b38 5054 ccb7 7ebc 6939
0.0015887924 -0.00081490935 -1.3453853e-05 -0.0024447276 -0.0006111819 0.0 0.0007098913 -0.0003085843
0.0001609659 -0.0009257529 -0.00023143823 0.0 6.4841995e-05 -7.6177917e-06 8.157645e-05 -2.2853383e-05
-5.7133457e-06 0.0 -0.0026209757 0.0013200705 -0.00039777684 0.003960212 0.000990053 0.0
-0.000107138025 5.5592478e-05 -3.1590287e-05 0.00016677749 4.1694373e-05 0.0 -0.00050507963 0.00028046712
-0.00014647409 0.0008414014 0.00021035035 0.0 0.00011274227 -5.7042707e-05 9.624885e-06 -0.00017112803
-4.278201e-05 0.0 0.00018406095 -8.5466105e-05 2.6400976e-05 -0.00025639826 -6.4099564e-05 0.0
0.0009149524 -0.00044969795 5.6655997e-05 -0.001349093 -0.00033727326 0.0 0.00010057441 -5.1456278e-05
2.039552e-06 -0.00015436877 -3.8592192e-05 0.0 -0.00041727847 0.00020171267 -0.00034507693 0.00060513715
0.00015128429 0.0 3.777719e-05 -2.1105732e-05 2.3024897e-06 -6.331717e-05 -1.5829293e-05 0.0
0.00015430515 -8.854575e-05 -0.00013377826 -0.00026563706 -6.6409266e-05 0.0 0.00085854594 -0.0004013035
0.00011878459 -0.0012039106 -0.00030097764 0.0 0.0015626503 -0.00074290327 0.0002150336 -0.0022287094
-0.00055717735 0.0 5.193881e-05 -2.7057855e-05 3.3439496e-06 -8.1173566e-05 -2.0293392e-05 0.0
5.380056e-05 7.242894e-05 0.0004057945 0.0002172858 5.432145e-05 0.0 -0.0029664836 0.0014185753
-0.0007618768 0.004255729 0.0010639322 0.0 -0.00013727965 7.828942e-05 3.2208078e-05 0.00023486823
5.8717058e-05 0.0 -0.00017800211 9.1363e-05 -9.4814466e-05 0.00027408864 6.852216e-05 0.0
-7.0484435e-05 2.7204516e-05 -4.3263557e-05 8.161361e-05 2.0403402e-05 0.0 0.0034525678 -0.0017036545
0.0002845032 -0.0051109637 -0.0012777409 0.0 -0.00073415233 0.00037196904 -9.00967e-05 0.0011159069
0.00027897672 0.0 0.005436412 -0.0025720722 0.0011579986 -0.0077162194 -0.0019290549 0.0
0.0019653554 -0.00094574655 0.00035810485 -0.0028372407 -0.0007093102 0.0 0.00013072258 -6.3027444e-05
2.4986224e-05 -0.00018908238 -4.7270594e-05 0.0 0.0011757535 -0.00059463 1.7598883e-05 -0.0017838896
-0.0004459724 0.0 0.00074829825 -0.0004122132 -0.0002489409 -0.0012366399 -0.00030915998 0.0
2.7671305e-05 -9.536314e-06 1.3127997e-05 -2.8608942e-05 -7.1522354e-06 0.0 -0.0017403245 0.0009934008
0.00019637457 0.002980201 0.00074505026 0.0 6.799589e-05 -3.4426106e-05 -2.9330356e-06 -0.000103278326
-2.5819581e-05 0.0 -0.00049313257 0.00015924763 -0.00060343504 0.00047774194 0.000119435485 0.0
0.0020522382 -0.00096669496 0.00041760836 -0.0029000845 -0.0007250211 0.0 4.236787e-05 -2.3456909e-05
-1.2788782e-06 -7.037072e-05 -1.759268e-05 0.0 0.0037897113 -0.0016198973 0.0009812667 -0.00485969
-0.0012149225 0.0 -0.0016598273 0.00074703415 -0.00064130285 0.0022411025 0.0005602756 0.0
0.00067247264 -0.0002890109 0.00021677866 -0.0008670333 -0.00021675833 0.0 -0.0014563713 0.0007786785
-0.00012371728 0.0023360352 0.0005840088 0.0 0.0010373546 -0.00044924815 0.00037304693 -0.0013477437
-0.00033693592 0.0 0.002275007 -0.0011531247 -0.00021027046 -0.0034593744 -0.0008648436 0.0
3.489214e-05 -1.9992061e-05 -4.4533022e-05 -5.997631e-05 -1.4994078e-05 0.0 -0.00059894094 0.00029452748
-0.0001682361 0.00088358216 0.00022089554 0.0 -0.00015710037 7.430278e-05 -2.4357956e-05 0.0002229083

exp_avg_sq f4 [128, 6]
00000000: 1eea 0c37 e73f b935 477a 7433 e767 5037
00000010: e767 5035 0000 0000 68ba d335 2593 8834
00000020: cf8b 0c33 83a5 1936 83a5 1934 0000 0000
00000030: 027a 0b35 fd0b b733 6169 e731 79ed 4d35
00000040: 79ed 4d33 0000 0000 d56b cb37 51f2 8036
00000050: 281e 5b34 9410 1138 9410 1136 0000 0000
00000060: 5790 ea33 c7eb 8d32 adf8 8830 3ba9 1f34
00000070: 3ba9 1f32 0000 0000 e5c7 5e36 7687 0335
00000080: 0ede 7a33 68f8 9336 68f8 9334 0000 0000
00000090: a503 1f33 9962 cc31 e0bb 0c30 eaee 6533
000000a0: eaee 6531 0000 0000 490b 4c33 ed13 0c32
000000b0: 588e 1530 7896 9d33 7896 9d31 0000 0000
000000c0: 35c6 ce35 053b 8b34 9afb 3032 69a2 1c36
000000d0: 69a2 1c34 0000 0000 bc90 0833 5b86 b131
000000e0: 17c6 8a2f 20b7 4733 20b7 4731 0000 0000
000000f0: 9b86 1137 8998 b935 1830 9633 94cb 5037
00000100: 94cb 5035 0000 0000 efc8 1232 5c22 b330
00000110: 0b83 9a2e aa86 4932 aa86 4930 0000 0000
00000120: 4fc2 2e36 fa35 dd34 0a12 8933 a8dc 7836
00000130: a8dc 7834 0000 0000 5ab4 6435 0f7e 1d34
00000140: d09c 0e32 d92d b135 d92d b133 0000 0000
00000150: 22ac b736 a02a 7235 a7f7 a533 fd37 0837
00000160: fd37 0835 0000 0000 1a6c 3432 082f db30
00000170: 7277 a72f e394 7632 e394 7630 0000 0000
00000180: f9e4 8837 ad98 3136 e7bf 2b34 cfcb c737
00000190: cfcb c735 0000 0000 82d1 4338 8345 fe36
000001a0: 30de c834 1807 8f38 1807 8f36 0000 0000
000001b0: 2fa4 9f34 8ebe 4e33 cf62 8431 6996 e834
000001c0: 6996 e832 0000 0000 9097 7135 f4fb 1034
000001d0: 3c13 d332 701b a335 701b a333 0000 0000
000001e0: a3e7 2534 7751 d632 665c 0431 b21b 7134
000001f0: b21b 7132 0000 0000 0fab d937 7441 8f36
00000200: 9c87 3f34 a529 2138 a529 2136 0000 0000
00000210: 23b1 0236 97ef a434 7e1a c532 828d 3936
00000220: 828d 3934 0000 0000 6cfc e338 ce63 9537
00000230: d4f8 8135 4b10 2839 4b10 2837 0000 0000
00000240: 2964 4e37 7572 0636 d408 c433 ba40 9737
00000250: ba40 9735 0000 0000 094f 7533 0f42 2132
00000260: fe24 fa2f 526a b533 526a b531 0000 0000
00000270: ea1f a036 8e84 4935 21d5 ec33 24b5 e236
00000280: 24b5 e234 0000 0000 fe2c 4237 082e fb35
00000290: d3d8 0e34 e449 8d37 e449 8d35 0000 0000
000002a0: 4757 8132 0860 3931 5be2 6331 068c d032
000002b0: 068c d030 0000 0000 12d2 f237 a690 9b36
000002c0: ef4b 5d34 a902 2f38 a902 2f36 0000 0000
000002d0: b700 a332 f0d9 6931 ea4f f930 958a 0333
000002e0: 958a 0331 0000 0000 57a6 0638 108a ae36
000002f0: 8a52 a734 5a5b 4438 5a5b 4436 0000 0000
00000300: e02b 2e37 ae34 e635 b7f1 b633 a87d 8137
00000310: a87d 8135 0000 0000 3d94 8832 d238 3131
00000320: ca58 e230 ec5f c732 ec5f c730 0000 0000
00000330: 4e79 3438 89a3 f036 dd9c 0035 fa5b 8738
00000340: fa5b 8736 0000 0000 158d 0938 77be b136
00000350: 383d cd34 31f6 4738 31f6 4736 0000 0000
00000360: 12be 2136 1d94 d434 c645 df32 ab26 6f36
00000370: ab26 6f34 0000 0000 3a1d 3137 9cff de35
00000380: d5a7 b933 85df 7a37 85df 7a35 0000 0000
00000390: 936a 1837 14a5 c735 5dc3 c233 c499 6037
000003a0: c499 6035 0000 0000 1dfe ae37 adfd 6736
000003b0: 2423 1e34 b77e 0238 b77e 0236 0000 0000
000003c0: 9f73 4c34 6a5e 0733 6148 fc30 3c4a 9834
000003d0: 3c4a 9832 0000 0000 354f 5936 c5fc 0335
000003e0: 1aad bb33 5f7c 9436 5f7c 9434 0000 0000
000003f0: fa04 5934 67fa c832 809e b632 8b19 6234
8.39916e-06 1.3802172e-06 5.6921888e-08 1.2421958e-05 7.7637236e-07 0.0 1.5774976e-06 2.5439036e-07
3.2723445e-08 2.2895117e-06 1.4309448e-07 0.0 5.195908e-07 8.523782e-08 6.734965e-09 7.671402e-07
4.7946262e-08 0.0 2.4249699e-05 3.8429066e-06 2.0406935e-07 3.4586134e-05 2.1616333e-06 0.0
1.09227294e-07 1.652178e-08 9.96598e-10 1.4869595e-07 9.293497e-09 0.0 3.3196932e-06 4.8998425e-07
5.840962e-08 4.4098597e-06 2.7561623e-07 0.0 3.7023387e-08 5.9483907e-09 5.119869e-10 5.353551e-08
3.3459693e-09 0.0 4.7507715e-08 8.153603e-09 5.4408167e-10 7.338252e-08 4.5864077e-09 0.0
1.5405882e-06 2.593371e-07 1.0301756e-08 2.3340347e-06 1.4587717e-07 0.0 3.1796603e-08 5.1666524e-09
2.5242805e-10 4.649985e-08 2.9062406e-09 0.0 8.674014e-06 1.3827968e-06 6.9936675e-08 1.2445165e-05
7.7782283e-07 0.0 8.5440055e-09 1.303373e-09 7.026387e-11 1.1730359e-08 7.3314743e-10 0.0
2.6041123e-06 4.120373e-07 6.382841e-08 3.7083319e-06 2.3177074e-07 0.0 8.5199065e-07 1.4667624e-07
8.301143e-09 1.3200871e-06 8.2505444e-08 0.0 5.473864e-06 9.021405e-07 7.728459e-08 8.1192675e-06
5.074542e-07 0.0 1.0501958e-08 1.5947714e-09 3.0461994e-10 1.43529375e-08 8.970586e-10 0.0
1.6319087e-05 2.6463924e-06 1.599543e-07 2.3817554e-05 1.4885971e-06 0.0 4.6686742e-05 7.577882e-06
3.7414566e-07 6.820093e-05 4.262558e-06 0.0 2.9735517e-07 4.813642e-08 3.852939e-09 4.3322805e-07
2.7076753e-08 0.0 9.000005e-07 1.3502705e-07 2.457238e-08 1.2152432e-06 7.59527e-08 0.0
1.5451091e-07 2.4949925e-08 1.926105e-09 2.245495e-07 1.40343435e-08 0.0 2.5948071e-05 4.269352e-06
1.7837596e-07 3.8424176e-05 2.401511e-06 0.0 1.9474617e-06 3.0721705e-07 2.2945866e-08 2.7649517e-06
1.7280948e-07 0.0 0.00010871221 1.780866e-05 9.683667e-07 0.00016027798 1.0017374e-05 0.0
1.2301877e-05 2.0034179e-06 9.128567e-08 1.8030743e-05 1.1269215e-06 0.0 5.711539e-08 9.386453e-09
4.550102e-10 8.447809e-08 5.2798805e-09 0.0 4.772087e-06 7.507123e-07 1.1028374e-07 6.7564124e-06
4.2227578e-07 0.0 1.1573777e-05 1.8714354e-06 1.3303661e-07 1.6842918e-05 1.0526824e-06 0.0
1.5057266e-08 2.697563e-09 3.3161516e-09 2.4278062e-08 1.5173789e-09 0.0 2.894647e-05 4.6361993e-06
2.0609853e-07 4.172573e-05 2.607858e-06 0.0 1.8976023e-08 3.4029846e-09 1.8139847e-09 3.0626854e-08
1.9141784e-09 0.0 3.2103006e-05 5.2016767e-06 3.116623e-07 4.681512e-05 2.925945e-06 0.0
1.0381424e-05 1.7151667e-06 8.519003e-08 1.5436512e-05 9.64782e-07 0.0 1.5899895e-08 2.5789189e-09
1.64689e-09 2.321027e-08 1.4506418e-09 0.0 4.3028318e-05 7.1715954e-06 4.791198e-07 6.4544336e-05
4.034021e-06 0.0 3.279474e-05 5.297184e-06 3.8228768e-07 4.767458e-05 2.9796613e-06 0.0
2.4101505e-06 3.9595844e-07 2.5992346e-08 3.5636283e-06 2.2272677e-07 0.0 1.0556827e-05 1.6614681e-06
8.645262e-08 1.4953203e-05 9.345752e-07 0.0 9.08472e-06 1.48747e-06 9.069365e-08 1.3387242e-05
8.367026e-07 0.0 2.0860747e-05 3.456934e-06 1.4727681e-07 3.1112428e-05 1.9445267e-06 0.0
1.9041043e-07 3.1518006e-08 1.8355985e-09 2.836622e-07 1.7728887e-08 0.0 3.2381624e-06 4.916913e-07
8.739353e-08 4.4252224e-06 2.765764e-07 0.0 2.021151e-07 2.3396934e-08 2.1259666e-08 2.1057183e-07

exp_avg f4 [128]
00000000: a19f 55ba 78c9 a1b9 479c ffb6 3906 ad3a
00000010: 022c 6938 a90b 9339 1b41 6fb8 413c b3b8
00000020: 6dc5 ebb9 bdd2 57b8 c182 5339 370c b1b7
00000030: 98b1 b9b8 0f66 d2b9 68bf 42ba 4efa e2b7
00000040: 00e5 9738 7def b93a 4c2f a438 169a bf38
00000050: 3b35 e437 2b4d dfba d604 c339 3890 28bb
00000060: fceb 77ba 9a2d 84b8 f2e0 1bba 601e d8b9
00000070: 19fe 1fb7 0035 823a c264 10b8 c0fb 2639
00000080: ca69 7dba 56c5 c4b7 b652 d4ba 9dd4 433a
00000090: 6686 97b9 3920 4c3a 0e89 ebb9 6e24 97ba
000000a0: c1b4 a7b7 cc6a 9a39 02d3 9b38 6420 07b9
000000b0: 5333 1b39 bdea b43a 3b2b c139 4d21 3dbb
000000c0: e844 7eb9 56f7 a33a 36b9 c139 1fa7 f537
000000d0: 0788 ae39 553a 3736 6a02 7a37 841b b5b7
000000e0: 9d76 a2ba e16f 3539 8f89 c3b6 fc68 6339
000000f0: e49e f338 cabc 65b7 8ef4 0dbb bf72 94b9
00000100: a89b 30bb 70d9 c2b9 5343 bcb7 94e2 0b37
00000110: 701e 153a dfa7 c037 1849 f9b9 bb2a ab35
00000120: 3ae2 c33a f9bd 98b8 0851 22b8 4216 71ba
00000130: 3923 0538 069d 353a 0a32 04b9 9d1b 42ba
00000140: b49c 9738 fabf f239 9e0e 0db8 1ba2 e2b9
00000150: 8a40 82b9 aa81 8ab9 81ea 8f39 fbb9 0738
00000160: 1498 443a 3aa8 6837 0931 25bb 8b5a a5b9
00000170: 435a 8b3a b169 5bb9 cca1 e3b9 4924 86b8
00000180: c220 403a 82e1 9eba 7862 88b8 7667 caba
00000190: 3ba3 b439 9ab2 abb8 24e2 643a c4a7 87b8
000001a0: 4df1 973a a0eb 1bb8 e899 9239 1982 123a
000001b0: 7513 deb7 d28c 3a3a 56d6 09ba c615 a23a
000001c0: 5a39 9f37 933e e239 c478 913a 64a3 8fba
000001d0: ff16 4eb9 a70e 8cb6 bd28 60b7 d91f 4eba
000001e0: a12b 3bbb e6a7 5f3a fade 19b9 8581 bcba
000001f0: a2a0 ebb6 c0cb 34bb 53c0 3b39 298d 68ba
-0.0008149092 -0.0003085842 -7.6177853e-06 0.0013200707 5.5592514e-05 0.00028046712 -5.7042675e-05 -8.546608e-05
-0.00044969787 -5.145626e-05 0.00020171238 -2.1105732e-05 -8.854567e-05 -0.0004013036 -0.00074290344 -2.7057857e-05
7.242896e-05 0.0014185753 7.828939e-05 9.1362905e-05 2.7204505e-05 -0.0017036548 0.000371969 -0.0025720727
-0.00094574667 -6.3027444e-05 -0.00059463 -0.00041221362 -9.5363e-06 0.0009934008 -3.4426113e-05 0.00015924778
-0.0009666948 -2.3456912e-05 -0.0016198966 0.00074703415 -0.000289011 0.0007786784 -0.00044924807 -0.0011531243
-1.9992121e-05 0.0002945274 7.430279e-05 -0.0001288667 0.00014801072 0.0013802868 0.00036844038 -0.002885896
-0.00024248997 0.0012509625 0.00036949822 2.9284098e-05 0.00033289214 2.7303079e-06 1.4901723e-05 -2.1589694e-05
-0.0012394969 0.00017303183 -5.827467e-06 0.00021687517 0.000116167386 -1.36934195e-05 -0.0021660659 -0.00028314252
-0.0026948247 -0.00037164567 -2.2442697e-05 8.3378e-06 0.00056884345 2.2966355e-05 -0.0004754744 1.2752929e-06
0.001494474 -7.28331e-05 -3.8699276e-05 -0.0009196737 3.1742475e-05 0.00069280004 -0.00012607142 -0.00074046274
7.229429e-05 0.0004630087 -3.3630633e-05 -0.00043226857 -0.00024843618 -0.00026418018 0.00027449804 3.2359716e-05
0.0007499468 1.3867446e-05 -0.002520623 -0.00031538712 0.0010631758 -0.0002092484 -0.00043417362 -6.3963766e-05
0.00073291 -0.001212165 -6.5033266e-05 -0.0015442211 0.00034453892 -8.1871825e-05 0.00087312073 -6.4685504e-05
0.0011592299 -3.7174323e-05 0.0002796196 0.0005588844 -2.6473523e-05 0.0007116321 -0.0005258074 0.0012366108
1.8980983e-05 0.000431527 0.0011098613 -0.0010958728 -0.00019654258 -4.174031e-06 -1.3360926e-05 -0.0007863022
-0.002855994 0.0008531794 -0.00014674282 -0.0014381862 -7.022246e-06 -0.0027587265 0.00017905356 -0.0008871132

exp_avg_sq f4 [128]
00000000: ed3f b935 2593 8834 fd0b b733 51f2 8036
00000010: c7eb 8d32 7687 0335 9c62 cc31 ed13 0c32
00000020: 013b 8b34 5d86 b131 8598 b935 5c22 b330
00000030: 0236 dd34 107e 1d34 9e2a 7235 052f db30
00000040: b298 3136 8445 fe36 8cbe 4e33 f4fb 1034
00000050: 7651 d632 7241 8f36 9bef a434 ce63 9537
00000060: 7572 0636 1242 2132 8c84 4935 052e fb35
00000070: 0560 3931 a490 9b36 ebd9 6931 128a ae36
00000080: ac34 e635 cd38 3131 87a3 f036 7abe b136
00000090: 1f94 d434 9aff de35 17a5 c735 adfd 6736
000000a0: 6b5e 0733 c6fc 0335 60fa c832 5fdc d932
000000b0: 87e6 2f33 5945 8536 366c c435 872e 3637
000000c0: f93e f435 5de7 4f36 3e00 1536 c3a3 e633
000000d0: 6d39 6a36 e82d 9a2e 90b1 4a32 bdc5 3831
000000e0: 993e a536 6b3c 1834 35e5 3a30 3bef 0236
000000f0: b1f3 3935 3b63 e434 ced6 c636 5716 4234
00000100: 7a31 2537 304b 7035 cb7a 0131 1bf3 f230
00000110: 7849 9435 165b 1831 71d6 c235 4ed7 f230
00000120: e98a b936 2895 1b32 c852 4331 3862 b635
00000130: 3a36 8e31 ddfe 5636 d476 d436 7bed 8435
00000140: 7693 8b34 37b5 c536 6c73 d831 efa9 0d35
00000150: f8f4 3634 bb09 ec33 8732 d936 ead4 9431
00000160: 8568 3236 029e 9132 8698 0e37 269f 8534
00000170: 7ac7 c736 91b7 9b35 dc00 8335 66d1 a832
00000180: f51f d535 d5d3 4336 23c8 7432 5e12 8e36
00000190: 5462 8835 266f 3a32 f3f9 f435 c32f 9b31
000001a0: 2110 df36 b158 e530 f72c 0235 14c0 9635
000001b0: 70fa e931 d6e0 ee35 6381 9536 2b1d 8736
000001c0: ccde 3a32 d96b a834 4920 5a36 d53f 2736
000001d0: 26a7 1737 f4fc f730 631c f22f db75 9d35
000001e0: 76ff 2537 4575 0136 2977 a232 f161 8a36
000001f0: 1c90 fc2e 013c 3737 3c7e 8e35 2112 9d36
1.3802179e-06 2.5439036e-07 8.523782e-08 3.8429066e-06 1.652178e-08 4.8998425e-07 5.948392e-09 8.153603e-09
2.5933699e-07 5.1666533e-09 1.3827963e-06 1.303373e-09 4.1203754e-07 1.4667626e-07 9.021404e-07 1.5947711e-09
2.6463936e-06 7.5778826e-06 4.8136414e-08 1.3502705e-07 2.4949923e-08 4.269351e-06 3.0721716e-07 1.780866e-05
2.0034179e-06 9.386456e-09 7.5071216e-07 1.8714351e-06 2.6975624e-09 4.6361984e-06 3.4029835e-09 5.2016776e-06
1.7151665e-06 2.5789177e-09 7.1715945e-06 5.2971855e-06 3.959585e-07 1.6614679e-06 1.4874703e-06 3.456934e-06
3.151801e-08 4.9169137e-07 2.3396922e-08 2.5362338e-08 4.0955026e-08 3.971782e-06 1.4634631e-06 1.0858878e-05
1.8197744e-06 3.0980075e-06 2.2202871e-06 1.0739998e-07 3.4902143e-06 7.011264e-11 1.17983205e-08 2.6887925e-09
4.9246705e-06 1.4178083e-07 6.799213e-10 1.951076e-06 6.927249e-07 4.254051e-07 5.9258664e-06 1.8075785e-07
9.846286e-06 8.951638e-07 1.884177e-09 1.7676912e-09 1.1048242e-06 2.2170688e-09 1.4516537e-06 1.7669011e-09
5.529601e-06 9.056102e-09 2.842329e-09 1.3588642e-06 4.1389088e-09 3.2036835e-06 6.3319258e-06 9.903882e-07
2.599806e-07 5.8921537e-06 6.2995493e-09 5.277388e-07 1.703919e-07 1.0991376e-07 6.472986e-06 4.3315724e-09
2.6584905e-06 1.6952075e-08 8.499372e-06 2.4888976e-07 5.9538843e-06 1.1601825e-06 9.760511e-07 1.9652997e-08
1.5879037e-06 2.9180567e-06 1.4248175e-08 4.234068e-06 1.0161407e-06 1.0851897e-08 1.8252161e-06 4.5165236e-09
6.6477955e-06 1.668715e-09 4.8494206e-07 1.1231773e-06 6.809664e-09 1.7797818e-06 4.4556086e-06 4.026709e-06
1.0877283e-08 3.1370908e-07 3.2503324e-06 2.4922094e-06 9.039219e-06 1.8043509e-09 4.4039714e-10 1.1731712e-06
9.8942455e-06 1.9290758e-06 1.891347e-08 4.1241224e-06 1.1485232e-10 1.0921621e-05 1.0616563e-06 4.681075e-06
