results/ppo/MoveToGoal/MoveToGoal-41185.onnx (onnx, 72461 bytes, 7 tensors)

action_model._continuous_distribution.log_sigma f4 [1, 2]
00000000: c2bd 7c3b e98e 61bb
0.0038565253 -0.0034417456

action_model._continuous_distribution.mu.bias f4 [2]
00000000: a65b 0b3b 0501 5fbb
0.0021264344 -0.0034027707

action_model._continuous_distribution.mu.weight f4 [2, 128]
00000000: 316f b23c 4fe6 71bc c560 d33c 60be b8bc
00000010: 71fe 8e3a e9a7 62bc dca6 d5bc 6b8d 283b
00000020: fc1c b938 0b48 123c 00ae 203c 5eeb d7bb
00000030: ec63 8abc 313e 403b 4014 dfbc c91a dbbc
00000040: d389 0abc 8905 a5ba c578 f63a 5cfa 993a
00000050: 8dd0 d43c 265d ca3b 5e27 163c 3f1d 13bd
00000060: 3c70 e3bb f9dc b3bc bcd8 1fbb f724 a73c
00000070: 40d4 c03c 822b 713c e8d0 483c 521a acbb
00000080: c7b8 9abc df8c 08bd 09ff 9abc 247c d6ba
00000090: 033d c73c f4ca 4e38 d0eb c43b 9f7e e63c
000000a0: d729 3e3c 4fce a2bc 10d5 46bc f0ff c03c
000000b0: db61 08bc c7c0 00bd 06ec b6bb d762 233c
000000c0: f5f9 273d 2027 2bbc 37e4 cb3b 8d4a af3c
000000d0: 19a6 423c 2937 15bd 84b4 2cbb 98c2 54bb
000000e0: 4cf5 4f3b 5e5e d93a b17f 0dbc 0a23 5a3b
000000f0: aa43 8d3b 5a66 2cba 4c60 1b3c f2c1 c03c
00000100: 04d0 313c 9e33 1fbc 5e58 90bc 1db5 11bd
00000110: 11c0 8d3c 8615 48bc e5c6 9a3a 095f 843c
00000120: a3c4 5b3c b146 33bc 127d e03c 9da7 26bd
00000130: 9584 c8bc 99dc 163c a4df 093c b106 2a3b
00000140: 45b1 e03c 73c8 03bc de69 dd3a b42d a7bb
00000150: 6496 3cbb c36b 703c a270 5a3c c2c6 da3b
00000160: e855 07bc 0fae 073b 570b c7bc 7723 ab3b
00000170: 7c87 113c 933a 03bc 6311 08bd 686d 4dbc
00000180: e507 a2bb f694 1abd 3297 8abc 16ae bd3b
00000190: 183c 6d3d dafa dfba c41d dc3b deec aa3c
000001a0: e51b 09bc 01b2 023b b991 dabb ecc2 0fbc
000001b0: 6f03 16bd 3314 40bc 52f5 a7b7 91dc c83c
000001c0: d840 59bb 2f36 133c fc6e 4c3c cf6a 28bb
000001d0: 9109 563c c42d 04bc 7e85 efbc e614 9d3c
000001e0: e3e5 a339 0f8f 2ebc 58a6 a83c 383c 9ebc
000001f0: 7304 abbc dada 813c fe00 47bb 8c59 38bc
00000200: a42d 2dbb 0d0d ab3b 7c23 85bc 4b1b 5d3c
00000210: c5e4 a93c 16e3 5e3c f3d1 eebc e775 2f3b
00000220: e0ed 94ba 56d5 82bc e3eb bcbb 4cee fabb
00000230: 8b0a a6bc 02f2 a83b aadf 933c b6b7 4b3c
00000240: b55f 963b e9cd 23bc c603 523c b2af edba
00000250: 57de b43c 1634 adbc 4dbd ec3c 41c4 0b3d
00000260: df0c 9c3c 0fa5 31bc 8986 c5bb 01b3 9f3c
00000270: 7ca3 193d 39bc 9fbc d690 0abd d0f4 c33c
00000280: 59d2 82bc b8f8 c03c 9eec 6bbb 396c babc
00000290: 1a76 f1ba 6907 55bb 727f 1ebc a684 bfbc
000002a0: e3a4 3d3c 4661 71bc 3eee e43c c4ad 6cb9
000002b0: 1a0f 94bc 4b3a 0ebc 2565 86bc 8aa6 79bc
000002c0: 5a16 9bbc 2939 173d df8a b33b 104c f73b
000002d0: 26e2 8d3a 34db e63b 3cec 1cbc 1245 3d3c
000002e0: 1b52 ddbb d05c 0cbc 7200 bd3c c861 9f3a
000002f0: 0d4e ec3b f273 3c39 e577 59bc 339f 3f3c
00000300: 055d 503c 7c17 0dbd b95f d93b ae63 1fbb
00000310: d9c5 9fbc 6b5f dfbc ee5e 42bd c1d7 01bb
00000320: 4c7b 5e3a e0ad 62bc 2ebf 09bc 0e07 0f3d
00000330: 3e8c 91bc e386 753b 48b9 e8bb 841b 9bbc
00000340: ad18 1f3c 491c 0bbd 376e 143c a9a0 d23c
00000350: 45fc ea3c d125 b6bc a59f 72bc afac beba
00000360: 182d 22bc d217 dabb 5d93 babb a750 58bc
00000370: d8d9 a5bb 0ab8 85bc 871d 953c 2aa6 6b3b
00000380: 31c1 82bb cce0 8abc 1486 10bc 6c24 d6bb
00000390: 4f3f 47bb 149a 98bc 0af0 b03b 867e 2d3a
000003a0: 71d8 e33b 7cd4 0f3b 7dde 92bc a45b 013c
000003b0: 731d 9e3c 7058 b8bc 927f b23c 30bb 373c
000003c0: 9d49 d43c 07f2 f3bc 1f85 4a3c 048d 50bc
000003d0: 04d3 14bd 7df5 b2bc 3fd5 c3bc 64ee 493b
000003e0: 5c32 813c 5789 02bc 9c1e 423d 7bcb 08bc
000003f0: 333e e63c 44cd 0fbc 5c7d 02bc 6398 823c
0.021781536 -0.0147643825 0.02580298 -0.022551715 0.001090957 -0.013833978 -0.026080541 0.0025719057
8.826886e-05 0.008928309 0.00980711 -0.0065893373 -0.01689335 0.0029333944 -0.027231336 -0.02674617
-0.008455711 -0.001259015 0.0018804303 0.0011747587 0.025978351 0.006175655 0.009164659 -0.035916563
-0.0069408696 -0.021955954 -0.0024390658 0.020403368 0.023538709 0.014719846 0.012256838 -0.005252161
-0.018886937 -0.03333747 -0.018920438 -0.0016363901 0.024321085 4.9303242e-05 0.0060095564 0.02813655
0.011606655 -0.019873766 -0.012135759 0.02355954 -0.008324112 -0.031433847 -0.0055823354 0.009972296
0.041009862 -0.01044634 0.0062222737 0.021397853 0.011880421 -0.036429558 -0.0026352713 -0.003246462
0.0031731902 0.001658391 -0.008636401 0.0033285045 0.0043110447 -0.0006576531 0.009483408 0.02352998
0.010852817 -0.009716896 -0.017620262 -0.035573114 0.017303498 -0.012212163 0.0011808543 0.016158598
0.013413581 -0.010942147 0.027403388 -0.040687192 -0.024477283 0.009207868 0.0084151365 0.002594393
0.027428279 -0.008043396 0.0016892513 -0.005101884 -0.0028776163 0.01467413 0.013332518 0.006676526
-0.008260228 0.0020703112 -0.0242974 0.0052227336 0.0088824 -0.008009571 -0.033219706 -0.0125382915
-0.0049447888 -0.037739716 -0.016917799 0.005788575 0.057918638 -0.0017088309 0.0067174155 0.0208649
-0.008368467 0.0019942524 -0.0066702035 -0.0087745 -0.03662437 -0.011723566 -2.0022188e-05 0.024519237
-0.0033150222 0.008985086 0.012477633 -0.0025698429 0.013063804 -0.008067552 -0.029238459 0.019175004
0.00031261062 -0.010654225 0.020587131 -0.019315824 -0.020876145 0.015851427 -0.0030365582 -0.011251818
-0.002642491 0.0052200616 -0.016252272 0.013495277 0.020738969 0.013603946 -0.029152846 0.0026773156
-0.0011362396 -0.015970867 -0.0057654246 -0.0076578017 -0.0202687 0.0051558027 0.018050987 0.012433937
0.004589046 -0.009997823 0.0128182825 -0.0018134026 0.022078676 -0.021143 0.02889886 0.03412271
0.019049106 -0.010842576 -0.0060280007 0.019494535 0.037509426 -0.019498931 -0.033829533 0.023920447
-0.015969442 0.023556098 -0.003599919 -0.022756683 -0.0018422038 -0.0032505638 -0.00967394 -0.023378681
0.011574957 -0.014732664 0.027945634 -0.00022571447 -0.018073607 -0.00868089 -0.016405651 -0.01523746
-0.018931556 0.036919747 0.005479201 0.007546909 0.0010824844 0.007045174 -0.009577807 0.011552112
-0.0067541725 -0.00856705 0.023071501 0.0012159878 0.007211453 0.0001797227 -0.013273214 0.011695671
0.01271749 -0.034446225 0.0066337255 -0.0024320888 -0.01950352 -0.027267179 -0.047453813 -0.0019812437
0.00084870006 -0.0138354 -0.008407397 0.034918837 -0.017767068 0.0037464432 -0.0071021654 -0.018934019
0.009710473 -0.03396252 0.00905948 0.025711374 0.028684745 -0.02223483 -0.01480857 -0.0014547313
-0.0098984465 -0.0066556716 -0.0056938366 -0.013202823 -0.0050613694 -0.016323108 0.018202556 0.0035957196
-0.0039903154 -0.016952895 -0.008821029 -0.0065351035 -0.0030402725 -0.018628158 0.0053997086 0.000661828
0.006953292 0.002194672 -0.017928356 0.007895384 0.019301152 -0.022503108 0.021789346 0.011214063
0.025914008 -0.029778494 0.01236084 -0.012728933 -0.036334053 -0.021845574 -0.023905395 0.0030812258
0.015771084 -0.007967315 0.047392473 -0.008349295 0.02810583 -0.0087769665 -0.007964458 0.015941804

network_body._body_endoder.seq_layers.0.bias f4 [128]
00000000: 5e08 2f3b e145 d5bb 3bc6 75bb be8a 21bb
00000010: 60ad 84bb 314c 59ba 4cc6 6fbb 1d47 24bb
00000020: 3862 eeba a25f e63a 89d2 b3bb 1eae 55bb
00000030: a8d2 9d3b b0be 33ba 7b70 21bb 9a8a e839
00000040: 0c56 9abb 5b12 71bb 4771 51bb d274 893a
00000050: 2820 6a3a ec77 82bb 7dab f7ba eed8 e1ba
00000060: d9ed 72bc 7f80 0bba 68df 1ebb fbea e139
00000070: 9a5e 1dbc 078b d73a 20cb 593b a79a 22bb
00000080: b7a7 b4bb 5dec a03b 1f80 0a3b bbe2 063b
00000090: e3b8 343c 1075 103b f5ed 7b39 6b4b 2d3b
000000a0: c0fd 2d3a 8b10 643b 40bb 123b 644a 11b9
000000b0: f5d2 81ba 30e1 82ba a9c4 2f3b d80a 40bb
000000c0: e1e8 90bb 2d5c 633b 0d85 adbb 45c6 a73a
000000d0: 8dfb 06bb c5fd 1b3a fad1 70bb 3dc2 2b3b
000000e0: 655d 5d3b d7c8 923a 1013 c339 130b 4338
000000f0: 9bc6 0e3b 578b 86bb a840 01bb a310 8aba
00000100: 8fd2 16b9 2ec4 a63a e925 c0bb 4515 223b
00000110: 7ef6 dbba a8f5 5ebb 05ad 9cba a9a7 74bb
00000120: be7e 58bb 34d6 40bb 9ad5 fab9 4335 b0b9
00000130: 0a8f 1dba 7b4b 1fbb c13a be3a 030b 35bc
00000140: 6eb2 72bb f967 a13a 09a4 303b 8b5b 8d3b
00000150: 0e5a 68bb 0d4f 643b 5281 0aba b643 3e3a
00000160: 63ee 07bb cd57 5f3b ab1d febb dff3 173b
00000170: d44d 12bc ee0a 923c 20e7 4ebb d1fa 903a
00000180: 04d5 9a3b 0f9e 803b a7b7 853b 54fe 7f3b
00000190: 8dc5 5f3a af21 443b 3746 28b9 b124 563b
000001a0: 8ea0 a0bb 76f9 e73a df9f c9ba 70c3 a9bb
000001b0: 9490 b9bb 8d81 aebb 4260 5dbb ec8c 9c3a
000001c0: 1c73 133b 02bb 9e3b c8f4 f4ba 80f2 08b9
000001d0: a079 463b 906b 8e3b 50ac 233b 34aa 30bb
000001e0: 2849 68bb b0c9 68bb ad41 693b 82cf 603b
000001f0: 26bb 63bb 4aa9 ac3a 0b6a 5b3b 71d5 22bc
0.0026707868 -0.0065085744 -0.0037502188 -0.0024649347 -0.004048988 -0.00082892465 -0.00365867 -0.00250668
-0.001818723 0.0017576108 -0.005487744 -0.0032605003 0.004816372 -0.0006856723 -0.0024633694 0.00044353754
-0.0047099646 -0.0036784622 -0.0031958388 0.0010487086 0.0008931183 -0.003981581 -0.0018895712 -0.0017230788
-0.014827215 -0.00053215766 -0.0024242047 0.00043090418 -0.009605074 0.0016444632 0.0033232644 -0.0024811418
-0.005513157 0.004910989 0.0021133495 0.002058192 0.011030409 0.002204243 0.00024025871 0.0026442658
0.0006637238 0.00347999 0.0022389442 -0.0001385599 -0.0009904789 -0.0009985324 0.00268201 -0.0029303338
-0.0044222926 0.0034692392 -0.005295402 0.0012800178 -0.0020596713 0.00059505954 -0.003674625 0.0026208304
0.0033777591 0.0011198771 0.000372075 4.6501937e-05 0.0021785859 -0.004105966 -0.0019722376 -0.0010533523
-0.00014383554 0.0012723261 -0.0058638942 0.0024731916 -0.0016781834 -0.0034020934 -0.0011953419 -0.0037331379
-0.0033034529 -0.002942455 -0.0004784286 -0.0003360902 -0.0006010389 -0.0024306464 0.001451336 -0.011049989
-0.0037032622 0.0012314311 0.0026953241 0.0043138913 -0.0035454067 0.0034837157 -0.00052835525 0.00072580145
-0.0020741455 0.0034079433 -0.0077550015 0.002318613 -0.0089296885 0.017827477 -0.0031570867 0.0011061077
0.0047251005 0.003925092 0.004080731 0.0039061503 0.0008536212 0.0029927304 -0.00016047886 0.0032675678
-0.004901952 0.0017698247 -0.0015382728 -0.0051807687 -0.005662987 -0.0053255023 -0.0033779298 0.0011943853
0.002249903 0.0048440704 -0.0018688673 -0.00013060309 0.0030284896 0.0043463185 0.0024974532 -0.0026956918
-0.0035443995 -0.0035520606 0.0035592124 0.0034303372 -0.0034749 0.0013173011 0.0033479955 -0.009938584

network_body._body_endoder.seq_layers.0.weight f4 [128, 6]
00000000: b074 d43e 6613 f6be a7ce ca3d 9230 0dbc
00000010: 4dee 30bd b3a6 2f3d 6f8d 04bf 9185 36be
00000020: e0ad 833e a219 3abe d069 aabe b768 c73c
00000030: 68f8 ef3e 3e88 583e 1179 86be 03d6 2dbe
00000040: 60ad 103b 8744 9c3e e29b 04bf 2eed af3e
00000050: 8050 2a3f a199 a0bc 5f22 6abe 9c21 88bd
00000060: dd23 7fbe 5944 09bf 36db 9bbe 62d4 b1be
00000070: 91ae 0f3f ba58 5e3e 5336 14be 20e4 1e3f
00000080: fa51 94bc 831a 3f3e 0a31 3a3e ed3e b13f
00000090: 8052 893e 1adf b73b bad5 3a3c 8ef1 693e
000000a0: d9fc b5be dff1 d3be b2a0 093f 01fe abbd
000000b0: 3ef3 9a3e d3f6 b6bd c533 173f ca7e 1c3d
000000c0: 06c4 eabe a5ac 57be 03e3 0bbf f069 753d
000000d0: 262d 633e df9e 9cbe 9241 0dbe 507b d13d
000000e0: c0b4 553f c820 c73e 1146 803c 573f 6cbe
000000f0: 6143 95bf ed3a a73e caaf d5bd f190 323e
00000100: 1fcb af3e 1cd9 923e cdc5 1cbf f442 5abe
00000110: a455 6a3e c748 4d3e 948b aa3c 91b0 6bbd
00000120: 396a 4a3e ae09 81be d46c 2fbe 2b1e cc3c
00000130: 3ceb d73e 4d25 bc3e ba20 eebe 10d5 88b9
00000140: 8cc9 9f3e f6e5 e3be a292 163d ab4d 15bf
00000150: 02d1 f1bd 1e7b 75bc 227d 4a3e 2f34 12bf
00000160: 752f f3bd a126 18bf 8ba5 c4bd 603f b73e
00000170: 598d d33e cb18 f73e a91d b63e 3645 abbd
00000180: 3dda 21bf 0add 53bd e8a5 163e 7d5f 5abc
00000190: 6a84 2f3f 73b0 d8bd 6757 343e 938e 3e3d
000001a0: b488 14be 5e9e 3fbf 5b62 19bf c14d 133f
000001b0: 4a6e bcbe 491c 493f b660 943e 556d 1ebf
000001c0: 74ea 0abe 987b bebe 5aa9 133f 01cb 2d3f
000001d0: 17aa 22bf af65 903e d865 39be 8e7c 83bd
000001e0: 2f8e 62be dcd1 473f 062f 653d d32a 153f
000001f0: 6aa7 683e df73 8abe 9e96 2cbe ed33 373f
00000200: af21 03be 6362 4e3e ec9a 86be 40ad cabd
00000210: 20c2 3bbd b5c0 38be f74f 3bbe 4798 03be
00000220: d036 713e 3e9a 443e b3aa cebe cf61 86bd
00000230: 97e3 7dbd e847 a83d 462b 353e efae 24be
00000240: a1d3 183f 2d44 0dbf 5b9f 6dbf cef2 14be
00000250: 0545 e33e 5b9b 103f 6949 9a3d 6974 9e3a
00000260: 2311 a2be aeb5 b33e cace 2dbf 24fc 77bf
00000270: cc44 223d f3cf c0be 7738 843f ac51 32bb
00000280: 37c8 03bf 7607 533f 919a 27be 6023 2abe
00000290: 87b0 913d a060 1dbe 32ea b0bb 6be4 1ebf
000002a0: 6f0a 5c3e 8321 73bf 98c0 eb3e 7b90 993d
000002b0: ec84 e93d a3e3 ffbc af3e 66bf 2daf c73e
000002c0: ba73 643e d686 6ebe ae29 e33e cf7c 0fbf
000002d0: 9c14 c5be 39a7 62bd 068c 683e 7dd7 803d
000002e0: e85b b5be 9749 173e 09e2 873d adb5 2bbf
000002f0: d165 3b3e e96e f8bd 3881 603f c8d0 a03e
00000300: fca1 903e 1a2e c1bd 1f0d af3e c7ef 5ebe
00000310: 59f0 61be fffa 803f 0219 b93f 8b17 a7bd
00000320: 4afd d5bd 2164 9fbe e15b 963c d406 1bbe
00000330: 2b69 f0bd de34 7dbe 49a4 43bd 4792 b13e
00000340: a4e3 93be c3cf 1a3f b2f5 6dbe 2453 b5bd
00000350: 9784 a4bd 03b5 e6be a9ae 153e 2d7a 0cbe
00000360: babd b13e 1074 0bbd bb4b 11bf b34d 163e
00000370: eb3c 0fbf b027 9bbe 8b17 dbbe 12d2 b43e
00000380: c620 8cbd e1e8 b4bd ad8c 0bbe bba8 b8be
00000390: a0ef 433f 15e0 9c3d a534 afbe 0e04 ab3e
000003a0: 3514 4fbd fc57 b13e 9dfd d6bc 6457 67be
000003b0: 8b4f 1dbe f341 e13d b52e ffbe db06 f43e
000003c0: f53f 5fbf b1e9 d03e 65fd a9be c900 1abf
000003d0: 0d31 6b3e beac 1b3e c8ca 42be e923 6abf
000003e0: 9fc5 56bc db68 76bf 7fa6 96be 2028 48be
000003f0: 3402 cd3d 2a3e 3c3e ba73 61bd ede7 a7be
0.41495275 -0.48061675 0.09902697 -0.008617537 -0.04319601 0.042883586 -0.5177831 -0.17824389
0.25718594 -0.1817384 -0.33283854 0.024341924 0.46869206 0.21145722 -0.2626424 -0.1697617
0.0022075996 0.30521032 -0.5180036 0.3436064 0.66529083 -0.019604506 -0.22864674 -0.066470355
-0.24916025 -0.53619915 -0.30440682 -0.34732348 0.5612574 0.21713534 -0.14473848 0.6206684
-0.018105496 0.18662457 0.1818277 1.3847328 0.26820755 0.0056113126 0.011403495 0.22846052
-0.3554447 -0.4139547 0.53760827 -0.08398057 0.30263704 -0.08933797 0.5906337 0.038206853
-0.4585268 -0.21061952 -0.5464327 0.059915483 0.22185192 -0.3058996 -0.13794544 0.10228598
0.8347893 0.38892198 0.01565841 -0.23071037 -1.1661187 0.32662144 -0.1043392 0.17438103
0.34334657 0.28681266 -0.6123932 -0.21314603 0.22884232 0.20047294 0.02081851 -0.057541434
0.19767083 -0.25202698 -0.17131358 0.024916729 0.42171657 0.36747208 -0.46509343 -0.00026098685
0.31208456 -0.44511384 0.036760934 -0.58321637 -0.11807443 -0.014982967 0.19774297 -0.57110876
-0.11874286 -0.59433943 -0.09601887 0.3579054 0.41318777 0.48261103 0.35569504 -0.0836281
-0.6322363 -0.05172447 0.14711726 -0.01332843 0.6856142 -0.1058053 0.17611466 0.046522688
-0.14505273 -0.74851024 -0.59915704 0.5754052 -0.36802894 0.78558785 0.28980035 -0.6188558
-0.13566 -0.3720367 0.57680285 0.67887884 -0.63540787 0.28202578 -0.18105257 -0.06420241
-0.22124551 0.78054595 0.05595305 0.5826847 0.22720113 -0.27041528 -0.16854331 0.7156361
-0.12805818 0.20154719 -0.2629007 -0.09896326 -0.04583943 -0.18042262 -0.18292223 -0.12851058
0.23556066 0.19199464 -0.40364608 -0.06561624 -0.061984625 0.0821684 0.17692289 -0.16082357
0.5969792 -0.55182153 -0.9282128 -0.14545748 0.44388595 0.56487054 0.07533533 0.0012089136
-0.316537 0.35099548 -0.6789366 -0.9686911 0.03961639 -0.37658653 1.0329732 -0.0027209325
-0.5147738 0.8243326 -0.16367556 -0.16615057 0.07113748 -0.15368891 -0.005399012 -0.6206729
0.21488355 -0.9497301 0.46045375 0.074982606 0.11402306 -0.031236475 -0.899394 0.39000836
0.22309771 -0.23293623 0.44367737 -0.5604982 -0.38492286 -0.055335257 0.22709665 0.06291101
-0.3542168 0.14774166 0.0663491 -0.6707409 0.18300559 -0.121305294 0.8769717 0.31409287
0.28248584 -0.09432621 0.34189698 -0.21771155 -0.22064342 1.0076598 1.4460757 -0.08158787
-0.10448702 -0.3113108 0.018354358 -0.15139323 -0.11738809 -0.24727198 -0.047764096 0.34681913
-0.28884614 0.6047327 -0.23238257 -0.088537484 -0.08033102 -0.45059976 0.14617409 -0.13718481
0.34715062 -0.034046233 -0.5675618 0.14678077 -0.5595233 -0.30303717 -0.427914 0.3531652
-0.068421885 -0.088334806 -0.13627882 -0.3606623 0.76537514 0.07659928 -0.34219852 0.3340153
-0.05055638 0.3463744 -0.02624398 -0.2259193 -0.15362374 0.10998907 -0.49840322 0.4766148
-0.87206966 0.40803292 -0.33201137 -0.6015745 0.2296793 0.15202615 -0.19022667 -0.91461045
-0.01310864 -0.96253747 -0.294239 -0.19546556 0.10010186 0.18383089 -0.055042006 -0.32794133

network_body._body_endoder.seq_layers.2.bias f4 [128]
00000000: f1dc db3a e810 a7ba 2f9b d5bb fa35 daba
00000010: d118 87bb 40ab aa3b dcb0 a5ba 4b54 a1ba
00000020: caf1 9ebb edaa 343b 6137 f03a 0565 ac3a
00000030: 1b44 1dbb dee4 a4bb b821 47bb 012f f5ba
00000040: 522e e13a 35c8 153b 4db9 94bb 2cf8 8b3a
00000050: 5cde 8cba ec72 3f3a 4307 0a3a 51a3 3dbb
00000060: 90f4 62ba 71e3 a43b 40dc ed3b 0c56 d4bb
00000070: 5d9c 63ba 4f9d 263b 3020 413b a1ce 6fbb
00000080: e55c f63b b43b 37bb e2f0 0a3b bc63 67bb
00000090: db95 97bb 806d bcba cbe4 d03a 87ff 1e3b
000000a0: 9e9f daba 4822 8dba 8120 00bb 0add 483a
000000b0: f506 9dba 847c 923a ea6c 4f3a fc52 013b
000000c0: 9e55 15bc b8be 3c3a 62ed 173b f797 9dbb
000000d0: 2d6f ad3a c0c6 45bb cac0 efba b2a6 83bb
000000e0: 63eb 553a d8b2 a3bb c664 0c3b 8f75 42bb
000000f0: 940f 5fbb 8b23 9cbb 5ce4 3c3b 1452 a2bb
00000100: fb2f a1b9 ae3d 983a 1353 963b 4069 0cbb
00000110: 5df4 293a 70b3 07ba 7e31 3b3b 45f0 6ebb
00000120: 3c95 b63a bbc6 05bb c392 273b 9498 293b
00000130: bd8c beb8 f226 3339 c194 a33a e3f6 533a
00000140: 327a 9bbb b19c 853b 5c19 42bb 935a 53bb
00000150: 5478 90bb c381 1d3b 5d92 3e3a 8336 6f39
00000160: de75 5e3c e057 f839 bf2e b3b9 42d7 153b
00000170: 0c25 34bb 33b3 1dba 689d 56bb c4f2 4abb
00000180: 88ff ff3a 3e1e 12bb 4573 05bb 9f56 babb
00000190: a567 113b 83f0 8f3b 2218 b9b8 8753 003b
000001a0: 6ca3 693b ace2 bfbb b4d0 1e3b b9d0 63bb
000001b0: 4ef4 34bb db02 ce3a b415 8ebb 028f 8f3a
000001c0: 4bb9 81bb 80de 313b bcdd 28bb 3228 95ba
000001d0: 28c9 88bb c1a4 643b 4e8a 1b3c a57b d33a
000001e0: cc46 97bb 0dbb 823b f21c 9bbb f401 643b
000001f0: 152e 48b9 a548 50bb f733 eaba 6103 7bbb
0.001677422 -0.0012746127 -0.0065187435 -0.0016648166 -0.0041228314 0.005208403 -0.0012641209 -0.0012308446
-0.004850601 0.00275677 0.0018327051 0.0013152665 -0.0023996893 -0.005032166 -0.0030385088 -0.0018706025
0.0017179942 0.0022854928 -0.004538691 0.0010678819 -0.0010747421 0.00073031965 0.00052653643 -0.0028936455
-0.00086576585 0.005031996 0.007258922 -0.006479984 -0.0008682663 0.0025423353 0.0029468648 -0.0036591666
0.007518398 -0.002795917 0.0021200706 -0.003530725 -0.0046260185 -0.0014375895 0.0015937326 0.0024261193
-0.001667965 -0.0010767663 -0.0019550624 0.0007662332 -0.0011980223 0.0011176025 0.0007912653 0.00197333
-0.009114651 0.000720005 0.0023182263 -0.0048093754 0.0013231986 -0.0030178279 -0.0018291709 -0.0040176744
0.00081603805 -0.004995685 0.002142237 -0.002967212 -0.0034036385 -0.0047649792 0.0028822636 -0.004953632
-0.0003074406 0.0011615062 0.00458754 -0.0021425039 0.00064832513 -0.00051765796 0.0028563435 -0.003645913
0.0013929973 -0.0020412642 0.0025569655 0.0025878297 -9.0861206e-05 0.00017085279 0.0012480245 0.00080858
-0.0047447914 0.004077517 -0.0029617166 -0.0032250031 -0.0044088755 0.0024033643 0.00072697346 0.00022813123
0.013577906 0.00047367718 -0.0003417637 0.00228639 -0.0027487902 -0.00060157775 -0.003274763 -0.0030967453
0.001953111 -0.0022295858 -0.0020362895 -0.0056865956 0.002218702 0.004392685 -8.8259825e-05 0.0019581036
0.0035650386 -0.005855879 0.0024233283 -0.003476186 -0.0027611437 0.0015717404 -0.0043360833 0.0010952654
-0.003958856 0.0027140677 -0.002576693 -0.0011379777 -0.0041743703 0.003488824 0.009493424 0.0016134871
-0.004616594 0.0039895833 -0.004733675 0.0034791203 -0.00019090653 -0.003178158 -0.001786827 -0.0038301575

network_body._body_endoder.seq_layers.2.weight f4 [128, 128]
00000000: e56d 46bd c0f8 0b3d c105 f2bc d36d fb3b
00000010: 1d86 fdbc 8365 e43d 7c00 013c 7a2c 9e3c
00000020: 2bbd c93d 285b 2c3d 2d4c 823c a8f1 aebd
00000030: 096f b43c 4405 d1bd c08d b3bc 2f80 ab3d
00000040: 8b7b 57bd ee10 173e 34bc ccbd a6db 96bd
00000050: 4246 953c 2333 f3bd 4ef4 d4ba 2f10 c93c
00000060: 0b77 56bd e60b 20bd bf91 023e 16e6 153d
00000070: 5c48 11ba 4aca 1e3d f11b 85bd 148d c23d
00000080: 9dcd acbd d58c 813d 4c70 823d f35c ddbd
00000090: 6d8a 023e 11ed 613d 8175 463e 2d50 b23d
000000a0: be51 fb3d b961 bbbd d735 aabc 5527 04be
000000b0: 6b92 15bc d986 083d 9573 b73b 6c8c c93d
000000c0: 3557 01bd a00b 5fbd f39f 04bd cc56 b73d
000000d0: 0c74 7b3d 0175 ae3d 4681 3f3c 15bf 5c3d
000000e0: 92d2 403d f43b 09be 9519 c5bd 6d3e b7bc
000000f0: 7918 7a3d 5145 aabb 3766 df3d ee45 f6bd
00000100: cffb 39bd eb9e d53c a134 3bbd f988 57bd
00000110: 4819 38bd c3ea 77bd 1dff aabd ee18 afbd
00000120: fb9e 953d afc3 ddbc 39d4 82bc 8a68 833d
00000130: f7b6 dbbd 6982 96bd 379c b0bc 22ba 97bc
00000140: 5d8b 533d 7d78 213d 04b4 45bd 07ab 733c
00000150: 0f5e 86bc a4a1 d13d 8810 c1bd 4028 e73c
00000160: 504c 8a3c add2 5e3d 49e5 16bd 764a b93c
00000170: ba79 65bd ef90 1dbd cbed 1abc adc1 1dbe
00000180: d02f 523d f302 903b e301 393d 43db de3c
00000190: d61d 5c3d be35 4cbd 6954 843d 5b85 b4bc
000001a0: cb22 e63b e4b1 9c3d 2c7c 723d 2220 b33d
000001b0: 3d5c 6139 b0d3 3bbd 359e 053d f19c 0d3d
000001c0: a25e 893d 0b60 1d3c 6961 153d c58c 40bc
000001d0: fb69 23be 1b8d e23d bac7 80bc f3e0 fe3d
000001e0: 6a6b e23d 9ea7 bd3d c206 6fbd a6d7 51be
000001f0: 20f4 69bd fa58 bcbd 4d80 b03d db12 34bd
00000200: 9a4d 66bd 6837 d43d 162b 623d c11d c4bc
00000210: 27d5 a7bd 178c 143c fde9 50bd ac1d d0bd
00000220: 2f98 ebbd 53b5 c6bd 685f ffbd 9a1c 2c3d
00000230: ebb2 59bd e9e9 bf3d 0802 233e fee4 0bbd
00000240: 9ecd e03d 88ed dcbc 39b3 02be 00a2 b43d
00000250: b1bc 8bbc b050 a23d 652f c33c d88d a03d
00000260: 39b5 11bd cb21 e63c 55da cbbc 490d 083d
00000270: bddc 923d c845 333c 1ca6 63bd 50d4 05bd
00000280: 5399 d03d d339 68bc afab 49bd ff64 1d3a
00000290: d207 13be cb06 78bd 5204 023e 17b9 21bd
000002a0: 663a 8a3d 88cb d13c 573e 96bd 89ec 98bd
000002b0: 6bad 0d3c 373e ed3c 1ac3 963d 2217 9ebd
000002c0: ed11 73bd 32bd 913d 64f3 aabd f64c 943d
000002d0: c393 93bd e85a bf3d f22f 983c 509c e23d
000002e0: c30c 95bd 690e c53d de3d c93d 8673 553d
000002f0: ed8d f0bd 4cda 13be 44af fabd 31de 45bd
00000300: 2bb4 083b a94f 093e a388 09bc 0fd5 5cbd
00000310: 8ba3 113d 8abb 48bd fa76 a7bd 49ff 7c3d
00000320: 5235 a83c e149 5abd ec69 553d 0920 11be
00000330: a66c a33d 5451 02bd 8c07 283c ac84 513c
00000340: c6a5 70bd 8050 1a3e 14ee e4bb 7d87 563e
00000350: 6fcf 4bbd 9c77 0e3e 4a45 3fbd a3da 2dba
00000360: f3a1 1a3e 927a 0abe b88e 3fbd 4a8e a2bc
00000370: 869b 903d c1b5 583c 90d8 95bd ca4b 3ebd
00000380: cc24 02be def4 4f3d ab73 4ebd 5716 cebd
00000390: de73 f3bb ce50 803d 936b c03d 6e8e bcbc
000003a0: 529b 6dbb 7ea8 d53c 98a3 383e 8b40 90bb
000003b0: 26ff dfbd 557c 073d fad5 443d 4306 4fbd
000003c0: a09c 9ebc 0e0a d5bd 133b 883c ea11 73bd
000003d0: 3aec 033d a1c3 7bbd bfe8 553d 3daa b8bc
000003e0: e8a6 a43c 3797 6cbe 8b3a 713c f02c aa3d
000003f0: b871 a83d 0800 89bd 94d9 91bd be81 21bc
-0.048444647 0.034172773 -0.02954376 0.007673004 -0.03094774 0.11152174 0.007873651 0.019308317
0.09850534 0.04207912 0.015905464 -0.08542186 0.022025602 -0.102060825 -0.021918178 0.083740585
-0.052608054 0.14752552 -0.099968344 -0.07366113 0.018221978 -0.11874988 -0.0016247125 0.02454385
-0.052359622 -0.039073847 0.1275091 0.03659638 -0.00055420934 0.038767137 -0.0649947 0.09499565
-0.08437655 0.0632569 0.06369075 -0.10808744 0.12748118 0.055157725 0.19380762 0.087066986
0.122714505 -0.091494985 -0.020777626 -0.12905629 -0.009129147 0.033331726 0.0055984952 0.098412365
-0.031577308 -0.054454446 -0.032379102 0.08952102 0.061389968 0.085184105 0.011688536 0.053893168
0.047075815 -0.13401777 -0.0962402 -0.022368634 0.061058495 -0.0051962514 0.10908168 -0.12025057
-0.04540616 0.026076755 -0.045704488 -0.05262086 -0.044945985 -0.06052662 -0.0834944 -0.08549677
0.07305714 -0.027070848 -0.015970336 0.064164236 -0.10728257 -0.073490925 -0.021558864 -0.018521372
0.05164658 0.039421547 -0.04826738 0.014872319 -0.016402273 0.10235909 -0.09426981 0.028217435
0.016882092 0.054400135 -0.036839757 0.022618514 -0.05602429 -0.038468298 -0.009456108 -0.15405913
0.05131513 0.004394883 0.045167815 0.027204162 0.05373939 -0.04985594 0.064614125 -0.022036245
0.0070231906 0.076511174 0.05920045 0.08746363 0.00021492034 -0.045856178 0.03262158 0.0345735
0.06707503 0.009605418 0.03646985 -0.011752312 -0.15958397 0.1106207 -0.015720237 0.124452494
0.11055644 0.09260486 -0.058356054 -0.2049242 -0.05711758 -0.091966584 0.086182214 -0.043963294
-0.05622635 0.103621304 0.05521687 -0.023939969 -0.081949525 0.009066603 -0.0510044 -0.101619095
-0.11503636 -0.097025536 -0.12469369 0.042019464 -0.053149145 0.09370787 0.15918744 -0.03415393
0.10976718 -0.026968732 -0.1276368 0.088199615 -0.017057749 0.07925546 0.02382631 0.078395545
-0.035573218 0.028092286 -0.024884382 0.033215795 0.07171009 0.01094193 -0.055578336 -0.03267318
0.10185494 -0.014173943 -0.049235996 0.00060041243 -0.14358452 -0.060553353 0.1269696 -0.039483156
0.0674942 0.025609747 -0.07336109 -0.074669905 0.008647303 0.02896033 0.073614314 -0.07719256
-0.059343267 0.07116164 -0.08347204 0.07241242 -0.07205918 0.09343511 0.01857755 0.110649705
-0.07277825 0.09621889 0.09826253 0.052112125 -0.1174582 -0.14438742 -0.122404605 -0.0483076
0.0020859342 0.13409294 -0.008394393 -0.053914126 0.035556357 -0.049006976 -0.0817699 0.061766896
0.020533238 -0.053293113 0.052102968 -0.14172377 0.079797074 -0.03181584 0.010255706 0.012787979
-0.058751844 0.15069771 -0.006986389 0.20950122 -0.04975837 0.13912815 -0.04669694 -0.00066320057
0.15100841 -0.1352332 -0.046766967 -0.01984324 0.07060914 0.013226927 -0.07316697 -0.046458997
-0.1270935 0.050770633 -0.05040328 -0.10062855 -0.007429584 0.06265412 0.09395518 -0.023017135
-0.0036255908 0.02608132 0.18031156 -0.0044022254 -0.109373376 0.033077557 0.048055626 -0.05054308
-0.019361794 -0.104023084 0.016629731 -0.059343256 0.032207705 -0.061465863 0.052223917 -0.022542113
0.020099118 -0.23104559 0.01472343 0.083093524 0.08224815 -0.06689459 -0.07121578 -0.009857593
