results/ppo/MoveToGoal/MoveToGoal-499999.pt (torch, 438559 bytes, 36 tensors)

network_body._body_endoder.seq_layers.0.weight f4 [128, 6]
-0.075953804 0.18242587 0.1372414 0.06988032 -0.3763936 0.37937444 -0.10932005 0.10319818
-0.16316354 0.37737304 0.10542589 0.4350485 -0.10543502 0.1527503 -0.34844074 -0.11350478
-0.4331718 0.12730621 -0.32025987 -0.232162 0.022130245 0.58117175 0.29446256 -0.15282415
-0.5426873 0.13163948 -0.032832466 0.05334676 0.058523435 -0.6535891 0.42512515 -0.54425126
-0.365382 0.2735787 -0.5100183 0.45089862 -0.058815468 0.062136777 0.6387796 -0.19057576
0.0591559 -0.31036344 0.23262125 -0.76390517 -0.6266781 0.08699551 -0.41891435 -0.77478826
0.6093202 0.12288905 0.176802 -0.3091756 0.25373068 -0.2579338 -0.12184274 0.1463285
-0.31802297 0.21974948 -0.70621943 -0.022640372 -0.33215156 -0.24159391 0.13974667 0.5817025
0.39946792 0.2533338 -0.19634984 0.93375266 0.34569675 -0.1372003 0.49344558 0.40783063
-0.020398332 0.11577505 0.8871907 0.1630622 0.3005155 -0.55767083 0.62180865 0.20276251
0.018014407 0.6375151 0.5900239 -0.0064901686 0.40542725 -0.24026033 -0.7865273 0.7244273
0.4325169 -0.22726814 -0.27204534 -0.14914647 0.044941384 0.16068201 -0.12968431 0.4313032
0.5111766 -0.112735294 -0.24222681 0.26126775 -0.31888708 -0.0004449831 -0.09198169 -0.64195967
0.378977 0.34150064 -0.1389867 -0.5661062 -0.44971603 0.2611523 0.31012952 -0.33639798
0.4384424 -0.5495031 0.02042705 -0.098817565 -0.5185654 0.10984157 -0.4747844 0.49737495
-0.18009138 0.10808562 -0.3814702 -0.25845852 0.30708227 -0.52270037 0.39617193 -0.6029426
0.18115383 0.0745863 -0.0013460076 -0.3028192 0.24965426 0.29220217 -0.10841273 0.17675428
-0.21070017 -0.051247865 0.7845393 0.5669508 -0.009378269 -0.16086827 -0.6948995 -0.28460518
-0.5298408 -0.26243952 -0.28940988 0.8689492 0.34019205 -0.9066661 0.15982002 -0.099779546
0.5839551 0.0040641716 0.58323896 -0.96055573 0.26184064 0.33375743 -0.10104128 -0.35143366
-0.013650155 0.5786083 -0.3108401 -0.4662476 -0.04130125 -0.0015867339 0.11400277 0.17609678
-0.15258244 -0.8970528 0.08757688 0.023390021 -0.2211686 -0.0008290577 0.16327286 -0.13849886
0.09361947 0.11491351 -0.29945484 -0.2316037 0.6358068 0.083008066 -0.12851226 0.022730948
0.021027489 -0.23581666 -0.4393753 -0.37013316 0.602541 0.03645012 0.6763757 -0.11138582
-0.20030765 -0.03046229 -0.3128087 0.525657 -0.1514395 0.18695 0.8344211 0.50044304
0.88967735 0.06168883 0.26467413 0.30429456 -0.5865625 -0.09835379 -0.18291321 0.19065961
-0.15755194 -0.16723675 0.3127286 -0.050936703 0.10548756 0.48538664 0.4863917 -0.12874053
-0.0024104218 0.70270914 0.58523774 -0.6159838 -0.32688132 -1.2725943 -0.31632447 0.20339975
-0.45122415 -0.18388113 -0.56492466 -0.7064519 -0.33662513 0.5251725 0.6826479 0.49989876
-0.21179841 0.15301485 -0.04007593 0.0951859 -0.821467 -0.07904521 -0.22332668 -0.31616417
-0.3274258 -0.75714433 0.55347204 0.3759098 -0.3165609 0.5190774 -0.3496569 -0.42852527
-0.29238194 -0.6303482 0.4223495 -0.29272455 -0.26034287 0.6757963 0.1602452 -0.12983732
00000000: ab8d 9bbd d9cd 3a3e 0289 0c3e 6a1d 8f3d
00000010: a9b6 c0be 5e3d c23e 31e3 dfbd 9159 d33d
00000020: 5814 27be 0a37 c13e 87e9 d73d adbe de3e
00000030: 51ee d7bd 936a 1c3e d366 b2be 3275 e8bd
00000040: b2c8 ddbe 8f5c 023e 1af9 a3be e0bb 6dbe
00000050: 7d4a b53c acc7 143f ccc3 963e ef7d 1cbe
00000060: 8eed 0abf 80cc 063e 567b 06bd 2282 5a3d
00000070: 45b6 6f3d 9e51 27bf 01aa d93e 0d54 0bbf
00000080: 5913 bbbe 8212 8c3e 8f90 02bf 2fdc e63e
00000090: 7de8 70bd 2283 7e3d 0f87 233f 4b26 43be
000000a0: 754d 723d f5e7 9ebe 4434 6e3e 4a8f 43bf
000000b0: fa6d 20bf b42a b23d f17b d6be 8658 46bf
000000c0: 69fc 1b3f 41ad fb3d 950b 353e 444c 9ebe
000000d0: fde8 813e e60f 84be b088 f9bd 23d7 153e
000000e0: e8d3 a2be 0206 613e ccca 34bf 4d78 b9bc
000000f0: c50f aabe 6564 77be c019 0f3e 74ea 143f
00000100: 0f87 cc3e f8b4 813e ef0f 49be 6a0a 6f3f
00000110: 2aff b03e 3c7e 0cbe e6a4 fc3e 2dcf d03e
00000120: 671a a7bc 781b ed3d ee1e 633f c7f9 263e
00000130: 2bdd 993e 84c3 0ebf da2e 1f3f faa0 4f3e
00000140: f392 933c 3134 233f ce0b 173f 7bab d4bb
00000150: 2994 cf3e ce06 76be da59 49bf 1174 393f
00000160: db72 dd3e fbb8 68be 8749 8bbe dab9 18be
00000170: 7514 383d d389 243e f7cb 04be c6d3 dc3e
00000180: 78dc 023f c3e1 e6bd 4e0a 78be e3c4 853e
00000190: 2b45 a3be 9f4c e9b9 e560 bcbd 7857 24bf
000001a0: 4609 c23e 2cd9 ae3e 8852 0ebe 56ec 10bf
000001b0: 2e41 e6be c1b5 853e 4cc9 9e3e 5b3c acbe
000001c0: 867b e03e 3cac 0cbf a156 a73c dd60 cabd
000001d0: b4c0 04bf 9ef4 e03d f116 f3be eea7 fe3e
000001e0: e069 38be fe5b dd3d 1050 c3be ad54 84be
000001f0: e339 9d3e b1cf 05bf 0cd7 ca3e 725a 1abf
00000200: 6480 393e b4c0 983d 856c b0ba 1e0b 9bbe
00000210: 5ea5 7f3e 869b 953e 7e07 debd 13ff 343e
00000220: c9c1 57be 48e9 51bd 91d7 483f b023 113f
00000230: 50a7 19bc a7ba 24be efe4 31bf c5b7 91be
00000240: a6a3 07bf 795e 86be 882d 94be 7473 5e3f
00000250: a72d ae3e 451b 68bf dca7 233e 3859 ccbd
00000260: 157e 153f be2c 853b 264f 153f fbe6 75bf
00000270: fa0f 863e 41e2 aa3e bbee cebd 1def b3be
00000280: e6a4 5fbc ac1f 143f 6f26 9fbe 01b8 eebe
00000290: 802b 29bd f4f9 cfba 497a e93d b752 343e
000002a0: 923e 1cbe 41a5 65bf 825b b33d 6e9c bf3c
000002b0: 057a 62be 1f55 59ba 0031 273e a5d2 0dbe
000002c0: 91bb bf3d c657 eb3d 2552 99be 8529 6dbe
000002d0: 3cc4 223f 2200 aa3d b898 03be 4136 ba3c
000002e0: d741 ac3c ec79 71be cdf5 e0be 1882 bdbe
000002f0: 2140 1a3f b94c 153d f526 2d3f 401e e4bd
00000300: 731d 4dbe 0d8c f9bc 7628 a0be 7591 063f
00000310: f512 1bbe d26f 3f3e 9f9c 553f 091d 003f
00000320: e5c1 633f 6dad 7c3d 5e83 873e 7fcc 9b3e
00000330: f628 16bf b66d c9bd 9a4d 3bbe 463c 433e
00000340: 4c55 21be 1c40 2bbe f71d a03e 01a3 50bd
00000350: dd09 d83d 9984 f83e 5508 f93e 8fd4 03be
00000360: 2bf8 1dbb bfe4 333f 24d2 153f 1db1 1dbf
00000370: fd5c a7be 5fe4 a2bf 48f5 a1be 0648 503e
00000380: da06 e7be 564b 3cbe e79e 10bf 08da 34bf
00000390: 215a acbe b471 063f 03c2 2e3f bbf2 ff3e
000003a0: afe1 58be edaf 1c3e a926 24bd d3f0 c23d
000003b0: a94b 52bf 74e2 a1bd c0af 64be 45e0 a1be
000003c0: 5ba4 a7be 36d4 41bf 58b0 0d3f 4077 c03e
000003d0: 4514 a2be 42e2 043f 3b06 b3be aa67 dbbe
000003e0: 16b3 95be 805e 21bf 323e d83e fedf 95be
000003f0: a94b 85be fc00 2d3f 5117 243e 13f4 04be

network_body._body_endoder.seq_layers.0.bias f4 [128]
0.010150487 0.029439526 -0.033234313 0.03453803 -0.035459455 0.0011290548 0.002945034 -0.008034203
-0.006098482 0.019117448 0.030827804 0.02193212 0.01157903 0.035320487 0.029717337 0.023094071
0.00918392 -0.03132817 4.2755964e-05 -0.016090058 -0.009681976 -0.005936588 0.03205927 -0.018484361
0.031185789 0.003934258 -0.014468237 -0.019276315 -0.030410644 0.034556985 0.024440115 0.026881007
0.03020227 0.05120706 0.013339677 0.019309012 0.03461109 -0.009688326 0.033903148 0.0145231625
0.004364796 -0.030360527 0.022427 0.013368255 0.022639044 -0.0017963157 0.036233407 0.030657902
-0.008220079 -0.019278886 0.013470032 -0.0071224575 0.04087609 -0.042943466 0.029560776 0.00948561
-0.035122834 0.0032002458 0.035574637 0.022226237 0.02783063 0.021961149 0.03642241 0.030308142
-0.023214672 -0.007789845 0.032908544 -0.023943339 0.0033445265 -0.019826034 0.063865 0.022544
0.0010927587 0.036724996 0.011148602 -0.024609787 -0.027028132 0.0116526885 -0.007240863 0.025957331
0.023481831 -0.0073541813 0.005794792 -0.00024047178 0.031175043 0.01601351 0.048748367 0.027150767
0.007222678 -0.03499874 0.009132767 0.030685319 -0.029066723 0.001714496 0.025508197 -0.025471501
-0.0070100613 -0.030450365 0.012106335 0.030367173 -0.0111984555 -0.013510188 0.0146626765 -0.020629872
0.016231617 -0.0036027257 -0.0027400153 -0.009656966 0.03245338 0.022733947 -0.017589655 -0.015952287
0.046976388 -0.00452019 -0.0020331747 0.026759446 0.031030415 -0.020882944 -0.018376267 -0.016065951
0.022990704 0.030343939 -0.009724375 0.0054844446 0.005094603 -0.02654736 -0.021971732 0.018346036
00000000: 3a4e 263c 292b f13c b420 08bd c077 0d3d
00000010: ef3d 11bd cbfc 933a 7901 413b e4a1 03bc
00000020: c6d5 c7bb 329c 9c3c 978a fc3c fdaa b33c
00000030: f9b5 3d3c 37ac 103d c671 f33c c72f bd3c
00000040: 2778 163c f851 00bd de54 3338 4ccf 83bc
00000050: 27a1 1ebc b687 c2bb 9550 033d 846c 97bc
00000060: 5779 ff3c f3ea 803b 2f0c 6dbc 5de9 9dbc
00000070: be1f f9bc a08b 0d3d a336 c83c 8f35 dc3c
00000080: c06a f73c 7fbe 513d a98e 5a3c ef2d 9e3c
00000090: 5cc4 0d3d c9bb 1ebc 07de 0a3d 8ff2 6d3c
000000a0: 9006 8f3b a4b6 f8bc d4b8 b73c 8706 5b3c
000000b0: 8475 b93c 5a72 ebba 7b69 143d 4826 fb3c
000000c0: 83ad 06bc c1ee 9dbc 69b1 5c3c 8163 e9bb
000000d0: b06d 273d 7de5 2fbd 7129 f23c 8869 1b3c
000000e0: f6dc 0fbd 37bb 513b b6b6 113d cc13 b63c
000000f0: 10fd e33c dee7 b33c aa2f 153d c848 f83c
00000100: b22c bebc f541 ffbb 1ccb 063d d224 c4bc
00000110: d82f 5b3b 356a a2bc a7cb 823d 32ae b83c
00000120: e63a 8f3a f36c 163d a0a8 363c 779a c9bc
00000130: 1a6a ddbc ebea 3e3c c344 edbb 78a4 d43c
00000140: f85c c03c 58fb f0bb 3de2 bd3b 2727 7cb9
00000150: ce62 ff3c c42e 833c 5eac 473d 496b de3c
00000160: 37ac ec3b d75a 0fbd 9aa1 153c c75f fb3c
00000170: 561d eebc f0b8 e03a 91f6 d03c 9ca9 d0bc
00000180: a8b4 e5bb 0b73 f9bc a659 463c 94c4 f83c
00000190: ba79 37bc d659 5dbc b93b 703c faff a8bc
000001a0: 2bf8 843c b51b 6cbb d491 33bb 4038 1ebc
000001b0: d6ed 043d 8b3c ba3c 2e18 90bc 5fae 82bc
000001c0: 506a 403d 1a1e 94bb 033f 05bb a036 db3c
000001d0: 7f33 fe3c b512 abbc d389 96bc be9c 83bc
000001e0: 0057 bc3c da93 f83c fc52 1fbc dbb6 b33b
000001f0: a1f0 a63b d979 d9bc 10fe b3bc 6d4a 963c

network_body._body_endoder.seq_layers.2.weight f4 [128, 128]
0.10984387 0.07574889 -0.08211629 0.040523104 -0.029816853 -0.045915384 -0.083231844 0.0790533
-0.075853094 -0.017042082 -0.050368883 0.12250349 -0.041478764 0.09880325 0.020580232 0.14220607
-0.16566439 -0.059455253 -0.09450653 -0.033630066 0.11602402 0.076223426 0.03521981 -0.22362372
0.08013601 0.10767369 -0.09461842 -0.0054554655 0.08550174 -0.09272466 -0.15103932 -0.016795667
0.06775928 0.13495654 -0.0416342 -0.014478646 -0.010417206 0.00050533627 0.107652664 -0.07220733
0.002462063 -0.002130572 -0.030280866 0.0075600436 0.094695225 -0.04451865 0.018392768 0.06093737
0.08612881 0.0013301836 0.10608941 -0.05259755 -0.073359385 0.026328297 -0.044836413 0.09369941
-0.13112493 0.11782153 -0.13209462 -0.036638208 0.095474124 0.023502547 0.19489342 0.1967772
0.05601055 -0.055770237 0.02768271 -0.08430564 -0.03703589 -0.1419519 -0.04156806 -0.016673623
-0.10610402 -0.0057174987 -0.07919574 -0.0035283715 -0.08192253 0.061251942 -0.059867937 0.037264742
0.09535672 0.025262138 0.078554615 0.18171345 0.082791954 -0.012812031 -0.12634976 -0.07217822
0.0164606 -0.016605135 -0.068194464 0.026062189 0.030952306 -0.047191583 -0.04490974 -0.100723945
-0.031683918 -0.1604997 -0.09381374 0.035157047 -0.030650612 -0.09987898 -0.0953176 -0.063261114
0.10389124 -0.22483101 -0.10743666 -0.0069902865 0.09828837 0.16092972 -0.2599281 -0.012781174
0.05070562 -0.0006268694 -0.06857206 0.03081407 -0.019152246 0.00085776474 0.030656923 -0.09179921
0.0041653593 0.043953247 0.022072107 0.027054016 -0.055682644 0.059362844 0.076211855 -0.10877819
0.09581364 -0.0028627736 0.054477233 -0.01213334 0.18211049 -0.009964127 -0.13938673 -0.10405039
0.09585128 0.10106747 -0.16258557 -0.028747454 -0.0073074163 -0.12954937 0.17819065 -0.04690285
0.08389383 -0.09171585 -0.119897634 -0.03532173 0.022035504 -0.1558802 0.0015801714 -0.021626264
-0.09005774 -0.020780422 -0.03246539 -0.112256266 -0.1573178 0.11283648 0.05029198 -0.0885127
0.19928494 0.16064842 0.05038876 -0.116538905 0.06971317 0.108636945 -0.072348416 0.08293313
-0.04571727 0.03515391 -0.12703416 0.054736488 0.0018201668 -0.118452646 -0.19199353 0.0591888
-0.10794503 -0.041824527 0.10466538 0.02708056 0.08047785 0.016287925 -0.019765701 0.04263533
-0.08897072 -0.1578469 0.13431567 -0.084169365 -0.08654083 -0.153617 -0.094267584 -0.07448689
-0.017696336 -0.057762943 0.11425829 0.005771652 -0.05597764 -0.13633701 -0.017193645 0.07600635
0.16069399 -0.078975834 0.041312378 -0.05493937 -0.09494164 0.021180019 0.10536817 -0.03956702
-0.049602613 0.069349006 0.14297977 0.060804125 -0.07394007 -0.02361979 0.085172206 -0.12454495
0.06717915 0.016196914 -0.08381819 -0.027913613 0.14074609 0.13118708 -0.13203536 -0.011386108
0.031814717 0.10471009 0.0070101237 -0.016228862 0.09438506 -0.020901656 0.032294575 -0.004863594
0.0847721 0.030186143 -0.034168027 0.04088532 -0.07902258 -0.07091811 0.021236695 -0.03048949
0.055672616 0.15378733 -0.061275974 0.033189837 0.05264472 -0.07413562 -0.019388119 0.013639369
0.061077546 -0.019468563 -0.041412767 -0.108227886 -0.098506026 -0.13646004 0.011237852 0.10038713
00000000: d3f5 e03d 3c22 9b3d 962c a8bd 8efb 253d
00000010: 7942 f4bc c511 3cbd 7575 aabd b2e6 a13d
00000020: de58 9bbd d69b 8bbc 9a4f 4ebd 1ce3 fa3d
00000030: a3e5 29bd 5c59 ca3d e097 a83c 789e 113e
00000040: eda3 29be 5a87 73bd a48c c1bd aebf 09bd
00000050: 009e ed3d 071b 9c3d a642 103d 9efd 64be
00000060: 591e a43d 0684 dc3d 4dc7 c1bd c3c3 b2bb
00000070: 891b af3d 6de6 bdbd 0daa 1abe 1197 89bc
00000080: 61c5 8a3d 0c32 0a3e 9f88 2abd d837 6dbc
00000090: eeac 2abc 8b78 043a 0079 dc3d 70e1 93bd
000000a0: 905a 213b 11a1 0bbb 940f f8bc 3eba f73b
000000b0: 92ef c13d 3059 36bd 6eac 963c 7799 793d
000000c0: 4d64 b03d 8e59 ae3a 6845 d93d 8770 57bd
000000d0: 723d 96bd 71ae d73c 63a6 37bd 7ae5 bf3d
000000e0: 9d45 06be 6a4c f13d d043 07be f211 16bd
000000f0: f087 c33d 6a88 c03c 2492 473e f67f 493e
00000100: 526b 653d 556f 64bd dac6 e23c 6fa8 acbd
00000110: f2b2 17bd d75b 11be 4543 2abd 1f97 88bc
00000120: 104d d9bd db59 bbbb 6031 a2bd 403c 67bb
00000130: 00c7 a7bd 51e3 7a3d 1538 75bd eaa2 183d
00000140: 624a c33d 8bf2 ce3c 3ee1 a03d 1713 3a3e
00000150: d48e a93d 8ee9 51bc d561 01be 2dd2 93bd
00000160: 61d8 863c 7e07 88bc 8aa9 8bbd 5f80 d53c
00000170: b18f fd3c f64b 41bd 47f3 37bd 5b48 cebd
00000180: ffc6 01bd 095a 24be 6b21 c0bd d600 103d
00000190: fe16 fbbc 5a8d ccbd e035 c3bd 0b8f 81bd
000001a0: eec4 d43d 1a3a 66be c007 dcbd c60e e5bb
000001b0: 6a4b c93d c3ca 243e 4c15 85be 2168 51bc
000001c0: b2b0 4f3d 7e54 24ba 826f 8cbd ca6d fc3c
000001d0: 2ce5 9cbc 9edb 603a 3a24 fb3c 3901 bcbd
000001e0: 917d 883b 5208 343d 90d0 b43c 62a0 dd3c
000001f0: 7c13 64bd 7426 733d f614 9c3d 1ac7 debd
00000200: f139 c43d 5f9d 3bbb 8523 5f3d ebca 46bc
00000210: 2c7b 3a3e 9440 23bc 65bb 0ebe 5f18 d5bd
00000220: ad4d c43d 76fc ce3d d57c 26be c87f ebbc
00000230: 0d73 efbb 97a8 04be 9c77 363e 341d 40bd
00000240: 87d0 ab3d 85d5 bbbd e48c f5bd 85ad 10bd
00000250: cd83 b43c 0f9f 1fbe c11d cf3a 9029 b1bc
00000260: 3170 b8bd b43b aabc 6efa 04bd 9de6 e5bd
00000270: eb17 21be d016 e73d f7fe 4d3d 2546 b5bd
00000280: 5a11 4c3e 0581 243e 7264 4e3d f3ab eebd
00000290: c7c5 8e3d 0c7d de3d 682b 94bd d8d8 a93d
000002a0: 0842 3bbd 8cfd 0f3d 3e15 02be 5e33 603d
000002b0: aa92 ee3a 4d97 f2bd f499 44be f56f 723d
000002c0: 4912 ddbd 3250 2bbd ce5a d63d 0dd8 dd3c
000002d0: 92d1 a43d 416e 853c aeeb a1bc 62a2 2e3d
000002e0: 4836 b6bd 9ea2 21be 0c8a 093e fd60 acbd
000002f0: 523c b1bd c64d 1dbe 5d0f c1bd 958c 98bd
00000300: e8f7 90bc d698 6cbd 4000 ea3d 2020 bd3b
00000310: cf48 65bd ee9b 0bbe b0d9 8cbc 38a9 9b3d
00000320: f78c 243e 15be a1bd 2b37 293d 1b08 61bd
00000330: c370 c2bd b881 ad3c 44cb d73d 0711 22bd
00000340: 1c2c 4bbd da06 8e3d 4a69 123e bf0d 793d
00000350: e46d 97bd 4a7e c1bc c46e ae3d 6c11 ffbd
00000360: 3995 893d 64af 843c dfa8 abbd 17ab e4bc
00000370: be1f 103e e855 063e 4734 07be cc8c 3abc
00000380: 2650 023d 3e72 d63d 2eb5 e53b 64f2 84bc
00000390: f44c c13d f339 abbc 5147 043d c95e 9fbb
000003a0: ff9c ad3d ee48 f73c c6f3 0bbd 5e77 273d
000003b0: 97d6 a1bd 843d 91bd 94f8 ad3c 18c5 f9bc
000003c0: f808 643d 6d7a 1d3e 84fc 7abd 11f2 073d
000003d0: fda1 573d 6ad4 97bd d5d3 9ebc a977 5f3c
000003e0: 732c 7a3d 897c 9fbc 6fa0 29bd 95a6 ddbd
000003f0: 87bd c9bd 2ebc 0bbe f81e 383c c597 cd3d

network_body._body_endoder.seq_layers.2.bias f4 [128]
0.031109871 -0.002368633 0.034546893 0.03047238 -0.008044212 -0.032315668 -0.00094672176 -0.01079736
-0.011480849 0.025537366 0.027103676 0.0077180816 0.021907382 -0.0069168773 0.034225207 -0.0095273005
-0.025678394 0.011400533 0.03166095 -0.02781762 0.02936646 -0.01983648 0.025082776 -0.0059369644
0.014366968 0.033870324 -0.00043546647 -0.0042992714 -0.0066056415 -0.006005887 0.031372085 0.023345599
0.048519958 -0.0028743441 0.016276237 0.027474994 0.026105544 0.023307454 0.024651965 -0.005868136
0.023947783 0.0048059747 0.030366814 -0.030113798 -0.010153846 0.020264998 0.031306602 0.005878769
0.029182315 0.039893843 0.025851965 -0.00627779 0.025706967 0.03590603 0.017722202 -0.011824938
-0.014132115 0.025023144 0.01479057 0.0048236605 0.0023897018 -0.0051343665 0.014412332 0.024126438
-0.021619387 0.024961535 -0.017612727 -0.016750006 -0.004812004 0.0023233527 -0.012261598 0.012128989
-0.0025336014 -0.0046155765 0.025994245 0.011679275 0.032896973 -0.022616766 0.02889847 0.029979095
0.006967257 0.005625689 -0.00052353303 0.00744271 0.015897477 0.024546277 0.008315986 -0.013334326
0.02964319 0.0099739125 -0.011290684 0.0092934705 -0.0010138239 -0.003921932 -0.011011187 0.012221364
-0.015654044 -0.011984768 0.0448049 0.039868 -0.013316174 -0.00153946 0.032615308 0.027556505
0.024137229 0.019797005 0.015151682 -0.0044375868 0.025087822 0.028429795 0.019148113 0.02414835
0.039815273 0.025988525 -0.005604352 -0.003764248 0.012545168 -0.0016143988 0.027230857 0.034249324
-0.025782095 0.0264258 0.015038318 -0.019474784 -0.013784614 0.032421287 -0.011253192 0.028735302
00000000: 21da fe3c 113b 1bbb 0b81 0d3d 36a1 f93c
00000010: dfcb 03bc 6f5d 04bd 6c2d 78ba 69e7 30bc
00000020: 2c1a 3cbc bd33 d13c 8708 de3c f6e7 fc3b
00000030: 1c77 b33c f9a6 e2bb bb2f 0c3d 6518 1cbc
00000040: 7f5b d2bc 4dc9 3a3c eaae 013d c7e1 e3bc
00000050: ee91 f03c 1d80 a2bc 657a cd3c de8a c2bb
00000060: 6e63 6b3c 9cbb 0a3d 524f e4b9 e7e0 8cbb
00000070: 2374 d8bb 08cd c4bb 0480 003d 453f bf3c
00000080: ddbc 463d 7e5f 3cbb be55 853c 3d13 e13c
00000090: 4bdb d53c 46ef be3c ebf2 c93c 7e49 c0bb
000000a0: 242e c43c 707b 9d3b d3c3 f83c 36b1 f6bc
000000b0: 515c 26bc c802 a63c 5a3b 003d b0a2 c03b
000000c0: c00f ef3c ba67 233d 80c7 d33c ebb5 cdbb
000000d0: 6b97 d23c 3412 133d 272e 913c 62bd 41bc
000000e0: 638a 67bc 56fd cc3c 2654 723c cc0f 9e3b
000000f0: 8b9c 1c3b 303e a8bb b421 6c3c cfa4 c53c
00000100: 241b b1bc 227c cc3c 9148 90bc 4f37 89bc
00000110: 04ae 9dbb 6443 183b dfe4 48bc abb8 463c
00000120: c70a 26bb 433e 97bb e2f1 d43c 6e5a 3f3c
00000130: fabe 063d cc46 b9bc 7cbc ec3c b896 f53c
00000140: 964d e43b b357 b83b b53d 09ba fae1 f33b
00000150: 6d3b 823c 4615 c93c c63f 083c 3878 5abc
00000160: 46d6 f23c 9f69 233c 90fc 38bc a443 183c
00000170: 49e2 84ba 8d83 80bb 4468 34bc 1e3c 483c
00000180: e93c 80bc c35b 44bc 5885 373d a14c 233d
00000190: 152c 5abc b5c7 c9ba a197 053d 2ebe e13c
000001a0: 70bb c53c 542d a23c c33e 783c 2d69 91bb
000001b0: fa84 cd3c 9ae5 e83c 81dc 9c3c c3d2 c53c
000001c0: 5715 233d e3e5 d43c b6a4 b7bb 9ab1 76bb
000001d0: 408a 4d3c 3c9a d3ba 3f13 df3c 0549 0c3d
000001e0: f934 d3bc eb7a d83c 4763 763c 9589 9fbc
000001f0: ddd8 61bc 2fcc 043d 4f5f 38bc 4c66 eb3c

action_model._continuous_distribution.log_sigma f4 [1, 2]
-0.09982746 -0.045481186
00000000: 5772 ccbd 7b4a 3abd

action_model._continuous_distribution.mu.weight f4 [2, 128]
0.06783855 -0.025629215 0.051151685 0.05069274 -0.011415686 -0.037845783 0.009042846 -0.00053377287
-0.05549248 0.0529969 0.044318277 -0.010898547 0.030461464 -0.013485884 0.0611581 -0.038394075
-0.049311943 -0.03273546 0.035082698 -0.043811526 0.07313073 -0.039568756 0.07097352 -0.021984085
-0.03324145 0.043985244 -0.040663637 -0.08006983 -0.058458935 -0.055362 -0.009823856 0.040059526
0.051628996 -0.059861746 0.016971162 -0.010326325 0.038653746 0.03148876 0.04203811 -0.05910264
0.023279488 0.00014672088 0.045641407 -0.01170537 -0.062861554 0.042453237 0.059012625 -0.0026487655
0.044410415 0.042448584 0.042174883 -0.070763774 0.030363023 0.039300267 0.014891923 -0.017063065
-0.007068942 0.031245299 0.015888747 -0.014492434 -0.0654554 -0.07602952 0.024940223 0.027784819
-0.0016746981 0.045640394 -0.04418668 -0.011936122 -0.035293028 -0.053176746 -0.0010314859 -0.012698609
-0.06181794 -0.023950927 0.025828302 0.019061372 0.062457256 -0.018392954 0.035395887 0.057785463
0.007366812 0.014292749 -0.044969656 -0.0599657 0.024629986 0.020441022 -0.05104621 -0.069687404
0.058141727 -0.07666404 -0.04286976 -0.01999173 -0.068134435 -0.04046176 -0.01136592 0.0113233635
-0.051960863 -0.019203117 0.04271376 0.046762753 -0.06389483 -0.04841611 0.04544447 0.015539392
0.024633093 0.036781408 -0.015672492 -0.065232225 0.045520965 0.029142663 -0.022712136 0.03524684
0.043492954 0.049561124 -0.04763233 -0.049506355 0.02656494 -0.04509706 0.033799734 0.04490687
-0.013121125 0.019022347 0.021219697 -0.015478127 -0.030425357 0.033144373 -0.047807693 0.03144384
-0.03191991 -0.029520795 -0.021750962 0.044819422 -0.036241803 0.0013614031 0.049616974 0.010700476
-0.017249167 0.045128077 -0.007968842 -0.06385285 -0.017589718 0.029551646 -0.0889559 0.0143384095
0.022543589 0.03097627 0.028347297 0.0029705695 -0.017945651 0.023747554 -0.045498725 0.013995262
0.023516107 -0.0003888367 0.052869797 -0.015200871 0.013089737 0.006850513 0.05017823 0.019151773
0.007483212 -0.016470611 -0.01353816 0.051788323 0.00045374845 -0.00460621 0.03034556 -0.007892003
-0.046178814 -0.028433593 -0.036318354 -0.008869303 -0.008254159 0.035370115 0.052133977 0.034998402
-0.051797073 -0.00798428 -0.021271626 0.0144036105 0.021775022 0.0048255613 -0.017785134 0.0043195337
0.043784935 0.002087048 0.043767404 -0.051349446 -0.04700048 -0.027220758 -0.043378912 0.05729755
-0.024414081 0.036703963 -0.022814421 0.004784843 0.06220078 -0.030841092 -0.004275757 -0.043271173
-0.022630654 -0.010939876 0.019234382 0.044191714 -0.034502245 0.005018857 -0.038482536 0.014895645
-0.048263807 0.044512555 0.06761531 0.024384024 -0.05383064 0.013676288 0.0067286016 0.002541244
0.020236932 -0.048236333 -0.013487853 -0.052385435 0.030205695 0.0047493703 0.03037922 0.011781467
0.0076357694 0.036944028 0.04747279 0.0225036 0.007720547 -0.0038289537 0.08389021 0.06618162
-0.029482877 0.017083956 0.040151358 -0.003726492 -0.008960981 0.040551603 0.07275531 -0.008306313
0.008891857 0.00056736334 0.0014691331 0.007024385 -0.029626632 0.021805491 0.007084671 -0.070083916
0.026638143 0.025876695 0.02906765 0.01059576 0.009674279 -0.0801512 -0.005167 -0.030583186
00000000: f0ee 8a3d 5cf4 d1bc 6e84 513d 31a3 4f3d
00000010: dc08 3bbc 2e04 1bbd 7228 143c e4ec 0bba
00000020: 154c 63bd 4713 593d 1587 353d d28f 32bc
00000030: 528a f93c e6f3 5cbc ea80 7a3d 1b43 1dbd
00000040: 52fb 49bd 9e15 06bd e0b2 0f3d b773 33bd
00000050: 90c5 953d d912 22bd 915a 913d f817 b4bc
00000060: 3028 08bd df29 343d ea8e 26bd a7fb a3bd
00000070: a372 6fbd 44c3 62bd 3df4 20bc 7515 243d
00000080: ed78 533d 9731 75bd 1b07 8b3c bf2f 29bc
00000090: 6453 1e3d 5cfa 003d 2730 2c3d 9c15 72bd
000000a0: a0b4 be3c 16d9 1939 7cf2 3a3d e1c7 3fbc
000000b0: 8fbd 80bd 72e3 2d3d 39b7 713d e996 2dbb
000000c0: b2e7 353d 91de 2d3d 92bf 2c3d 99ec 90bd
000000d0: e0bb f83c 51f9 203d 41fd 733c d7c7 8bbc
000000e0: 95a2 e7bb 24f6 ff3c 1e29 823c ad71 6dbc
000000f0: 7b0d 86bd 5db5 9bbd 704f cc3c fd9c e33c
00000100: 8b81 dbba 6cf1 3a3d 18fd 34bd b98f 43bc
00000110: 6c8f 10bd dccf 59bd ec32 87ba d40d 50bc
00000120: cf34 7dbd bc34 c4bc e095 d33c 9826 9c3c
00000130: 2ed3 7f3d d2ac 96bc 47fb 103d 73b0 6c3d
00000140: 4c65 f13b 222c 6a3c 1a32 38bd 989e 75bd
00000150: d3c4 c93c ee73 a73c d515 51bd 45b8 8ebd
00000160: 0526 6e3d 0902 9dbd 3498 2fbd b2c5 a3bc
00000170: 118a 8bbd 3bbb 25bd 2038 3abc a185 393c
00000180: ead4 54bd db4f 9dbc a0f4 2e3d 4d8a 3f3d
00000190: 4bdb 82bd f94f 46bd fb23 3a3d ef98 7e3c
000001a0: 57cb c93c 1aa8 163d 9963 80bc 7998 85bd
000001b0: 3174 3a3d 98bc ee3c cd0e babc fe5e 103d
000001c0: ab25 323d 9b00 4b3d 1e1a 43bd 2dc7 4abd
000001d0: b89e d93c b2b7 38bd 9771 0a3d 44f0 373d
000001e0: fdf9 56bc c1d4 9b3c eed4 ad3c f897 7dbc
000001f0: 993e f9bc 65c2 073d 00d2 43bd 42cb 003d
00000200: 74be 02bd 98d5 f1bc 132f b2bc 9294 373d
00000210: 4972 14bd 1c71 b23a 2b3b 4b3d 0d51 2f3c
00000220: 204e 8dbc 38d8 383d bf8f 02bc 48c5 82bd
00000230: 5018 90bc 4b16 f23c 832e b6bd a6eb 6a3c
00000240: 55ad b83c f2c1 fd3c 9738 e83c e3ad 423b
00000250: c202 93bc 3b8a c23c df5c 3abd 624c 653c
00000260: daa4 c03c c7dc cbb9 008e 583d 130d 79bc
00000270: 5676 563c 457a e03b b087 4d3d 2ee4 9c3c
00000280: bb35 f53b 60ed 86bc 29cf 5dbc fe1f 543d
00000290: 16e5 ed39 b1ef 96bb 4097 f83c 764d 01bc
000002a0: ff25 3dbd 91ed e8bc 8ec2 14bd 8e50 11bc
000002b0: 743c 07bc 41e0 103d 708a 553d 7c5a 0f3d
000002c0: 2b29 54bd 7fd0 02bc d541 aebc 1ffd 6b3c
000002d0: 8861 b23c be1f 9e3b 21b2 91bc e08a 8d3b
000002e0: d557 333d dbc6 083b 7345 333d cc53 52bd
000002f0: 9383 40bd 11fe debc 16ae 31bd d6b0 6a3d
00000300: 0a00 c8bc e556 163d 4fe5 babc 2cca 9c3b
00000310: 3fc6 7e3d 75a6 fcbc a61b 8cbb 1d3d 31bd
00000320: ec63 b9bc 2a3d 33bc 6c91 9d3c 5f02 353d
00000330: 3a52 0dbd 3975 a43b dd9f 1dbd dd0c 743c
00000340: 45b0 45bd cc52 363d e579 8a3d 01c1 c73c
00000350: 847d 5cbd 8212 603c 9a7b dc3b 008b 263b
00000360: ecc7 a53c 7693 45bd 28fc 5cbc 1c92 56bd
00000370: ef71 f73c 9ba0 9b3b d8dd f83c 0e07 413c
00000380: 7a35 fa3b 9f52 173d d472 423d 7859 b83c
00000390: a4fc fc3b 2fef 7abb a1ce ab3d 3b8a 873d
000003a0: 1386 f1bc a7f3 8b3c c075 243d 2938 74bb
000003b0: 14d1 12bc 7019 263d bc00 953d 3417 08bc
000003c0: 27af 113c 1cbb 143a ed8f c03a d02c e63b
000003d0: 8db3 f2bc 6ea1 b23c 8726 e83b 2888 8fbd
000003e0: 3c38 da3c 5dfb d33c 481f ee3c d799 2d3c
000003f0: de80 1e3c 5026 a4bd f04f a9bb 9789 fabc

action_model._continuous_distribution.mu.bias f4 [2]
0.024223171 -0.0017721031
00000000: ac6f c63c ea45 e8ba

exp_avg f4 [128, 6]
0.0046103466 0.0015804024 0.0018538391 0.0029678761 0.0011853019 0.0029521168 0.011039068 0.0031384665
0.0041563096 0.0060499404 0.0023538508 0.0062334626 -0.0007454294 -6.572753e-05 -0.0004462125 -3.898869e-05
-4.929566e-05 -0.0008450446 0.004353537 0.0012658865 0.0023736157 0.0022459954 0.0009494152 0.0044560293
0.00046834815 0.00055430166 -0.00021823187 0.0011103384 0.0004157264 -0.00078940747 -0.010947569 -0.004130058
-0.0049620313 -0.007541739 -0.0030975437 -0.009540319 0.00063634285 -0.00018051785 0.0006785595 -0.00061226974
-0.00013538844 0.0030461047 -7.615529e-05 -6.6559245e-05 0.00028625244 -0.000106461164 -4.991928e-05 0.0007434779
-0.010185967 -0.003652045 -0.003790264 -0.007031844 -0.002739034 -0.00578025 0.0014168049 0.0005592966
-0.0008031262 0.0013262634 0.00041947237 -0.0031451944 0.013351727 0.0041911425 0.005216779 0.007964266
0.0031433562 0.008186807 0.009355666 0.0033019495 0.0037499769 0.0061366507 0.0024764624 0.006963461
0.0062727802 0.0018670624 0.0035986113 0.0030553276 0.001400297 0.007922257 0.007051819 0.0022530511
0.0026066913 0.0041939206 0.0016897885 0.004149575 0.00046375103 -0.00029534288 -0.001072946 -0.00012501414
-0.00022150677 -0.0037723517 0.0017581383 0.00048160486 0.000652254 0.00094424956 0.00036120368 0.0012594223
-0.006133557 -0.0021947685 -0.0029123358 -0.003978704 -0.0016460763 -0.005490742 -0.0012717266 -0.00070304365
0.00036873535 -0.0015487487 -0.00052728277 0.0015050091 -0.00074029097 -0.00030349148 -0.00014750977 -0.0006701299
-0.00022761869 -0.0002760767 -0.0035459795 -0.0014002549 -0.0016044276 -0.002592406 -0.0010501913 -0.0033460953
0.0019614769 0.0012222072 -0.00036353111 0.0025916165 0.0009166554 -0.0015415507 -0.00609099 -0.0021106885
-0.002222456 -0.0042162226 -0.0015830164 -0.0034854952 0.0030374294 0.0006809683 0.002145624 0.0010049671
0.0005107261 0.004481735 -0.010281535 -0.003460291 -0.005119807 -0.0061924867 -0.0025952174 -0.00916433
-0.00071613287 -0.00076629315 0.00012003206 -0.0016750416 -0.0005747196 -2.7791648e-06 -0.0014011513 -0.0010826777
0.00076310127 -0.0025098347 -0.0008120084 0.0029214746 -0.014266872 -0.005375037 -0.005562729 -0.010124453
-0.004031278 -0.010232504 -0.0006950891 -0.00014638541 -0.00021844877 -0.0003093306 -0.00010978898 -0.0005435287
0.0001418483 8.327631e-05 4.4503773e-05 0.00018067498 6.245722e-05 9.889051e-05 -0.00027252358 -0.00012040285
0.00022176681 -0.00036329613 -9.030218e-05 0.00085087225 -0.0053645927 -0.0020196217 -0.001903282 -0.0037907977
-0.0015147167 -0.0032862562 0.0032297703 0.0010885755 0.0013598526 0.0018770494 0.0008164314 0.0031605565
0.006149375 0.0015003653 0.0019158394 0.0030001982 0.0011252739 0.0020153644 -0.005962191 -0.002238854
-0.0022169256 -0.0042081317 -0.0016791404 -0.0035475292 -0.00033778418 -0.00010223188 -0.00013337222 -0.00030729178
-7.667395e-05 -0.0006983717 0.0022798758 0.0005788255 0.001085955 0.0009882518 0.00043411905 0.002205214
-0.0026160171 -0.0017167131 0.00029339382 -0.0035719709 -0.0012875345 0.0016505815 0.001195217 0.000829925
-3.3068303e-05 0.001677732 0.0006224436 -0.00014431938 0.01279329 0.0042443927 0.0053819777 0.007773007
0.0031832934 0.010094973 0.00031476625 0.00026864687 -6.859939e-05 0.0005906254 0.00020148506 -0.00020291834
0.0032955238 0.0014217303 0.0010488916 0.0028340884 0.0010662975 0.0024610881 0.00028348505 0.00013587192
0.0001377372 0.0002169674 0.00010190396 0.000285465 0.00072535436 0.00011668784 1.6138123e-05 0.00019948001
00000000: 6412 973b 8125 cf3a 85fc f23a b380 423b
00000010: 225c 9b3a 4d78 413b 35dd 343c bbae 4d3b
00000020: a731 883b 943e c63b 1043 1a3b 1342 cc3b
00000030: ec68 43ba 33d7 89b8 a1f1 e9b9 ca87 23b8
00000040: d0c2 4eb8 fc85 5dba 1ea8 8e3b 1aec a53a
00000050: aa8e 1b3b 8d31 133b 2de2 783a e203 923b
00000060: a08c f539 8e4e 113a 2cd5 64b9 c688 913a
00000070: daf5 d939 3df0 4eba 6f5d 33bc 7055 87bb
00000080: 8998 a2bb b120 f7bb 2900 4bbb 004f 1cbc
00000090: 3fd0 263a 6449 3db9 5be1 313a ba80 20ba
000000a0: 0ff7 0db9 28a1 473b 8fb5 9fb8 b995 8bb8
000000b0: 2714 9639 e743 dfb8 6b60 51b8 f5e5 423a
000000c0: 0be3 26bc 2657 6fbb 1466 78bb 626b e6bb
000000d0: 5d81 33bb 4068 bdbb 15b4 b93a c29d 123a
000000e0: e388 52ba 04d6 ad3a a1ec db39 9b1f 4ebb
000000f0: 34c1 5a3c da55 893b 84f1 aa3b 8e7c 023c
00000100: c400 4e3b f521 063c 8248 193c 8565 583b
00000110: 2cc2 753b f515 c93b 254c 223b bf2d e43b
00000120: e58b cd3b 38b8 f43a aed6 6b3b e43b 483b
00000130: 2c8a b73a 5bcc 013c f212 e73b eda7 133b
00000140: 06d5 2a3b 286d 893b e57b dd3a 28f9 873b
00000150: 9c23 f339 40d8 9ab9 18a2 8cba 3a16 03b9
00000160: 4544 68b9 8f39 77bb 5571 e63a e97f fc39
00000170: 06fc 2a3a 8487 773a f05f bd39 3313 a53a
00000180: 01fc c8bb 1bd6 0fbb e3dc 3ebb ca5f 82bb
00000190: 28c1 d7ba afeb b3bb 10b0 a6ba 764c 38ba
000001a0: d252 c139 62ff caba 5939 0aba ba43 c53a
000001b0: 1610 42ba f01d 9fb9 daac 1ab9 a8ab 2fba
000001c0: edac 6eb9 63be 90b9 aa63 68bb c288 b7ba
000001d0: a84b d2ba 5be5 29bb 93a6 89ba 2a4a 5bbb
000001e0: 1f8c 003b 7832 a03a 5298 beb9 1cd8 293b
000001f0: b44b 703a dc0d caba ed96 c7bb 7a53 0abb
00000200: a0a6 11bb 3d28 8abb 377d cfba e86c 64bb
00000210: 9c0f 473b 0283 323a 999d 0c3b 1ab9 833a
00000220: 40e2 053a 85db 923b e273 28bc 0dc6 62bb
00000230: 0ec4 a7bb 58ea cabb 8614 2abb fc25 16bc
00000240: ddba 3bba 10e1 48ba b9b9 fb38 128d dbba
00000250: c8a8 16ba b081 3ab6 d6a6 b7ba a3e8 8dba
00000260: dc0a 483a 0a7c 24bb f6dc 54ba 3676 3f3b
00000270: 99bf 69bc 1421 b0bb 8e47 b6bb 09e1 25bc
00000280: d018 84bb 3ca6 27bc a436 36ba 097f 19b9
00000290: 650f 65b9 a62d a2b9 833e e6b8 987b 0eba
000002a0: 1dbd 1439 a1a4 ae38 90a9 3a38 9273 3d39
000002b0: 77fb 8238 7063 cf38 7fe1 8eb9 ca80 fcb8
000002c0: 138a 6839 c878 beb9 9d60 bdb8 120d 5f3a
000002d0: 77c9 afbb a15b 04bb 8c77 f9ba 086f 78bb
000002e0: 7589 c6ba 3b5e 57bb 8eaa 533b 88ae 8e3a
000002f0: 153d b23a 5407 f63a c905 563a 5721 4f3b
00000300: b280 c93b e8a7 c43a e71c fb3a f99e 443b
00000310: ed7d 933a 3414 043b 7c5e c3bb bdb9 12bb
00000320: d749 11bb 5ee4 89bb 9a16 dcba aa7d 68bb
00000330: a018 b1b9 5365 d6b8 d5d9 0bb9 011c a1b9
00000340: 03cc a0b8 ee12 37ba f869 153b 52bc 173a
00000350: 9a56 8e3a 3a88 813a 799a e339 5a85 103b
00000360: 7c71 2bbb 5503 e1ba a7d2 9939 ba17 6abb
00000370: 7dc2 a8ba 5358 d83a d4a8 9c3a 538f 593a
00000380: d2b2 0ab8 58e7 db3a 7c2b 233a 7054 17b9
00000390: f39a 513c 8c14 8b3b 4d5b b03b b5b4 fe3b
000003a0: cd9e 503b 6365 253c 3607 a539 2cd9 8c39
000003b0: 04dd 8fb8 33d4 1a3a bc45 5339 7ac6 54b9
000003c0: b7f9 573b 5a59 ba3a f67a 893a 1dbc 393b
000003d0: 02c3 8b3a 354a 213b b8a0 9439 d778 0e39
000003e0: 8c6d 1039 be81 6339 46b5 d538 77aa 9539
000003f0: b525 3e3a 4fb6 f438 5b60 8737 822b 5139

exp_avg_sq f4 [128, 6]
1.3394721e-05 1.3882486e-06 6.063453e-07 6.021992e-06 7.808909e-07 2.9923056e-06 0.000106346444 1.5278305e-05
4.3978416e-06 5.860571e-05 8.594038e-06 1.860114e-05 1.5838053e-06 4.5588303e-07 7.757511e-08 1.1256029e-06
2.5643473e-07 1.89165e-07 2.2394417e-05 2.8325337e-06 8.4935215e-07 1.2553895e-05 1.5933005e-06 4.7613535e-06
1.5817994e-06 5.44926e-07 9.05986e-08 1.3359197e-06 3.0652066e-07 1.6401427e-07 5.9936003e-05 6.4302194e-06
2.8418606e-06 2.9428635e-05 3.6169965e-06 1.4131881e-05 3.2825e-06 6.6972467e-07 3.295647e-07 2.3505668e-06
3.7672015e-07 1.422321e-06 9.4768875e-06 1.0956379e-06 2.2477619e-07 5.3481385e-06 6.162969e-07 2.714037e-06
9.447107e-05 9.790911e-06 2.767407e-06 4.3643624e-05 5.5073906e-06 1.6001724e-05 3.3597948e-06 6.705355e-07
2.6832524e-07 3.0057179e-06 3.7717592e-07 1.6700219e-06 0.0001046229 1.4948823e-05 5.048946e-06 5.8334947e-05
8.408706e-06 2.0368208e-05 3.8998198e-05 5.0482486e-06 2.122105e-06 1.9181292e-05 2.839641e-06 9.356058e-06
2.4251109e-05 3.3397228e-06 1.6596571e-06 1.3223577e-05 1.8785952e-06 7.646121e-06 3.336594e-05 5.591236e-06
1.539163e-06 1.9871834e-05 3.1450713e-06 5.973708e-06 2.547737e-05 3.50805e-06 9.038996e-07 1.4753976e-05
1.9732806e-06 5.574475e-06 1.4143716e-06 3.4948522e-07 1.322834e-07 1.1023286e-06 1.9658536e-07 3.6949905e-07
1.8512517e-05 1.9542974e-06 9.351858e-07 8.6154505e-06 1.099292e-06 4.619375e-06 1.1625917e-06 2.4537192e-07
6.42504e-08 1.03611e-06 1.3802182e-07 4.1028235e-07 3.736606e-07 6.659085e-08 2.2672134e-08 2.0750798e-07
3.7457337e-08 1.3328211e-07 4.5210645e-06 6.340133e-07 3.0173112e-07 2.5880042e-06 3.5663237e-07 1.4620416e-06
2.8324944e-06 5.844702e-07 1.5103493e-07 2.0416912e-06 3.287646e-07 8.699516e-07 4.1660474e-05 4.1042726e-06
9.947452e-07 1.973127e-05 2.3086527e-06 6.3900925e-06 2.4349118e-05 3.0176652e-06 7.8377445e-07 1.2888763e-05
1.6974354e-06 4.709497e-06 9.401397e-05 9.764952e-06 3.405816e-06 4.3637745e-05 5.4927827e-06 1.8786504e-05
1.6219736e-05 3.876196e-06 6.072893e-07 1.2625546e-05 2.1803573e-06 3.4150569e-06 2.460745e-06 4.6790967e-07
2.014693e-07 2.1812157e-06 2.6319935e-07 1.2078585e-06 7.4983596e-05 8.265934e-06 3.9705883e-06 3.4913945e-05
4.6495916e-06 1.8567265e-05 2.183553e-06 6.517609e-07 1.0378679e-07 1.4808276e-06 3.6661544e-07 1.15489684e-07
2.4529876e-07 5.3520097e-08 8.072619e-09 1.5129804e-07 3.0105e-08 1.986893e-08 1.0787179e-06 1.2107344e-07
3.9612146e-08 5.580506e-07 6.810383e-08 2.536102e-07 1.2942119e-05 1.4320889e-06 4.7275313e-07 6.215271e-06
8.055505e-07 2.5446902e-06 2.2728595e-06 6.839027e-07 3.290336e-07 1.8866803e-06 3.846942e-07 9.980849e-07
4.7896927e-05 6.6703797e-06 1.5731326e-06 2.7358143e-05 3.7520892e-06 7.798789e-06 1.3442118e-05 1.4905194e-06
6.3071224e-07 6.3853727e-06 8.384178e-07 2.8450643e-06 4.4696316e-07 1.2001371e-07 3.3375446e-08 3.4634633e-07
6.750771e-08 1.0728893e-07 7.4540985e-06 1.1301047e-06 2.8412336e-07 4.2656425e-06 6.356836e-07 1.3583794e-06
2.79492e-06 6.112488e-07 1.588679e-07 2.5707056e-06 3.4382725e-07 1.052948e-06 2.609933e-06 6.1133306e-07
1.3635032e-07 1.7037665e-06 3.43875e-07 5.9837697e-07 6.9707894e-05 1.0323426e-05 4.2254874e-06 3.918606e-05
5.806925e-06 1.6781447e-05 6.1945354e-07 1.1989559e-07 2.7333561e-08 4.3215638e-07 6.744121e-08 1.6777058e-07
2.109332e-06 3.9889088e-07 2.3953058e-07 1.5978503e-06 2.2437624e-07 8.869217e-07 4.2226858e-07 7.2565776e-08
1.0455221e-08 2.0272883e-07 4.081822e-08 3.6747156e-08 1.9705194e-06 5.5658757e-07 9.176407e-08 1.5302282e-06
00000000: e3b9 6037 dc53 ba35 bbc3 2235 8410 ca36
00000010: 6a9e 5135 6bcf 4836 5006 df38 e929 8037
00000020: 2c91 9336 67cf 7538 1d2f 1037 a509 9c37
00000030: 2393 d435 16c0 f434 5e97 a633 6c13 9735
00000040: 1fac 8934 471d 4b34 a5db bb37 8f16 3e36
00000050: 09ff 6335 929e 5237 63d9 d535 b7c3 9f36
00000060: 374e d435 0847 1235 1b8f c233 da4d b335
00000070: e18f a434 e61b 3034 cb63 7b38 2ac3 d736
00000080: cbb6 3e36 83dd f637 87bb 7236 f717 6d37
00000090: ec48 5c36 21c7 3335 07ef b034 6ebe 1d36
000000a0: 0640 ca34 94e6 be35 ecfe 1e37 d50d 9335
000000b0: 025a 7134 2974 b336 9a6f 2535 cd22 3636
000000c0: c51e c638 a443 2437 b1b7 3936 fc0d 3738
000000d0: 20cc b836 713b 8637 d678 6136 d9fe 3335
000000e0: 570e 9034 d7b5 4936 aa7e ca34 8425 e035
000000f0: fe68 db38 b5cc 7a37 1e6a a936 acac 7438
00000100: 1e13 0d37 65dc aa37 ff91 2338 2064 a936
00000110: 7c69 0e36 83e7 a037 a990 3e36 f7f7 1c37
00000120: dc6e cb37 0020 6036 62c1 de35 d5da 5d37
00000130: 0a24 fc35 d747 0037 68f2 0b38 5a9c bb36
00000140: 3d95 ce35 70b2 a637 ea0f 5336 c371 c836
00000150: 3cb8 d537 d76b 6b36 82a3 7235 d887 7737
00000160: b46c 0436 600c bb36 70d5 bd35 e2a0 bb34
00000170: c909 0e34 b9f3 9335 f914 5334 905f c634
00000180: 544b 9b37 9326 0336 7b09 7b35 148b 1037
00000190: 638b 9335 2100 9b36 590a 9c35 a9bb 8334
000001a0: 08fa 8933 7810 8b35 2633 1434 c744 dc34
000001b0: 869b c834 b500 8f33 8dc0 c232 5ccf 5e34
000001c0: c7e0 2033 4f1c 0f34 a6b3 9736 1031 2a35
000001d0: 9cfd a134 93ad 2d36 2e77 bf34 5e3b c435
000001e0: e215 3e36 7ce4 1c35 2a2c 2234 fd03 0936
000001f0: 1081 b034 9e86 6935 98bc 2e38 6fb7 8936
00000200: 2f83 8535 9484 a537 5aee 1a36 7a6a d636
00000210: 5541 cc37 1883 4a36 9264 5235 d13c 5837
00000220: 70d3 e335 4506 9e36 5e29 c538 26d4 2337
00000230: 798f 6436 ac07 3738 a54e b836 b697 9d37
00000240: 9e0f 8837 4510 8236 9a04 2335 4fd2 5337
00000250: 4152 1236 3b2e 6536 4723 2536 0435 fb34
00000260: 7653 5834 0061 1236 d84d 8d34 b41d a235
00000270: 8340 9d38 ebad 0a37 183b 8536 9070 1238
00000280: b003 9c36 e6c0 9b37 2889 1236 abf4 2e35
00000290: 64e1 de33 d9c0 c635 3ed3 c434 2003 f833
000002a0: 9bb1 8334 f8dd 6533 c1af 0a32 7d74 2234
000002b0: cc4c 0133 3dac aa32 77c8 9035 6a00 0234
000002c0: 0422 2a33 f2cc 1535 7a40 9233 ec27 8834
000002d0: fa21 5937 3336 c035 b2ce fd34 c58c d036
000002e0: 023d 5835 72c5 2a36 6e87 1836 7095 3735
000002f0: 09a6 b034 d739 fd35 f887 ce34 f0f5 8535
00000300: efe4 4838 20d2 df36 6d24 d335 2a7f e537
00000310: 67cc 7b36 8bd7 0237 7585 6137 db0d c835
00000320: 374e 2935 ef41 d636 a20f 6135 d5ed 3e36
00000330: 26f6 ef34 1edd 0034 b158 0f33 7af1 b934
00000340: c2f8 9033 b766 e633 381e fa36 1aae 9735
00000350: 9e89 9834 9721 8f36 d8a3 2a35 9051 b635
00000360: 5c90 3b36 b314 2435 4795 2a34 6384 2c36
00000370: 4297 b834 0553 8d35 4f26 2f36 7d1a 2435
00000380: b167 1234 f9ac e435 d29d b834 27a0 2035
00000390: 2430 9238 c732 2d37 a9c8 8d36 b65b 2438
000003a0: 1bd9 c236 e2c5 8c37 8648 2635 a6bc 0034
000003b0: 23cb ea32 1f03 e834 33d4 9033 6d24 3434
000003c0: 0c8e 0d36 2527 d634 d598 8034 b875 d635
000003d0: 12ec 7034 cc14 6e35 27b4 e234 75d5 9b33
000003e0: 8c9e 3332 adad 5934 1c50 2f33 edd3 1d33
000003f0: 443d 0436 6868 1535 d50f c533 3e62 cd35

exp_avg f4 [128]
0.0015804025 0.0031384667 -6.572755e-05 0.0012658866 0.0005543018 -0.004130058 -0.00018051766 -6.655918e-05
-0.0036520443 0.0005592966 0.0041911434 0.0033019495 0.0018670622 0.0022530516 -0.00029534253 0.00048160504
-0.0021947685 -0.0007030437 -0.00030349146 -0.001400255 0.0012222071 -0.0021106882 0.00068096834 -0.0034602908
-0.0007662929 -0.0010826776 -0.0053750365 -0.00014638543 8.327632e-05 -0.00012040287 -0.0020196224 0.0010885753
0.001500365 -0.002238854 -0.000102231876 0.0005788253 -0.001716713 0.000829925 0.004244391 0.0002686468
0.00142173 0.00013587192 0.000116687785 -0.004700286 -0.00017284323 -0.00016825741 -0.002095906 0.0018507477
-5.785993e-05 -0.0009033037 0.00036473505 -0.0065150005 -0.001149713 0.000793177 0.0008373972 0.00016984313
0.0019252222 0.00041955698 0.000564281 0.0009096055 -0.00015027348 0.0016304987 0.00039095973 0.002474532
-0.0011880033 -0.00011851571 -0.004693847 -0.002622856 -0.0025596377 -0.0015406602 -0.0029699244 -0.00084995717
0.00053027656 0.0006990925 -0.0034336704 -0.0014298136 -0.00011455196 0.0005576293 -0.002584319 0.0026910685
-0.0002849715 -7.295155e-05 -0.00011100883 -1.4701601e-05 0.003382339 0.00050028844 -0.005818665 0.0029185826
0.00083038514 -0.0002524823 0.00019445118 0.00037610586 0.0006887602 0.0009076496 -0.0001222449 -3.404099e-05
-0.0004617319 -0.004212896 -0.0010911827 0.002606757 0.0003300213 -0.0049829534 0.00021735561 6.771773e-05
-0.0015343805 0.0007496219 2.641545e-05 -0.0010046103 0.0022804313 0.002549152 -0.0019492123 -2.0867163e-05
-0.00056360284 -0.0022044342 -0.0043894867 -0.00064787955 0.0017634159 -0.00015437446 0.00027265784 0.0012470393
-0.0037969481 0.0032792164 0.00013792572 -0.00012899716 -0.0005432799 0.00014561365 0.00035044827 -0.00011668153
00000000: 8225 cf3a bcae 4d3b 36d7 89b8 1bec a53a
00000010: 904e 113a 7055 87bb 5749 3db9 b095 8bb8
00000020: 2357 6fbb c29d 123a dc55 893b 8565 583b
00000030: 36b8 f43a efa7 133b 34d8 9ab9 ef7f fc39
00000040: 1bd6 0fbb 774c 38ba ef1d 9fb9 c388 b7ba
00000050: 7732 a03a 7953 0abb 0383 323a 0cc6 62bb
00000060: 0ce1 48ba a2e8 8dba 1321 b0bb 0a7f 19b9
00000070: a2a4 ae38 cc80 fcb8 a45b 04bb 87ae 8e3a
00000080: e5a7 c43a bdb9 12bb 5265 d6b8 4fbc 173a
00000090: 5403 e1ba 538f 593a 8814 8b3b 2ad9 8c39
000000a0: 5859 ba3a d778 0e39 47b6 f438 db04 9abb
000000b0: 403d 35b9 416e 30b9 785b 09bb ca94 f23a
000000c0: a0ae 72b8 afcb 6cba e939 bf39 c97b d5bb
000000d0: f7b1 96ba 35ed 4f3a c684 5b3a eb17 3239
000000e0: bd57 fc3a fcf7 db39 42ec 133a 9772 6e3a
000000f0: bb92 1db9 75b6 d53a baf9 cc39 c22b 223b
00000100: c7b6 9bba a38b f8b8 d8ce 99bb 39e4 2bbb
00000110: 98bf 27bb faef c9ba 10a3 42bb a9cf 5eba
00000120: 4202 0b3a 4e43 373a 6e07 61bb 9568 bbba
00000130: 9e3b f0b8 de2d 123a ae5d 29bb a35c 303b
00000140: 3a68 95b9 91fd 98b8 69cd e8b8 e5a6 76b7
00000150: 3baa 5d3b ca25 033a 80aa bebb b145 3f3b
00000160: 34ae 593a 9a5f 84b9 97e5 4b39 1330 c539
00000170: ea8d 343a 55ef 6d3a de2e 00b9 3cc7 0eb8
00000180: 9b14 f2b9 550c 8abb 0406 8fba 20d6 2a3b
00000190: b606 ad39 0b48 a3bb f4e9 6339 ae03 8e38
000001a0: 441d c9ba 4682 443a bf96 dd37 21ad 83ba
000001b0: 4a73 153b ac0f 273b b67c ffba e40b afb7
000001c0: bfbe 13ba 4578 10bb afd5 8fbb 76d6 29ba
000001d0: 6b22 e73a 94df 21b9 84f3 8e39 b273 a33a
000001e0: 38d6 78bb 1fe8 563b 27a0 1039 6943 07b9
000001f0: e66a 0eba deaf 1839 5fbc b739 ebb2 f4b8

exp_avg_sq f4 [128]
1.3882486e-06 1.5278309e-05 4.5588297e-07 2.8325335e-06 5.44926e-07 6.430218e-06 6.697246e-07 1.0956379e-06
9.790912e-06 6.705356e-07 1.4948826e-05 5.0482495e-06 3.339722e-06 5.591236e-06 3.5080507e-06 3.4948528e-07
1.954297e-06 2.45372e-07 6.659086e-08 6.340132e-07 5.844702e-07 4.104274e-06 3.0176652e-06 9.764951e-06
3.8761946e-06 4.6790976e-07 8.265933e-06 6.517611e-07 5.352008e-08 1.2107347e-07 1.4320888e-06 6.839026e-07
6.6703815e-06 1.4905191e-06 1.2001371e-07 1.1301047e-06 6.112487e-07 6.113331e-07 1.0323422e-05 1.1989557e-07
3.98891e-07 7.256578e-08 5.565878e-07 4.7179115e-06 6.0004106e-07 1.3244829e-07 8.697006e-07 4.8188954e-06
5.294407e-08 4.853745e-07 1.7663207e-06 1.24585495e-05 1.4018468e-06 3.3538385e-07 4.977654e-06 5.9397628e-08
8.0101665e-07 1.0084761e-06 1.2194504e-06 2.4236558e-06 4.89657e-09 3.3937372e-06 2.299947e-06 5.374031e-06
3.1146901e-06 8.08681e-07 1.4418106e-05 1.2881858e-06 1.2788083e-05 6.3751804e-07 2.2851984e-06 7.7581933e-07
1.3427609e-06 4.3051746e-06 8.39792e-06 2.459516e-06 3.0361054e-08 1.7785963e-07 2.8732175e-06 5.420842e-06
1.46326e-06 4.5190276e-07 4.3176243e-08 4.7350532e-08 7.0881297e-06 4.8350904e-07 1.1968147e-05 9.294428e-06
1.2372255e-06 7.0948613e-07 1.3230037e-07 4.2611323e-06 2.3973844e-06 4.8736564e-07 8.257971e-08 4.993472e-08
2.4037324e-06 1.0633489e-05 3.302154e-06 6.9354205e-06 8.5102783e-07 1.2275076e-05 6.0864886e-07 9.3456045e-08
9.713108e-07 6.8134494e-07 6.6137295e-07 5.4135758e-06 1.0334686e-05 1.3398791e-05 3.9756524e-06 4.396608e-07
8.310447e-08 2.8269017e-06 6.1507308e-06 2.5583728e-07 7.070134e-06 1.7470633e-08 4.4910928e-07 1.4066607e-06
1.3071051e-05 1.2038011e-05 9.90513e-07 1.089332e-07 3.495848e-07 6.160947e-07 3.4138683e-08 1.2856474e-07
00000000: dc53 ba35 eb29 8037 14c0 f434 8e16 3e36
00000010: 0847 1235 27c3 d736 20c7 3335 d50d 9335
00000020: a643 2437 dbfe 3335 b8cc 7a37 2264 a936
00000030: fd1f 6036 5a9c bb36 da6b 6b36 e4a0 bb34
00000040: 9126 0336 acbb 8334 b600 8f33 0e31 2a35
00000050: 7ce4 1c35 72b7 8936 1883 4a36 25d4 2337
00000060: 4210 8236 0735 fb34 e9ad 0a37 aff4 2e35
00000070: f3dd 6533 6c00 0234 3236 c035 6e95 3735
00000080: 24d2 df36 d90d c835 1edd 0034 1aae 9735
00000090: b114 2435 7e1a 2435 c332 2d37 a5bc 0034
000000a0: 2927 d634 76d5 9b33 6c68 1535 8d4e 9e36
000000b0: 8212 2135 1c37 0e34 5f75 6935 ffb1 a136
000000c0: 9f64 6333 af4a 0235 5112 ed35 1005 5137
000000d0: 1727 bc35 ce0e b434 b905 a736 621c 7f33
000000e0: 7205 5735 fa5a 8735 ffab a335 17a6 2236
000000f0: af3e a831 f6bf 6336 ca58 1a36 9352 b436
00000100: f805 5136 2314 5935 4be5 7137 bae5 ac35
00000110: 668c 5637 e821 2b35 695b 1936 e641 5035
00000120: ea38 b435 2b75 9036 cbe4 0c37 2a0e 2536
00000130: 5566 0233 aff9 3e34 80d1 4036 aee4 b536
00000140: 3b65 c435 0b9d f234 c870 3933 765e 4b33
00000150: 92d6 ed36 7dca 0135 cdca 4837 44ef 1b37
00000160: bf0e a635 8473 3e35 730e 0e34 d9fa 8e36
00000170: c0e2 2036 83d3 0235 ad56 b133 ce77 5633
00000180: cf4f 2136 7d66 3237 939a 5d36 cfb6 e836
00000190: 3072 6435 0df1 4d37 0862 2335 01b2 c833
000001a0: fc5d 8235 abe5 3635 3489 3135 43a6 b536
000001b0: 2363 2d37 5fcb 6037 9866 8536 850a ec34
000001c0: 2a77 b233 cdb5 3d36 6062 ce36 025a 8934
000001d0: fd3b ed36 5412 9632 1c1d f134 7ecc bc35
000001e0: bd4b 5b37 ddf6 4937 c4f1 8435 a9ee e933
000001f0: 92ae bb34 b561 2535 e19f 1233 9b0b 0a34
