results/ppo/MoveToGoal/MoveToGoal-248064.pt (torch, 438559 bytes, 36 tensors)

network_body._body_endoder.seq_layers.0.weight f4 [128, 6]
00000000: 550e 8dbd c8e2 433e d8e1 0f3e 6690 983d
00000010: 332c bcbe 7a0d c83e 22af d5bd e70b dc3d
00000020: 4297 24be e33c c23e dd9b e03d bf89 dd3e
00000030: 2079 e0bd 8493 1a3e 9c8b b4be 9fd0 eabd
00000040: 35b4 debe bf94 013e ab03 a2be 03e7 68be
00000050: 6f1a ce3c 0b3d 153f 452e 993e 2519 1bbe
00000060: 7a05 0abf 4919 0b3e c3e9 1dbd b269 6b3d
00000070: d374 803d 56e1 2cbf a3f4 d63e 992e 0dbf
00000080: 3697 bcbe 9355 8a3e 1c6b 04bf 19dc e23e
00000090: 7471 82bd 706f 583d 4fd6 233f 5463 4abe
000000a0: ca39 4c3d 7f79 94be 7531 6c3e 4093 44bf
000000b0: c449 1ebf aa0a b03d f783 d8be e055 45bf
000000c0: 897c 1a3f 3ac1 e83d 5b59 363e 9f8b a0be
000000d0: eb5b 7a3e fbcc 83be a367 f3bd 6461 1c3e
000000e0: a732 a9be a71d 643e 4028 33bf 9b04 51bd
000000f0: 5d97 a7be 3cae 72be d19f 123e 3884 153f
00000100: 23e2 ce3e 0334 813e 1501 41be 42f0 703f
00000110: ceb8 b23e da4b 07be 4d38 003f db88 d53e
00000120: 6a41 87bc c31d f33d 744b 643f 1ce3 283e
00000130: b45d 9b3e 94cd 0cbf 05d3 203f 9f02 553e
00000140: cfe9 a43c 0a03 243f 3564 183f 377c 34bc
00000150: 20a3 d13e ffcd 70be 81d5 4abf 82e4 393f
00000160: 280f e03e 313d 7bbe 5fde 88be c88e 16be
00000170: 9069 3d3d c1de 253e e6a0 02be 9ec0 dd3e
00000180: f8aa 013f bc1a f6bd abdb 7fbe 523c 843e
00000190: 6513 a7be 15fb 37bc 0f5c c3bd 6f71 26bf
000001a0: 84f1 c53e dbcb ab3e 57ba 16be d723 0dbf
000001b0: 0cd5 e5be f417 863e 9b4a 9e3e 7a8c acbe
000001c0: b6dd e03e c3a8 0ebf 9322 693c 715c d5bd
000001d0: 1d82 05bf 9873 da3d d6d5 f5be f952 fa3e
000001e0: ff96 31be c654 f43d 4093 cabe 9e48 7ebe
000001f0: 11f8 a23e 7f2d 0bbf 72fa c83e f322 1cbf
00000200: d7d4 393e c131 933d 682a 08bc 2509 9bbe
00000210: 67ce 813e b89a 973e 795a d1bd 81b4 363e
00000220: 59c3 53be 1787 3ebd 4698 473f 964e 0f3f
00000230: 5b99 79bc f6d9 27be 09ba 33bf 919a 94be
00000240: 142a 07bf 7b41 85be c845 95be 05b0 5e3f
00000250: a54a af3e e51d 6abf 1434 1d3e 7f69 e5bd
00000260: 9e50 183f c7a4 8cbb 182d 123f 2a8a 70bf
00000270: 98f4 813e 4eb6 a53e 102f d3bd f728 b7be
00000280: 8591 c2bc f0c5 113f c6c0 9fbe 66b2 eebe
00000290: e5ca 21bd ad07 d8ba 9990 e93d 1a98 3a3e
000002a0: 0980 1bbe 9035 65bf acdf b43d a1f1 c43c
000002b0: 62bb 60be 1c06 f03b 6ce3 243e 5964 13be
000002c0: 2e5a cc3d 6c21 e93d f51a 9cbe e63c 66be
000002d0: 0e38 213f 21be 943d 873f fdbd b681 913c
000002e0: a773 2e3c 78b4 72be 329a ddbe 8433 bcbe
000002f0: 9cc6 1a3f 8af1 203d 3fce 2d3f ce19 c5bd
00000300: 5068 49be 183c d8bc 133c a0be 23e2 063f
00000310: eee8 16be 25a1 373e 07d3 533f 8bf4 f93e
00000320: f40a 643f a6dc 633d d03d 813e 10ab 9c3e
00000330: 5c05 16bf 5f60 c5bd 9297 3cbe 769b 453e
00000340: a44e 1fbe 8af6 49be 4656 a33e 0dd2 3abd
00000350: cab4 db3d 9c24 fa3e 77c2 fb3e c41a 04be
00000360: 0232 22bc 2bc0 2f3f 73dd 183f 0ced 20bf
00000370: 30a6 afbe 5cd8 a0bf 096b a0be 6fd2 533e
00000380: 8bbf e8be a273 38be 45bc 0fbf 5d6a 34bf
00000390: 8cc3 a9be 049f 073f 0a91 2f3f 27b5 003f
000003a0: 8c2c 54be 4193 213e 3af7 28bd 0977 c53d
000003b0: bc71 54bf 0c4e 9fbd ad6c 63be 90e3 a4be
000003c0: aef6 a3be 8e0c 40bf b141 0d3f 5962 c43e
000003d0: 0885 9ebe 2803 093f 1c04 b2be d943 dabe
000003e0: a32e 94be 9123 21bf ff61 d93e 4bca 8ebe
000003f0: a589 82be 5556 2e3f 4be0 1f3e 494f 00be
-0.06887499 0.19129479 0.14050996 0.07449417 -0.3675247 0.39072782 -0.104337946 0.10744458
-0.16073325 0.37937078 0.109672286 0.43269154 -0.10960603 0.15095335 -0.35262764 -0.114655726
-0.43496862 0.12654398 -0.31643423 -0.22744374 0.025159089 0.5829627 0.29918113 -0.1514631
-0.53914607 0.13583864 -0.03855301 0.057473846 0.062722825 -0.67531335 0.41983518 -0.5514923
-0.36834115 0.27018413 -0.51725936 0.44308546 -0.06369296 0.05284065 0.63998884 -0.19764453
0.0498598 -0.28998944 0.23065741 -0.76787186 -0.6183131 0.08595784 -0.4228818 -0.7708416
0.60346276 0.1136498 0.17807524 -0.31356522 0.24449126 -0.25742325 -0.118850015 0.15271527
-0.33046457 0.22276936 -0.6998329 -0.051029783 -0.3273267 -0.23699278 0.14318778 0.58404875
0.40406904 0.25234994 -0.18848069 0.94116604 0.3490662 -0.13212529 0.5008591 0.41705975
-0.016510684 0.11870911 0.8917763 0.16492885 0.30344927 -0.5500119 0.6282199 0.20801781
0.02013102 0.6406714 0.59527904 -0.011015943 0.40944767 -0.23516081 -0.7923203 0.726143
0.43761563 -0.24535061 -0.26732156 -0.14702904 0.04624325 0.16198255 -0.1275669 0.43311018
0.506515 -0.12016818 -0.2498614 0.2582727 -0.32631984 -0.011229296 -0.09539043 -0.65016836
0.38660824 0.33553967 -0.1471952 -0.5513281 -0.44889104 0.2619015 0.30916294 -0.33700925
0.43919152 -0.5572626 0.014229435 -0.104180224 -0.5215166 0.10666579 -0.48014706 0.48891428
-0.17342757 0.11930232 -0.39565468 -0.24832389 0.31829885 -0.54366297 0.39253575 -0.6099083
0.18147598 0.07187224 -0.008310892 -0.30280414 0.25352785 0.2961023 -0.102223344 0.17842294
-0.20679988 -0.04651555 0.77966726 0.5597929 -0.015234317 -0.16391739 -0.7020574 -0.29024175
-0.5279858 -0.2602652 -0.291548 0.86987334 0.34236637 -0.91451865 0.15351897 -0.112017624
0.5949801 -0.004292104 0.5710006 -0.9396082 0.25381923 0.3236565 -0.10311711 -0.3577344
-0.02375103 0.56942654 -0.31201762 -0.46620482 -0.039500136 -0.001648178 0.11404533 0.18222085
-0.1518556 -0.89534855 0.088317245 0.024040999 -0.21946481 0.007324947 0.1610238 -0.14393748
0.09978138 0.11383328 -0.30489317 -0.22484168 0.6297616 0.07262827 -0.123656325 0.017762046
0.010647691 -0.23701656 -0.43281704 -0.36758053 0.60459304 0.03929285 0.6789283 -0.096240625
-0.19668698 -0.026395842 -0.31295833 0.5268881 -0.14737293 0.17932566 0.8274388 0.48819384
0.89079213 0.05563035 0.25242472 0.3059926 -0.5860193 -0.09637522 -0.18417194 0.19297585
-0.15557343 -0.19722953 0.3190176 -0.045610476 0.10727842 0.48856056 0.49171802 -0.12900835
-0.009899618 0.686526 0.59712905 -0.62861705 -0.34306479 -1.2566028 -0.3133166 0.20685743
-0.45458636 -0.1801286 -0.5614665 -0.704748 -0.33157003 0.52977014 0.6858069 0.50276417
-0.20720118 0.15778829 -0.0412514 0.09641845 -0.82986045 -0.07778558 -0.22209425 -0.32204866
-0.3202414 -0.75019157 0.5517836 0.38356283 -0.3096087 0.5352044 -0.3476876 -0.4262989
-0.2894183 -0.62944895 0.42457578 -0.27888712 -0.2549564 0.6810048 0.15612905 -0.12530245

network_body._body_endoder.seq_layers.0.bias f4 [128]
00000000: c7ce 9b3c 10fa 093d b87c 0fbd 55cb 203d
00000010: 8d0a 00bd f243 c8bb 091d d0bb a6a1 44bc
00000020: de4a 7bbc 00ee d03c d31d 113d 5366 f03c
00000030: 98c8 6d3c ed32 263d e59b 0e3d 8f87 ce3c
00000040: 4d83 e53a 3bf1 21bd 68a7 4f3a a0bd afbc
00000050: c92a c93a c860 53bc 614a 133d 2411 d2bc
00000060: cfa4 083d 0b0d 08bc 3145 c9bc 1d90 9dbc
00000070: 9b2a ebbc fc89 ee3c 1a5d 663c 661e f13c
00000080: 655d 0c3d 1c92 1f3d 6cf9 7a3c f1cf c93c
00000090: 00f6 963c 7f2a ccbb 7eb2 1d3d f911 813c
000000a0: 256c 393c c679 e6bc 0065 e23c c0df 063b
000000b0: b5ab d03c 554f 3d3b f27d fc3c d86e 113d
000000c0: f80c 03bc 6155 fcbc b969 893c 3b22 90bc
000000d0: 4410 2a3d 64a5 1dbd 19a5 0c3d d150 653c
000000e0: 4d35 dabc 75da 0a3c c68a 203d cd32 c23c
000000f0: a6a9 2f3c 2cc6 e43c f154 103d f586 103d
00000100: 0078 e9bc 0bd2 09bc fa35 c53c df28 0dbd
00000110: c7f7 63bb 06a3 d3bc 5c41 4e3d cf7c a93c
00000120: 3469 08ba 5177 313d 29d8 bc3a 73ab ebbc
00000130: d596 f6bc fe0e 963c 3250 77bc bc95 f33c
00000140: 8614 dc3c 87f1 60bc 1407 4cba e1a6 ec39
00000150: b6ae 193d 889a ab3c 5361 1f3d 9694 ef3c
00000160: 2910 383c e0fb 1dbd cbb0 513c ce67 0e3d
00000170: 60ab fcbc 05ee f53b 6cbb d23c 1574 adbc
00000180: c14c 55bc 68ca 1ebd b0e3 783c c0c2 0d3d
00000190: 97ac 21bc ef30 abbc 2640 873c bb36 ccbc
000001a0: 442a 023a 502f c0ba 515e bdba 4e0c 67bc
000001b0: c608 153d 401d e53c 7b99 e3bc 82cf 75bc
000001c0: ccfe fb3c 2d67 92bc a45f 4cbc fed7 a43c
000001d0: 7e53 123d 4eda cdbc ae4c 89bc bfbb 35bc
000001e0: b582 4e3c ee04 0e3d c25e 18bc 8219 bc3b
000001f0: 36fd d0bb 0e36 d7bc bdbe 9cbc c74a 8b3c
0.019019498 0.033685744 -0.03503105 0.039256413 -0.031260062 -0.0061116153 -0.0063511175 -0.012001431
-0.015337674 0.025504112 0.035428833 0.029345667 0.014513157 0.04057591 0.03481664 0.025211124
0.0017510444 -0.039536696 0.0007921369 -0.021452725 0.0015347834 -0.012901492 0.035959605 -0.025642939
0.0333603 -0.008303891 -0.024569126 -0.019233758 -0.02870684 0.02911853 0.014060283 0.02943344
0.034268755 0.0389577 0.015318256 0.024635287 0.018427849 -0.006230652 0.0385003 0.01575564
0.011317288 -0.028134238 0.027636051 0.0020580143 0.025472501 0.0028886397 0.030821774 0.0355061
-0.007998697 -0.03080243 0.016774045 -0.017594447 0.04151942 -0.038487807 0.034337137 0.013996319
-0.026636744 0.008474936 0.039194845 0.023705864 0.0107216 0.027926527 0.035237256 0.035284955
-0.028499603 -0.008411895 0.02407359 -0.034462806 -0.0034785138 -0.025834572 0.0503553 0.020689396
-0.0005203665 0.04332668 0.0014407682 -0.028768277 -0.03010122 0.018317696 -0.015094804 0.029734485
0.026865255 -0.01372946 -0.0007783037 0.00045137762 0.037520133 0.02094771 0.038911175 0.029245656
0.011234322 -0.038570285 0.012798498 0.034766965 -0.030843437 0.007505181 0.025724135 -0.021173516
-0.013018788 -0.03876725 0.015191004 0.034609556 -0.009867809 -0.020897357 0.01651008 -0.024928441
0.00049654045 -0.0014662538 -0.0014447664 -0.014102055 0.03638532 0.027968049 -0.027783146 -0.015003087
0.030761145 -0.017871464 -0.012473974 0.020122524 0.035724156 -0.02512851 -0.016760197 -0.011092125
0.012604405 0.03467267 -0.009299936 0.0057403455 -0.0063778413 -0.026270892 -0.01913392 0.01700343

network_body._body_endoder.seq_layers.2.weight f4 [128, 128]
00000000: fa24 e93d 408e a33d 3da0 b2bd b69a 213d
00000010: b2c4 03bd 41a3 23bd da01 b9bd 451f 933d
00000020: 920a 8fbd fd76 ebbc d288 4abd 9567 013e
00000030: 1cc8 27bd c70b d73d e4f8 c23c 120c 103e
00000040: 5a89 24be 8192 8fbd aa5b c7bd 86ab 00bd
00000050: fbe2 d43d 3b1e 9d3d 5b2e 273d 10ac 5fbe
00000060: 23fa 9e3d 5101 d83d b8fa aabd 7252 57bc
00000070: 2852 a63d 78e4 bfbd 3667 15be 0255 9abc
00000080: e486 8b3d d25b 133e 68ad 34bd acfd 1bbc
00000090: b2e2 8abc 2197 0ebc ba7d df3d c4f7 a8bd
000000a0: d17a 75bb 8184 cdbb 320a 08bd 305f 533c
000000b0: a6c7 b73d 90eb 21bd 5149 e23c 923d 853d
000000c0: 1831 a63d 163f 42ba 8737 d53d 6b40 24bd
000000d0: 00ac 87bd 5690 b63c ec74 30bd 36a3 bd3d
000000e0: 021e 04be d7d3 eb3d 8e5b fcbd d967 1abd
000000f0: 3338 ba3d 9018 b83c 9d3d 493e 620b 4f3e
00000100: a914 5b3d 4247 7dbd 6866 083d 4fe6 9dbd
00000110: 57db 17bd e9b0 14be b3d8 18bd 6463 8fbc
00000120: d63d e3bd 4ce3 eebb 1f39 96bd 4864 b8bb
00000130: 26c1 afbd 7731 6f3d 39ba 6bbd ec13 143d
00000140: 85f0 d43d 8c3f 9d3c 3c1f 963d 3735 363e
00000150: 8889 b73d 7226 6abc 6856 f1bd 9525 8fbd
00000160: db4f 9c3c 9142 d1bc 6308 8dbd 2c66 c53c
00000170: 5d09 b43c a1b7 36bd 8ebe 3bbd 2b2b d6bd
00000180: e959 ebbc a618 1ebe 18a6 aabd 0d3d 113d
00000190: c176 08bd f640 c0bd ec47 c6bd 647c 8bbd
000001a0: 39da d43d e58c 69be 8f0f e8bd f442 e3bb
000001b0: 3498 d03d be8c 2a3e 549d 84be 8d53 bbbc
000001c0: e58b 493d 79cb 883b c375 6cbd 45a6 f13c
000001d0: fd11 a0bc ae98 f9b9 ff3f f23c 85ba bdbd
000001e0: 3338 3c3c 20f0 433d 10b4 613c e876 ca3c
000001f0: 8cde 6dbd 442d 5f3d 9359 943d 5af2 e1bd
00000200: b57e d83d bcba 1cbc c359 993d 7a34 99bc
00000210: d232 3d3e 284f 70bc 93cc f9bd 274a 08be
00000220: 7673 983d a92c e73d 0899 23be fad8 15bd
00000230: 4486 d5bc b7c8 18be 2990 1f3e 02bf d4bc
00000240: 6add 883d ef69 b4bd 1f1e ddbd 5e05 54bc
00000250: 1cce 5a3b 450a 31be 46b5 97bc 590c 2dbd
00000260: fdfe e0bd 0017 4bbd ae31 22bd 2a6d b5bd
00000270: 3a9b 0bbe 6761 bf3d 357f ef3c ad2c 9abd
00000280: 0c75 493e 4b63 143e 0971 873d 8b37 0bbe
00000290: fb51 2c3d 2e6c db3d 1581 94bd e130 6f3d
000002a0: 01a8 e9bc 290e 7a3d 17a6 0abe ea4e 623d
000002b0: 82da b6ba 6a29 12be 434a 52be 89dc 283d
000002c0: 5b4f b4bd 07fa d9bc 6ea8 cf3d 5b70 633c
000002d0: bede 813d c70f e13c fbae 31bd d8ce 663d
000002e0: e62b adbd 811f 40be bbef fc3d ea62 d4bd
000002f0: c2c8 8dbd 197d 2dbe f3be eebd 370b b7bd
00000300: d627 28bd 520a 11bd 045d c33d baf6 b93b
00000310: ba49 a3bd bd3a edbd 1153 dcbb 523a 503d
00000320: c7a2 063e a08a b2bd 17ce a43c f579 07bd
00000330: b67e 98bd 8564 133d d1b1 df3d f904 07bd
00000340: ebe3 76bd 5b6d 593d fb8d 283e 92ff 9e3d
00000350: 108e babd 3b22 68bc 857e a43d f438 0fbe
00000360: 10b1 6e3d 43ea 453c 3f56 8fbd d175 58bd
00000370: 3cb7 ea3d f971 f93d 62e1 f6bd 98d1 9a3b
00000380: 12ec 8c3c e6f5 ad3d 5fb9 beba f431 dbbc
00000390: 9e80 e53d 422c 1fbd e38f 5f3d 843f 163c
000003a0: 2508 c13d 8568 5a3d 371b 7abc 1d63 893c
000003b0: 34fc cfbd 07b8 a9bd 475d 3ebc 3e13 3fbc
000003c0: 213e 923d 242c 1b3e 41e5 8bbd e3f6 633d
000003d0: e96b 463d dd3d 79bd 5d27 4abb 83eb bc3c
000003e0: 48a7 2f3d f3e8 d4bc a075 abbc 3621 cbbd
000003f0: 1538 b7bd 5441 e9bd d451 003d 71f6 db3d
0.11384006 0.079861164 -0.08721969 0.039454184 -0.032170005 -0.039950613 -0.09033556 0.071836986
-0.06984438 -0.028743261 -0.04944689 0.1263717 -0.040962324 0.10500293 0.02380032 0.14067104
-0.1606802 -0.07010365 -0.097342804 -0.031413577 0.103948556 0.07671782 0.040815692 -0.2184298
0.077625535 0.10547126 -0.08348602 -0.013142215 0.08121139 -0.09369749 -0.14590153 -0.018839363
0.06812838 0.14390495 -0.044110686 -0.009520929 -0.0169538 -0.008703024 0.10912652 -0.082503825
-0.0037457237 -0.006271899 -0.033212848 0.012901112 0.08973627 -0.03953129 0.02762285 0.06505884
0.08114833 -0.0007409913 0.104109816 -0.040100496 -0.06624603 0.022285622 -0.043080255 0.09259646
-0.12902072 0.115150146 -0.1232215 -0.037696693 0.090927504 0.02247265 0.1965241 0.20219186
0.0534865 -0.061835535 0.033300787 -0.077099435 -0.037074413 -0.14520611 -0.037316035 -0.017503448
-0.11095779 -0.0072902795 -0.07335114 -0.005627189 -0.08581762 0.058396783 -0.057550643 0.03615181
0.10397438 0.01919534 0.07330176 0.17793737 0.08961779 -0.014291393 -0.11784059 -0.0698959
0.019081047 -0.025544437 -0.06886365 0.02409657 0.021977121 -0.044608716 -0.045836024 -0.104574524
-0.028729396 -0.1543909 -0.08332461 0.035458613 -0.033316378 -0.0938739 -0.09681687 -0.06810835
0.10393185 -0.22807653 -0.113310926 -0.0069354717 0.101852804 0.16655251 -0.25901282 -0.022866989
0.04920568 0.0041746465 -0.057729494 0.029498229 -0.019539827 -0.00047606736 0.029571531 -0.092640914
0.011488008 0.047836423 0.01377584 0.024714902 -0.058073565 0.054486528 0.072436474 -0.11032553
0.105710424 -0.009566005 0.07487824 -0.01870178 0.18476418 -0.01466731 -0.121972226 -0.13309537
0.074438974 0.11287815 -0.15976346 -0.036583878 -0.026065 -0.14920317 0.15582336 -0.025969986
0.066828564 -0.08809268 -0.10796761 -0.012940733 0.003338701 -0.17289074 -0.018519055 -0.042248104
-0.10986135 -0.04958248 -0.03959816 -0.08858712 -0.13633433 0.0934475 0.029235462 -0.075280525
0.19673556 0.14491002 0.066133566 -0.13595407 0.04207037 0.10713993 -0.07251183 0.058396224
-0.028522493 0.06104866 -0.13539921 0.05525104 -0.0013950618 -0.1427361 -0.20536141 0.041225944
-0.08804198 -0.02660848 0.10139547 0.013881768 0.06341313 0.027473344 -0.043379765 0.056349605
-0.084556386 -0.18762018 0.123504125 -0.10370429 -0.06923057 -0.16942252 -0.116575144 -0.08937686
-0.041053616 -0.035410233 0.09539226 0.005675164 -0.079730466 -0.11583469 -0.0067237695 0.05083687
0.13148032 -0.08717847 0.020117803 -0.03307529 -0.07446043 0.035984535 0.10922588 -0.032963727
-0.060275953 0.053082805 0.16460411 0.0776359 -0.091091275 -0.014168317 0.08031944 -0.1398657
0.05827433 0.012079778 -0.06998872 -0.052846733 0.114607304 0.12179942 -0.12054707 0.0047246926
0.01720241 0.08494167 -0.0014551095 -0.026757218 0.112061724 -0.038860567 0.05458058 0.009170417
0.094253816 0.053322334 -0.015265278 0.016770894 -0.10155526 -0.082870536 -0.011618919 -0.011662303
0.071407564 0.15153557 -0.06830836 0.05565537 0.048442755 -0.060850013 -0.0030846216 0.02306152
0.04288414 -0.025989985 -0.020930111 -0.09918444 -0.08946244 -0.113894135 0.031328037 0.10740364

network_body._body_endoder.seq_layers.2.bias f4 [128]
00000000: de67 0f3d b9bd b7bc c2ce 193d 1e09 0e3d
00000010: 5271 44bc 4e5a b2bc 4887 b439 f0dc 5bbc
00000020: bd82 bfbc 1e87 eb3c 47e8 fd3c 4c28 4d3b
00000030: b607 d03c a95d 2abb 37ae 0d3d a244 b1bc
00000040: 05a3 b2bc fdfb a53b c0bf 123d 226f 83bc
00000050: 6549 083d e046 9bbc f3a7 e33c 5688 57bb
00000060: 050d 443b db99 1a3d 9b88 8abb 4cae 60bc
00000070: fbe9 35bc 221c 7cbc 0251 e63c 5018 ea3c
00000080: f7a1 5a3d 34d0 54bc be7e 9e3c 7f24 bd3c
00000090: 9a66 003d 0ebc e33c 937d e93c f1f5 61bc
000000a0: e3c3 d33c ac22 783b 026d 073d be38 a1bc
000000b0: eaba 89bc 7a9f d63c 3bdf 0b3d 1e90 fc3b
000000c0: 44aa 063d 5ad7 333d d015 f13c 15bf 55bc
000000d0: 3362 f93c b1e9 213d 7173 b13c d0f4 16bc
000000e0: 9189 41bc 66fb f63c 705b 953c a25d 973b
000000f0: c013 eebb 5c1e 6bbc d5b5 733c 62ee f63c
00000100: 41de 9fbc a2b5 f03c 429e bbbc 5a1a 82bc
00000110: ad1e 1bbc a9e3 06bc 1cb9 2ebc f460 08bb
00000120: 9147 50bc 09af 56bc f601 fa3c 4179 8d3c
00000130: 8477 1a3d 7444 9bbc 0b10 023d 46e7 0a3d
00000140: ecbb 143c 4009 473c feef d1bb a68b 2bba
00000150: 4db9 a03c 9f60 f63c 9a75 313b 6273 b3bc
00000160: fc4d 0a3d 2d87 5c3a 3431 adbc ed10 d6ba
00000170: a39b 63bc ac6e 81bc d3cd 14bc 8c96 6e3c
00000180: b8dd c1bc 71b3 0ebc 5b1c 4c3d fd4c 363d
00000190: 9238 b5bc f49b 0dbc 6440 153d 898f f33c
000001a0: bbd8 e23c 7223 cb3c 76e1 703c 87a5 4bbc
000001b0: 2010 e73c 87e8 043d 5fe9 4c3c 943c ea3c
000001c0: b570 363d b10f fa3c 70ed 64bc ce02 42bc
000001d0: 52bc 783c 0ee3 f3bb 8ee4 fd3c f4f7 053d
000001e0: 9220 89bc 8391 e93c f5ec a13c 7745 92bc
000001f0: 2d1e 6bbc e731 f83c 2d08 a0bc c944 033d
0.035011165 -0.022429334 0.037550695 0.034676664 -0.011989908 -0.021771576 0.00034433068 -0.013419375
-0.02337777 0.028750952 0.030994548 0.0031304536 0.025394302 -0.0025995767 0.034589972 -0.021639172
-0.02180625 0.0050654397 0.0358274 -0.016044203 0.03327312 -0.018954694 0.027790045 -0.003288766
0.0029914987 0.037744384 -0.0042277104 -0.013713431 -0.011103149 -0.015387567 0.0281148 0.028576046
0.053377118 -0.012989093 0.019347545 0.023088692 0.03134785 0.027799632 0.028502261 -0.013791547
0.025850242 0.0037862463 0.033062942 -0.019680377 -0.01681276 0.026199091 0.034148436 0.00770761
0.03287722 0.043906547 0.029429346 -0.013046046 0.030442333 0.039529506 0.021661492 -0.009213641
-0.011812584 0.030149173 0.018232077 0.004619316 -0.007265538 -0.0143505 0.014874895 0.030142967
-0.019515159 0.029383484 -0.022902612 -0.015881706 -0.009467763 -0.008232989 -0.010664251 -0.0020809742
-0.012712375 -0.013103255 0.030518513 0.017269732 0.037711635 -0.01895354 0.03175358 0.033911966
0.009078007 0.012148201 -0.006406783 -0.00065439416 0.019619608 0.03007537 0.0027078153 -0.021905605
0.033765778 0.0008412477 -0.021141626 -0.0016331949 -0.013892087 -0.015799843 -0.009082275 0.01456226
-0.023665294 -0.008709774 0.04983173 0.044507015 -0.022121701 -0.008643139 0.03643836 0.029731529
0.027691236 0.024797175 0.014702192 -0.0124296015 0.028205931 0.032448318 0.012506812 0.028593339
0.04454108 0.03052506 -0.013972625 -0.011841489 0.015181618 -0.0074428385 0.030992772 0.03270717
-0.016739164 0.028511768 0.01976631 -0.017855389 -0.014350456 0.030297233 -0.019535149 0.03204802

action_model._continuous_distribution.log_sigma f4 [1, 2]
00000000: 1817 c1bd 3d49 1dbd
-0.09428233 -0.038399924

action_model._continuous_distribution.mu.weight f4 [2, 128]
00000000: ac30 8d3d 863d e7bc 8043 543d 1cc0 503d
00000010: 42f9 c9bb ec26 26bd 4cac 513b 6ae4 a0bb
00000020: 72b2 73bd 02f4 5b3d 89c2 3d3d d9d0 30bc
00000030: 98b0 033d c770 53bc b543 7e3d 0c07 08bd
00000040: fcfc 5abd 59bb dcbc 75cb 043d 0173 42bd
00000050: 9465 983d 507e 38bd 83f3 943d 74ef debc
00000060: 03a7 0abd 42bb 363d 14bb 16bd 9fd9 99bd
00000070: c554 63bd cde0 62bd 8bee 37bc b517 373d
00000080: 795a 583d 4064 64bd 9375 903c ef94 69bc
00000090: 1b6d 2a3d 4c06 0f3d cd47 2e3d 691e 6dbd
000000a0: 8467 e13c 132a 4dbb 82a5 3a3d ba3c 83bc
000000b0: 368f 86bd d218 3d3d 0f6e 773d 37c7 a93a
000000c0: 325c 383d f315 333d b97a 373d b60b 8cbd
000000d0: e3f1 ff3c e6b5 1a3d 2796 953c c019 bdbc
000000e0: 78ec 16bc c3f9 0d3d 14c7 843c 37fe 03bc
000000f0: ce95 73bd 8c95 95bd 43e9 d63c c239 d03c
00000100: 3562 f1bb 15b7 3b3d 8cb4 40bd f56d 3cbc
00000110: 0e48 15bd a5e6 42bd d408 403b c58a 87bc
00000120: 8c12 6cbd d23f c2bc d24b e33c 9b03 a63c
00000130: 74aa 823d 1d77 c8bc 7969 183d 7baa 6d3d
00000140: c91d 493c e8e3 8b3c 6356 22bd a369 60bd
00000150: 88fd f73c 3475 bf3c 66ea 48bd 8906 85bd
00000160: 04f3 6f3d d7e8 92bd 5824 1dbd bdc6 96bc
00000170: c82b 72bd ad8c 08bd c0bc 0cbc ce6f e03b
00000180: 5c86 45bd 1857 d4bc c10a 333d bdfa 3f3d
00000190: a5d0 87bd 5c8f 39bd ea0f 433d 2eb7 883c
000001a0: 0480 e53c 3fee 243d 927b 63bc 5478 7bbd
000001b0: 7340 3d3d 89f2 eb3c 3f71 8fbc e069 1e3d
000001c0: 2175 353d 0258 573d 68a4 2dbd 5cea 3abd
000001d0: 3cd4 ee3c 8182 25bd c1ef 0b3d f0f8 3b3d
000001e0: 10b6 91bc b1d4 a23c a4b7 bc3c fb1c b2bc
000001f0: 3dc0 fdbc 8bff 033d c4f6 35bd ec6e 073d
00000200: a3ac 0fbd ba16 fdbc 448d 84bc 04cc 353d
00000210: 60ef 1abd db68 d5ba 9620 3e3d 878e d13b
00000220: 401b 98bc 5c8d 203d 9d1c 0abc b08d 85bd
00000230: cd59 8abc 93f8 1f3d 6cef a8bd 4fda db3b
00000240: 8fb9 8e3c 62d2 dd3c 313c f53c 1c33 47bb
00000250: aa46 aabc 65c7 a33c 3fc8 26bd 4db0 0a3c
00000260: 53f1 9c3c cffb 5ab9 4af4 563d fc88 51bc
00000270: 2da8 d33c 6ecb 4bb9 f985 333d dbf9 703c
00000280: 3d7b 5ab9 fccf 4cbc 9c20 4ebc 6f36 393d
00000290: 910f fa3a 115b f6bb e2ee f53c c60f f3bb
000002a0: 26cd 35bd 6b76 0abd 6e45 13bd 1c8d 42bc
000002b0: c7b7 8dbb 66b9 1f3d 4e4f 303d dcf9 053d
000002c0: 4d9a 64bd ebbb 9eba 24d3 91bc a4f9 943c
000002d0: 7f41 c13c 8a3e 023b 4afe a2bc 3da1 7e3a
000002e0: 141e 303d ed69 99bb 9402 343d 29c0 68bd
000002f0: cf2f 40bd 1c95 b2bc da53 1cbd 374e 883d
00000300: e647 01bd dd6d 303d b4cc aebc 61ab 7e3c
00000310: 8bcc 633d 656f c8bc b954 04bc 3c3a 26bd
00000320: 587a 7cbc 2c06 aebb 1283 873c 0260 4a3d
00000330: b84a 2abd fa67 cf38 3c98 15bd 2e5f 743c
00000340: 3a5d 4cbd 2fde 553d f2a4 743d a1db c53c
00000350: 0a55 68bd 1b05 7b3c 5e89 753c 719b 493b
00000360: 4cb0 573c 89e8 42bd 29ab 13bc 706e 29bd
00000370: 4c97 a53c d050 733b 9ae5 133d 27f9 1e3c
00000380: cc19 e0ba b873 fd3c 4602 453d f9fe eb3c
00000390: af9e 9f3b 9c12 f83b 70bf 9c3d c8d0 6c3d
000003a0: 9135 f6bc b4a9 2f3c 9a82 213d 0bfd ba3b
000003b0: 0d85 71bb 1852 2f3d 98da 573d 0e1d 11bc
000003c0: 5f1a 9b3c 643b f03a 9738 e63b 3344 1a3c
000003d0: c661 d8bc 6d8c df3c 29ef ed3b 317d 6ebd
000003e0: 6035 b23c 0245 ab3c 8b6c ee3c 9f11 fb3b
000003f0: 5b7c b33c 7919 96bd ff9b 2b3a 890f e9bc
0.06894049 -0.028227579 0.051822186 0.05096446 -0.006163747 -0.040564463 0.0031993566 -0.0049100416
-0.05949635 0.0536995 0.0463281 -0.010791981 0.032150835 -0.012905306 0.06207629 -0.033209845
-0.05346392 -0.026944803 0.032420594 -0.047472958 0.074412495 -0.045042336 0.07273009 -0.02721379
-0.03385068 0.044612177 -0.036799505 -0.07512211 -0.055500764 -0.055390168 -0.011226307 0.044700343
0.052820656 -0.05575967 0.017634189 -0.0142567 0.041607957 0.034918115 0.042548943 -0.05789033
0.02751518 -0.0031305596 0.045567997 -0.016020168 -0.06570284 0.04616625 0.060407694 0.0012953047
0.0450098 0.043722104 0.04479477 -0.06838171 0.03124327 0.037771128 0.018260075 -0.023083568
-0.009211652 0.03466202 0.01620821 -0.008056215 -0.059469037 -0.073039144 0.026234275 0.025418166
-0.0073664435 0.045828898 -0.047047183 -0.011500825 -0.03644567 -0.04758324 0.0029302137 -0.016545663
-0.057634875 -0.023712073 0.027746115 0.020265391 0.063801676 -0.02447086 0.03720996 0.05802391
0.012275168 0.017076448 -0.039633166 -0.054788243 0.03027226 0.023371316 -0.049051665 -0.06495387
0.058581367 -0.07173317 -0.03836474 -0.018405313 -0.059123784 -0.033337284 -0.008589923 0.0068492657
-0.04822384 -0.025920436 0.043711428 0.046869982 -0.06631593 -0.045302734 0.0476226 0.01668891
0.028015144 0.04026627 -0.013884442 -0.06139405 0.04620404 0.028802173 -0.017510055 0.03867519
0.044301156 0.052574165 -0.04239312 -0.04563366 0.029153936 -0.04040766 0.034164194 0.045891702
-0.01778701 0.01987681 0.023036785 -0.021742335 -0.030975455 0.032226127 -0.044424787 0.033064768
-0.03507675 -0.030894626 -0.016180642 0.044384018 -0.037825942 -0.001628186 0.046417795 0.0063951644
-0.018567681 0.03919731 -0.0084296735 -0.06521165 -0.016888523 0.03905542 -0.08248791 0.006709374
0.017422466 0.027077857 0.029935928 -0.0030395454 -0.020785648 0.01999254 -0.040718313 0.008464885
0.019158041 -0.00020883906 0.052479066 -0.012789007 0.025837028 -0.00019435372 0.04382894 0.014708008
-0.0002083601 -0.012500759 -0.012581017 0.045217928 0.0019078125 -0.00751818 0.030021135 -0.007417652
-0.044385098 -0.03380434 -0.035954885 -0.011874463 -0.0043248865 0.03899517 0.04304438 0.032708988
-0.055811215 -0.0012110447 -0.017800875 0.018185444 0.023590801 0.0019873702 -0.019896645 0.00097133574
0.042997435 -0.004681817 0.04394777 -0.056823883 -0.046920594 -0.021799617 -0.038165905 0.06655543
-0.03156271 0.043073524 -0.021337844 0.01554379 0.05561499 -0.02446718 -0.00807684 -0.04058288
-0.015410028 -0.0053107943 0.016541991 0.049407966 -0.041575164 9.889896e-05 -0.036522135 0.014915271
-0.049893595 0.052213844 0.059727617 0.024152579 -0.056721725 0.015321041 0.014986364 0.0030762816
0.013164591 -0.047585044 -0.009012976 -0.041365087 0.020213746 0.0037127025 0.036107637 0.009702957
-0.0017097532 0.030938968 0.04809787 0.028808104 0.0048712115 0.007570578 0.07653701 0.057816297
-0.03005484 0.010721613 0.039431192 0.0057064346 -0.0036852986 0.0428029 0.0526987 -0.008857025
0.018933473 0.0018328247 0.007025789 0.009415674 -0.02641381 0.02728864 0.007261176 -0.05822486
0.021753967 0.020906929 0.029104492 0.0076620127 0.021909883 -0.07329077 0.00065463776 -0.02844979

action_model._continuous_distribution.mu.bias f4 [2]
00000000: 9110 ea3c 6fcf a53a
0.028572353 0.0012650321

exp_avg f4 [128, 6]
00000000: d6b5 54b8 f4c4 6d38 fe3b 6037 a231 ab38
00000010: ab53 3238 0000 0000 cbf9 cbba bb8c 643a
00000020: b13f 033a 4d8e a43a 8c69 2b3a 0000 0000
00000030: 2d06 cd39 7013 64b9 19ad b8b8 f836 a4b9
00000040: 8a0e 2bb9 0000 0000 29bb c3b9 8c79 8539
00000050: ca87 0f39 2e34 c039 4736 4839 0000 0000
00000060: ef22 1139 fae4 46b9 e804 58b7 4634 8fb9
00000070: bb2b 15b9 0000 0000 7665 23b7 e00c 9a36
00000080: a199 a6b7 50d6 dd36 8014 6736 0000 0000
00000090: 3f5c 1f3a 04ed 7db9 ced5 96b9 a9d3 b6b9
000000a0: db71 3eb9 0000 0000 b09f 41b8 4abb 4038
000000b0: 1ffa 7737 49c4 8a38 798c 1038 0000 0000
000000c0: 1583 e437 dc6a d0b7 c8d0 b7b8 a00f 16b8
000000d0: 4c50 9cb7 0000 0000 f0b9 c0b9 daf8 13b8
000000e0: e5c7 e838 9614 55b8 1cf5 ddb7 0000 0000
000000f0: 8b58 beba bdd0 5a3a a036 023a 0e8c 9d3a
00000100: 8a1c 243a 0000 0000 2e4a e7b9 3430 bf39
00000110: 284b 0039 e0a7 093a 2e64 8f39 0000 0000
00000120: 428c 7bb9 db81 a039 a894 5638 6021 e739
00000130: d3c2 7039 0000 0000 3e76 4dba c033 083a
00000140: 063c ba39 9321 443a b44d cc39 0000 0000
00000150: 8df9 04ba 7985 1b39 e27d 7f39 9cf3 5f39
00000160: 7a48 e938 0000 0000 264a 3bb9 c7c2 2239
00000170: 329a 2e38 3160 6a39 3124 f438 0000 0000
00000180: 163a da37 39fb 18b8 9527 51b7 1c4b 5cb8
00000190: dd78 e5b7 0000 0000 c98d c339 2a7d 3bb9
000001a0: 6de7 0cb9 f7fd 86b9 dc9d 0cb9 0000 0000
000001b0: 00d3 a933 37fe 4db7 c456 c735 a950 94b7
000001c0: 867e 1ab7 0000 0000 12c9 3539 706b ebb8
000001d0: c479 36b8 ac80 29b9 8f90 b0b8 0000 0000
000001e0: 468d b6b9 03b9 37b8 c19c d638 d247 84b8
000001f0: c8ca 09b8 0000 0000 2517 d437 d2ad 28b8
00000200: e107 80b8 f0e5 72b8 0205 fdb7 0000 0000
00000210: 3211 98b9 f10e 8739 50a9 e738 e87b c239
00000220: 5996 4a39 0000 0000 20ee 64b5 c002 27b7
00000230: ae51 36b8 e07e 70b7 c083 fab6 0000 0000
00000240: ba9d 99ba 8a26 223a ee1f c839 537f 693a
00000250: d739 f339 0000 0000 eb50 0439 cc4e 6137
00000260: 6879 d2b8 d338 a237 52fb 2837 0000 0000
00000270: d2ab fc38 fd95 e1b8 2c24 5ab8 f76b 22b9
00000280: 6130 a9b8 0000 0000 ad85 c939 7230 8db9
00000290: 0e7a c0b8 0c50 cbb9 c7c8 53b9 0000 0000
000002a0: c9d7 2e39 c40f c1b8 91be 1bb8 1801 0bb9
000002b0: cfcb 90b8 0000 0000 39ea 8536 5ef1 1136
000002c0: 8c3f 09b7 d228 5236 66ea da35 0000 0000
000002d0: 8eac 4237 7c86 8cb7 10db 4fb7 255b cab7
000002e0: 85c9 52b7 0000 0000 411b 4538 8200 0c39
000002f0: 9870 d6b7 709a 4939 a200 d238 0000 0000
00000300: 4d73 9aba 9935 0c3a 76a5 bd39 cde6 493a
00000310: 6f50 d239 0000 0000 895f b7b7 f364 6338
00000320: b59f 92b7 4eb9 a338 af8b 2a38 0000 0000
00000330: f51f bcb9 8051 0d39 6469 ef38 a07f 4b39
00000340: 3ffa d338 0000 0000 0a08 9eb9 d622 7739
00000350: ce5d df38 2df0 b139 265a 3939 0000 0000
00000360: ec5e c139 8fca 3bb9 e9eb 30b9 a535 87b9
00000370: e8d7 0cb9 0000 0000 4455 8e39 5a01 4bb9
00000380: 0a56 63b8 e629 92b9 0641 18b9 0000 0000
00000390: 95c0 7aba ba0d 333a 24bb 9339 25eb 803a
000003a0: 444a 063a 0000 0000 4870 bd38 0d24 c7b8
000003b0: 5625 a7b7 a261 0fb9 075b 95b8 0000 0000
000003c0: 0492 e039 fd73 3db9 d69b 27b9 f267 88b9
000003d0: f616 0eb9 0000 0000 05e9 7039 b460 cdb8
000003e0: 0907 01b8 35df 13b9 8808 9ab8 0000 0000
000003f0: b63b 2fba c79c 9539 782c 4939 2071 d739
-5.0714087e-05 5.668863e-05 1.3365408e-05 8.16316e-05 4.251643e-05 0.0 -0.0015562115 0.000871848
0.0005006744 0.0012554616 0.000653886 0.0 0.00039105248 -0.00021751015 -8.806046e-05 -0.00031321472
-0.00016313247 0.0 -0.00037332744 0.00025458296 0.00013688128 0.0003665997 0.00019093706 0.0
0.00013841291 -0.00018968052 -1.2875746e-05 -0.00027314032 -0.00014226038 0.0 -9.73918e-06 4.5910565e-06
-1.9860281e-05 6.6112625e-06 3.4433615e-06 0.0 0.00060791144 -0.00024216255 -0.00028769526 -0.00034871444
-0.00018162226 0.0 -4.6163506e-05 4.5950794e-05 1.4780583e-05 6.616914e-05 3.44631e-05 0.0
2.7240758e-05 -2.4845293e-05 -8.7650085e-05 -3.577734e-05 -1.863404e-05 0.0 -0.00036759628 -3.5279292e-05
0.00011099855 -5.080233e-05 -2.6459391e-05 0.0 -0.0014522237 0.00083471445 0.0004967246 0.0012019889
0.0006260356 0.0 -0.00044115022 0.00036466273 0.00012235029 0.00052511506 0.00027349725 0.0
-0.00023989475 0.00030614328 5.1160023e-05 0.0004408462 0.00022960761 0.0 -0.0007837749 0.00051956996
0.00035521406 0.00074818096 0.00038967805 0.0 -0.00050725864 0.00014831674 0.0002436559 0.00021357689
0.000111238056 0.0 -0.00017861332 0.00015522084 4.162844e-05 0.00022351813 0.00011641568 0.0
2.6014673e-05 -3.6473593e-05 -1.2466587e-05 -5.252204e-05 -2.7355209e-05 0.0 0.00037298937 -0.00017880337
-0.00013437653 -0.0002574769 -0.00013410248 0.0 7.9080564e-08 -1.2278141e-05 1.4851908e-06 -1.7680535e-05
-9.208574e-06 0.0 0.0001733641 -0.00011225685 -4.3505584e-05 -0.0001616503 -8.41926e-05 0.0
-0.00034819002 -4.3802906e-05 0.00010233513 -6.307628e-05 -3.28522e-05 0.0 2.5283147e-05 -4.0216204e-05
-6.104983e-05 -5.7911442e-05 -3.0162282e-05 0.0 -0.0002900451 0.0002576034 0.00011046475 0.0003709488
0.0001932023 0.0 -8.5283136e-07 -9.954616e-06 -4.346825e-05 -1.4334655e-05 -7.4659183e-06 0.0
-0.001171998 0.00061855523 0.00038170762 0.00089072174 0.00046391666 0.0 0.00012618645 1.3429391e-05
-0.00010036194 1.9338366e-05 1.0072095e-05 0.0 0.000120483004 -0.000107567736 -5.2008938e-05 -0.00015489744
-8.067559e-05 0.0 0.00038437304 -0.0002692971 -9.178008e-05 -0.00038778817 -0.00020197323 0.0
0.0001667432 -9.205894e-05 -3.713236e-05 -0.0001325648 -6.9044174e-05 0.0 3.990976e-06 2.1747178e-06
-8.180632e-06 3.13162e-06 1.6310485e-06 0.0 1.1603477e-05 -1.6751925e-05 -1.2389166e-05 -2.4122719e-05
-1.2563895e-05 0.0 4.6993842e-05 0.0001335163 -2.5563219e-05 0.00019226386 0.00010013698 0.0
-0.001178363 0.0005348563 0.00036172167 0.00077019335 0.0004011425 0.0 -2.1859787e-05 5.4215034e-05
-1.7478926e-05 7.8069614e-05 4.066125e-05 0.0 -0.00035881964 0.00013477169 0.000114160386 0.00019407133
0.00010107876 0.0 -0.00030142098 0.00023568733 0.00010650941 0.00033939016 0.00017676558 0.0
0.0003688255 -0.00017909169 -0.00016872551 -0.00025789175 -0.00013431872 0.0 0.00027147878 -0.00019360092
-5.4201148e-05 -0.00027878507 -0.00014520073 0.0 -0.000956544 0.00068303535 0.00028177456 0.0009835704
0.0005122761 0.0 9.033136e-05 -9.4957744e-05 -1.9925337e-05 -0.00013673914 -7.121829e-05 0.0
0.000428334 -0.00018067654 -0.00015984414 -0.00026017387 -0.00013550729 0.0 0.0002297499 -9.793174e-05
-3.076255e-05 -0.00014102164 -7.344881e-05 0.0 -0.0006684618 0.00028536303 0.0001918542 0.0004109228

exp_avg_sq f4 [128, 6]
00000000: fec9 df34 507b ce33 00f4 4632 8714 5634
00000010: b54a 6833 0000 0000 305c d137 cfe9 2737
00000020: a82b 9535 ad17 ae37 03e7 bc36 0000 0000
00000030: eb69 0d36 4026 4135 2609 8733 e641 c835
00000040: 0c4b d934 0000 0000 d4ed e235 10ec 5d35
00000050: aab4 df33 b816 e635 8ba9 f934 0000 0000
00000060: 20fe 3c36 2170 7e35 92dd e533 8ee6 0336
00000070: 0a1f 0f35 0000 0000 1afa 4a36 deec bb34
00000080: be62 9732 48d7 4235 7d6a 5334 0000 0000
00000090: 613c b235 d32a e734 b431 b733 98ac 6f35
000000a0: 1708 8234 0000 0000 22ff ad34 fad6 3033
000000b0: 251a d830 f758 b733 dff1 c632 0000 0000
000000c0: 9aaa 9536 cf08 3a35 8556 6433 6ae1 c035
000000d0: e349 d134 0000 0000 e75c b435 d4e4 b434
000000e0: 5839 2d33 018d 3b35 6f81 4b34 0000 0000
000000f0: 58ce 9e37 acf9 1337 590a 8835 b76b 9937
00000100: e278 a636 0000 0000 9a32 b736 cf34 0236
00000110: 018a 7e34 78ff 8636 637b 9235 0000 0000
00000120: 5c07 9636 2bc3 d035 2ec3 5f34 d571 5836
00000130: 8bdb 6a35 0000 0000 67d2 0037 c243 8e36
00000140: e0d9 1035 0580 1337 3b0c 2036 0000 0000
00000150: 6f13 cb36 92a5 e235 cdb6 3d34 ccfc 6a36
00000160: 3ffa 7e35 0000 0000 b995 6e35 d350 d334
00000170: f3d0 5633 9417 5b35 ebba 6d34 0000 0000
00000180: 4cc8 ea34 0c63 9333 d34d 9831 99cf 1834
00000190: 6fcf 2533 0000 0000 597d d534 8ec6 3d34
000001a0: c156 d732 66c2 c434 637f d533 0000 0000
000001b0: 2433 2034 d54c ff32 9b52 3431 0459 8433
000001c0: 399b 8f32 0000 0000 be8d 3135 5dea 5134
000001d0: 54dd 9132 eca3 d934 a527 ec33 0000 0000
000001e0: 2788 cb35 1d0b c134 2575 3e33 c525 4835
000001f0: 952c 5934 0000 0000 0c91 0b36 f47c a034
00000200: 8df5 c432 d164 2635 958c 3434 0000 0000
00000210: 408b 6e36 cc83 9c35 90a9 2234 5146 2236
00000220: 4814 3035 0000 0000 d624 9336 3486 2c35
00000230: c017 2833 82df b235 0217 c234 0000 0000
00000240: 5695 1737 662d 9836 3ed8 0835 03c7 1d37
00000250: 0e33 2b36 0000 0000 e172 eb34 2757 0b34
00000260: 9570 b332 d777 9034 0bc2 9c33 0000 0000
00000270: 47e0 7536 4b21 1535 641f 5c33 319e 9a35
00000280: 6ac5 a734 0000 0000 92db 8b36 a2f7 a335
00000290: 38bb ee33 5900 2a36 9676 3835 0000 0000
000002a0: a518 7734 ae7d b033 5a36 0f32 68fc 3634
000002b0: 6a8d 4633 0000 0000 ac91 0434 8c91 0d33
000002c0: 490f ab31 37c7 9233 b643 9f32 0000 0000
000002d0: 835d e134 7edf 8133 e5b4 8431 f4a6 0634
000002e0: 641b 1233 0000 0000 6f44 0236 aaf4 5035
000002f0: 7675 da33 37a5 d835 3f13 eb34 0000 0000
00000300: d9d6 2637 4562 7f36 22b6 d734 1564 0437
00000310: 4ba7 0f36 0000 0000 28d2 ab34 ea7c 8c33
00000320: 7550 ef31 6ba8 1134 850c 1e33 0000 0000
00000330: de0f 0235 d742 3334 d434 ab32 97db b934
00000340: 36ab c933 0000 0000 7658 be35 a473 4035
00000350: aa46 ca33 b488 c735 1a82 d834 0000 0000
00000360: 27e9 a734 2485 1534 4188 e132 bf05 9b34
00000370: ca35 a833 0000 0000 e451 3d36 0faa 4235
00000380: 2232 5533 f0d3 c935 52ff da34 0000 0000
00000390: bb27 5b37 50e0 cc36 7fb9 4735 676a 5437
000003a0: 577c 6636 0000 0000 e1a3 8934 ffff a833
000003b0: c868 d931 1b38 2f34 fb1f 3e33 0000 0000
000003c0: 35cf 0835 f8a6 1834 ff01 de32 1345 9e34
000003d0: d9bb ab33 0000 0000 8f41 f934 6cd0 dc33
000003e0: a69a be31 aaf0 6434 786a 7833 0000 0000
000003f0: 76b2 0d36 777d 5635 0a60 b833 2962 de35
4.1683955e-07 9.615053e-08 1.1580596e-08 1.9937771e-07 5.4084655e-08 0.0 2.495767e-05 1.00084135e-05
1.1114071e-06 2.0753441e-05 5.62973e-06 0.0 2.107229e-06 7.1953764e-07 6.2880915e-08 1.492034e-06
4.0474004e-07 0.0 1.6907529e-06 8.267243e-07 1.0417109e-07 1.7142947e-06 4.6503223e-07 0.0
2.8162103e-06 9.478554e-07 1.0703947e-07 1.9654722e-06 5.331682e-07 0.0 3.0245924e-06 3.5003808e-07
1.7623616e-08 7.258391e-07 1.9689647e-07 0.0 1.3279606e-06 4.3058262e-07 8.5306425e-08 8.9285595e-07
2.4220273e-07 0.0 3.2409395e-07 4.1173713e-08 1.5723499e-09 8.537784e-08 2.3160224e-08 0.0
4.4604067e-06 6.930322e-07 5.3164076e-08 1.4370719e-06 3.8983043e-07 0.0 1.3438083e-06 3.3694107e-07
4.0331855e-08 6.9868116e-07 1.8952936e-07 0.0 1.8931154e-05 8.820014e-06 1.0135801e-06 1.828918e-05
4.961258e-06 0.0 5.459716e-06 1.9402248e-06 2.3705799e-07 4.0232517e-06 1.0913758e-06 0.0
4.471205e-06 1.5554009e-06 2.08395e-07 3.2252767e-06 8.749127e-07 0.0 7.678383e-06 4.239818e-06
5.396123e-07 8.79169e-06 2.3848977e-06 0.0 6.052134e-06 1.68865e-06 1.7668499e-07 3.5015864e-06
9.498653e-07 0.0 8.8879784e-07 3.936062e-07 5.0015796e-08 8.161817e-07 2.2140345e-07 0.0
4.3731632e-07 6.8632374e-08 4.43263e-09 1.4231627e-07 3.8605716e-08 0.0 3.9765544e-07 1.767423e-07
2.5068745e-08 3.6649288e-07 9.941757e-08 0.0 1.4919766e-07 2.9720846e-08 2.6240403e-09 6.162921e-08
1.6717978e-08 0.0 6.61439e-07 1.9549903e-07 1.698087e-08 4.053867e-07 1.0996818e-07 0.0
1.5164304e-06 3.5957137e-07 4.4344365e-08 7.456077e-07 2.0225919e-07 0.0 2.0797042e-06 2.9893238e-07
2.2929067e-08 6.1986526e-07 1.681495e-07 0.0 3.5545818e-06 1.1661264e-06 1.5149112e-07 2.418081e-06
6.559462e-07 0.0 4.3852297e-06 6.4270284e-07 3.913715e-08 1.3327083e-06 3.6152056e-07 0.0
9.035071e-06 4.535238e-06 5.097862e-07 9.404265e-06 2.5510703e-06 0.0 4.3855746e-07 1.297709e-07
2.0889539e-08 2.6909285e-07 7.299612e-08 0.0 3.6638392e-06 5.5555273e-07 5.125129e-08 1.1519934e-06
3.1249812e-07 0.0 4.168084e-06 1.2216517e-06 1.11167935e-07 2.5332176e-06 6.8717907e-07 0.0
2.3012633e-07 8.2185e-08 8.336054e-09 1.7041896e-07 4.6229083e-08 0.0 1.2346453e-07 3.2961495e-08
4.9784927e-09 6.834892e-08 1.8540828e-08 0.0 4.1977555e-07 6.0476836e-08 3.862271e-09 1.254046e-07
3.4018186e-08 0.0 1.9411343e-06 7.784207e-07 1.0172782e-07 1.6141338e-06 4.3786164e-07 0.0
9.944394e-06 3.8055161e-06 4.017939e-07 7.891115e-06 2.1406038e-06 0.0 3.200414e-07 6.54198e-08
6.9649624e-09 1.3565447e-07 3.6798628e-08 0.0 4.8451864e-07 1.669499e-07 1.9931043e-08 3.4618708e-07
9.390935e-08 0.0 1.4181849e-06 7.1693853e-07 9.419212e-08 1.4866441e-06 4.0327797e-07 0.0
3.1275815e-07 1.3925143e-07 2.6255409e-08 2.887518e-07 7.832894e-08 0.0 2.8210861e-06 7.25181e-07
4.9638523e-08 1.5037349e-06 4.0791434e-07 0.0 1.3062668e-05 6.105787e-06 7.440321e-07 1.2660958e-05
3.4345046e-06 0.0 2.5637476e-07 7.869675e-08 6.3274435e-09 1.6318556e-07 4.426691e-08 0.0
5.0965474e-07 1.4216846e-07 2.584511e-08 2.9480051e-07 7.996977e-08 0.0 4.6427564e-07 1.028246e-07
5.5473093e-09 2.1321708e-07 5.7838832e-08 0.0 2.1114515e-06 7.990379e-07 8.585637e-08 1.6568857e-06

exp_avg f4 [128]
00000000: e3c4 6d38 c18c 643a 6d13 64b9 9279 8539
00000010: fbe4 46b9 180e 9a36 1ded 7db9 49bb 4038
00000020: 8c6b d0b7 f8f8 13b8 c6d0 5a3a 3930 bf39
00000030: d381 a039 c633 083a 9685 1b39 ccc2 2239
00000040: 40fb 18b8 347d 3bb9 2efe 4db7 776b ebb8
00000050: dfb8 37b8 ecad 28b8 f40e 8739 8802 27b7
00000060: 9826 223a b64e 6137 f095 e1b8 7d30 8db9
00000070: c20f c1b8 99f1 1136 6d86 8cb7 8800 0c39
00000080: 9935 0c3a ee64 6338 7e51 0d39 db22 7739
00000090: 84ca 3bb9 5901 4bb9 b80d 333a 0a24 c7b8
000000a0: f073 3db9 b260 cdb8 ca9c 9539 1e0a 9537
000000b0: c3b3 6c39 d305 9538 0957 1339 92de 043a
000000c0: b421 e6b8 ca82 18b9 fad5 c439 9862 1637
000000d0: bdf0 5839 aeab 34b6 ae53 153a 258a b538
000000e0: eb48 70b7 a621 8239 86fc 9639 0eee 8539
000000f0: c2fc a0b7 0eed 9c39 f711 c039 ce9a cb39
00000100: ce15 91b8 f243 80b9 4e2c 5338 cc24 0cb9
00000110: 8647 fa37 34c4 3fb9 b406 6bb8 3f12 b138
00000120: 40ba 51b8 becd f239 2095 dcb8 f83b 02b9
00000130: df73 4a37 54f7 0539 fa2b 9ab7 d9cc ea39
00000140: 72b3 9639 20a3 cb37 afe0 eeb8 f265 44b8
00000150: 7595 d039 8732 4c39 1888 7c38 01f4 123a
00000160: 221d 9339 baf7 80b9 582d f438 0091 0e3a
00000170: 6414 a7b9 45fd e538 025a 1f39 b4a4 edb7
00000180: c0b7 f1b8 0076 b4b7 a743 39b8 32de 013a
00000190: c276 69b9 7c4b fdb7 24b1 41b9 6529 53b8
000001a0: bf45 ad37 febd 86b9 2239 73b9 f675 bdb8
000001b0: 5cbe 5e3a 9565 473a 7d43 35b9 f0c1 b0b9
000001c0: 7516 3138 f56b 5938 24c0 6eb7 863d 72b8
000001d0: a4e9 fa39 00e8 96b7 1285 11b9 110e 7238
000001e0: c0a4 b137 502c 5a3a ab03 0dba 6c92 c2b7
000001f0: 4c07 8836 b017 95b9 dd4d abb7 701e f338
5.668857e-05 0.0008718484 -0.00021751011 0.00025458314 -0.00018968053 4.5911984e-06 -0.00024216292 4.595079e-05
-2.4845613e-05 -3.52794e-05 0.00083471497 0.00036466288 0.00030614305 0.0005195703 0.00014831717 0.00015522091
-3.647362e-05 -0.00017880352 -1.2278133e-05 -0.0001122569 -4.3802775e-05 -4.02163e-05 0.00025760347 -9.954565e-06
0.00061855605 1.3429371e-05 -0.00010756764 -0.00026929742 -9.205892e-05 2.1747312e-06 -1.6751897e-05 0.00013351638
0.0005348563 5.4215016e-05 0.00013477166 0.0002356874 -0.00017909153 -0.0001936009 0.00068303524 -9.495772e-05
-0.00018067635 -9.793173e-05 0.00028536312 1.7766895e-05 0.0002257368 7.1059585e-05 0.00014051436 0.0005068566
-0.00010973532 -0.00014544572 0.00037543458 8.963652e-06 0.00020689047 -2.692202e-06 0.0005696368 8.656484e-05
-1.4322092e-05 0.00024820602 0.00028798374 0.000255451 -1.9191186e-05 0.00029931258 0.0003663448 0.00038834516
-6.9182e-05 -0.00024464686 5.0347582e-05 -0.00013365148 2.9835628e-05 -0.00018288271 -5.603461e-05 8.443416e-05
-5.0002942e-05 0.00046311127 -0.00010518194 -0.00012420106 1.2067117e-05 0.00012776005 -1.8378709e-05 0.0004478458
0.00028743927 2.4275447e-05 -0.00011390575 -4.6824985e-05 0.00039784206 0.00019473779 6.020823e-05 0.00056058174
0.0002805973 -0.00024598633 0.000116432726 0.0005438477 -0.00031867914 0.00010966746 0.00015196952 -2.8329297e-05
-0.000115260016 -2.151262e-05 -4.4170443e-05 0.0004954069 -0.00022264852 -3.01951e-05 -0.00018471904 -5.0344872e-05
2.0655685e-05 -0.00025700027 -0.0002319557 -9.034194e-05 0.00084969937 0.00076063845 -0.00017286646 -0.0003371383
4.2221003e-05 5.1837374e-05 -1.4230642e-05 -5.7754594e-05 0.00047857792 -1.7989427e-05 -0.0001387785 5.7710397e-05
2.1176762e-05 0.0008322643 -0.000537927 -2.3194785e-05 4.0539653e-06 -0.00028437143 -2.0421046e-05 0.000115928124

exp_avg_sq f4 [128]
00000000: 517b ce33 cde9 2737 4526 4135 0dec 5d35
00000010: 2170 7e35 deec bb34 d02a e734 fad6 3033
00000020: cb08 3a35 d3e4 b434 acf9 1337 cf34 0236
00000030: 2cc3 d035 c343 8e36 94a5 e235 d150 d334
00000040: 0c63 9333 8dc6 3d34 d34c ff32 5cea 5134
00000050: 200b c134 f37c a034 cf83 9c35 3286 2c35
00000060: 632d 9836 2757 0b34 4821 1535 a5f7 a335
00000070: ab7d b033 8b91 0d33 7bdf 8133 a8f4 5035
00000080: 4662 7f36 e97c 8c33 d942 3334 a573 4035
00000090: 2485 1534 11aa 4235 4be0 cc36 ffff a833
000000a0: f7a6 1834 6cd0 dc33 787d 5635 809b 7333
000000b0: 49c0 1e35 90b1 1134 d7ae b834 7e74 6136
000000c0: 711f c933 4882 dc34 cb2b dd35 295f 1e35
000000d0: bccf 8935 6559 2f32 e39a 9b36 81cb d333
000000e0: 7478 0a34 c283 7d35 aacc 9235 e989 9135
000000f0: 72f4 1831 f4c8 9a35 e422 0736 b884 1536
00000100: e3d4 9d34 0c9e bd35 7945 7a35 d40d 8834
00000110: ebbc 8435 e297 1335 af6c c233 958b 9a34
00000120: 107f 1a34 aa07 8636 b167 5535 3689 eb34
00000130: 0f96 e730 02fd 3e34 1873 1734 dfd6 2e36
00000140: 8fef 8a35 45b7 ea32 e4cd 7e33 5427 a133
00000150: 88c3 3b36 dfb8 d134 cceb 0d35 5a52 b736
00000160: a4e7 6c35 2819 2135 8d53 4d34 cd57 6936
00000170: a429 bd35 b96f 1334 df4e e833 9a31 a333
00000180: 55cd 1635 801c 5335 0a2e f234 2a0c 5136
00000190: 00e0 d835 08b3 5435 6bc5 9135 beed 3733
000001a0: 99c3 e833 b820 8d35 e433 9d35 eab1 1435
000001b0: 4fd3 2237 0fd7 0537 c70f 5335 2de9 5335
000001c0: fbbe b332 8df1 2934 e7ab 6c34 28fc 3033
000001d0: a208 4836 4ec2 c632 96e7 5335 45d2 5433
000001e0: 7515 8d35 c674 1737 bc42 f435 2214 3134
000001f0: 9293 5f33 abc9 a035 e164 e831 5149 6c34
9.6150536e-08 1.0008412e-05 7.195379e-07 8.2672415e-07 9.478554e-07 3.5003808e-07 4.3058253e-07 4.1173713e-08
6.9303195e-07 3.3694104e-07 8.820014e-06 1.9402248e-06 1.555401e-06 4.2398183e-06 1.6886502e-06 3.9360614e-07
6.8632374e-08 1.7674229e-07 2.9720843e-08 1.9549901e-07 3.5957146e-07 2.9893235e-07 1.1661267e-06 6.4270273e-07
4.5352367e-06 1.297709e-07 5.5555256e-07 1.221652e-06 8.2184975e-08 3.296149e-08 6.0476815e-08 7.784206e-07
3.8055164e-06 6.541979e-08 1.6694993e-07 7.169386e-07 1.3925143e-07 7.251811e-07 6.105785e-06 7.869675e-08
1.4216845e-07 1.028246e-07 7.9903793e-07 5.6719273e-08 5.91394e-07 1.3568774e-07 3.4399883e-07 3.359542e-06
9.365511e-08 4.1072985e-07 1.6478529e-06 5.8998063e-07 1.0267754e-06 1.0206667e-08 4.637391e-06 9.86247e-08
1.2896072e-07 9.444158e-07 1.0937413e-06 1.0843479e-06 2.2257862e-09 1.1532379e-06 2.0136877e-06 2.2279983e-06
2.9398424e-07 1.4127595e-06 9.3233353e-07 2.5342035e-07 9.889749e-07 5.4982786e-07 9.0535984e-08 2.8786295e-07
1.4388593e-07 3.9944034e-06 7.9499574e-07 4.3871995e-07 1.6850111e-09 1.7787173e-07 1.4104842e-07 2.6053092e-06
1.0351522e-06 2.7324527e-08 5.932624e-08 7.5043005e-08 2.7978986e-06 3.9063795e-07 5.286972e-07 5.463412e-06
8.825393e-07 6.001378e-07 1.9122508e-07 3.4770812e-06 1.4093716e-06 1.3731086e-07 1.08176884e-07 7.5993015e-08
5.617815e-07 7.86451e-07 4.510951e-07 3.1150507e-06 1.6158447e-06 7.923668e-07 1.0860798e-06 4.2824233e-08
1.0838921e-07 1.0514841e-06 1.1712514e-06 5.5393195e-07 9.705152e-06 7.97749e-06 7.8626584e-07 7.894294e-07
2.092519e-08 1.5827227e-07 2.204175e-07 4.1207528e-08 2.9807347e-06 2.3138593e-08 7.894063e-07 4.9551335e-08
1.0511563e-06 9.02749e-06 1.8198839e-06 1.6491734e-07 5.2055448e-08 1.1979622e-06 6.7635573e-09 2.2005885e-07
