results/predatorTest2/PredatorBrain/PredatorBrain-2665109.pt (torch, 447775 bytes, 36 tensors)

network_body._body_endoder.seq_layers.0.weight f4 [128, 9]
0.32528397 0.35109714 -0.04218198 0.21467368 0.28201795 -0.09884951 -0.30292094 0.31980127
-0.026561169 0.21354982 0.30580443 0.050772823 -0.014978046 -0.0828986 0.98154145 0.02200102
0.47469243 -0.442259 0.25123242 -0.1403706 -0.44191754 0.32998082 0.23296797 0.07961827
0.13007493 0.652144 0.97349435 -0.58136916 0.17522503 -0.07143575 0.024461133 -0.3622355
0.4913265 -0.2551206 -0.46742263 0.07072176 0.31682238 -0.04783704 -0.14539823 -0.25202203
-0.15239455 0.2519656 0.030583898 0.11457577 0.37015763 -0.59687877 0.19237922 -0.64517105
-0.7324018 0.044047076 0.48624185 0.4709297 0.08394106 0.16615264 -0.60207486 -0.39845952
0.34712738 0.48146755 -0.3586369 0.53241825 -0.39365366 -0.21011628 0.6014446 -0.12706454
0.25623575 0.2699834 -0.54126453 0.19294779 0.4756098 0.4511286 0.25150013 -0.17670502
0.092702605 0.52944887 0.721778 -0.4969475 -0.3166003 0.28438076 0.28729868 0.008119197
-0.2719968 -0.04697862 -0.33976042 0.31592816 0.6737377 0.09887713 -0.17846328 0.44335943
0.27134925 -0.2687415 -0.16593632 0.30341518 -0.15257096 -0.5704819 0.37194902 -0.45564365
0.25253093 0.02983201 0.074266665 -0.109858185 -0.15815163 0.3295023 0.2477137 -0.3595154
-0.37196314 0.010641746 0.22309844 -0.1346056 0.3039532 0.0807458 0.1964585 0.107502624
0.495572 -0.6786841 -0.20805416 0.7526691 0.6252439 -0.0557311 0.17222384 0.2534878
0.48640206 -0.3343219 -0.26538703 -0.52043957 -0.061626974 0.5044979 0.6176596 -0.0022665588
0.09269657 -0.14154191 -0.5407027 0.013272736 0.12798165 0.3113819 -0.050481874 0.15660515
0.05017704 -0.19777998 0.17494994 -0.026479777 0.05307535 0.26747388 -0.48875013 -0.28247708
-0.12333971 0.1234995 -0.21639538 0.544228 -0.42770585 0.34844097 -0.34059957 0.103338584
0.20599745 0.68614984 -0.39809543 0.21401301 0.24668702 0.0031417536 0.7045653 0.32911384
0.42860505 -0.52751374 0.26545873 -0.6699721 -0.07855429 0.06971543 0.857825 0.46418175
0.12115463 -0.65576583 -0.5131883 -0.6928487 0.3913691 0.37209958 -0.46873656 -0.11573641
-0.43674925 -0.4248493 0.25635442 -0.58348465 0.6684341 -0.4294843 0.27864695 -0.28960362
-0.24885805 0.095537566 -0.08460732 0.25393173 0.28869888 0.18213618 0.03731767 -0.3533178
0.36122635 -0.26109058 -0.03168604 -0.67097825 0.43384215 0.032832876 0.041532855 0.1364696
0.36394337 -0.43478194 0.8025963 -0.50006604 -0.5448164 0.15274316 0.40297017 0.19556808
-0.47234842 -0.039012767 -0.39465642 -0.27795488 -0.0889763 0.39456043 0.33928302 0.4532758
-0.21351863 0.028551767 0.628295 0.5619514 -0.071154214 0.3493607 -0.58963776 -0.47556177
0.54572016 -0.30482724 0.11759677 0.0472163 -0.09047194 0.38243088 0.9528981 -0.3090385
0.48933288 0.20642404 -0.32836744 -0.25517076 0.60390013 -0.26289654 -0.62342846 -0.6995586
0.3802391 0.47852483 0.525284 -0.13511992 -0.51024324 0.16100824 0.6400083 0.2911366
0.32665792 -0.38369498 0.047922615 0.5203202 -0.5412563 0.16997343 0.081716046 -0.288751
00000000: 9f8b a63e 01c3 b33e 03c7 2cbd 6bd3 5b3e
00000010: a864 903e 9d71 cabd 7418 9bbe febc a33e
00000020: cf96 d9bc ceac 5a3e 6692 9c3e 2af7 4f3d
00000030: 7a66 75bc bec6 a9bd 4d46 7b3f 7c3b b43c
00000040: e30a f33e c66f e2be 89a1 803e 50bd 0fbe
00000050: 0443 e2be 3ff3 a83e 288f 6e3e e70e a33d
00000060: 5d32 053e e9f2 263f ed36 793f 9cd4 14bf
00000070: 316e 333e e84c 92bd b762 c83c ee76 b9be
00000080: 268f fb3e 2b9f 82be 0552 efbe 92d6 903d
00000090: 8b36 a23e c6f0 43bd 46e3 14be 0809 81be
000000a0: 510d 1cbe a301 813e 158b fa3c b4a6 ea3d
000000b0: 4d85 bd3e 0ccd 18bf 0fff 443e ee29 25bf
000000c0: af7e 3bbf b56a 343d b1f4 f83e b31d f13e
000000d0: 4ae9 ab3d eb23 2a3e 9421 1abf e302 ccbe
000000e0: aeba b13e ea82 f63e 419f b7be 904c 083f
000000f0: f98c c9be b928 57be 46f8 193f 351d 02be
00000100: 5531 833e 443b 8a3e 5090 0abf 1b94 453e
00000110: 2183 f33e 54fa e63e a0c4 803e 29f2 34be
00000120: ddda bd3d f689 073f 71c6 383f e76f febe
00000130: 6f19 a2be 5b9a 913e d018 933e 6106 053c
00000140: 2a43 8bbe a76c 40bd 14f5 adbe 56c1 a13e
00000150: 137a 2c3f 1880 ca3d 14bf 36be 0200 e33e
00000160: 4aee 8a3e 7c98 89be 36eb 29be 3c59 9b3e
00000170: 903b 1cbe 1a0b 12bf 1a70 be3e 204a e9be
00000180: bc4b 813e 4262 f43c 1f19 983d 54fd e0bd
00000190: 80f2 21be 87b4 a83e a9a8 7d3e 6712 b8be
000001a0: f471 bebe b85a 2e3c eb73 643e 0dd6 09be
000001b0: c19f 9b3e 0e5e a53d 6b2c 493e 562a dc3d
000001c0: 9dbb fd3e 3ebe 2dbf 260c 55be ecae 403f
000001d0: fc0f 203f 4b46 64bd 725b 303e 27c9 813e
000001e0: b109 f93e 3d2c abbe cfe0 87be 873b 05bf
000001f0: 916c 7cbd c626 013f f11e 1e3f 8c8a 14bb
00000200: b3d7 bd3d 5df0 10be 7e6b 0abf e475 593c
00000210: 9f0d 033e 736d 9f3e 15c6 4ebd 1a5d 203e
00000220: 7186 4d3d d686 4abe 1426 333e 1eec d8bc
00000230: 8a65 593d 56f2 883e 753d fabe d6a0 90be
00000240: 8899 fcbd 4eed fc3d c096 5dbe 8752 0b3f
00000250: 43fc dabe db66 b23e 1163 aebe 2ea3 d33d
00000260: fff0 523e 84a7 2f3f 2ad3 cbbe 3a26 5b3e
00000270: 869b 7c3e e1e5 4d3b 645e 343f 9c81 a83e
00000280: 1f72 db3e 240b 07bf 35ea 873e 4b83 2bbf
00000290: 12e1 a0bd f7c6 8e3d 6b9a 5b3f 3ba9 ed3e
000002a0: eb1f f83d 45e0 27bf 4f60 03bf 885e 31bf
000002b0: 8861 c83e d683 be3e 3dfe efbe 3607 edbd
000002c0: 999d dfbe d985 d9be e340 833e 405f 15bf
000002d0: 7f1e 2b3f 5ee5 dbbe d0aa 8e3e ed46 94be
000002e0: a5d4 7ebe 33a9 c33d 9a46 adbd 5703 823e
000002f0: 57d0 933e e881 3a3e 6ada 183d 12e6 b4be
00000300: a9f2 b83e aaad 85be 39c9 01bd 3bc5 2bbf
00000310: 8f20 de3e c47b 063d 5b1e 2a3d b0be 0b3e
00000320: c956 ba3e bd9b debe f376 4d3f 5404 00bf
00000330: 1679 0bbf b468 1c3e 1b52 ce3e 0043 483e
00000340: a7d7 f1be dacb 1fbd 6810 cabe 1a50 8ebe
00000350: 3539 b6bd d303 ca3e 81b6 ad3e c413 e83e
00000360: a1a4 5abe 65e5 e93c f1d7 203f 0cdc 0f3f
00000370: 4db9 91bd 68df b23e 80f2 16bf d57c f3be
00000380: 51b4 0b3f 5112 9cbe 93d6 f03d e165 413d
00000390: 5a49 b9bd fbcd c33e 21f1 733f 4b3a 9ebe
000003a0: d789 fa3e d360 533e c71f a8be bea5 82be
000003b0: 3399 1a3f 609a 86be 0299 1fbf 4616 33bf
000003c0: b3ae c23e 3501 f53e 0379 063f e05c 0abe
000003d0: 4d9f 02bf 58df 243e 95d7 233f db0f 953e
000003e0: b53f a73e ab73 c4be 814a 443d b433 053f
000003f0: c68f 0abf 840d 2e3e be5a a73d 2cd7 93be

network_body._body_endoder.seq_layers.0.bias f4 [128]
0.05949715 -0.010836862 0.027998071 -0.030131146 -0.005398435 -0.015798422 -0.07154842 -0.046208493
-0.008650625 -0.014813502 0.05555861 0.051849984 -0.024972398 0.0015387469 -0.030927489 -0.09408547
-0.01143517 -0.029478194 0.026094932 0.111417115 0.013596085 0.05692908 0.05247252 -0.000934858
-0.10952763 0.007693714 0.040385418 -0.0570271 -0.023697967 -0.015051042 0.0114862155 0.046024643
0.1035258 0.0015372081 0.017806293 0.031088524 -0.0035016937 0.030503543 0.07621387 0.008749777
0.06760016 0.05317428 -0.031404033 -0.0061992635 -0.036839508 -0.018225908 0.025911482 -0.054509617
0.06130767 0.008974642 -0.08601143 -0.017102234 0.036375947 0.0016722556 0.011732921 -0.028668044
0.054123923 0.029750088 -0.014414095 0.047159974 0.014193082 -0.030113095 0.033824507 0.071968354
0.08573571 -0.07076823 -0.0070416518 -0.042110167 0.010998071 -0.0040224083 0.04128289 0.04916079
0.036354337 0.08170977 0.05870372 -0.08145757 -0.004548149 0.043507412 0.054597676 0.007409227
0.07156522 0.010054412 -0.00014294591 0.01142547 0.0337436 -0.030834157 0.004947186 -0.010864844
0.039699536 0.061066132 -0.032878403 0.050919577 0.06916622 0.0040454287 0.027015084 0.015436617
-0.04193542 0.019838214 -0.0049288385 0.03518983 0.05528254 -0.025479745 -0.02791366 0.11119269
-0.028439224 0.009946979 0.05191521 0.0148645 -0.061452292 0.045463186 -0.024627518 0.0882205
-0.045577254 -0.024902727 0.033538967 0.022404365 -0.003606611 0.09811851 -0.054329928 0.005501695
0.0631044 -0.02361107 0.06979661 0.011495398 0.055880252 0.03626935 -0.034213144 -0.001301021
00000000: 49b3 733d 188d 31bc 365c e53c 98d5 f6bc
00000010: 5be5 b0bb b16b 81bc fa87 92bd 1e45 3dbd
00000020: 5abb 0dbc 55b4 72bc 6d91 633d a660 543d
00000030: ea92 ccbc c7af c93a a55b fdbc e2af c0bd
00000040: 945a 3bbc 417c f1bc 0ac5 d53c a82e e43d
00000050: 1dc2 5e3c 782e 693d 6ded 563d 4211 75ba
00000060: 0650 e0bd 8d1b fc3b 2e6b 253d 4095 69bd
00000070: 3d22 c2bc a598 76bc ae30 3c3c 5684 3c3d
00000080: 5605 d43d 257c c93a 81de 913c 5cad fe3c
00000090: ac7c 65bb 91e2 f93c 0416 9c3d 3a5b 0f3c
000000a0: f471 8a3d 46cd 593d 84a1 00bd 3123 cbbb
000000b0: 06e5 16bd 804e 95bc 5144 d43c 7a45 5fbd
000000c0: c01d 7b3d 600a 133c c326 b0bd fc19 8cbc
000000d0: f2fe 143d 962f db3a 703b 403c 3fd9 eabc
000000e0: 0cb1 5d3d 75b6 f33c 1929 6cbc d12a 413d
000000f0: 1a8a 683c bdaf f6bc 918b 0a3d 2564 933d
00000100: 3496 af3d efee 90bd a8bd e6bb b67b 2cbd
00000110: 4131 343c 68ce 83bb 3f18 293d d35c 493d
00000120: 49e8 143d 7457 a73d 5073 703d 3ad3 a6bd
00000130: a408 95bb d434 323d d0a1 5f3d 1ac9 f23b
00000140: c990 923d 43bb 243c c0e3 15b9 e531 3b3c
00000150: bb36 0a3d ea97 fcbc 011c a23b 7502 32bc
00000160: fb9b 223d 7b20 7a3d 81ab 06bd 0c91 503d
00000170: 05a7 8d3d 848f 843b bd4e dd3c dde9 7c3c
00000180: 7ac4 2bbd c083 a23c 1882 a1bb 3623 103d
00000190: f26f 623d e6ba d0bc 30ab e4bc feb8 e33d
000001a0: 60f9 e8bc a7f8 223c 0ba5 543d 3b8a 733c
000001b0: 66b5 7bbd 9b37 3a3d a6bf c9bc f3ac b43d
000001c0: 37af 3abd ce00 ccbc 2860 093d 5c89 b73c
000001d0: e45c 6cbb 5bf2 c83d 0f89 5ebd 9047 b43b
000001e0: e13c 813d 016c c1bc 86f1 8e3d 3257 3c3c
000001f0: b1e2 643d 2c8f 143d 1523 0cbd 0587 aaba

network_body._body_endoder.seq_layers.2.weight f4 [128, 128]
0.028807193 -0.04833948 0.080589876 0.11489747 -0.15116595 -0.034182604 -0.14230114 -0.04235739
0.13989115 0.0141944345 0.13283874 0.077839725 0.034402464 -0.024279851 0.030155662 0.007831623
-0.08197414 0.009984086 0.06178993 0.053474918 0.09360434 -0.12212368 -0.11684065 0.021237006
-0.13685967 -0.14991781 -0.014435617 0.054828044 -0.021225767 -0.10583182 -0.021483606 -0.020268304
0.017408544 -0.13942681 0.09043858 0.15256554 -0.13561743 0.00606542 0.083489 -0.09065935
-0.15920094 -0.12934935 0.024177432 -0.09788365 0.16514772 0.16145173 0.09333823 -0.100250505
0.04830823 0.029127477 0.06803773 -0.08740944 0.116822295 -0.11855256 -0.12266608 -0.12301675
0.00026308498 -0.121317886 0.0033604356 -0.09638121 -0.097796164 -0.19056617 0.02078652 0.08334477
0.025478484 -0.12658146 -0.010667529 -0.04321734 0.28060937 -0.11220051 0.06288686 0.034327433
0.05959602 -0.06412896 -0.013792086 -0.1559806 0.110191114 0.05660284 0.14845146 0.05734073
-0.038456924 0.0487106 -0.123057716 0.079085596 0.14492437 0.02027907 -0.009552302 0.051111624
-0.018028032 0.059271544 -0.09083914 0.035818215 0.07422704 0.02752064 0.027706096 0.14621484
0.10863078 0.050235238 0.093416676 0.01669092 -0.029212637 -0.098932676 0.15152176 -0.06105593
0.1170538 0.106238686 0.08770402 0.07756809 -0.0072863367 -0.00055058557 -0.02328768 -0.097490236
-0.15962346 0.045516007 -0.088091336 0.12835737 -0.034995534 -0.0533622 0.10824161 -0.043662194
-0.016847584 0.19504246 -0.053138584 0.11098208 -0.025682239 0.035221532 -0.008252117 0.12081848
-0.017423501 0.05464439 0.010254774 0.1147049 -0.07862553 0.07138674 -0.0075056665 0.026051003
0.0398153 -0.039920256 0.098099686 -0.07899123 0.10313047 0.0679542 -0.1075167 -0.08403621
0.04954904 0.10654008 -0.103802204 0.08161067 -0.07754464 0.10058956 -0.049018607 -0.021923274
0.18587202 -0.12884213 0.1397589 0.0811349 0.04952142 0.08203757 -0.10967115 0.059761062
0.1868436 -0.033868127 0.0380573 -0.0076171444 -0.1415291 -0.04887291 0.07221482 -0.117988504
0.013458727 0.06224661 -0.0076396912 0.08983936 0.01952102 -0.077108696 -0.057304263 -0.0866486
0.15044126 0.030557953 -0.1403502 -0.10999989 -0.21337424 -0.077089876 -0.012582778 -0.06668987
0.1533815 -0.048659455 -0.048725255 -0.026869109 -0.031743497 -0.008073481 0.018313333 0.051917974
0.03148994 -0.15482779 -0.07737195 0.018394217 0.10635274 -0.066122726 0.033244446 -0.06471987
0.1079177 -0.119710706 -0.108069085 0.1582387 0.07704205 -0.09170527 -0.10797428 0.018890897
-0.086239494 0.061955858 -0.17532218 0.051096976 -0.11239575 -0.021827826 -0.11146858 -0.0095623145
-0.14623849 0.12497217 -0.07252799 -0.1149332 0.1325509 -0.057399947 -0.025206743 0.10797226
0.08364612 -0.02324167 -0.12591657 -0.21006405 0.1231949 0.16962685 -0.08005138 -0.04489717
0.29178104 -0.07439002 -0.016962504 -0.0016493254 -0.11981349 0.010997229 0.011227012 -0.11126789
-0.028532393 0.08575162 -0.15685569 -0.17377567 -0.062956266 0.24285462 -0.0066285976 0.031653695
-0.04997578 0.022984244 -0.0041139578 0.105837114 -0.28210822 0.07107819 0.18359317 -0.056554865
00000000: 10fd eb3c 9eff 45bd 4e0c a53d 5d4f eb3d
00000010: 3fcb 1abe 0f03 0cbd 64b7 11be f17e 2dbd
00000020: a03f 0f3e c68f 683c e106 083e 6f6a 9f3d
00000030: 99e9 0c3d 8ae6 c6bc 0209 f73c 3550 003c
00000040: 0fe2 a7bd 4b94 233c 7017 7d3d 8408 5b3d
00000050: a2b3 bf3d fb1b fabd 274a efbd 3bf9 ad3c
00000060: f124 0cbe 0e84 19be 5e83 6cbc 5f93 603d
00000070: a9e1 adbc 5abe d8bd 63fe afbc b709 a6bc
00000080: 5d9c 8e3c e7c5 0ebe dd37 b93d 243a 1c3e
00000090: 4cdf 0abe 6ec0 c63b 48fc aa3d 9cab b9bd
000000a0: 9205 23be 2874 04be c00f c63c 3977 c8bd
000000b0: 7c1c 293e 9a53 253e 1d28 bf3d 2350 cdbd
000000c0: dade 453d bf9c ee3c 5e57 8b3d b803 b3bd
000000d0: 8740 ef3d afcb f2bd 5b38 fbbd 35f0 fbbd
000000e0: abee 8939 8375 f8bd c13a 5c3b 8363 c5bd
000000f0: 5b49 c8bd c723 43be 7e48 aa3c aab0 aa3d
00000100: 41b8 d03c 929e 01be dcc6 2ebc aa04 31bd
00000110: 08ac 8f3e 62c9 e5bd d3ca 803d ec9a 0c3d
00000120: f51a 743d 0b56 83bd 34f8 61bc 61b9 1fbe
00000130: e1ab e13d 61d8 673d a903 183e 1dde 6a3d
00000140: 0285 1dbd c484 473d af05 fcbd a1f7 a13d
00000150: 0e67 143e 4b20 a63c 4281 1cbc 6c5a 513d
00000160: 86af 93bc b8c6 723d df09 babd 1fb6 123d
00000170: 5904 983d f772 e13c e5f7 e23c 58b9 153e
00000180: d079 de3d 77c3 4d3d 3e51 bf3d 65bb 883c
00000190: 574f efbc 379d cabd 8528 1b3e c815 7abd
000001a0: e7b9 ef3d ab93 d93d 2a9e b33d 05dc 9e3d
000001b0: 39c2 eebb 2c55 10ba cec5 bebc f6a8 c7bd
000001c0: 5574 23be fe6e 3a3d 3b69 b4bd 1d70 033e
000001d0: 7a57 0fbd 5292 5abd c7ad dd3d 21d7 32bd
000001e0: f203 8abc 36b9 473e d8a7 59bd 934a e33d
000001f0: 8f63 d2bc 7444 103d e333 07bc ae6f f73d
00000200: bbbb 8ebc ccd2 5f3d a403 283c 67ea ea3d
00000210: 6c06 a1bd 3633 923d 18f2 f5bb ea68 d53c
00000220: 5e15 233d 6c83 23bd 7de8 c83d 27c6 a1bd
00000230: 1136 d33d 922b 8b3d b731 dcbd 2d1b acbd
00000240: eff3 4a3d af31 da3d 4096 d4bd 7f23 a73d
00000250: b9cf 9ebd e601 ce3d bcc7 48bd 7098 b3bc
00000260: 3c55 3e3e 31ef 03be f51c 0f3e 0e2a a63d
00000270: f9d6 4a3d 5003 a83d 459b e0bd 04c8 743d
00000280: ee53 3f3e 4eb9 0abd f9e1 1b3d 3d99 f9bb
00000290: 01ed 10be f62e 48bd 5de5 933d f5a3 f1bd
000002a0: fe81 5c3c 4df6 7e3d 6056 fabb b3fd b73d
000002b0: 8cea 9f3c 2aeb 9dbd e0b7 6abd d274 b1bd
000002c0: 460d 1a3e ac54 fa3c f6b7 0fbe 9f47 e1bd
000002d0: c77e 5abe 4ce1 9dbd ff27 4ebc b394 88bd
000002e0: 0a10 1d3e 234f 47bd 2294 47bd 9b1c dcbc
000002f0: 7805 02bd a246 04bc d805 963c f1a7 543d
00000300: 98fb 003d 2d8b 1ebe 2f75 9ebd 78af 963c
00000310: 77cf d93d 5a6b 87bd 542b 083d da8b 84bd
00000320: f503 dd3d e32a f5bd 5353 ddbd 5309 223e
00000330: 39c8 9d3d f9cf bbbd 9f21 ddbd 15c1 9a3c
00000340: 559e b0bd 6dc5 7d3d a887 33be 104b 513d
00000350: be2f e6bd 45d0 b2bc a449 e4bd 41ab 1cbc
00000360: 8bbf 15be 69f1 ff3d 8e89 94bd 1962 ebbd
00000370: 6cbb 073e 351c 6bbd 5f7e cebc 8f20 dd3d
00000380: a84e ab3d 5165 bebc 46f0 00be 081b 57be
00000390: 9c4d fc3d a9b2 2d3e faf1 a3bd 18e6 37bd
000003a0: 5364 953e cb59 98bd f3f4 8abc 2d2e d8ba
000003b0: c660 f5bd b92d 343c 80f1 373c 6be0 e3bd
000003c0: c4bc e9bc 8c9e af3d c79e 20be 40f2 31be
000003d0: 37ef 80bd e2ae 783e b534 d9bb 4ea7 013d
000003e0: 67b3 4cbd 7449 bc3c 61ce 86bb 21c1 d83d
000003f0: 7d70 90be 7191 913d d9ff 3b3e 13a6 67bd

network_body._body_endoder.seq_layers.2.bias f4 [128]
-0.008977164 0.0031975517 0.07206572 0.062425427 0.02993042 0.0538897 0.02724631 0.08164709
-0.03149781 -0.04826646 -0.00469282 -0.022719216 0.048145354 -0.0031636446 0.092719406 0.04983458
0.05032181 -0.052964192 0.026517663 -0.0031053498 0.031825352 -0.050321158 0.01083165 -0.019459533
0.035445303 0.052069098 0.013296159 -0.017349796 0.019463824 -0.029023975 0.019880394 0.016340705
0.025043763 0.024947973 0.0028702267 0.01858708 -0.0020568578 0.07147046 0.03646512 0.030775132
0.080480844 0.0575734 -0.050920658 0.030987862 -0.051282194 0.015339571 0.0208963 -0.008720885
0.022507388 -0.013266671 0.04544881 -0.0066820197 0.05414525 -0.057318304 0.040449265 -0.0015709057
-0.000755793 -0.022011098 -0.046031456 -0.060092084 0.014473692 0.024707092 0.037806258 0.023893317
0.0040984517 -0.0314775 -0.0036076284 -0.036397453 0.082205705 0.038049057 -0.026122315 0.11264362
0.0027019551 0.04587688 -0.00019524817 0.044168316 -0.008585714 0.026899954 -0.0373438 0.03010978
0.017306289 -0.044015888 0.0035174235 0.05009157 0.05331553 0.039940834 0.002919732 -0.012067037
0.04465949 0.048433274 0.018363738 0.04347893 -0.061908044 0.04891 0.05311039 0.031992394
0.0024501022 0.039095283 0.02020732 0.029565003 0.054983467 0.074007496 0.024230767 0.015780786
0.01370047 0.0023949018 0.0391339 0.029881507 -0.0021978342 0.05397762 0.031610698 0.00054805336
-0.036261305 0.06885638 -0.019488452 0.03743634 0.012333397 0.0017467982 -0.009931241 0.02907736
0.04177409 0.020434668 0.014596649 -0.038022615 0.102416724 0.010366256 -0.041034013 0.02686975
00000000: f414 13bc 048e 513b 3197 933d ceb1 7f3d
00000010: a430 f53c 72bb 5c3d a733 df3c 9736 a73d
00000020: d903 01bd 0db3 45bd 3ac6 99bb a61d babc
00000030: 1034 453d 2655 4fbb ace3 bd3d 581f 4c3d
00000040: 3e1e 4e3d fbf0 58bd 923b d93c 2083 4bbb
00000050: 4d5b 023d 8f1d 4ebd 3c77 313c 9969 9fbc
00000060: 182f 113d 6846 553d 22d8 593c 2921 8ebc
00000070: 9972 9f3c b0c3 edbc 35dc a23c f1dc 853c
00000080: 9428 cd3c b15f cc3c 6a1a 3c3b ef43 983c
00000090: 59cc 06bb 1b5f 923d 735c 153d 211c fc3c
000000a0: 24d3 a43d 16d2 6b3d 2e92 50bd 42da fd3c
000000b0: 470d 52bd d352 7b3c b82e ab3c 0be2 0ebc
000000c0: 6a61 b83c 745c 59bc 8828 3a3d d8f4 dabb
000000d0: 69c7 5d3d 99c6 6abd 21ae 253d d9e6 cdba
000000e0: 6920 46ba 9e50 b4bc 7b8b 3cbd 1e23 76bd
000000f0: 1023 6d3c 8766 ca3c bcda 1a3d ebbb c33c
00000100: 4e4c 863b 8dee 00bd f66d 6cbb 7f15 15bd
00000110: 775b a83d 54d9 1b3d 77fe d5bc b3b1 e63d
00000120: 4913 313b 65e9 3b3d 88bb 4cb9 d6e9 343d
00000130: 18ab 0cbc 4b5d dc3c d0f5 18bd c9a8 f63c
00000140: ebc5 8d3c 014a 34bd 9384 663b d12c 4d3d
00000150: 6361 5a3d 0099 233d f958 3f3b d2b4 45bc
00000160: dfec 363d f861 463d 8d6f 963c f616 323d
00000170: 4a93 7dbd da55 483d 488a 593d 750a 033d
00000180: e591 203b 6022 203d d289 a53c 4e32 f23c
00000190: 5836 613d 3e91 973d 9a7f c63c b546 813c
000001a0: f077 603c c9f3 1c3b de4a 203d 10ca f43c
000001b0: 8a09 10bb a317 5d3d 387a 013d 3dab 0f3a
000001c0: bc86 14bd 9304 8d3d 3fa6 9fbc d956 193d
000001d0: 0412 4a3c d2f4 e43a a5b6 22bc a533 ee3c
000001e0: 4f1b 2b3d 9b66 a73c c926 6f3c 9abd 1bbd
000001f0: dcbf d13d 3bd7 293c 4813 28bd f31d dc3c

action_model._continuous_distribution.log_sigma f4 [1, 2]
-0.052559394 -0.02276065
00000000: 8548 57bd 8b74 babc

action_model._continuous_distribution.mu.weight f4 [2, 128]
-0.036541462 0.007693832 0.04909156 0.046256423 0.00085225503 0.045681056 0.020546082 0.070806965
-0.06541875 -0.021190777 0.009418825 -0.040767882 0.042606376 -0.07309263 0.12674077 0.016371557
0.04076478 -0.029923333 -0.05002907 -0.06537824 -0.0020195898 -0.066130735 0.0042846035 -0.050101537
0.04734818 0.06372484 0.040571067 -0.012939851 0.010713312 -0.010134814 0.009120245 0.025113598
0.0012511453 0.01434742 0.022660064 0.0065700077 0.024623161 0.08000824 0.047777317 0.021962618
0.06978721 0.052056603 -0.054419715 0.01569591 -0.118963905 -0.03673747 0.046626896 -0.0020986525
0.012987463 -0.04912405 0.022263922 0.00059950445 0.06120695 -0.015590916 0.024689117 -0.08440604
-0.009656443 -0.10173488 -0.039914627 -0.015097464 0.02642366 0.015967919 0.072091594 -0.10294483
-0.057124842 -0.030860765 -0.051156126 -0.054563377 0.07052294 0.02727085 -0.06023495 0.09861733
0.008517945 0.03021048 0.026262099 0.046416532 -0.0037965407 0.01712526 -0.067285955 0.03393146
0.0426007 -0.018580629 -0.023591906 0.047463436 0.05464337 0.022489516 -0.03791369 0.0023020932
0.02819674 0.013579393 -0.0100667495 0.019179065 -0.028817333 0.012557398 0.07721968 0.013006854
-0.02701462 0.058170415 -0.040494397 -0.0032044717 0.04663058 0.063165106 0.026470713 -0.046714712
0.028696388 0.0057779355 0.035876088 -0.019624956 -0.07842952 0.03841247 0.050869223 -0.00043792636
-0.017745659 0.055519428 -0.049749307 0.033520803 0.04841358 0.00077051466 -0.054156166 -0.09865792
0.026301716 0.0077953287 0.046481684 -0.06852302 0.09901043 -0.064524494 -0.03438064 0.026606383
-0.047260147 -0.06754712 -0.039368704 0.00877891 0.058416367 -0.06406936 0.028803373 0.013618265
-0.06125643 -0.056774333 -0.04194929 0.010443375 0.041005444 -0.006488936 0.048599925 0.029539388
0.0014638639 -0.0108869625 -0.10618906 0.060981613 0.07150706 -0.05064523 -0.08448715 -0.0034959835
-0.071109496 -0.07972334 0.043942988 -0.044369746 0.023894142 -0.0077772727 -0.10512491 0.0110695055
0.049027663 0.015731838 0.05057862 0.045340206 -0.0023107736 0.035105374 0.037565745 -0.09724466
0.029625088 0.054008894 -0.029825535 -0.03635328 -0.011800874 0.05804463 -0.0017610298 0.0071119973
-0.03260394 0.023358852 0.04793345 -0.05656214 -0.05173066 -0.015798334 -0.15139654 -0.11750181
0.037264038 -0.054636043 -0.044544805 -0.014704916 0.008684756 -0.0023055547 -0.075097755 -0.04923957
-0.08688039 -0.015231544 0.019165749 0.0062929573 0.0070867436 0.04432316 -0.08347097 -0.045044575
-0.08603502 -0.016267471 -0.06886393 -0.0028759118 0.009408187 0.004988183 -0.00912593 -0.07648004
0.00012888917 -0.007543076 0.050169032 -0.07561131 -0.07044819 0.04008385 0.049053323 0.04274195
0.05871205 -0.13803527 0.043867227 -0.017798528 -0.020428425 0.04439367 -0.030293439 -0.031487744
0.028566511 -0.011842878 0.047730207 -0.06860114 -0.052742764 0.017998068 -0.11210806 0.047106307
0.006678654 0.029411593 -0.097842835 0.07261851 0.016354512 0.025466388 0.03164988 -0.055630434
-0.005886783 0.015349755 -0.0422359 -0.073025234 -0.003089019 -0.07453459 -0.049696 -0.08263148
0.03878138 -0.058466177 -0.016697632 -0.006356143 0.04074803 0.052765932 -0.049755014 -0.034929115
00000000: 80ac 15bd 8a1c fc3b 3b14 493d 6077 3d3d
00000010: de69 5f3a 0f1c 3b3d 4250 a83c 3e03 913d
00000020: 44fa 85bd 4898 adbc 6a51 1a3c 39fc 26bd
00000030: 0684 2e3d 97b1 95bd 55c8 013e a51d 863c
00000040: f8f8 263d c721 f5bc 48eb 4cbd 07e5 85bd
00000050: 185b 04bb 8d6f 87bd dc65 8c3b 4537 4dbd
00000060: 2af0 413d 2b82 823d d92d 263d ab01 54bc
00000070: e386 2f3c 7e0c 26bc 156d 153c 08bb cd3c
00000080: 78fd a33a 7111 6b3c 99a1 b93c 3849 d73b
00000090: 83b6 c93c 5cdb a33d 26b2 433d f3ea b33c
000000a0: 99ec 8e3d 4e39 553d 35e7 5ebd b694 803c
000000b0: 59a3 f3bd 087a 16bd d8fb 3e3d 8c89 09bb
000000c0: 5ec9 543c 4d36 49bd d462 b63c 1028 1d3a
000000d0: 24b4 7a3d 0b71 7fbc d540 ca3c 13dd acbd
000000e0: 0f36 1ebc 605a d0bd 857d 23bd 5b5b 77bc
000000f0: 6e76 d83c 27cf 823c c2a4 933d bdd4 d2bd
00000100: bdfb 69bd b7cf fcbc 1689 51bd d97d 5fbd
00000110: 556e 903d 1e67 df3c ecb8 76bd e2f7 c93d
00000120: da8e 0b3c f87b f73c 9d23 d73c 431f 3e3d
00000130: 62cf 78bb 464a 8c3c 38cd 89bd b7fb 0a3d
00000140: 127e 2e3d 6736 98bc d043 c1bc 0569 423d
00000150: bad1 5f3d ef3b b83c 634b 1bbd b7de 163b
00000160: dafc e63c 1a7c 5e3c 02ef 24bc 6a1d 9d3c
00000170: 5412 ecbc 8bbd 4d3c 5a25 9e3d b31a 553c
00000180: c44d ddbc 1a44 6e3d 74dd 25bd 1d02 52bb
00000190: b5ff 3e3d b55c 813d 1cd9 d83c ed57 3fbd
000001a0: b014 eb3c d654 bd3b cef2 123d 84c4 a0bc
000001b0: a89f a0bd 6556 1d3d 3f5c 503d 7b99 e5b9
000001c0: 585f 91bc 5768 633d eec5 4bbd 1c4d 093d
000001d0: 514d 463d 5dfc 493a dbd2 5dbd 2a0d cabd
000001e0: b276 d73c f56f ff3b 9463 3e3d cc55 8cbd
000001f0: fbc5 ca3d 6b25 84bd b7d2 0cbd a1f5 d93c
00000200: db93 41bd 2556 8abd 1441 21bd 6bd5 0f3c
00000210: 0046 6f3d cc36 83bd 0df5 eb3c 251f 5f3c
00000220: 06e8 7abd 348c 68bd 05d3 2bbd b11a 2b3c
00000230: 53f5 273d 24a1 d4bb b710 473d 96fc f13c
00000240: 1fdf bf3a 3b5f 32bc a679 d9bd dbc7 793d
00000250: 4b72 923d 5f71 4fbd 9907 adbd df1c 65bb
00000260: dba1 91bd fe45 a3bd 90fd 333d 0dbd 35bd
00000270: a6bd c33c 7ed8 febb bb4b d7bd df5c 353c
00000280: 3bd1 483d 0ee0 803c 872b 4f3d a7b6 393d
00000290: 5970 17bb a7ca 0f3d 8ade 193d 3528 c7bd
000002a0: 50b0 f23c 6e38 5d3d ae54 f4bc 2de7 14bd
000002b0: 7458 41bc 35c0 6d3d 5bd2 e6ba c20b e93b
000002c0: b68b 05bd 105b bf3c de55 443d b4ad 67bd
000002d0: 87e3 53bd 826b 81bc b207 1bbe caa4 f0bd
000002e0: 2da2 183d 0bca 5fbd 9d74 36bd e3ec 70bc
000002f0: 824a 0e3c ca18 17bb dacc 99bd 6eaf 49bd
00000300: 59ee b1bd ba8d 79bc 7d01 9d3c 2735 ce3b
00000310: ea37 e83b 348c 353d d4f2 aabd a980 38bd
00000320: 2133 b0bd 5c43 85bc 8808 8dbd cb79 3cbb
00000330: cc24 1a3c e973 a33b ed84 15bc 91a1 9cbd
00000340: 6c26 0739 e82b f7bb 0b7e 4d3d 1ada 9abd
00000350: 2447 90bd f72e 243d 23ec 483d 2f12 2f3d
00000360: 0c7c 703d 1e59 0dbe 1fae 333d 38ce 91bc
00000370: 8359 a7bc 23d6 353d f229 f8bc 4bf9 00bd
00000380: 5104 ea3c a108 42bc c080 433d c17e 8cbd
00000390: cc08 58bd af70 933c e998 e5bd 8bf2 403d
000003a0: 9cd8 da3b 95f0 f03c d361 c8bd 03b9 943d
000003b0: e6f9 853c e39e d03c 4ea3 013d bddc 63bd
000003c0: eae5 c0bb 8a7d 7b3c 8dff 2cbd 418e 95bd
000003d0: 2471 4abb 97a5 98bd 088e 4bbd b23a a9bd
000003e0: 39d9 1e3d 3b7a 6fbd 79c9 88bc 3147 d0bb
000003f0: 68e7 263d 1721 583d eacb 4bbd d511 0fbd

action_model._continuous_distribution.mu.bias f4 [2]
0.050085027 0.023795715
00000000: f525 4d3d 3bef c23c

exp_avg f4 [128, 9]
-0.00021617758 6.4944936e-05 8.422374e-05 0.00028451334 4.3616383e-05 0.0001751401 -0.00014908308 6.542457e-05
7.485764e-05 0.00039421883 -0.00014892335 -0.00010775891 -0.00031873962 -9.949556e-05 -0.00011993093 3.409281e-05
-0.00014924331 0.00037982065 3.327718e-05 -7.01676e-05 4.1783642e-07 -0.00011673126 -4.609992e-05 5.001566e-06
-0.00012804245 -6.914991e-05 8.875146e-05 0.0011246532 -0.0003552889 -7.5349235e-06 -0.0018525803 -0.00023662325
-6.637652e-05 0.0003556916 -0.0003549348 0.0005574416 -7.509395e-05 -1.5021455e-05 -5.779213e-05 0.0003201524
-9.519987e-06 -6.3393556e-05 0.00012712949 -1.42799545e-05 2.4929017e-05 0.00020592244 -0.00010922243 -0.00019577636
0.00021613283 -7.258366e-05 -0.00020370819 0.00032162108 -0.000108875494 5.9525337e-07 0.00073284714 -0.00020912974
-3.9408624e-05 -0.0010996291 -0.00013889794 -0.000118646596 8.362418e-06 -0.00020834686 0.00043643487 0.00012690571
-9.176679e-05 -8.7243985e-05 -6.1019262e-05 -6.092189e-05 -7.0760696e-05 0.00022656657 -9.138284e-05 9.383329e-05
8.466792e-05 -6.232099e-05 -3.2514927e-05 -0.00011003746 -4.1557418e-05 8.786304e-05 0.0002130784 -6.233618e-05
5.4784592e-05 -0.0012282296 0.0003940368 1.21017365e-08 0.0028422656 0.00026324013 -0.00023855164 -0.00023429542
0.00039486028 -0.000744589 0.00022469273 -9.840177e-05 8.376694e-06 -8.611387e-06 -6.54543e-05 0.0001583744
0.0001702752 -9.818142e-05 0.00010999761 -0.001408814 0.00044586963 -5.9476333e-05 0.0031968255 0.00029791478
-0.00020568553 -0.00014758161 0.0004468723 -0.0009957507 4.8409856e-07 5.6410183e-05 -3.7489604e-05 0.00060683046
3.7871905e-05 -4.48294e-05 -0.00026304228 5.680784e-05 0.00011156553 1.7575672e-05 1.3706569e-05 2.4345172e-05
0.00020451292 9.6373515e-06 1.584168e-05 -0.00016282554 1.4456004e-05 0.00015994711 -1.4028312e-05 -2.5105848e-05
-4.103518e-05 0.00010527099 -1.648949e-05 -2.9446333e-05 5.5052882e-05 -2.4734247e-05 -1.9001738e-05 0.0002451331
-4.6577537e-05 -1.3646721e-05 -0.0004285085 -3.124481e-05 -4.9721522e-05 -0.00025010004 -4.686723e-05 0.00033366957
0.00066335016 -0.00023859416 6.445027e-05 -0.0012803734 -0.00015826465 6.420148e-05 3.890379e-05 -0.000237397
0.00063702767 0.00044262697 -0.0001276728 -4.5134e-05 -0.00062953867 -8.5005595e-05 -2.6997056e-06 -0.00021666999
-0.00012750836 0.00042285686 0.00068402366 -0.00017496612 -3.0675146e-05 -0.0010035031 -0.00011671221 5.3548145e-05
-0.00035631604 -0.00017506836 0.0007156763 -0.0010929329 0.00032358157 9.883265e-05 0.0018482234 0.00021557536
0.00017169862 7.8946294e-05 0.00032336332 -0.00092611334 -7.140824e-05 -4.9969138e-05 -0.00017478925 8.338447e-05
-3.2460695e-05 -0.00022045997 0.00030458844 -4.8691007e-05 -0.000121024 0.0005979565 -0.00019011373 0.00024126843
-0.0014256173 -0.00012612919 0.00025360624 -6.4545995e-05 -0.00018919386 0.00072788703 3.7245452e-05 8.897735e-05
1.7648621e-05 0.00030474243 5.9370454e-05 0.00018369198 -0.0003313466 8.905576e-05 0.00022077245 -9.96399e-06
-1.1745697e-05 8.674107e-06 -1.8067658e-06 -7.599884e-06 2.3538803e-05 2.8157203e-05 -1.1399825e-05 2.3592918e-05
0.00029289798 -7.955135e-05 -5.567834e-05 -0.00039304822 -5.267496e-05 -0.00013982103 -3.579007e-05 -7.9012454e-05
0.00017269286 0.0009780372 -0.00030784705 1.9769825e-05 -0.0018620966 -0.00020480105 -0.00015942425 0.0002563068
-0.0003072018 0.00033026462 -2.4036854e-05 -1.12512425e-05 2.5175977e-06 8.757009e-05 -7.5858006e-06 0.00016250678
0.00011036859 -1.1378688e-05 0.000100631216 0.0010016304 -0.00031534806 -8.4579486e-05 -0.001565573 -0.0002097277
-0.0002022638 4.664289e-05 -0.00031459157 0.0006922806 -0.00049362006 0.00011853526 3.254779e-05 0.0008245975
00000000: baad 62b9 0c33 8838 47a1 b038 bc2a 9539
00000010: bcf0 3638 d0a5 3739 2f53 1cb9 8c34 8938
00000020: e4fc 9c38 28af ce39 4f28 1cb9 a0fc e1b8
00000030: 821c a7b9 46a8 d0b8 6e83 fbb8 e0fe 0e38
00000040: 327e 1cb9 aa22 c739 1a93 0b38 f226 93b8
00000050: 0053 e034 9ecd f4b8 6a5b 41b8 20d3 a736
00000060: 2243 06b9 9304 91b8 1420 ba38 1969 933a
00000070: 1246 bab9 80d4 fcb6 48d2 f2ba 121e 78b9
00000080: 9f33 8bb8 1e7c ba39 8b16 bab9 4621 123a
00000090: c27b 9db8 a804 7cb7 d465 72b8 21da a739
000000a0: 08b8 1fb7 28f2 84b8 104e 0539 f093 6fb7
000000b0: a81e d137 e2ec 5739 580e e5b8 5149 4db9
000000c0: b7a1 6239 0e38 98b8 809a 55b9 409f a839
000000d0: 1654 e4b8 80c9 1f35 8a1c 403a d649 5bb9
000000e0: b04a 25b8 6e21 90ba 22a5 11b9 e8d1 f8b8
000000f0: 504c 0c37 af77 5ab9 4cd1 e439 fe11 0539
00000100: ec72 c0b8 c2f6 b6b8 efee 7fb8 6286 7fb8
00000110: 5c65 94b8 8092 6d39 caa4 bfb8 5dc8 c438
00000120: be8f b138 54b2 82b8 a360 08b8 e9c3 e6b8
00000130: f04d 2eb8 1c43 b838 cc6d 5f39 7bba 82b8
00000140: 82c8 6538 8cfc a0ba b996 ce39 00e8 4f32
00000150: 4e45 3a3b 7e03 8a39 b823 7ab9 33ad 75b9
00000160: 4005 cf39 8630 43ba 7f9b 6b39 0c5d ceb8
00000170: a089 0c37 a079 10b7 8244 89b8 4e11 2639
00000180: e78b 3239 c0e6 cdb8 84ae e638 f4a7 b8ba
00000190: 9cc3 e939 3a76 79b8 d581 513b 7231 9c39
000001a0: 4aad 57b9 23c0 1ab9 2f4a ea39 d983 82ba
000001b0: 00f3 0135 f999 6c38 283e 1db8 b413 1f3a
000001c0: a6d8 1e38 3407 3cb8 f0e8 89b9 f444 6e38
000001d0: 4af8 e938 786f 9337 44f5 6537 dc38 cc37
000001e0: 8572 5639 1cb0 2137 c0e3 8437 26bc 2ab9
000001f0: 1088 7237 7ab7 2739 245b 6bb7 669a d2b7
00000200: 301d 2cb8 efc4 dc38 e952 8ab7 8503 f7b7
00000210: 95e8 6638 647c cfb7 ec65 9fb7 3585 8039
00000220: 405c 43b8 38f4 64b7 70a9 e0b9 dc0c 03b8
00000230: 148c 50b8 dc1f 83b9 4e93 44b8 5ff0 ae39
00000240: ade4 2d3a 222f 7ab9 7a29 8738 34d2 a7ba
00000250: d8f3 25b9 e8a3 8638 a02c 2338 c6ed 78b9
00000260: 34fe 263a 6310 e839 e8df 05b9 434e 3db8
00000270: a007 25ba 0845 b2b8 972c 35b6 e831 63b9
00000280: c4b3 05b9 e3b2 dd39 0d50 333a 1c77 37b9
00000290: 30a9 00b8 fa87 83ba 64c3 f4b8 e298 6038
000002a0: eecf bab9 8e92 37b9 399c 3b3a be40 8fba
000002b0: 62a6 a939 6044 cf38 1640 f23a 120c 6239
000002c0: ff09 3439 f88f a538 1789 a939 6ac6 72ba
000002d0: 02c1 95b8 f495 51b8 a247 37b9 b2de ae38
000002e0: 6826 08b8 462b 67b9 2bb1 9f39 9239 4cb8
000002f0: 44ce fdb8 2ec0 1c3a 4459 47b9 00fd 7c39
00000300: c7db baba 8c41 04b9 74f6 8439 de5c 87b8
00000310: 5762 46b9 accf 3e3a 0038 1c38 5a99 ba38
00000320: 200c 9437 d6c5 9f39 8a04 7938 719d 4039
00000330: 96b8 adb9 72c3 ba38 277f 6739 032b 27b7
00000340: 620f 45b7 0287 1137 0080 f2b5 8202 ffb6
00000350: 3275 c537 2233 ec37 e041 3fb7 68e9 c537
00000360: 1a90 9939 ced4 a6b8 2a88 69b8 0a12 ceb9
00000370: 4fef 5cb8 ec9c 12b9 4c1d 16b8 7db3 a5b8
00000380: e314 3539 7c31 803a 8866 a1b9 60d7 a537
00000390: 9811 f4ba ddbf 56b9 1f2b 27b9 eb60 8639
000003a0: ed0f a1b9 5e27 ad39 c0a2 c9b7 b8c3 3cb7
000003b0: 00f4 2836 d6a5 b738 8889 feb6 9566 2a39
000003c0: b075 e738 18e7 3eb7 f909 d338 2449 833a
000003d0: 4d55 a5b9 4460 b1b8 ea33 cdba 5aea 5bb9
000003e0: c616 54b9 6ca2 4338 c4ef a4b9 2a7a 353a
000003f0: 4866 01ba 2296 f838 ec83 0838 cd29 583a

exp_avg_sq f4 [128, 9]
4.460673e-06 6.020083e-07 5.6711883e-07 6.9917405e-06 2.6661652e-07 1.3008978e-06 4.068428e-06 5.998884e-07
3.0835085e-06 9.983825e-06 1.2421928e-06 2.6244195e-06 8.655401e-06 5.4864284e-07 5.1215056e-06 1.0877513e-05
1.2344458e-06 5.9159765e-06 2.6166854e-06 2.949057e-07 5.501207e-07 5.7925954e-06 1.3059274e-07 1.1470381e-06
3.940284e-06 2.9383364e-07 1.5186847e-06 1.7139904e-05 1.8147629e-06 2.9139983e-06 2.1961261e-05 8.019637e-07
3.8527196e-06 1.48876115e-05 1.8044177e-06 6.719205e-06 1.2681421e-06 2.3291179e-07 1.044732e-06 1.1835768e-06
1.0293815e-07 1.8764975e-06 3.2845708e-06 2.3161066e-07 1.699927e-06 3.9136175e-06 4.387346e-07 1.1064825e-06
1.3703255e-06 1.9323379e-07 2.370517e-06 3.317349e-06 4.34776e-07 1.9720135e-06 4.3579234e-06 4.0300142e-07
6.452721e-07 4.0616715e-06 1.7782534e-07 7.3256473e-07 2.4771432e-06 4.001068e-07 1.2556167e-06 2.9244152e-06
3.7834906e-07 1.0226261e-06 9.3935444e-07 1.6679188e-07 1.9696604e-06 2.852259e-06 3.75282e-07 1.6878013e-06
1.0377357e-06 1.13073085e-07 4.376933e-07 3.60952e-07 4.9912114e-08 8.143502e-07 9.236031e-07 1.123021e-07
5.3829234e-07 1.0815271e-05 1.2182494e-06 3.8147343e-07 2.117604e-05 5.4036246e-07 1.3945411e-06 5.918206e-06
1.2158149e-06 6.7301016e-06 2.6801981e-06 5.6714197e-07 5.3445575e-07 1.4133711e-06 2.5163843e-07 1.4439132e-06
1.3073393e-06 5.661872e-07 4.217167e-06 1.8813504e-05 2.4060846e-06 1.4063737e-06 3.4044184e-05 1.066538e-06
3.277639e-06 1.4170166e-05 2.399712e-06 1.2831304e-05 2.3053897e-06 3.7304693e-07 7.019429e-07 5.7349453e-06
1.6515028e-07 9.055241e-07 5.577238e-06 3.715884e-07 1.3255378e-06 2.1143674e-06 2.5010067e-07 3.614909e-07
3.8751846e-06 1.10567335e-07 8.443417e-07 2.7310234e-06 2.4877681e-07 1.1982074e-06 4.1577536e-07 4.2841616e-08
1.5373944e-07 7.875093e-07 1.9007413e-08 1.4092424e-07 8.1719077e-07 4.2766708e-08 1.9663004e-07 3.4398317e-06
4.6656828e-07 2.4012826e-07 5.597631e-06 2.0732811e-07 9.944018e-07 9.0085535e-07 4.6648776e-07 4.42012e-06
6.6813645e-06 7.708587e-07 9.078691e-07 8.594278e-06 3.4109337e-07 1.8656971e-06 5.0539643e-06 7.674584e-07
3.7196123e-06 1.0924172e-06 1.1646245e-07 1.6669159e-07 2.304323e-06 5.1724903e-08 2.660477e-07 1.1954712e-06
1.1638093e-07 9.070271e-07 2.6987889e-06 3.671115e-07 1.7733804e-07 4.2487295e-06 1.6312777e-07 7.348909e-07
8.247089e-07 3.6703761e-07 3.593198e-06 2.106764e-05 3.0260012e-06 2.7782085e-06 2.1025566e-05 1.3408496e-06
5.9018444e-06 1.1518335e-05 3.0169115e-06 1.7919183e-05 1.9100983e-06 4.0998532e-07 2.2106076e-06 2.1766737e-06
1.8134486e-07 4.3428563e-06 6.5797826e-06 4.0802595e-07 3.5479313e-06 1.817487e-05 2.2722397e-06 2.4512112e-06
2.5727459e-05 1.0052746e-06 6.8351164e-06 1.583672e-05 2.2618651e-06 1.1974231e-05 8.148358e-06 1.1211815e-06
2.1050612e-06 6.606447e-06 4.949509e-07 2.299892e-06 1.1274812e-05 1.1136377e-06 2.6647353e-06 1.2512564e-07
1.8525135e-08 6.180507e-08 2.192736e-07 8.1928615e-09 1.2132979e-07 1.851257e-07 1.8433926e-08 1.3277872e-07
1.417999e-06 1.5287998e-07 3.1466763e-07 1.7103391e-06 6.762061e-08 5.584503e-07 1.1920591e-06 1.5214621e-07
7.959187e-07 2.5991778e-05 2.893365e-06 4.570399e-06 3.4785415e-05 1.278388e-06 5.8359383e-06 2.5492738e-05
2.8763711e-06 9.385209e-06 1.965967e-06 1.888124e-07 6.1618476e-07 1.4405803e-06 8.3193726e-08 6.216721e-07
1.7533365e-06 1.871861e-07 5.7883256e-07 1.2416752e-05 1.2129016e-06 2.0086106e-06 1.2267629e-05 5.353668e-07
2.251041e-06 8.402839e-06 1.2045733e-06 3.730104e-06 4.749194e-06 5.836006e-07 3.9818232e-07 5.7872694e-06
00000000: e4ac 9536 b299 2135 1c3c 1835 989a ea36
00000010: 7f23 8f34 829a ae35 8883 8836 0408 2135
00000020: 46ee 4e36 3480 2737 6bb9 a635 2f1f 3036
00000030: aa36 1137 7346 1335 66d9 ab36 907e 3637
00000040: 3caf a535 da81 c636 509a 2f36 8853 9e34
00000050: 02ac 1335 045e c236 0f39 0c34 eef3 9935
00000060: c836 8436 30c0 9d34 9cd5 cb35 aac7 8f37
00000070: c792 f335 1c8e 4336 7339 b837 8746 5735
00000080: 9c46 8136 cec5 7937 522f f235 8875 e136
00000090: 0835 aa35 4e16 7a34 b838 8c35 64db 9e35
000000a0: d90e dd33 f7db fb35 7f6c 5c36 a7b0 7834
000000b0: 0c29 e435 b851 8336 398b eb34 7382 9435
000000c0: 07ec b735 b37b 4f34 2c15 1f36 9f9f 5e36
000000d0: 296b e934 ef56 0436 473a 9236 185c d834
000000e0: c336 2d35 7e49 8836 42f0 3e34 77a5 4435
000000f0: ff3c 2636 43ce d634 a986 a835 1241 4436
00000100: e61f cb34 2a41 8935 f227 7c35 6717 3334
00000110: 822e 0436 7069 3f36 5e7a c934 6988 e235
00000120: 5448 8b35 96d2 f233 1cfc ea34 ddc8 c134
00000130: f35e 5633 b899 5a35 86ed 7735 bb2a f133
00000140: 2b7f 1035 3c73 3537 bb82 a335 4fcd cc34
00000150: 33a3 b137 6d0d 1135 112c bb35 0195 c636
00000160: 152f a335 22d3 e136 74dd 3336 b33d 1835
00000170: 8577 0f35 10b3 bd35 ec18 8734 7bcc c135
00000180: d677 af35 17fc 1735 3081 8d36 b1d1 9d37
00000190: 3878 2136 a2c2 bc35 aaca 0e38 f725 8f35
000001a0: 69f5 5b36 66bc 6d37 bd0a 2136 0846 5737
000001b0: 4bb6 1a36 2e47 c834 266d 3c35 ce6e c036
000001c0: 2a54 3134 2413 7335 1c24 bb36 b97e c734
000001d0: 22e9 b135 8ee4 0d36 9345 8634 ee12 c234
000001e0: 9507 8236 0971 ed33 b8a6 6235 a046 3736
000001f0: a08f 8534 18d2 a035 bb37 df34 db00 3833
00000200: 9313 2534 3a65 5335 be45 a332 f650 1734
00000210: ec5c 5b35 7eae 3733 4121 5334 dcd7 6636
00000220: a87c fa34 faea 8034 49d3 bb36 eb9d 5e34
00000230: 6377 8535 4fd2 7135 9771 fa34 8b50 9436
00000240: 7c30 e036 02ed 4e35 4ab4 7335 2530 1037
00000250: 841f b734 dd68 fa35 3995 a936 5703 4e35
00000260: 749e 7936 2b9f 9235 e919 fa33 d6fb 3234
00000270: f8a3 1a36 2228 5e33 51d5 8e34 1474 a035
00000280: 18ed f933 6d7a 7335 d71c 3536 6c17 c534
00000290: 4f6a 3e34 4f90 8e36 3828 2f34 5145 4535
000002a0: 9061 5d35 440d c534 ac22 7136 6aba b037
000002b0: 4e12 4b36 4271 3a36 0f60 b037 3ef7 b335
000002c0: 7508 c636 df3e 4137 2576 4a36 2751 9637
000002d0: 3d2f 0036 f41b dc34 f359 1436 f812 1236
000002e0: b2b7 4234 dab8 9136 e7c7 dc36 a90e db34
000002f0: ff18 6e36 3c76 9837 c87c 1836 7d7f 2436
00000300: 4cd1 d737 f9ec 8635 3459 e536 19d9 8437
00000310: 8cca 1736 eee4 4837 eeb4 0837 817b 9635
00000320: ad44 0d36 f3ac dd36 c4dc 0435 d857 1a36
00000330: f328 3d37 4d78 9535 ced3 3236 465a 0634
00000340: 3421 9f32 b2b9 8433 7871 6b34 96c0 0c32
00000350: e146 0234 f7c6 4634 a258 9e32 f091 0e34
00000360: 1352 be35 5427 2434 97ef a834 ce8e e535
00000370: d336 9133 6ae8 1535 d7fe 9f35 a25d 2334
00000380: 1ea7 5535 eb08 da37 a22b 4236 6e5b 9936
00000390: 8ee6 1138 1495 ab35 54d2 c336 3dd9 d537
000003a0: ae07 4136 2a75 1d37 0eef 0336 5bbc 4a34
000003b0: e567 2535 f659 c135 3ca8 b233 fbe0 2635
000003c0: 2f54 eb35 53fd 4834 1261 1b35 8b51 5037
000003d0: fbca a235 abcb 0636 11d1 4d37 20b6 0f35
000003e0: 9710 1736 ebf9 0c37 d3ac a135 b352 7a36
000003f0: 445b 9f36 baa8 1c35 c3c5 d534 4430 c236

exp_avg f4 [128]
8.7232795e-05 -0.00019899113 -9.219987e-05 -0.00047324633 -1.9039973e-05 -0.00014516736 -0.00027779586 -0.00012184367
-8.3114865e-05 0.0005264804 -0.0001309086 0.00059582974 7.574381e-05 1.9274688e-05 -3.297897e-05 -6.248959e-05
-0.00031652945 -0.00017001123 -0.0002334244 0.00043115078 -6.492136e-05 -0.0002522583 0.000118740936 -1.5199762e-05
-0.000105349936 -0.00040960236 -1.517163e-05 -0.0004194554 0.00015767937 -7.758726e-05 -0.00022229875 0.000249293
0.00012175032 0.00029292132 -0.00042647196 -0.00022766083 -6.092782e-05 -0.00044588285 0.0002233245 4.827507e-06
-5.9140406e-05 0.0001134866 -9.7413664e-05 0.00048612012 -0.00010008944 -0.00010445174 0.00036761642 -0.00012658336
0.0006298267 -1.9635545e-05 -4.906047e-05 -0.00024705858 -0.000755952 -0.00028127 -0.00026007765 -6.5729e-06
6.476208e-05 0.00023633859 2.8849932e-05 -0.0001552312 -0.00018775297 -7.506029e-05 8.407022e-06 0.0005699559
5.804701e-06 -0.00022886631 -6.49936e-05 -6.817002e-05 -0.0003296361 -5.4915476e-05 3.8587823e-06 0.0006591521
-3.9838225e-05 0.00012559124 -0.00022411201 0.00012035782 0.00023115025 0.000407325 0.00024636684 2.9703004e-05
-0.00016333486 6.1341325e-06 -0.00017882446 -3.3288838e-05 3.47873e-05 -0.00011554658 -9.940541e-05 -0.00012746583
-6.812388e-05 -0.000110749155 -2.8064773e-05 -0.00016509845 -6.65104e-06 0.000101026024 0.00040857878 0.00022970082
-1.8924167e-05 -5.0116665e-05 -0.00016018783 -2.1879952e-05 7.844703e-05 -0.00010220779 -0.00011273415 7.370071e-05
0.00051695714 -0.00012154318 7.500738e-05 -4.146187e-05 -0.00012778092 -0.0006036677 -9.6338335e-05 3.0910684e-05
-0.00013797499 0.00024593994 -0.0004997855 -0.0006185211 -9.796846e-05 8.681188e-05 -0.00028368976 -4.526367e-05
-0.00034807142 -2.4157365e-05 0.0003416951 -0.00014154108 -0.00039183965 0.000801477 -7.8068144e-05 -0.00032608357
00000000: c0f0 b638 46a8 50b9 6e5b c1b8 0c1e f8b9
00000010: 08b8 9fb7 1138 18b9 21a5 91b9 5286 ffb8
00000020: f44d aeb8 8003 0a3a 8244 09b9 7531 1c3a
00000030: a6d8 9e38 14b0 a137 e652 0ab8 d80c 83b8
00000040: ddf3 a5b9 0b45 32b9 63c3 74b9 140c e239
00000050: 6426 88b8 8941 84b9 8e04 f938 7b02 7fb7
00000060: 51ef dcb8 e6bf d6b9 a889 7eb7 5aea dbb9
00000070: bc56 2539 58b6 a2b8 de18 69b9 8ab3 8239
00000080: 3554 ff38 3c93 9939 1998 dfb9 3db8 6eb9
00000090: c08c 7fb8 62c5 e9b9 372c 6a39 f8fb a136
000000a0: 870d 78b8 a8ff ed38 904a ccb8 f0dd fe39
000000b0: 1ce7 d1b8 1a0d dbb8 a4bc c039 76bb 04b9
000000c0: f41a 253a 03b7 a4b7 47c6 4db8 a487 81b9
000000d0: 142b 46ba 6c77 93b9 085b 88b9 c88c dcb6
000000e0: e0d0 8738 a8d1 7739 c202 f237 8fc5 22b9
000000f0: 8edf 44b9 b069 9db8 e20b 0d37 1869 153a
00000100: 00c6 c236 d5fb 6fb9 2c4d 88b8 80f6 8eb8
00000110: 02d3 acb9 0b55 66b8 b07a 8136 f3ca 2c3a
00000120: f817 27b8 24b1 0339 9cff 6ab9 9d68 fc38
00000130: ec60 7239 3c8e d539 cc2a 8139 b72a f937
00000140: de44 2bb9 ccd3 cd36 d382 3bb9 9e9f 0bb8
00000150: 94e8 1138 9951 f2b8 e077 d0b8 59a8 05b9
00000160: bbdd 8eb8 0042 e8b8 a46c ebb7 471e 2db9
00000170: 002c dfb6 efdd d338 8436 d639 d8db 7039
00000180: 57bf 9eb7 5c34 52b8 18f8 27b9 d78a b7b7
00000190: ee83 a438 6458 d6b8 b06b ecb8 c48f 9a38
000001a0: 6884 073a ffe4 feb8 484d 9d38 58e7 2db8
000001b0: eefc 05b9 743f 1eba 4009 cab8 18a6 0138
000001c0: 61ad 10b9 80f1 8039 0a04 03ba 4024 22ba
000001d0: 6b74 cdb8 c60e b638 32bc 94b9 7fd9 3db8
000001e0: 5b7d b6b9 8ca5 cab7 8a25 b339 a56a 14b9
000001f0: d46f cdb9 361a 523a 84b8 a3b8 32f6 aab9

exp_avg_sq f4 [128]
1.0664661e-06 2.1945714e-06 5.2237095e-07 3.207855e-06 4.117526e-07 7.7293527e-07 7.1130154e-07 6.671676e-07
1.9964844e-07 2.1614494e-06 1.0065537e-06 4.266152e-06 6.6060113e-07 4.4226934e-07 7.602965e-08 8.2931246e-07
1.3643736e-06 2.0689957e-07 6.52511e-07 5.3633985e-06 7.253794e-07 4.021098e-06 1.9798035e-06 3.2771442e-08
2.7048247e-07 5.1135526e-06 3.3277493e-07 2.1414671e-06 1.0351513e-06 3.353007e-07 1.8045014e-06 1.8510262e-06
5.261475e-07 1.1822112e-06 2.3322582e-06 1.396803e-06 4.2661978e-07 2.9149382e-06 1.6763291e-06 1.3035316e-07
9.075971e-07 3.466176e-07 7.009348e-07 3.405368e-06 6.691758e-07 8.846785e-07 3.912268e-06 8.449394e-07
1.154657e-05 1.4328563e-08 2.943979e-07 2.5599716e-06 1.0291294e-05 1.4297259e-06 1.1264056e-06 6.302414e-08
1.2694464e-06 5.897783e-07 9.88029e-07 9.123025e-07 1.1972501e-06 4.7389477e-07 1.9460569e-07 6.2581266e-06
2.7036137e-06 1.0019329e-06 1.05632964e-07 1.3686574e-07 7.2493646e-07 1.3759815e-07 2.5190383e-07 5.97157e-06
1.6116747e-06 4.367353e-06 1.452921e-06 5.8179995e-07 1.455023e-06 2.5376496e-06 3.0281715e-06 4.4687464e-08
1.7415638e-06 2.3891618e-08 3.2237054e-07 4.2618902e-07 1.1018047e-07 8.4575356e-07 6.361914e-07 5.4735284e-07
8.1470955e-07 1.1078116e-06 9.6539615e-08 2.4684612e-06 1.8661879e-06 2.4706435e-07 1.9221077e-06 2.4426172e-06
1.7150609e-07 9.641262e-07 3.1401885e-07 8.5915116e-07 1.04086425e-07 8.442766e-07 6.2052715e-07 1.7284092e-06
2.5907561e-06 5.651417e-07 1.8523704e-06 1.6502084e-06 1.3934462e-07 3.852417e-06 5.8061767e-07 3.5191301e-06
2.2002838e-07 1.2280642e-06 3.3336041e-06 4.903934e-06 3.3616598e-07 3.262362e-06 9.789636e-07 1.6767277e-07
3.738362e-06 1.6737728e-07 1.4615279e-06 6.505418e-07 4.6883583e-06 1.0293968e-05 3.675742e-07 9.0244185e-07
00000000: 7f23 8f35 7346 1336 0f39 0c35 8746 5736
00000010: d90e dd34 b57b 4f35 45f0 3e35 6917 3335
00000020: f25e 5634 6b0d 1136 ec18 8735 f725 8f36
00000030: 2a54 3135 0971 ed34 be45 a333 eb9d 5e35
00000040: 851f b735 1f28 5e34 3728 2f35 3ef7 b336
00000050: b1b7 4235 f8ec 8636 c4dc 0436 95c0 0c33
00000060: d436 9134 1595 ab36 3da8 b234 20b6 0f36
00000070: 87ef 8a35 6103 b434 3232 f235 c770 f835
00000080: 953c 0d35 78ac 9e35 e483 1c36 c979 bb35
00000090: 2d0a e534 429e 4336 3bfe e035 34f7 0b34
000000a0: 99a1 7335 c316 ba34 df27 3c35 c787 6436
000000b0: 69a1 3335 a57a 6d35 2046 8336 cbcf 6235
000000c0: 24b8 4137 b029 7632 bd0d 9e34 facb 2b36
000000d0: c5a8 2c37 02e5 bf35 002f 9735 e357 8733
000000e0: d961 aa35 4251 1e35 6b9c 8435 f3e4 7435
000000f0: 33b1 a035 9a6b fe34 cef4 5034 e6fc d136
00000100: bb6f 3536 277a 8635 56d8 e233 5ef5 1234
00000110: 4199 4235 b1be 1334 663d 8734 655f c836
00000120: b950 d835 478b 9236 fc01 c335 fd2c 1c35
00000130: 364a c335 7d4c 2a36 9737 4b36 63ee 3f33
00000140: adbf e935 393a cd32 4512 ad34 f9ce e434
00000150: 5b9c ec33 be07 6335 bdc6 2a35 cded 1235
00000160: 6ab2 5a35 1eb0 9435 3751 cf33 d7a7 2536
00000170: ba79 fa35 44a4 8434 8ffd 0036 d8eb 2336
00000180: 3c27 3834 2067 8135 6c96 a834 6ba0 6635
00000190: 1e86 df33 3fa2 6235 4d92 2635 b0fb e735
000001a0: dadc 2d36 3eb4 1735 f69e f835 bb7c dd35
000001b0: c29e 1534 0344 8136 bedb 1b35 322a 6c36
000001c0: f140 6c34 f7d3 a435 e2b6 5f36 798c a436
000001d0: 4d7a b434 f4ee 5a36 ef64 8335 8a09 3434
000001e0: 92e0 7a36 51b8 3334 b729 c435 e4a0 2e35
000001f0: b150 9d36 42b4 2c37 0357 c534 553f 7235
