results/predatorTest2/PredatorBrain/PredatorBrain-1999982.onnx (onnx, 73997 bytes, 7 tensors)

action_model._continuous_distribution.log_sigma f4 [1, 2]
000000 79 3f bb bc 2b f8 18 3c
       -0.022857415 0.009336512

action_model._continuous_distribution.mu.bias f4 [2]
000000 cc 60 0b 3d ad ad c4 3c
       0.03402786 0.024008596

action_model._continuous_distribution.mu.weight f4 [2, 128]
000000 9c 67 e8 bc 5a 51 f6 3b 17 ee 3e 3d 8a 1e 50 3d
       -0.028369717 0.007517022 0.04661378 0.050810374
000010 c3 29 33 3a dd a8 ef 3c 97 d2 b6 3c 39 2d 87 3d
       0.0006834531 0.029255325 0.022317214 0.066004224
000020 34 42 4b bd 7e 2d c7 bc 79 9e 90 3a fb 9f dc bc
       -0.049623683 -0.024313685 0.0011033557 -0.026931753
000030 a4 33 2c 3d b8 54 64 bd 12 ca ee 3d c3 2d 02 3c
       0.042041436 -0.055744857 0.116596356 0.007945481
000040 bc b0 1e 3d b0 02 99 bc b1 43 43 bd 47 af 85 bd
       0.038742766 -0.01867804 -0.047671977 -0.06527572
000050 b4 48 45 ba 89 4d 75 bd 79 13 c3 bb bf 87 f6 bc
       -0.0007525787 -0.059888396 -0.005953249 -0.030094026
000060 62 cf e3 3c 61 a3 5e 3d c9 b9 07 3d 67 a0 5d bc
       0.027808849 0.05435503 0.033136163 -0.013527012
000070 be 41 3f 3c 51 4c 64 3b 2c 98 b1 bb d6 87 d5 3c
       0.011673389 0.0034835527 -0.0054197516 0.026065748
000080 86 e3 33 ba 44 8f 79 3c 78 65 b4 3c cd 02 3f 3c
       -0.0006862212 0.015231911 0.02202104 0.011658383
000090 de 98 9b 3c dd 99 9c 3d b2 20 53 3d 28 7b 39 3c
       0.018993791 0.076465346 0.051544853 0.011320867
0000a0 38 47 8c 3d d7 3a 43 3d f0 b5 1c bd 28 d8 61 3c
       0.068495214 0.047663536 -0.038259447 0.013784446
0000b0 04 1e cb bd 22 41 13 bd 84 71 2d 3c 4d df 45 3c
       -0.099178344 -0.035950787 0.010586146 0.012077165
0000c0 4d 23 10 3c 33 c7 3a bd 1e b0 cb 3c b6 9b 53 b8
       0.008797479 -0.045600127 0.024864253 -5.0451337e-05
0000d0 f7 a8 6a 3d 73 c1 14 bc 08 b8 88 3c 88 a0 92 bd
       0.057290044 -0.009079325 0.016689315 -0.07159525
0000e0 3f a6 19 bc 0c 0d cd bd c9 eb bb bc b1 8d b2 bc
       -0.009378015 -0.10012254 -0.02293958 -0.02179608
0000f0 46 65 a7 3c cd 2b 8f 3c 3e 70 5e 3d 87 fc a7 bd
       0.020434033 0.01747694 0.05430626 -0.08202463
000100 07 99 22 bd 3c f7 8c bc 10 44 e7 bc eb 47 11 bd
       -0.03969672 -0.017207734 -0.028230697 -0.035468977
000110 23 a9 8e 3d d2 3c ff 3c 2d dd 81 bd 4c f9 bb 3d
       0.06965854 0.031156931 -0.06341014 0.09178409
000120 72 ff 71 bb 8c 7b 03 3d 5c 7a 89 3c 5b bc 21 3d
       -0.003692594 0.032100245 0.016781978 0.03948627
000130 68 d6 9e 3a b6 f2 e8 3c 62 8c 1c bd e5 c4 b5 3c
       0.0012118341 0.028436046 -0.038219817 0.022188613
000140 e8 b1 07 3d 23 40 ba bb 12 88 a2 bc 7b b2 3f 3d
       0.03312865 -0.005683915 -0.019840274 0.04680107
000150 ff 21 ee 3c e6 05 b6 3c 0b c4 2a bd 4c ed de 3a
       0.029068945 0.02221961 -0.041690867 0.0017007976
000160 eb a2 f2 3c aa 0a fb ba 9d c4 2c bc 06 c6 b4 3c
       0.029618701 -0.0019152958 -0.010544923 0.022067081
000170 51 87 81 bc ff 4d 31 3c 1e 4c 86 3d c3 f4 8b 3c
       -0.015811594 0.010821818 0.06557487 0.017084485
000180 cd 03 0d bd 7e ec 61 3d b3 e2 22 bd fb d8 8c ba
       -0.034427453 0.055157177 -0.03976698 -0.0010745818
000190 f0 fa 42 3d cf 59 7e 3d c8 e7 9c 3c 7e 73 34 bd
       0.047602594 0.062097367 0.01915349 -0.044055454
0001a0 8b 4d cd 3c 01 ef c5 ba 98 dd bd 3c e0 e9 97 bc
       0.02506139 -0.0015101136 0.023176953 -0.018544137
0001b0 f2 cd 89 bd e2 96 da 3c 0f 8e 46 3d 9e 0b df bb
       -0.06728734 0.026683275 0.04847532 -0.006806805
0001c0 84 41 df 3b 49 a8 47 3d e2 b6 d3 bc fb 00 bc 3c
       0.00681323 0.048744474 -0.025844041 0.022949686
0001d0 20 bb 19 3d d6 77 d0 ba 2d 1b 1e bd e1 96 af bd
       0.037531972 -0.0015904855 -0.038600136 -0.085737
0001e0 6a 05 ce 3c d0 43 1b ba f5 48 e2 3c 56 64 59 bd
       0.025149066 -0.00059228856 0.02762268 -0.053074203
0001f0 cb 08 c2 3d 60 4c 8e bd 0f 80 f0 bc 61 0b 85 3c
       0.094743334 -0.06948161 -0.029357938 0.016240777
000200 74 09 2b bd 4b 9f 81 bd e7 1a 12 bd 50 1c 2c 3c
       -0.041757062 -0.06329211 -0.035670187 0.010504797
000210 2f 3c 50 3d f6 fb 7e bd 44 f8 e1 3c 9e 60 54 3c
       0.050838646 -0.062252007 0.027584203 0.012962488
000220 7a 77 2e bd 12 56 2e bd c8 e4 39 bd 55 91 25 3c
       -0.04259441 -0.04256255 -0.0453842 0.010105451
000230 d5 32 1e 3d c1 9d 25 3a 5a 68 25 3d 55 f0 c0 3c
       0.038622696 0.00063177577 0.04038272 0.0235521
000240 8d e4 28 3b 80 41 12 bc 66 7e ba bd d5 56 4f 3d
       0.0025770993 -0.008926749 -0.0910614 0.05061992
000250 bb 39 7b 3d d2 81 17 bd f2 5c a7 bd 12 c0 a8 bb
       0.061334353 -0.03698904 -0.08172025 -0.0051498497
000260 b7 8d 99 bd d3 a3 8c bd 99 09 22 3d 74 1c 23 bd
       -0.07497733 -0.068671845 0.039559934 -0.039822057
000270 1d ab a6 3c 01 d2 a1 bb 9c 37 ae bd b9 1f 30 3c
       0.020345265 -0.0049383645 -0.085067004 0.010749751
000280 6f 11 3f 3d 16 a8 8f 3c 68 11 73 3d 91 7f 2f 3d
       0.046647485 0.017536204 0.05934277 0.042846266
000290 08 25 c4 bb 1e 50 03 3d ec ca 1e 3d c5 87 b8 bd
       -0.00598586 0.032058828 0.03876774 -0.09010271
0002a0 0f 6f db 3c c0 1c 4e 3d 01 57 e7 bc e8 05 c1 bc
       0.026786355 0.050320387 -0.028239729 -0.023562387
0002b0 12 cb 4a bc e1 a1 53 3d cc 4f b5 bb a9 b1 b5 3b
       -0.012377517 0.05166805 -0.005533194 0.0055448604
0002c0 90 a8 d6 bc 19 78 66 3c 27 5c 2b 3d 08 fa 3a bd
       -0.026203424 0.014066719 0.04183593 -0.045648605
0002d0 96 fc 2a bd 40 c0 85 bc f5 5c 12 be ba 19 c4 bd
       -0.04174479 -0.016327024 -0.14293273 -0.095752195
0002e0 66 e7 01 3d 66 f4 60 bd 8c 10 14 bd 5b 6d 25 bc
       0.03171482 -0.054920577 -0.036148593 -0.010096873
0002f0 0d a9 19 3c 0b 72 d0 3a 3b 89 96 bd b1 18 6c bd
       0.009378684 0.0015903128 -0.073503934 -0.057640735
000300 20 e0 81 bd 96 af 4d bc d9 35 54 3c ed 65 b3 3b
       -0.063415766 -0.01255407 0.012952291 0.005474797
000310 08 45 7d 3b 84 76 43 3d ad 97 92 bd a1 de 2f bd
       0.0038645882 0.047720447 -0.07157836 -0.042936925
000320 6c b8 b5 bd 79 9d f5 bb 75 d8 5d bd 9a 22 b7 3a
       -0.08873066 -0.007495579 -0.054161508 0.0013972104
000330 9c 6f 38 3c b3 0c ee 3b d5 52 5a bc c3 40 83 bd
       0.0112570785 0.0072646975 -0.013325413 -0.06408837
000340 6c e4 4f 3b cb 74 5a bc c6 d2 23 3d dc ce 73 bd
       0.0031721843 -0.01333351 0.03999593 -0.05952345
000350 9b db 9d bd de 4b 1f 3d 63 d3 24 3d f9 9f 3a 3d
       -0.07707902 0.038890712 0.040240657 0.045562718
000360 4c 8b 67 3d 98 9e 06 be 4b 5d 15 3d db 42 57 bc
       0.05652933 -0.13146436 0.036465924 -0.013138498
000370 7a 73 9d bc 42 ff 09 3d 88 ad b8 bc 87 02 fd bc
       -0.019220103 0.0336907 -0.022543684 -0.030884994
000380 02 97 9e 3c 0a 69 0d ba ba 29 30 3d 8e 56 69 bd
       0.019359116 -0.0005394375 0.043008544 -0.05696731
000390 6a 1f 34 bd 02 64 58 3c dc c9 da bd 22 62 2f 3d
       -0.04397527 0.0132074375 -0.10683033 0.042818196
0003a0 84 ed 2b 3c ea cd 8f 3c b7 2d ca bd 44 66 85 3d
       0.01049364 0.017554242 -0.09872001 0.06513646
0003b0 2c c6 83 3c dd 1f c2 3c f4 75 02 3d 1c 7f 4d bd
       0.016085707 0.023696834 0.03185077 -0.05017005
0003c0 ba 1b 06 ba e6 1c 7c 3c 62 01 1a bd da c0 86 bd
       -0.0005115826 0.015387749 -0.037598975 -0.06579752
0003d0 40 35 be bb 2b e1 95 bd ea 76 2e bd b9 e0 99 bd
       -0.0058046877 -0.07318338 -0.042593874 -0.075135656
0003e0 eb 38 04 3d 89 ac 74 bd b7 38 e0 bc 17 04 0e bc
       0.032280844 -0.059734855 -0.027370794 -0.008667967
0003f0 58 1a 13 3d 3a 17 29 3d 55 30 32 bd 12 5e e7 bc
       0.035913795 0.041281916 -0.043503124 -0.028243098

network_body._body_endoder.seq_layers.0.bias f4 [128]
000000 76 82 43 3d c8 7a 62 3b 52 03 c5 3c 7d d3 cb bc
       0.04773184 0.0034558047 0.024049435 -0.024881119
000010 59 bc 91 3c 56 ea bb 3c 76 9c 5e bd 0a b5 a4 bc
       0.017790006 0.022938889 -0.05434843 -0.020105857
000020 bf 05 22 bc 2a 21 b0 bc b4 bb 42 3d 58 fb 2b 3d
       -0.009889065 -0.021500189 0.04754229 0.041987747
000030 36 e6 0e bd 4e 54 c2 bb c0 14 1f bc db e8 b0 bd
       -0.034887515 -0.00593046 -0.009709537 -0.08638164
000040 c1 f2 fa bb e5 1d 93 bc c1 e3 ef 3c 6a a8 c7 3d
       -0.007658333 -0.01795859 0.029283406 0.09748919
000050 04 94 b0 3c dd 4c 39 3d 56 ef 39 3d c5 50 d8 3c
       0.021554954 0.04523932 0.045394264 0.026405701
000060 2e 33 ba bd 1e 39 32 3c 4d 0f ec 3c 7b 99 53 bd
       -0.09091793 0.010877876 0.02881589 -0.051660042
000070 93 b8 d9 bc 26 6d 14 3b dc 88 92 3c 48 61 02 3d
       -0.02657727 0.0022648065 0.017887525 0.031831056
000080 a6 48 a7 3d 7c 7d 54 bc 23 53 eb 3c cd 74 ab 3c
       0.081681535 -0.012969371 0.028726166 0.020929718
000090 f6 0b ad 3c 0b 69 1c 3d 21 79 73 3d e3 79 a5 3b
       0.021123867 0.038186114 0.05944169 0.0050499304
0000a0 03 3d 32 3d 96 2b 45 3d 67 b3 ed bc 17 82 21 bc
       0.043515217 0.04813727 -0.02901621 -0.009857676
0000b0 f0 4d c1 bc a5 c5 95 3b 5d 19 02 3c c4 d4 1c bd
       -0.023596734 0.00457068 0.007940617 -0.038288847
0000c0 57 38 3c 3d db a3 4b 3c 1d 60 81 bd b7 2c 28 bc
       0.045952167 0.012429203 -0.0631716 -0.010264567
0000d0 fe f3 25 3d b2 0f b0 3b de 19 cc 3c d8 97 20 bd
       0.040515892 0.005372965 0.024914678 -0.03920731
0000e0 8c 72 40 3d b3 ce be 3c 4b 07 95 bc 9c cd 3d 3d
       0.04698424 0.023291921 -0.018191954 0.046338663
0000f0 2e 00 cd 3b f8 6e 04 bd 56 87 33 3d a2 d1 76 3d
       0.006256125 -0.03233239 0.04383024 0.060258515
000100 c7 50 9a 3d 07 18 7f bd 36 ef 51 bc 09 60 bc bc
       0.07534938 -0.062278774 -0.01281338 -0.022995012
000110 54 36 43 3c f1 47 65 3c 77 5d 20 3d f6 c6 0e 3d
       0.011914808 0.013994203 0.039151635 0.034857713
000120 12 38 bd 3c 28 21 71 3d b4 52 72 3d 7d 8e 92 bd
       0.023098025 0.05886951 0.059160903 -0.07156084
000130 ab f4 a6 bb 11 51 2a 3d bd 1c 3e 3d 9f b2 0a 3c
       -0.0050950847 0.041581217 0.046414126 0.008465438
000140 fd 8b 6b 3d 9d 23 7b 3c 46 e0 22 3c b2 10 9d 3c
       0.05750655 0.015328315 0.009941166 0.019173
000150 ec 39 2d 3d 1f a2 8e bc 26 8a b6 bb 02 48 4a 3b
       0.042291567 -0.01741129 -0.005570668 0.0030865674
000160 e4 d3 ec 3c 9c bb 48 3d 8c a7 5c bc 5f 42 2b 3d
       0.028909631 0.049007043 -0.013467681 0.041811343
000170 48 f6 80 3d f5 30 15 bc bb 6f 52 3c 99 d8 36 3c
       0.062969744 -0.009105911 0.012844021 0.011160039
000180 3c 13 b6 bc 2f ed a4 3c 90 bf ac 3b 0d 46 fd 3c
       -0.022225969 0.02013263 0.0052718595 0.030917192
000190 bb 30 0f 3d e7 27 4a 3c 9b 4a 4b bb 67 43 c6 3d
       0.034958582 0.012338615 -0.003101981 0.09680825
0001a0 3f 06 26 bd ca b1 b4 3b ba ba 18 3d e7 6e 23 3c
       -0.0405333 0.005514358 0.03728745 0.009975172
0001b0 33 4b 67 bd 0f 92 44 3d d2 02 b2 bc fd a0 a1 3d
       -0.0564682 0.047990855 -0.02172986 0.07892034
0001c0 e1 32 1e bd ba 84 d0 bc 01 2c 13 3d 92 f5 fd 3c
       -0.03862274 -0.025453914 0.035930637 0.031000886
0001d0 02 b9 3b 3b f7 dd ac 3d 89 16 33 bd 2a 20 c5 3a
       0.0028644209 0.08440774 -0.043722663 0.0015039493
0001e0 74 7a 5f 3d c4 3b 14 bc 39 58 77 3d 1a 66 6c 3a
       0.05456014 -0.009047452 0.06038687 0.00090179
0001f0 5a ff 43 3d 88 e6 fa 3c 35 a0 40 bc 52 f6 92 3c
       0.047850944 0.030627504 -0.011756946 0.01793972

network_body._body_endoder.seq_layers.0.weight f4 [128, 9]
000000 6c d1 a3 3e ef ba ad 3e 8c 23 22 bd 6d e0 63 3e
       0.31995714 0.33931682 -0.03958468 0.2225358
000010 93 5e 8a 3e e8 99 c0 bd b3 b6 9c be df b6 9d 3e
       0.2702528 -0.09404355 -0.30608138 0.30803582
000020 7b d3 17 bd 9e ad 56 3e 10 e7 a3 3e d7 2c 3b 3d
       -0.037066918 0.20964667 0.32012224 0.04569706
000030 cb 2f b6 bb 4c 81 8c bd 36 c3 7a 3f e2 d0 06 3d
       -0.0055598966 -0.06860599 0.9795412 0.03291405
000040 4a 5c fa 3e 99 77 dc be 5b 7c 7e 3e ce d7 13 be
       0.48898536 -0.43059996 0.24852125 -0.14437792
000050 73 b2 e1 be 3a 7c ab 3e ff 83 6a 3e c9 e7 8e 3d
       -0.44081458 0.33493215 0.22901915 0.06977803
000060 35 fb f0 3d 1b f0 25 3f 01 60 79 3f 29 8d 14 bf
       0.11766664 0.64819497 0.97412115 -0.58027893
000070 8e 9f 38 3e 2a 41 67 bd 5f 01 f9 3c c0 c6 b6 be
       0.18029615 -0.05645863 0.030396162 -0.3569851
000080 b5 bf f4 3e 50 ed 7d be d6 a1 ec be 29 f1 97 3d
       0.4780251 -0.24797559 -0.4621722 0.074190445
000090 43 1c 94 3e d8 e4 c8 bc 36 53 10 be 1a 78 70 be
       0.28927812 -0.024523184 -0.14094242 -0.23483315
0000a0 a8 4e 04 be c7 2d 84 3e c9 31 03 3d 1d 12 0d 3e
       -0.1292063 0.25816175 0.0320299 0.13776441
0000b0 91 e3 c2 3e 3d 5a 1f bf a3 9a 6c 3e bd d3 21 bf
       0.38064244 -0.6224707 0.23105864 -0.6321371
0000c0 5d dd 30 bf b1 8a a9 3d 33 5c 02 3f ec 6d e7 3e
       -0.69087774 0.082784064 0.50921935 0.4520105
0000d0 b1 3e fb 3d 48 2c 4a 3e 6f fd 1c bf 71 49 c3 be
       0.12267817 0.19743454 -0.6132421 -0.3814197
0000e0 db 67 b8 3e 7e d2 fd 3e ce d0 ae be 42 4c 07 3f
       0.36016735 0.49574655 -0.3414368 0.52850735
0000f0 41 03 c4 be df 8b 45 be 4b 27 1a 3f 39 21 15 be
       -0.38283733 -0.19291638 0.60216206 -0.14563455
000100 ff 8b 90 3e b6 8a 87 3e 58 4e 02 bf a7 4e 60 3e
       0.2823181 0.26473016 -0.50900793 0.21905003
000110 8b be f6 3e 5d ab e5 3e d6 21 8e 3e 76 19 24 be
       0.48192248 0.44857302 0.2776019 -0.16025338
000120 fc 8a c4 3d 10 3f 07 3f 94 c0 36 3f c7 52 fc be
       0.09596822 0.528306 0.713876 -0.49281904
000130 df bb a2 be fd 4a 91 3e 8e 2e 98 3e c3 77 e1 3b
       -0.3178396 0.28377524 0.29723018 0.006880732
000140 f4 c8 88 be 23 c2 46 bd 6e 4b b1 be d0 b6 9c 3e
       -0.26715815 -0.048524987 -0.3462786 0.30608225
000150 f1 9f 2b 3f 6f ce bc 3d 7e 5f 32 be ad 4b dc 3e
       0.67040926 0.092190616 -0.1741924 0.43026486
000160 cb 81 87 3e 16 0d 8d be a0 fc 22 be 80 48 97 3e
       0.26466212 -0.27549046 -0.15916681 0.295475
000170 89 88 27 be 7a 6f 13 bf 69 55 ba 3e 40 25 e9 be
       -0.16360678 -0.57591975 0.36393288 -0.45536232
000180 05 d7 83 3e bf b6 b2 3c b9 29 a0 3d fb 04 e2 bd
       0.25749984 0.021815656 0.07820458 -0.11036106
000190 39 ec 2b be b6 1c 9f 3e fd 6a 7b 3e 0b 1f bd be
       -0.1678933 0.31076592 0.24552532 -0.36937746
0001a0 02 fe bd be 16 60 90 3b 8c 5a 5a 3e 10 a3 13 be
       -0.37107855 0.0044059856 0.21323603 -0.14417672
0001b0 cb 63 a0 3e a6 2f 91 3d fd 69 3f 3e 08 9e ce 3d
       0.31326136 0.07089166 0.18692775 0.10088736
0001c0 07 a8 f8 3e 52 1f 2c bf d3 06 5a be 2f 25 3e 3f
       0.48565695 -0.6723529 -0.21291666 0.7427549
0001d0 cd 70 1d 3f 3f 76 81 bd 48 c2 28 3e 60 de 81 3e
       0.61500245 -0.06321382 0.16480362 0.2536497
0001e0 ef 92 fb 3e 42 ff ae be f4 3f 89 be 56 0f 08 bf
       0.4913554 -0.3417912 -0.26806605 -0.531484
0001f0 4b 82 8d bd 74 69 f9 3e 59 12 1e 3f 90 c7 9b 3c
       -0.06909617 0.48713267 0.61746746 0.019016057
000200 4d a5 b5 3d 89 d7 04 be 00 fd 04 bf 53 b0 8c bb
       0.08869419 -0.12972845 -0.5194855 -0.0042934804
000210 5c 64 ee 3d 7f 4a aa 3e 09 b0 88 bd 35 75 26 3e
       0.11640236 0.3325996 -0.06674201 0.16255648
000220 90 13 6d 3d 83 32 42 be 23 cd 31 3e 67 d0 99 bc
       0.057879984 -0.18964581 0.1736341 -0.018776132
000230 66 84 5b 3d ba 45 85 3e b8 4b f6 be 6a d7 8a be
       0.053593062 0.2602976 -0.48104644 -0.27117473
000240 b4 a1 08 be 34 41 02 3e 33 e6 4f be d3 83 0d 3f
       -0.13342935 0.12720186 -0.20302658 0.5527927
000250 3b 0d d9 be af cd ae 3e a9 79 a9 be 4c 5f db 3d
       -0.42392907 0.341413 -0.33100632 0.10711536
000260 b2 85 4b 3e 1b 3c 2f 3f 8a e0 c5 be cb a2 5a 3e
       0.1987522 0.6845109 -0.38647872 0.21351163
000270 20 28 82 3e 50 35 70 3c f1 6f 35 3f 27 a3 a6 3e
       0.25421238 0.014661148 0.70873934 0.3254635
000280 0b 58 e1 3e 97 82 02 bf 6f 92 8c 3e f0 af 2a bf
       0.44012484 -0.50980514 0.2745547 -0.6667471
000290 11 ee 9b bd c5 59 72 3d 69 6b 5c 3f 8d d9 ec 3e
       -0.07613767 0.059167642 0.86101395 0.46259728
0002a0 31 25 e4 3d 4c 0f 27 bf ce 62 00 bf bf a1 30 bf
       0.11139906 -0.65257716 -0.50150764 -0.68996805
0002b0 52 4d c1 3e f5 fe b9 3e d4 3b f4 be ba c6 04 be
       0.37754303 0.3632733 -0.47701895 -0.12966433
0002c0 e8 f0 da be fa 75 da be 88 3e 78 3e 01 f0 14 bf
       -0.42761922 -0.42668134 0.24242604 -0.58178717
0002d0 f3 69 2a 3f 06 b7 d7 be f9 bb 86 3e 35 6b 8f be
       0.66567916 -0.42131823 0.26315287 -0.2801148
0002e0 5f ae 76 be 50 81 a6 3d 12 c8 9c bd 84 16 86 3e
       -0.24089955 0.08130133 -0.07655348 0.26189053
0002f0 67 41 8f 3e 32 1a 39 3e f2 46 d1 3c a5 77 ae be
       0.27979586 0.18076399 0.025546525 -0.34075657
000300 3b d4 bb 3e e8 a9 8b be 35 82 0f bd 1a a5 29 bf
       0.36685356 -0.27278066 -0.035036284 -0.6626755
000310 53 24 d8 3e 35 68 af 3c 1b 5b 30 3d a8 98 04 3e
       0.42215213 0.021411994 0.043055635 0.12948859
000320 f6 83 b7 3e 7e b8 db be 04 a7 4b 3f 45 8f f9 be
       0.35842866 -0.42914194 0.7955172 -0.48742118
000330 5b ef 0c bf 2d 29 15 3e 2a 7c cd 3e 82 62 28 3e
       -0.5505273 0.14566489 0.40133792 0.16443828
000340 0e c8 e3 be 0c 55 d1 bc e8 50 c4 be b7 50 80 be
       -0.44488567 -0.025553249 -0.38342977 -0.2506158
000350 e6 f7 85 bd 4e af c6 3e 01 b6 bb 3e 65 a1 f2 3e
       -0.065414235 0.38805622 0.36662295 0.4738876
000360 38 a8 69 be c8 45 41 3d 45 13 22 3f 64 96 13 3f
       -0.22818077 0.04718569 0.6331065 0.5765135
000370 71 39 57 bd 94 f9 b3 3e 98 14 15 bf 9c f5 e9 be
       -0.052545015 0.3515135 -0.5823455 -0.45695198
000380 9c db 08 3f 2b 98 9d be 70 04 f7 3d b9 9c 86 3d
       0.534601 -0.30780157 0.12061393 0.06572861
000390 09 9e af bd 59 6f c5 3e 94 13 72 3f 50 a0 9b be
       -0.08575065 0.38561514 0.94561124 -0.30395746
0003a0 38 2b fc 3e dd 83 57 3e d8 c1 a6 be c7 83 88 be
       0.49251723 0.21046396 -0.32569766 -0.26663038
0003b0 75 70 18 3f 5c ea 87 be 26 8f 22 bf 95 3e 33 bf
       0.59546596 -0.2654599 -0.6349968 -0.7001737
0003c0 6c e3 c7 3e ad 14 ef 3e 86 eb 03 3f 8d ab 09 be
       0.39040697 0.46695462 0.51531255 -0.13444348
0003d0 aa 47 01 bf cf 9f 2c 3e 39 d6 24 3f 61 cf 97 3e
       -0.50499976 0.16857837 0.6438938 0.29650405
0003e0 b4 39 a1 3e 90 4b ba be 3f 46 5a 3d a8 b1 05 3f
       0.31489336 -0.36385775 0.05328965 0.52224207
0003f0 dc 3b 0a bf 07 36 2b 3e 9e 72 b1 3d bd 4e 97 be
       -0.5399759 0.16719829 0.086644396 -0.2955226

network_body._body_endoder.seq_layers.2.bias f4 [128]
000000 8c 5c fb bb f3 f7 95 ba f6 39 70 3d 33 42 51 3d
       -0.0076709446 -0.0011441692 0.058649026 0.051088523
000010 40 07 e5 3c c3 ac 26 3d ee 0e ba 3c 0e 3c 8c 3d
       0.027957559 0.040692102 0.022712197 0.06847392
000020 db 6f b2 bc 54 e5 29 bd ce ab 05 bc f9 04 83 bc
       -0.021781852 -0.04147847 -0.008158637 -0.015993582
000030 0d 22 1b 3d 56 6d 85 bb 65 7f 99 3d 14 51 22 3d
       0.03787427 -0.0040718718 0.07495002 0.039628103
000040 84 8a 15 3d 77 3c 10 bd c8 2d b3 3c 88 c4 f9 3b
       0.036509052 -0.035213914 0.021872416 0.0076223053
000050 0f 70 d0 3c 67 3c 1a bd ed 74 bb 3b cd de 95 bc
       0.025444059 -0.03765526 0.0057207257 -0.018294716
000060 52 90 e6 3c 8c 85 25 3d 5b 7c ef 3b 53 5c 98 bc
       0.02814499 0.040410563 0.0073085255 -0.018598711
000070 f7 45 84 3c 18 ec e3 bc 05 46 ca 3b 93 f2 12 3c
       0.016146643 -0.02782254 0.0061728978 0.008968967
000080 ac 13 eb 3c ae e0 b4 3c ab a8 6f 3c 36 ff 92 3c
       0.028695904 0.022079792 0.014627616 0.01794396
000090 5a 34 04 bc f9 4f 62 3d 5f f5 f0 3c 8a c0 ce 3c
       -0.008069122 0.05525205 0.029413877 0.025238294
0000a0 9b f4 88 3d 38 80 3e 3d c9 85 35 bd ac b3 92 3c
       0.0668728 0.046508998 -0.04431704 0.01790794
0000b0 ff 7b 74 bd 3b 4b 7b 3c 75 2d d6 bb be 7f 10 bc
       -0.059688564 0.015337761 -0.0065361806 -0.008819519
0000c0 eb 7d 61 3c ce 0b 35 3b 5b fb 16 3d 14 be 83 bc
       0.013762931 0.0027625444 0.036860805 -0.016081847
0000d0 cb 0d 2f 3d 18 9d 47 bd 9e b2 04 3d 03 63 cf bb
       0.042737763 -0.0487338 0.032396905 -0.006328942
0000e0 08 a3 41 b7 ac e0 49 bb 48 d3 3e bd 1f c7 47 bd
       -1.1541655e-05 -0.003080408 -0.046588212 -0.04877388
0000f0 38 e4 94 3b 83 33 78 3c f5 a0 d3 3c 50 0f 18 3d
       0.0045438074 0.015149 0.025833586 0.03712398
000100 d9 6d d0 bb 76 63 e7 bc 21 e4 01 bb 1e e9 d7 bc
       -0.006360751 -0.028245669 -0.0019819813 -0.026356276
000110 01 36 87 3d 88 9d c1 3c 58 7b 88 bc 00 c2 b9 3d
       0.06602097 0.023634687 -0.016660377 0.09070206
000120 95 d2 11 38 86 97 12 3d 90 1d 6a bc 0f 1f ff 3c
       3.4766814e-05 0.035789035 -0.014289275 0.03114274
000130 9a ae 0e 39 72 7d c0 3c 49 05 da bc f2 e3 66 3c
       0.0001360722 0.023497317 -0.026613848 0.014092432
000140 a7 b2 51 3b 84 2b 09 bd 4b b6 91 3b 68 18 0d 3d
       0.0031997354 -0.033488765 0.00444678 0.034447104
000150 31 c1 2f 3d 69 ff 0f 3d bd 0c 23 3c 65 ef 92 b9
       0.04290885 0.035155687 0.0099517675 -0.00028025653
000160 57 1d 1e 3d 8d 2f 2d 3d 18 32 a7 3c 32 bd 06 3d
       0.0386022 0.042281676 0.020409629 0.032895274
000170 09 67 5d bd 58 6f 24 3d f6 09 1b 3d b9 43 d3 3c
       -0.05405334 0.04014525 0.037851296 0.025789129
000180 31 07 3b 3c 3b a3 e4 3c dd 6c 00 3d 0e 3b a8 3c
       0.011415289 0.027909866 0.03135382 0.020535972
000190 9a 3d 2c 3d 5a 58 6c 3d 05 5e 99 3c 27 13 86 3c
       0.042050935 0.057701446 0.01872159 0.016366554
0001a0 49 f3 6c 3b 2c e7 1a bb e2 55 04 3d 4b 27 03 3d
       0.0036155751 -0.0023636324 0.032308467 0.032019895
0001b0 22 4c bd 3b b8 0d 22 3d 80 02 c5 3c e7 40 25 bb
       0.005776898 0.039563864 0.024049044 -0.0025215687
0001c0 f7 6c ed bc f6 e7 61 3d 98 83 79 bc f6 3d cd 3c
       -0.028982623 0.055152856 -0.015229128 0.02505396
0001d0 9a 0b a1 3a 9d de f2 ba dc 7c a8 bb 15 d7 18 3d
       0.0012286783 -0.0018529479 -0.0051418375 0.037314493
0001e0 fe 9f 03 3d ac 19 95 3c f3 ed bb 3b 5c 34 a8 bc
       0.032135002 0.018200718 0.005735153 -0.02053278
0001f0 d5 ff ad 3d 46 c3 c3 3c dc 24 22 bd 57 47 53 3c
       0.08496062 0.023896825 -0.039585933 0.012895427

network_body._body_endoder.seq_layers.2.weight f4 [128, 128]
000000 20 72 25 3d ba 33 6a bd d7 db a0 3d 34 2f d1 3d
       0.04039204 -0.057178237 0.07854431 0.102140814
000010 81 17 1b be 1f 42 f3 bc fa 6d 23 be ba 39 27 bd
       -0.15145685 -0.029694615 -0.15959921 -0.040826537
000020 e3 58 10 3e 7d 50 fa 3b 45 45 0e 3e 71 7e 9a 3d
       0.14096408 0.0076389895 0.13893612 0.07543648
000030 e2 6c 59 3d ce f9 c8 bc 62 d2 d5 3c 7a 76 cc 3b
       0.053082354 -0.024533179 0.026101295 0.0062397094
000040 a0 f9 bc bd 35 4b e6 3b 69 30 52 3d 65 ad 6c 3d
       -0.092273 0.0070280083 0.0513157 0.05778255
000050 dd 3b b7 3d 82 1b d6 bd 25 14 a7 bd 3f 11 a0 3c
       0.08946965 -0.104544654 -0.08158139 0.019539474
000060 34 f3 1b be 7f 0a 1d be 70 01 fb bb 83 2d 1d 3d
       -0.15229493 -0.15336035 -0.0076600835 0.03837348
000070 bf a1 d6 bc 45 60 d5 bd 6a ca ba bc 45 25 37 bc
       -0.026200173 -0.104187526 -0.022801597 -0.011178319
000080 9b 68 98 3c 9b 1b 17 be 05 7c b6 3d c1 f9 13 3e
       0.018604567 -0.14756624 0.089103736 0.14450742
000090 ef 7f 08 be f3 6b 95 3b 3b a6 a3 3d 0d 70 a4 bd
       -0.13330053 0.0045599877 0.0799069 -0.080291845
0000a0 7e c9 15 be 7c a4 dc bd aa df f1 3c 20 ff d0 bd
       -0.14627644 -0.107735604 0.029525597 -0.10204911
0000b0 c7 5a 21 3e 2f 3c 25 3e e0 da bd 3d 26 8c d4 bd
       0.15757285 0.1613624 0.09270263 -0.10378294
0000c0 a3 52 55 3d 3e 75 c7 3c de 31 87 3d 9b 00 a7 bd
       0.05208076 0.024347898 0.06601308 -0.08154412
0000d0 ce 4b f1 3d 35 9f fa bd 89 78 01 be 0e 79 99 bd
       0.11782037 -0.122373976 -0.12643637 -0.074937925
0000e0 ff 56 d5 3c 98 fb 01 be cd 5a d9 3b bd d6 cb bd
       0.02604246 -0.12693632 0.0066331387 -0.099530675
0000f0 9e 3a cb bd 26 d5 49 be 04 09 86 3c f9 82 a8 3d
       -0.0992329 -0.19710216 0.01636172 0.08228106
000100 8d bf 00 3d d8 08 06 be c9 66 c2 3c 1c e3 3e bd
       0.031432677 -0.13089311 0.023730652 -0.046603307
000110 88 70 98 3e bc 8a f4 bd 82 f5 9f 3d cb af 08 3d
       0.29773355 -0.11940524 0.07810499 0.033370774
000120 7d 0b 7d 3d 7e 2f 78 bd 99 42 9b bc fb 0d 25 be
       0.061778534 -0.060592167 -0.018952655 -0.16118614
000130 f3 b5 d7 3d 9f 19 59 3d 41 e0 17 3e 0e a6 7d 3d
       0.10532751 0.05300295 0.1483164 0.06192594
000140 aa af 12 bd fe 08 38 3d 6b be 09 be 2d fc a1 3d
       -0.035812058 0.04493045 -0.13451545 0.07909427
000150 e9 19 12 3e cd 6a 94 3c d6 0a 8c 3c f0 0f 4d 3d
       0.14267696 0.018117333 0.01709501 0.050064027
000160 ea 9b 02 bc 73 64 88 3d c1 58 b5 bd 59 12 00 3d
       -0.007971743 0.06659784 -0.08854819 0.031267498
000170 8a 81 88 3d 66 18 f4 3c aa b4 bd 3c b5 26 18 3e
       0.066653326 0.02979679 0.023157436 0.14858516
000180 6a d8 e3 3d 7e a6 3e 3d b6 4d b9 3d 69 d5 eb 3c
       0.11125262 0.046545498 0.09048025 0.028788285
000190 21 62 dd bc c5 0a c5 bd 93 b0 17 3e 9e 0e 2a bd
       -0.02702433 -0.09621195 0.14813451 -0.041517846
0001a0 9f aa ef 3d 4d 85 c5 3d 58 2f ae 3d f3 41 95 3d
       0.11702465 0.09644566 0.08505124 0.072879694
0001b0 2a a2 06 3c b7 0f 87 b9 97 ca 23 bc 08 7c a9 bd
       0.008217374 -0.00025760915 -0.009997032 -0.0827561
0001c0 b1 cd 22 be 60 80 36 3d 6c 21 bf bd 50 fb ef 3d
       -0.15898778 0.04455602 -0.093325466 0.11717856
0001d0 87 c1 c8 bc b6 e3 fe bc db 26 c8 3d b4 c1 22 bd
       -0.024506344 -0.03111444 0.09773036 -0.03973551
0001e0 04 bf 91 bc 86 75 45 3e 72 de 52 bd 76 e7 e8 3d
       -0.017791279 0.19283113 -0.05148167 0.11372273
0001f0 a9 c3 6b bc 61 f1 02 3d 15 d7 05 bc ab 61 fe 3d
       -0.014389911 0.031968478 -0.008168955 0.124209724
000200 04 8d 66 bc f1 f8 5d 3d 76 f1 dc 3b 4c 3c e1 3d
       -0.014071707 0.054192487 0.0067426516 0.10997829
000210 a2 b5 97 bd 1b 73 67 3d 67 6c 81 bc e2 01 5d 3c
       -0.074076906 0.056506258 -0.01579876 0.013489218
000220 40 13 fe 3c a0 b9 46 bd 12 a2 b7 3d d9 65 a6 bd
       0.031015038 -0.04851687 0.08966459 -0.08124895
000230 a6 11 ca 3d 61 2f 86 3d 08 fa d7 bd 50 35 ba bd
       0.098666474 0.065520056 -0.105457366 -0.090922
000240 63 6c 4d 3d 2e 61 ce 3d b2 86 d7 bd 86 6d b1 3d
       0.050152194 0.10077129 -0.10523738 0.08663468
000250 88 09 9c bd f6 91 d7 3d 7a b4 7b bd 76 c1 84 bc
       -0.076190054 0.10525887 -0.061451413 -0.01620553
000260 13 f3 38 3e 11 bc 0a be ff fd 00 3e 4d 25 9e 3d
       0.18061475 -0.13548304 0.12596892 0.07721958
000270 94 a7 f7 3c d4 44 a1 3d 9f aa fc bd d3 45 6c 3d
       0.030231275 0.07874456 -0.12337231 0.057683777
000280 1c 42 3f 3e db ef 2b bd 50 6d 34 3d 71 50 03 bc
       0.18677562 -0.04197679 0.04404956 -0.008014784
000290 e1 12 17 be d0 2d 1e bd 55 fa a3 3d af a1 ec bd
       -0.14753295 -0.03861791 0.080067314 -0.11554276
0002a0 6d 09 ee 3b 04 04 89 3d ac ec b4 ba 17 59 ab 3d
       0.0072643072 0.06690219 -0.0013803444 0.08366602
0002b0 92 06 2f 3c 78 de a4 bd d5 26 96 bd b1 d8 db bd
       0.010682719 -0.08050245 -0.07331625 -0.1073469
0002c0 d9 a5 0c 3e b3 fd 10 3d bc e7 15 be 1c b1 dc bd
       0.13735141 0.035398196 -0.14639181 -0.107759684
0002d0 fc 3d 5c be 5d 15 b8 bd c2 e9 6f bb 4c 9d 77 bd
       -0.2150802 -0.0898845 -0.0036607836 -0.060452744
0002e0 80 48 21 3e 13 30 81 bd b5 b6 d0 bc ed 4a 8a bc
       0.15750313 -0.063079976 -0.025477747 -0.01688143
0002f0 79 57 f4 bc f3 f1 4f bc 99 f1 07 3d 5e 26 61 3d
       -0.029826866 -0.0126919625 0.03318939 0.05496823
000300 f0 16 85 3c 81 7a 25 be 38 0f ab bd b6 8b 8c 3c
       0.016246289 -0.16160013 -0.08352512 0.017156463
000310 06 b8 a0 3d df b1 66 bd 1f 57 65 3c 1c 9f 8b bd
       0.078476 -0.056321975 0.013997822 -0.06817457
000320 d1 1a ca 3d fd db f7 bd b9 87 c9 bd 69 2d 19 3e
       0.09868396 -0.12102506 -0.0984034 0.14958729
000330 32 64 bd 3d 13 33 a5 bd 0f af b5 bd 33 41 b8 3c
       0.09247626 -0.08066382 -0.088712804 0.022492027
000340 6f 04 a2 bd 3d 8a 92 3d e4 f3 2f be 12 23 60 3d
       -0.07911002 0.07155273 -0.1718288 0.054720946
000350 43 d6 df bd 6f 32 a5 bc f2 93 e6 bd 5f 61 9c bc
       -0.10929539 -0.02016565 -0.11258687 -0.019089399
000360 00 99 1e be 2c 63 fe 3d 5c e9 a3 bd 53 23 ed bd
       -0.15488052 0.12421259 -0.08003494 -0.11579003
000370 e2 e1 03 3e 52 09 68 bd ff 72 4f bd 1d 3b cb 3d
       0.12879136 -0.056649514 -0.05064678 0.09923384
000380 18 7b 9c 3d fb c6 19 bd af e9 ef bd 8f 44 61 be
       0.07640666 -0.03754328 -0.117144935 -0.2199881
000390 04 4a 00 3e 92 55 23 3e 01 d8 c0 bd 6c f4 32 bd
       0.12528235 0.15950611 -0.094161995 -0.04369013
0003a0 3e 22 8a 3e 37 e5 95 bd e4 a7 d7 bc e3 29 33 bc
       0.2697925 -0.0731911 -0.026325174 -0.01093528
0003b0 2c 86 0c be 47 c3 ab 3c 7e 6d 16 3c 30 04 d6 bd
       -0.13723058 0.020967139 0.009181378 -0.104500175
0003c0 32 44 a4 bc 49 41 96 3d 18 77 17 be c0 bb 31 be
       -0.02005205 0.07336671 -0.14791524 -0.17356777
0003d0 85 a1 a3 bd e6 90 75 3e 5d e8 0e bc c6 c4 f4 3c
       -0.07989792 0.23981056 -0.008722392 0.029878985
0003e0 53 23 0a bd 4c 7c b4 3c 95 e2 05 bb 87 ff dc 3d
       -0.033725094 0.022031926 -0.0020429243 0.107909255
0003f0 31 64 8b be 5e ac 9c 3d 96 ee 35 3e 8a da 9a bd
       -0.27224877 0.07650064 0.17766795 -0.07561214
