results/predatorTest2/PredatorBrain/PredatorBrain-2665109.onnx (onnx, 73997 bytes, 7 tensors)

action_model._continuous_distribution.log_sigma f4 [1, 2]
-0.052559394 -0.02276065
00000000: 8548 57bd 8b74 babc

action_model._continuous_distribution.mu.bias f4 [2]
0.050085027 0.023795715
00000000: f525 4d3d 3bef c23c

action_model._continuous_distribution.mu.weight f4 [2, 128]
-0.036541462 0.007693832 0.04909156 0.046256423 0.00085225503 0.045681056 0.020546082 0.070806965
-0.06541875 -0.021190777 0.009418825 -0.040767882 0.042606376 -0.07309263 0.12674077 0.016371557
0.04076478 -0.029923333 -0.05002907 -0.06537824 -0.0020195898 -0.066130735 0.0042846035 -0.050101537
0.04734818 0.06372484 0.040571067 -0.012939851 0.010713312 -0.010134814 0.009120245 0.025113598
0.0012511453 0.01434742 0.022660064 0.0065700077 0.024623161 0.08000824 0.047777317 0.021962618
0.06978721 0.052056603 -0.054419715 0.01569591 -0.118963905 -0.03673747 0.046626896 -0.0020986525
0.012987463 -0.04912405 0.022263922 0.00059950445 0.06120695 -0.015590916 0.024689117 -0.08440604
-0.009656443 -0.10173488 -0.039914627 -0.015097464 0.02642366 0.015967919 0.072091594 -0.10294483
-0.057124842 -0.030860765 -0.051156126 -0.054563377 0.07052294 0.02727085 -0.06023495 0.09861733
0.008517945 0.03021048 0.026262099 0.046416532 -0.0037965407 0.01712526 -0.067285955 0.03393146
0.0426007 -0.018580629 -0.023591906 0.047463436 0.05464337 0.022489516 -0.03791369 0.0023020932
0.02819674 0.013579393 -0.0100667495 0.019179065 -0.028817333 0.012557398 0.07721968 0.013006854
-0.02701462 0.058170415 -0.040494397 -0.0032044717 0.04663058 0.063165106 0.026470713 -0.046714712
0.028696388 0.0057779355 0.035876088 -0.019624956 -0.07842952 0.03841247 0.050869223 -0.00043792636
-0.017745659 0.055519428 -0.049749307 0.033520803 0.04841358 0.00077051466 -0.054156166 -0.09865792
0.026301716 0.0077953287 0.046481684 -0.06852302 0.09901043 -0.064524494 -0.03438064 0.026606383
-0.047260147 -0.06754712 -0.039368704 0.00877891 0.058416367 -0.06406936 0.028803373 0.013618265
-0.06125643 -0.056774333 -0.04194929 0.010443375 0.041005444 -0.006488936 0.048599925 0.029539388
0.0014638639 -0.0108869625 -0.10618906 0.060981613 0.07150706 -0.05064523 -0.08448715 -0.0034959835
-0.071109496 -0.07972334 0.043942988 -0.044369746 0.023894142 -0.0077772727 -0.10512491 0.0110695055
0.049027663 0.015731838 0.05057862 0.045340206 -0.0023107736 0.035105374 0.037565745 -0.09724466
0.029625088 0.054008894 -0.029825535 -0.03635328 -0.011800874 0.05804463 -0.0017610298 0.0071119973
-0.03260394 0.023358852 0.04793345 -0.05656214 -0.05173066 -0.015798334 -0.15139654 -0.11750181
0.037264038 -0.054636043 -0.044544805 -0.014704916 0.008684756 -0.0023055547 -0.075097755 -0.04923957
-0.08688039 -0.015231544 0.019165749 0.0062929573 0.0070867436 0.04432316 -0.08347097 -0.045044575
-0.08603502 -0.016267471 -0.06886393 -0.0028759118 0.009408187 0.004988183 -0.00912593 -0.07648004
0.00012888917 -0.007543076 0.050169032 -0.07561131 -0.07044819 0.04008385 0.049053323 0.04274195
0.05871205 -0.13803527 0.043867227 -0.017798528 -0.020428425 0.04439367 -0.030293439 -0.031487744
0.028566511 -0.011842878 0.047730207 -0.06860114 -0.052742764 0.017998068 -0.11210806 0.047106307
0.006678654 0.029411593 -0.097842835 0.07261851 0.016354512 0.025466388 0.03164988 -0.055630434
-0.005886783 0.015349755 -0.0422359 -0.073025234 -0.003089019 -0.07453459 -0.049696 -0.08263148
0.03878138 -0.058466177 -0.016697632 -0.006356143 0.04074803 0.052765932 -0.049755014 -0.034929115
00000000: 80ac 15bd 8a1c fc3b 3b14 493d 6077 3d3d
00000010: de69 5f3a 0f1c 3b3d 4250 a83c 3e03 913d
00000020: 44fa 85bd 4898 adbc 6a51 1a3c 39fc 26bd
00000030: 0684 2e3d 97b1 95bd 55c8 013e a51d 863c
00000040: f8f8 263d c721 f5bc 48eb 4cbd 07e5 85bd
00000050: 185b 04bb 8d6f 87bd dc65 8c3b 4537 4dbd
00000060: 2af0 413d 2b82 823d d92d 263d ab01 54bc
00000070: e386 2f3c 7e0c 26bc 156d 153c 08bb cd3c
00000080: 78fd a33a 7111 6b3c 99a1 b93c 3849 d73b
00000090: 83b6 c93c 5cdb a33d 26b2 433d f3ea b33c
000000a0: 99ec 8e3d 4e39 553d 35e7 5ebd b694 803c
000000b0: 59a3 f3bd 087a 16bd d8fb 3e3d 8c89 09bb
000000c0: 5ec9 543c 4d36 49bd d462 b63c 1028 1d3a
000000d0: 24b4 7a3d 0b71 7fbc d540 ca3c 13dd acbd
000000e0: 0f36 1ebc 605a d0bd 857d 23bd 5b5b 77bc
000000f0: 6e76 d83c 27cf 823c c2a4 933d bdd4 d2bd
00000100: bdfb 69bd b7cf fcbc 1689 51bd d97d 5fbd
00000110: 556e 903d 1e67 df3c ecb8 76bd e2f7 c93d
00000120: da8e 0b3c f87b f73c 9d23 d73c 431f 3e3d
00000130: 62cf 78bb 464a 8c3c 38cd 89bd b7fb 0a3d
00000140: 127e 2e3d 6736 98bc d043 c1bc 0569 423d
00000150: bad1 5f3d ef3b b83c 634b 1bbd b7de 163b
00000160: dafc e63c 1a7c 5e3c 02ef 24bc 6a1d 9d3c
00000170: 5412 ecbc 8bbd 4d3c 5a25 9e3d b31a 553c
00000180: c44d ddbc 1a44 6e3d 74dd 25bd 1d02 52bb
00000190: b5ff 3e3d b55c 813d 1cd9 d83c ed57 3fbd
000001a0: b014 eb3c d654 bd3b cef2 123d 84c4 a0bc
000001b0: a89f a0bd 6556 1d3d 3f5c 503d 7b99 e5b9
000001c0: 585f 91bc 5768 633d eec5 4bbd 1c4d 093d
000001d0: 514d 463d 5dfc 493a dbd2 5dbd 2a0d cabd
000001e0: b276 d73c f56f ff3b 9463 3e3d cc55 8cbd
000001f0: fbc5 ca3d 6b25 84bd b7d2 0cbd a1f5 d93c
00000200: db93 41bd 2556 8abd 1441 21bd 6bd5 0f3c
00000210: 0046 6f3d cc36 83bd 0df5 eb3c 251f 5f3c
00000220: 06e8 7abd 348c 68bd 05d3 2bbd b11a 2b3c
00000230: 53f5 273d 24a1 d4bb b710 473d 96fc f13c
00000240: 1fdf bf3a 3b5f 32bc a679 d9bd dbc7 793d
00000250: 4b72 923d 5f71 4fbd 9907 adbd df1c 65bb
00000260: dba1 91bd fe45 a3bd 90fd 333d 0dbd 35bd
00000270: a6bd c33c 7ed8 febb bb4b d7bd df5c 353c
00000280: 3bd1 483d 0ee0 803c 872b 4f3d a7b6 393d
00000290: 5970 17bb a7ca 0f3d 8ade 193d 3528 c7bd
000002a0: 50b0 f23c 6e38 5d3d ae54 f4bc 2de7 14bd
000002b0: 7458 41bc 35c0 6d3d 5bd2 e6ba c20b e93b
000002c0: b68b 05bd 105b bf3c de55 443d b4ad 67bd
000002d0: 87e3 53bd 826b 81bc b207 1bbe caa4 f0bd
000002e0: 2da2 183d 0bca 5fbd 9d74 36bd e3ec 70bc
000002f0: 824a 0e3c ca18 17bb dacc 99bd 6eaf 49bd
00000300: 59ee b1bd ba8d 79bc 7d01 9d3c 2735 ce3b
00000310: ea37 e83b 348c 353d d4f2 aabd a980 38bd
00000320: 2133 b0bd 5c43 85bc 8808 8dbd cb79 3cbb
00000330: cc24 1a3c e973 a33b ed84 15bc 91a1 9cbd
00000340: 6c26 0739 e82b f7bb 0b7e 4d3d 1ada 9abd
00000350: 2447 90bd f72e 243d 23ec 483d 2f12 2f3d
00000360: 0c7c 703d 1e59 0dbe 1fae 333d 38ce 91bc
00000370: 8359 a7bc 23d6 353d f229 f8bc 4bf9 00bd
00000380: 5104 ea3c a108 42bc c080 433d c17e 8cbd
00000390: cc08 58bd af70 933c e998 e5bd 8bf2 403d
000003a0: 9cd8 da3b 95f0 f03c d361 c8bd 03b9 943d
000003b0: e6f9 853c e39e d03c 4ea3 013d bddc 63bd
000003c0: eae5 c0bb 8a7d 7b3c 8dff 2cbd 418e 95bd
000003d0: 2471 4abb 97a5 98bd 088e 4bbd b23a a9bd
000003e0: 39d9 1e3d 3b7a 6fbd 79c9 88bc 3147 d0bb
000003f0: 68e7 263d 1721 583d eacb 4bbd d511 0fbd

network_body._body_endoder.seq_layers.0.bias f4 [128]
0.05949715 -0.010836862 0.027998071 -0.030131146 -0.005398435 -0.015798422 -0.07154842 -0.046208493
-0.008650625 -0.014813502 0.05555861 0.051849984 -0.024972398 0.0015387469 -0.030927489 -0.09408547
-0.01143517 -0.029478194 0.026094932 0.111417115 0.013596085 0.05692908 0.05247252 -0.000934858
-0.10952763 0.007693714 0.040385418 -0.0570271 -0.023697967 -0.015051042 0.0114862155 0.046024643
0.1035258 0.0015372081 0.017806293 0.031088524 -0.0035016937 0.030503543 0.07621387 0.008749777
0.06760016 0.05317428 -0.031404033 -0.0061992635 -0.036839508 -0.018225908 0.025911482 -0.054509617
0.06130767 0.008974642 -0.08601143 -0.017102234 0.036375947 0.0016722556 0.011732921 -0.028668044
0.054123923 0.029750088 -0.014414095 0.047159974 0.014193082 -0.030113095 0.033824507 0.071968354
0.08573571 -0.07076823 -0.0070416518 -0.042110167 0.010998071 -0.0040224083 0.04128289 0.04916079
0.036354337 0.08170977 0.05870372 -0.08145757 -0.004548149 0.043507412 0.054597676 0.007409227
0.07156522 0.010054412 -0.00014294591 0.01142547 0.0337436 -0.030834157 0.004947186 -0.010864844
0.039699536 0.061066132 -0.032878403 0.050919577 0.06916622 0.0040454287 0.027015084 0.015436617
-0.04193542 0.019838214 -0.0049288385 0.03518983 0.05528254 -0.025479745 -0.02791366 0.11119269
-0.028439224 0.009946979 0.05191521 0.0148645 -0.061452292 0.045463186 -0.024627518 0.0882205
-0.045577254 -0.024902727 0.033538967 0.022404365 -0.003606611 0.09811851 -0.054329928 0.005501695
0.0631044 -0.02361107 0.06979661 0.011495398 0.055880252 0.03626935 -0.034213144 -0.001301021
00000000: 49b3 733d 188d 31bc 365c e53c 98d5 f6bc
00000010: 5be5 b0bb b16b 81bc fa87 92bd 1e45 3dbd
00000020: 5abb 0dbc 55b4 72bc 6d91 633d a660 543d
00000030: ea92 ccbc c7af c93a a55b fdbc e2af c0bd
00000040: 945a 3bbc 417c f1bc 0ac5 d53c a82e e43d
00000050: 1dc2 5e3c 782e 693d 6ded 563d 4211 75ba
00000060: 0650 e0bd 8d1b fc3b 2e6b 253d 4095 69bd
00000070: 3d22 c2bc a598 76bc ae30 3c3c 5684 3c3d
00000080: 5605 d43d 257c c93a 81de 913c 5cad fe3c
00000090: ac7c 65bb 91e2 f93c 0416 9c3d 3a5b 0f3c
000000a0: f471 8a3d 46cd 593d 84a1 00bd 3123 cbbb
000000b0: 06e5 16bd 804e 95bc 5144 d43c 7a45 5fbd
000000c0: c01d 7b3d 600a 133c c326 b0bd fc19 8cbc
000000d0: f2fe 143d 962f db3a 703b 403c 3fd9 eabc
000000e0: 0cb1 5d3d 75b6 f33c 1929 6cbc d12a 413d
000000f0: 1a8a 683c bdaf f6bc 918b 0a3d 2564 933d
00000100: 3496 af3d efee 90bd a8bd e6bb b67b 2cbd
00000110: 4131 343c 68ce 83bb 3f18 293d d35c 493d
00000120: 49e8 143d 7457 a73d 5073 703d 3ad3 a6bd
00000130: a408 95bb d434 323d d0a1 5f3d 1ac9 f23b
00000140: c990 923d 43bb 243c c0e3 15b9 e531 3b3c
00000150: bb36 0a3d ea97 fcbc 011c a23b 7502 32bc
00000160: fb9b 223d 7b20 7a3d 81ab 06bd 0c91 503d
00000170: 05a7 8d3d 848f 843b bd4e dd3c dde9 7c3c
00000180: 7ac4 2bbd c083 a23c 1882 a1bb 3623 103d
00000190: f26f 623d e6ba d0bc 30ab e4bc feb8 e33d
000001a0: 60f9 e8bc a7f8 223c 0ba5 543d 3b8a 733c
000001b0: 66b5 7bbd 9b37 3a3d a6bf c9bc f3ac b43d
000001c0: 37af 3abd ce00 ccbc 2860 093d 5c89 b73c
000001d0: e45c 6cbb 5bf2 c83d 0f89 5ebd 9047 b43b
000001e0: e13c 813d 016c c1bc 86f1 8e3d 3257 3c3c
000001f0: b1e2 643d 2c8f 143d 1523 0cbd 0587 aaba

network_body._body_endoder.seq_layers.0.weight f4 [128, 9]
0.32528397 0.35109714 -0.04218198 0.21467368 0.28201795 -0.09884951 -0.30292094 0.31980127
-0.026561169 0.21354982 0.30580443 0.050772823 -0.014978046 -0.0828986 0.98154145 0.02200102
0.47469243 -0.442259 0.25123242 -0.1403706 -0.44191754 0.32998082 0.23296797 0.07961827
0.13007493 0.652144 0.97349435 -0.58136916 0.17522503 -0.07143575 0.024461133 -0.3622355
0.4913265 -0.2551206 -0.46742263 0.07072176 0.31682238 -0.04783704 -0.14539823 -0.25202203
-0.15239455 0.2519656 0.030583898 0.11457577 0.37015763 -0.59687877 0.19237922 -0.64517105
-0.7324018 0.044047076 0.48624185 0.4709297 0.08394106 0.16615264 -0.60207486 -0.39845952
0.34712738 0.48146755 -0.3586369 0.53241825 -0.39365366 -0.21011628 0.6014446 -0.12706454
0.25623575 0.2699834 -0.54126453 0.19294779 0.4756098 0.4511286 0.25150013 -0.17670502
0.092702605 0.52944887 0.721778 -0.4969475 -0.3166003 0.28438076 0.28729868 0.008119197
-0.2719968 -0.04697862 -0.33976042 0.31592816 0.6737377 0.09887713 -0.17846328 0.44335943
0.27134925 -0.2687415 -0.16593632 0.30341518 -0.15257096 -0.5704819 0.37194902 -0.45564365
0.25253093 0.02983201 0.074266665 -0.109858185 -0.15815163 0.3295023 0.2477137 -0.3595154
-0.37196314 0.010641746 0.22309844 -0.1346056 0.3039532 0.0807458 0.1964585 0.107502624
0.495572 -0.6786841 -0.20805416 0.7526691 0.6252439 -0.0557311 0.17222384 0.2534878
0.48640206 -0.3343219 -0.26538703 -0.52043957 -0.061626974 0.5044979 0.6176596 -0.0022665588
0.09269657 -0.14154191 -0.5407027 0.013272736 0.12798165 0.3113819 -0.050481874 0.15660515
0.05017704 -0.19777998 0.17494994 -0.026479777 0.05307535 0.26747388 -0.48875013 -0.28247708
-0.12333971 0.1234995 -0.21639538 0.544228 -0.42770585 0.34844097 -0.34059957 0.103338584
0.20599745 0.68614984 -0.39809543 0.21401301 0.24668702 0.0031417536 0.7045653 0.32911384
0.42860505 -0.52751374 0.26545873 -0.6699721 -0.07855429 0.06971543 0.857825 0.46418175
0.12115463 -0.65576583 -0.5131883 -0.6928487 0.3913691 0.37209958 -0.46873656 -0.11573641
-0.43674925 -0.4248493 0.25635442 -0.58348465 0.6684341 -0.4294843 0.27864695 -0.28960362
-0.24885805 0.095537566 -0.08460732 0.25393173 0.28869888 0.18213618 0.03731767 -0.3533178
0.36122635 -0.26109058 -0.03168604 -0.67097825 0.43384215 0.032832876 0.041532855 0.1364696
0.36394337 -0.43478194 0.8025963 -0.50006604 -0.5448164 0.15274316 0.40297017 0.19556808
-0.47234842 -0.039012767 -0.39465642 -0.27795488 -0.0889763 0.39456043 0.33928302 0.4532758
-0.21351863 0.028551767 0.628295 0.5619514 -0.071154214 0.3493607 -0.58963776 -0.47556177
0.54572016 -0.30482724 0.11759677 0.0472163 -0.09047194 0.38243088 0.9528981 -0.3090385
0.48933288 0.20642404 -0.32836744 -0.25517076 0.60390013 -0.26289654 -0.62342846 -0.6995586
0.3802391 0.47852483 0.525284 -0.13511992 -0.51024324 0.16100824 0.6400083 0.2911366
0.32665792 -0.38369498 0.047922615 0.5203202 -0.5412563 0.16997343 0.081716046 -0.288751
00000000: 9f8b a63e 01c3 b33e 03c7 2cbd 6bd3 5b3e
00000010: a864 903e 9d71 cabd 7418 9bbe febc a33e
00000020: cf96 d9bc ceac 5a3e 6692 9c3e 2af7 4f3d
00000030: 7a66 75bc bec6 a9bd 4d46 7b3f 7c3b b43c
00000040: e30a f33e c66f e2be 89a1 803e 50bd 0fbe
00000050: 0443 e2be 3ff3 a83e 288f 6e3e e70e a33d
00000060: 5d32 053e e9f2 263f ed36 793f 9cd4 14bf
00000070: 316e 333e e84c 92bd b762 c83c ee76 b9be
00000080: 268f fb3e 2b9f 82be 0552 efbe 92d6 903d
00000090: 8b36 a23e c6f0 43bd 46e3 14be 0809 81be
000000a0: 510d 1cbe a301 813e 158b fa3c b4a6 ea3d
000000b0: 4d85 bd3e 0ccd 18bf 0fff 443e ee29 25bf
000000c0: af7e 3bbf b56a 343d b1f4 f83e b31d f13e
000000d0: 4ae9 ab3d eb23 2a3e 9421 1abf e302 ccbe
000000e0: aeba b13e ea82 f63e 419f b7be 904c 083f
000000f0: f98c c9be b928 57be 46f8 193f 351d 02be
00000100: 5531 833e 443b 8a3e 5090 0abf 1b94 453e
00000110: 2183 f33e 54fa e63e a0c4 803e 29f2 34be
00000120: ddda bd3d f689 073f 71c6 383f e76f febe
00000130: 6f19 a2be 5b9a 913e d018 933e 6106 053c
00000140: 2a43 8bbe a76c 40bd 14f5 adbe 56c1 a13e
00000150: 137a 2c3f 1880 ca3d 14bf 36be 0200 e33e
00000160: 4aee 8a3e 7c98 89be 36eb 29be 3c59 9b3e
00000170: 903b 1cbe 1a0b 12bf 1a70 be3e 204a e9be
00000180: bc4b 813e 4262 f43c 1f19 983d 54fd e0bd
00000190: 80f2 21be 87b4 a83e a9a8 7d3e 6712 b8be
000001a0: f471 bebe b85a 2e3c eb73 643e 0dd6 09be
000001b0: c19f 9b3e 0e5e a53d 6b2c 493e 562a dc3d
000001c0: 9dbb fd3e 3ebe 2dbf 260c 55be ecae 403f
000001d0: fc0f 203f 4b46 64bd 725b 303e 27c9 813e
000001e0: b109 f93e 3d2c abbe cfe0 87be 873b 05bf
000001f0: 916c 7cbd c626 013f f11e 1e3f 8c8a 14bb
00000200: b3d7 bd3d 5df0 10be 7e6b 0abf e475 593c
00000210: 9f0d 033e 736d 9f3e 15c6 4ebd 1a5d 203e
00000220: 7186 4d3d d686 4abe 1426 333e 1eec d8bc
00000230: 8a65 593d 56f2 883e 753d fabe d6a0 90be
00000240: 8899 fcbd 4eed fc3d c096 5dbe 8752 0b3f
00000250: 43fc dabe db66 b23e 1163 aebe 2ea3 d33d
00000260: fff0 523e 84a7 2f3f 2ad3 cbbe 3a26 5b3e
00000270: 869b 7c3e e1e5 4d3b 645e 343f 9c81 a83e
00000280: 1f72 db3e 240b 07bf 35ea 873e 4b83 2bbf
00000290: 12e1 a0bd f7c6 8e3d 6b9a 5b3f 3ba9 ed3e
000002a0: eb1f f83d 45e0 27bf 4f60 03bf 885e 31bf
000002b0: 8861 c83e d683 be3e 3dfe efbe 3607 edbd
000002c0: 999d dfbe d985 d9be e340 833e 405f 15bf
000002d0: 7f1e 2b3f 5ee5 dbbe d0aa 8e3e ed46 94be
000002e0: a5d4 7ebe 33a9 c33d 9a46 adbd 5703 823e
000002f0: 57d0 933e e881 3a3e 6ada 183d 12e6 b4be
00000300: a9f2 b83e aaad 85be 39c9 01bd 3bc5 2bbf
00000310: 8f20 de3e c47b 063d 5b1e 2a3d b0be 0b3e
00000320: c956 ba3e bd9b debe f376 4d3f 5404 00bf
00000330: 1679 0bbf b468 1c3e 1b52 ce3e 0043 483e
00000340: a7d7 f1be dacb 1fbd 6810 cabe 1a50 8ebe
00000350: 3539 b6bd d303 ca3e 81b6 ad3e c413 e83e
00000360: a1a4 5abe 65e5 e93c f1d7 203f 0cdc 0f3f
00000370: 4db9 91bd 68df b23e 80f2 16bf d57c f3be
00000380: 51b4 0b3f 5112 9cbe 93d6 f03d e165 413d
00000390: 5a49 b9bd fbcd c33e 21f1 733f 4b3a 9ebe
000003a0: d789 fa3e d360 533e c71f a8be bea5 82be
000003b0: 3399 1a3f 609a 86be 0299 1fbf 4616 33bf
000003c0: b3ae c23e 3501 f53e 0379 063f e05c 0abe
000003d0: 4d9f 02bf 58df 243e 95d7 233f db0f 953e
000003e0: b53f a73e ab73 c4be 814a 443d b433 053f
000003f0: c68f 0abf 840d 2e3e be5a a73d 2cd7 93be

network_body._body_endoder.seq_layers.2.bias f4 [128]
-0.008977164 0.0031975517 0.07206572 0.062425427 0.02993042 0.0538897 0.02724631 0.08164709
-0.03149781 -0.04826646 -0.00469282 -0.022719216 0.048145354 -0.0031636446 0.092719406 0.04983458
0.05032181 -0.052964192 0.026517663 -0.0031053498 0.031825352 -0.050321158 0.01083165 -0.019459533
0.035445303 0.052069098 0.013296159 -0.017349796 0.019463824 -0.029023975 0.019880394 0.016340705
0.025043763 0.024947973 0.0028702267 0.01858708 -0.0020568578 0.07147046 0.03646512 0.030775132
0.080480844 0.0575734 -0.050920658 0.030987862 -0.051282194 0.015339571 0.0208963 -0.008720885
0.022507388 -0.013266671 0.04544881 -0.0066820197 0.05414525 -0.057318304 0.040449265 -0.0015709057
-0.000755793 -0.022011098 -0.046031456 -0.060092084 0.014473692 0.024707092 0.037806258 0.023893317
0.0040984517 -0.0314775 -0.0036076284 -0.036397453 0.082205705 0.038049057 -0.026122315 0.11264362
0.0027019551 0.04587688 -0.00019524817 0.044168316 -0.008585714 0.026899954 -0.0373438 0.03010978
0.017306289 -0.044015888 0.0035174235 0.05009157 0.05331553 0.039940834 0.002919732 -0.012067037
0.04465949 0.048433274 0.018363738 0.04347893 -0.061908044 0.04891 0.05311039 0.031992394
0.0024501022 0.039095283 0.02020732 0.029565003 0.054983467 0.074007496 0.024230767 0.015780786
0.01370047 0.0023949018 0.0391339 0.029881507 -0.0021978342 0.05397762 0.031610698 0.00054805336
-0.036261305 0.06885638 -0.019488452 0.03743634 0.012333397 0.0017467982 -0.009931241 0.02907736
0.04177409 0.020434668 0.014596649 -0.038022615 0.102416724 0.010366256 -0.041034013 0.02686975
00000000: f414 13bc 048e 513b 3197 933d ceb1 7f3d
00000010: a430 f53c 72bb 5c3d a733 df3c 9736 a73d
00000020: d903 01bd 0db3 45bd 3ac6 99bb a61d babc
00000030: 1034 453d 2655 4fbb ace3 bd3d 581f 4c3d
00000040: 3e1e 4e3d fbf0 58bd 923b d93c 2083 4bbb
00000050: 4d5b 023d 8f1d 4ebd 3c77 313c 9969 9fbc
00000060: 182f 113d 6846 553d 22d8 593c 2921 8ebc
00000070: 9972 9f3c b0c3 edbc 35dc a23c f1dc 853c
00000080: 9428 cd3c b15f cc3c 6a1a 3c3b ef43 983c
00000090: 59cc 06bb 1b5f 923d 735c 153d 211c fc3c
000000a0: 24d3 a43d 16d2 6b3d 2e92 50bd 42da fd3c
000000b0: 470d 52bd d352 7b3c b82e ab3c 0be2 0ebc
000000c0: 6a61 b83c 745c 59bc 8828 3a3d d8f4 dabb
000000d0: 69c7 5d3d 99c6 6abd 21ae 253d d9e6 cdba
000000e0: 6920 46ba 9e50 b4bc 7b8b 3cbd 1e23 76bd
000000f0: 1023 6d3c 8766 ca3c bcda 1a3d ebbb c33c
00000100: 4e4c 863b 8dee 00bd f66d 6cbb 7f15 15bd
00000110: 775b a83d 54d9 1b3d 77fe d5bc b3b1 e63d
00000120: 4913 313b 65e9 3b3d 88bb 4cb9 d6e9 343d
00000130: 18ab 0cbc 4b5d dc3c d0f5 18bd c9a8 f63c
00000140: ebc5 8d3c 014a 34bd 9384 663b d12c 4d3d
00000150: 6361 5a3d 0099 233d f958 3f3b d2b4 45bc
00000160: dfec 363d f861 463d 8d6f 963c f616 323d
00000170: 4a93 7dbd da55 483d 488a 593d 750a 033d
00000180: e591 203b 6022 203d d289 a53c 4e32 f23c
00000190: 5836 613d 3e91 973d 9a7f c63c b546 813c
000001a0: f077 603c c9f3 1c3b de4a 203d 10ca f43c
000001b0: 8a09 10bb a317 5d3d 387a 013d 3dab 0f3a
000001c0: bc86 14bd 9304 8d3d 3fa6 9fbc d956 193d
000001d0: 0412 4a3c d2f4 e43a a5b6 22bc a533 ee3c
000001e0: 4f1b 2b3d 9b66 a73c c926 6f3c 9abd 1bbd
000001f0: dcbf d13d 3bd7 293c 4813 28bd f31d dc3c

network_body._body_endoder.seq_layers.2.weight f4 [128, 128]
0.028807193 -0.04833948 0.080589876 0.11489747 -0.15116595 -0.034182604 -0.14230114 -0.04235739
0.13989115 0.0141944345 0.13283874 0.077839725 0.034402464 -0.024279851 0.030155662 0.007831623
-0.08197414 0.009984086 0.06178993 0.053474918 0.09360434 -0.12212368 -0.11684065 0.021237006
-0.13685967 -0.14991781 -0.014435617 0.054828044 -0.021225767 -0.10583182 -0.021483606 -0.020268304
0.017408544 -0.13942681 0.09043858 0.15256554 -0.13561743 0.00606542 0.083489 -0.09065935
-0.15920094 -0.12934935 0.024177432 -0.09788365 0.16514772 0.16145173 0.09333823 -0.100250505
0.04830823 0.029127477 0.06803773 -0.08740944 0.116822295 -0.11855256 -0.12266608 -0.12301675
0.00026308498 -0.121317886 0.0033604356 -0.09638121 -0.097796164 -0.19056617 0.02078652 0.08334477
0.025478484 -0.12658146 -0.010667529 -0.04321734 0.28060937 -0.11220051 0.06288686 0.034327433
0.05959602 -0.06412896 -0.013792086 -0.1559806 0.110191114 0.05660284 0.14845146 0.05734073
-0.038456924 0.0487106 -0.123057716 0.079085596 0.14492437 0.02027907 -0.009552302 0.051111624
-0.018028032 0.059271544 -0.09083914 0.035818215 0.07422704 0.02752064 0.027706096 0.14621484
0.10863078 0.050235238 0.093416676 0.01669092 -0.029212637 -0.098932676 0.15152176 -0.06105593
0.1170538 0.106238686 0.08770402 0.07756809 -0.0072863367 -0.00055058557 -0.02328768 -0.097490236
-0.15962346 0.045516007 -0.088091336 0.12835737 -0.034995534 -0.0533622 0.10824161 -0.043662194
-0.016847584 0.19504246 -0.053138584 0.11098208 -0.025682239 0.035221532 -0.008252117 0.12081848
-0.017423501 0.05464439 0.010254774 0.1147049 -0.07862553 0.07138674 -0.0075056665 0.026051003
0.0398153 -0.039920256 0.098099686 -0.07899123 0.10313047 0.0679542 -0.1075167 -0.08403621
0.04954904 0.10654008 -0.103802204 0.08161067 -0.07754464 0.10058956 -0.049018607 -0.021923274
0.18587202 -0.12884213 0.1397589 0.0811349 0.04952142 0.08203757 -0.10967115 0.059761062
0.1868436 -0.033868127 0.0380573 -0.0076171444 -0.1415291 -0.04887291 0.07221482 -0.117988504
0.013458727 0.06224661 -0.0076396912 0.08983936 0.01952102 -0.077108696 -0.057304263 -0.0866486
0.15044126 0.030557953 -0.1403502 -0.10999989 -0.21337424 -0.077089876 -0.012582778 -0.06668987
0.1533815 -0.048659455 -0.048725255 -0.026869109 -0.031743497 -0.008073481 0.018313333 0.051917974
0.03148994 -0.15482779 -0.07737195 0.018394217 0.10635274 -0.066122726 0.033244446 -0.06471987
0.1079177 -0.119710706 -0.108069085 0.1582387 0.07704205 -0.09170527 -0.10797428 0.018890897
-0.086239494 0.061955858 -0.17532218 0.051096976 -0.11239575 -0.021827826 -0.11146858 -0.0095623145
-0.14623849 0.12497217 -0.07252799 -0.1149332 0.1325509 -0.057399947 -0.025206743 0.10797226
0.08364612 -0.02324167 -0.12591657 -0.21006405 0.1231949 0.16962685 -0.08005138 -0.04489717
0.29178104 -0.07439002 -0.016962504 -0.0016493254 -0.11981349 0.010997229 0.011227012 -0.11126789
-0.028532393 0.08575162 -0.15685569 -0.17377567 -0.062956266 0.24285462 -0.0066285976 0.031653695
-0.04997578 0.022984244 -0.0041139578 0.105837114 -0.28210822 0.07107819 0.18359317 -0.056554865
00000000: 10fd eb3c 9eff 45bd 4e0c a53d 5d4f eb3d
00000010: 3fcb 1abe 0f03 0cbd 64b7 11be f17e 2dbd
00000020: a03f 0f3e c68f 683c e106 083e 6f6a 9f3d
00000030: 99e9 0c3d 8ae6 c6bc 0209 f73c 3550 003c
00000040: 0fe2 a7bd 4b94 233c 7017 7d3d 8408 5b3d
00000050: a2b3 bf3d fb1b fabd 274a efbd 3bf9 ad3c
00000060: f124 0cbe 0e84 19be 5e83 6cbc 5f93 603d
00000070: a9e1 adbc 5abe d8bd 63fe afbc b709 a6bc
00000080: 5d9c 8e3c e7c5 0ebe dd37 b93d 243a 1c3e
00000090: 4cdf 0abe 6ec0 c63b 48fc aa3d 9cab b9bd
000000a0: 9205 23be 2874 04be c00f c63c 3977 c8bd
000000b0: 7c1c 293e 9a53 253e 1d28 bf3d 2350 cdbd
000000c0: dade 453d bf9c ee3c 5e57 8b3d b803 b3bd
000000d0: 8740 ef3d afcb f2bd 5b38 fbbd 35f0 fbbd
000000e0: abee 8939 8375 f8bd c13a 5c3b 8363 c5bd
000000f0: 5b49 c8bd c723 43be 7e48 aa3c aab0 aa3d
00000100: 41b8 d03c 929e 01be dcc6 2ebc aa04 31bd
00000110: 08ac 8f3e 62c9 e5bd d3ca 803d ec9a 0c3d
00000120: f51a 743d 0b56 83bd 34f8 61bc 61b9 1fbe
00000130: e1ab e13d 61d8 673d a903 183e 1dde 6a3d
00000140: 0285 1dbd c484 473d af05 fcbd a1f7 a13d
00000150: 0e67 143e 4b20 a63c 4281 1cbc 6c5a 513d
00000160: 86af 93bc b8c6 723d df09 babd 1fb6 123d
00000170: 5904 983d f772 e13c e5f7 e23c 58b9 153e
00000180: d079 de3d 77c3 4d3d 3e51 bf3d 65bb 883c
00000190: 574f efbc 379d cabd 8528 1b3e c815 7abd
000001a0: e7b9 ef3d ab93 d93d 2a9e b33d 05dc 9e3d
000001b0: 39c2 eebb 2c55 10ba cec5 bebc f6a8 c7bd
000001c0: 5574 23be fe6e 3a3d 3b69 b4bd 1d70 033e
000001d0: 7a57 0fbd 5292 5abd c7ad dd3d 21d7 32bd
000001e0: f203 8abc 36b9 473e d8a7 59bd 934a e33d
000001f0: 8f63 d2bc 7444 103d e333 07bc ae6f f73d
00000200: bbbb 8ebc ccd2 5f3d a403 283c 67ea ea3d
00000210: 6c06 a1bd 3633 923d 18f2 f5bb ea68 d53c
00000220: 5e15 233d 6c83 23bd 7de8 c83d 27c6 a1bd
00000230: 1136 d33d 922b 8b3d b731 dcbd 2d1b acbd
00000240: eff3 4a3d af31 da3d 4096 d4bd 7f23 a73d
00000250: b9cf 9ebd e601 ce3d bcc7 48bd 7098 b3bc
00000260: 3c55 3e3e 31ef 03be f51c 0f3e 0e2a a63d
00000270: f9d6 4a3d 5003 a83d 459b e0bd 04c8 743d
00000280: ee53 3f3e 4eb9 0abd f9e1 1b3d 3d99 f9bb
00000290: 01ed 10be f62e 48bd 5de5 933d f5a3 f1bd
000002a0: fe81 5c3c 4df6 7e3d 6056 fabb b3fd b73d
000002b0: 8cea 9f3c 2aeb 9dbd e0b7 6abd d274 b1bd
000002c0: 460d 1a3e ac54 fa3c f6b7 0fbe 9f47 e1bd
000002d0: c77e 5abe 4ce1 9dbd ff27 4ebc b394 88bd
000002e0: 0a10 1d3e 234f 47bd 2294 47bd 9b1c dcbc
000002f0: 7805 02bd a246 04bc d805 963c f1a7 543d
00000300: 98fb 003d 2d8b 1ebe 2f75 9ebd 78af 963c
00000310: 77cf d93d 5a6b 87bd 542b 083d da8b 84bd
00000320: f503 dd3d e32a f5bd 5353 ddbd 5309 223e
00000330: 39c8 9d3d f9cf bbbd 9f21 ddbd 15c1 9a3c
00000340: 559e b0bd 6dc5 7d3d a887 33be 104b 513d
00000350: be2f e6bd 45d0 b2bc a449 e4bd 41ab 1cbc
00000360: 8bbf 15be 69f1 ff3d 8e89 94bd 1962 ebbd
00000370: 6cbb 073e 351c 6bbd 5f7e cebc 8f20 dd3d
00000380: a84e ab3d 5165 bebc 46f0 00be 081b 57be
00000390: 9c4d fc3d a9b2 2d3e faf1 a3bd 18e6 37bd
000003a0: 5364 953e cb59 98bd f3f4 8abc 2d2e d8ba
000003b0: c660 f5bd b92d 343c 80f1 373c 6be0 e3bd
000003c0: c4bc e9bc 8c9e af3d c79e 20be 40f2 31be
000003d0: 37ef 80bd e2ae 783e b534 d9bb 4ea7 013d
000003e0: 67b3 4cbd 7449 bc3c 61ce 86bb 21c1 d83d
000003f0: 7d70 90be 7191 913d d9ff 3b3e 13a6 67bd
