results/predatorTest2/PredatorBrain/PredatorBrain-1967661.pt (torch, 447775 bytes, 36 tensors)

network_body._body_endoder.seq_layers.0.weight f4 [128, 9]
000000 ee 55 a4 3e ec 9d ad 3e 4b 1f 1b bd ea 0d 62 3e
       0.3209681 0.33909547 -0.03787164 0.2207562
000010 73 42 8a 3e 4d 5a bf bd d6 a2 9c be bf 9a 9d 3e
       0.27003822 -0.093433954 -0.30592984 0.30782124
000020 55 8d 15 bd 1a 75 56 3e 38 52 a3 3e 8f 5e 31 3d
       -0.036511738 0.20943108 0.31898665 0.04330307
000030 08 80 22 bb 39 c2 8e bd 9a 8e 7a 3f 9f 64 0a 3d
       -0.002479555 -0.06970639 0.9787384 0.033787366
000040 0f cc f9 3e 4a 38 dc be f0 b5 7f 3e 25 a4 14 be
       0.48788497 -0.43011695 0.24971747 -0.14515741
000050 9c 0e e2 be 4d 41 ab 3e 25 ba 69 3e e8 55 8c 3d
       -0.4415177 0.33448258 0.22824915 0.06852323
000060 b1 47 f0 3d 9f bd 25 3f 97 fa 78 3f 97 af 14 bf
       0.11732424 0.64742464 0.9725737 -0.5808043
000070 71 2c 39 3e 45 40 67 bd 65 18 f5 3c 87 79 b6 be
       0.1808336 -0.056457777 0.029918859 -0.35639593
000080 bd 8e f2 3e a2 d1 7c be 9d 54 ec be ea ac 89 3d
       0.47374526 -0.24689344 -0.46158305 0.06722434
000090 18 03 94 3e bb ab ca bc e1 f2 12 be f5 54 70 be
       0.2890861 -0.02474009 -0.14350463 -0.23469909
0000a0 8c 82 04 be 57 11 83 3e 9f 97 0b 3d 3a de 0c 3e
       -0.12940425 0.25599167 0.034080144 0.13756648
0000b0 31 d1 c1 3e 63 bc 1e bf 2e 0d 68 3e 35 fb 22 bf
       0.37854913 -0.62006205 0.22661278 -0.6366456
0000c0 ba 84 2f bf b2 84 a0 3d 58 f3 01 3f ef ef e8 3e
       -0.685619 0.078378096 0.5076194 0.45495555
0000d0 ad 38 f2 3d b4 1a 4c 3e 00 e8 1d bf 6d a2 c0 be
       0.11827216 0.19932061 -0.6168213 -0.3762392
0000e0 ba 1f bb 3e 69 38 00 3f af 22 ac be 6a ea 06 3f
       0.36547643 0.50086075 -0.3362021 0.5270144
0000f0 5e 7c c6 be 98 2f 40 be 4a 4c 19 3f 4c 6f 10 be
       -0.3876676 -0.18768156 0.5988203 -0.14104956
000100 d0 f4 8b 3e 47 8e 85 3e f2 7f 01 bf 28 2b 57 3e
       0.27335215 0.26085111 -0.50585854 0.21012557
000110 c4 4c f6 3e 49 c4 e8 3e 15 90 89 3e da 25 21 be
       0.48105443 0.45462254 0.26867738 -0.15737095
000120 a4 0e c5 3d 33 d1 06 3f 80 92 36 3f c7 19 fb be
       0.09621933 0.5266296 0.7131729 -0.49043104
000130 1a 97 a3 be 14 1d 91 3e ba 59 99 3e 5d a9 aa 3b
       -0.3195122 0.28342497 0.29951268 0.005208178
000140 8b c4 88 be 69 4b 42 bd a9 9e b1 be 74 0e 9b 3e
       -0.2671245 -0.047435198 -0.3469136 0.30284464
000150 27 3e 2b 3f 38 81 bb 3d a4 3b 34 be 88 27 dd 3e
       0.6689171 0.09155506 -0.17600876 0.43194222
000160 7e 2e 87 3e 98 37 8d be 11 b8 25 be f3 9c 98 3e
       0.26402658 -0.27581477 -0.16183497 0.29807243
000170 0f c2 2a be 2f d2 10 bf 6e ab bb 3e 5a 35 eb be
       -0.1667559 -0.56570715 0.36654228 -0.45939142
000180 3e 24 86 3e 2f 17 c8 3c 25 45 94 3d 2b ec df bd
       0.26199526 0.024425117 0.07239751 -0.10933717
000190 01 49 2c be 04 25 9e 3e ec 7b 7a 3e 3d 4e bd be
       -0.16824724 0.30887616 0.24461335 -0.36973754
0001a0 a7 2f be be ad 03 a0 3b 2f fc 59 3e 93 79 13 be
       -0.3714573 0.0048832507 0.21287607 -0.14401846
0001b0 c7 34 a0 3e 16 4d 8f 3d 21 fb 40 3e 1d bf cf 3d
       0.31290266 0.06997125 0.18845798 0.10143874
0001c0 a0 2e f8 3e e2 2c 2b bf ec b7 5a be 7e e8 3d 3f
       0.48473072 -0.6686536 -0.21359223 0.7418288
0001d0 46 8c 1e 3f 12 8c 7e bd 1b f6 26 3e b2 32 84 3e
       0.6193279 -0.0621453 0.1630482 0.25819927
0001e0 31 b0 fa 3e 8d e4 af be c9 48 87 be 51 4b 08 bf
       0.48962548 -0.34354058 -0.26422718 -0.53239924
0001f0 7b 17 91 bd 2c e5 fb 3e 82 5c 1e 3f bd 26 83 3c
       -0.07084557 0.49198282 0.61859906 0.016009683
000200 9f 2c b4 3d 71 ed 04 be ed c1 05 bf a1 b1 81 bb
       0.08797573 -0.12981202 -0.5224903 -0.0039579426
000210 de 7b ef 3d a0 c0 a8 3e ec 73 85 bd c1 bc 25 3e
       0.11693548 0.3295946 -0.06516251 0.16185285
000220 99 fb 68 3d 9f 8a 3d be a7 15 34 3e 75 09 a2 bc
       0.056880567 -0.18509911 0.17586385 -0.0197799
000230 b4 fb 6d 3d d9 15 84 3e 47 cf f6 be 18 97 88 be
       0.05810137 0.25797918 -0.48205015 -0.26677775
000240 81 46 09 be d0 27 02 3e 7e da 4b be d2 71 0d 3f
       -0.13405801 0.127105 -0.19907567 0.552518
000250 18 18 d9 be 5e 19 af 3e 66 c2 a9 be df 33 db 3d
       -0.42401195 0.3419904 -0.33156127 0.10703253
000260 bf c6 4b 3e 86 24 2f 3f c8 49 c6 be 08 4f 5a 3e
       0.19900034 0.68415105 -0.38728166 0.2131921
000270 c8 62 82 3e 03 10 63 3c 00 5b 35 3f 7b be a6 3e
       0.2546599 0.013858798 0.7084198 0.325672
000280 e2 ee e0 3e 71 55 02 bf a3 40 8c 3e 41 38 2b bf
       0.43932253 -0.50911623 0.27393064 -0.6688271
000290 4a de 97 bd d0 8b 74 3d 49 e3 5b 3f 07 99 ee 3e
       -0.07415445 0.059703648 0.85893685 0.46601126
0002a0 15 62 e0 3d 6f 97 27 bf b5 6e ff be a8 77 30 bf
       0.10956208 -0.65465444 -0.4988915 -0.6893258
0002b0 ed a6 c1 3e 16 ae b8 3e 1f 58 f4 be 4d 16 04 be
       0.37822667 0.36070317 -0.4772348 -0.12899132
0002c0 14 56 db be 34 e7 d9 be f6 ee 78 3e 9e 12 15 bf
       -0.4283911 -0.42559206 0.24309906 -0.5823153
0002d0 8d 62 2a 3f 6e 12 d9 be d5 5b 85 3e bd d0 8f be
       0.66556627 -0.42396873 0.26046625 -0.28088942
0002e0 c9 67 79 be 1b 74 9f 3d b8 36 97 bd cf b9 84 3e
       -0.24355997 0.07785817 -0.07383484 0.2592301
0002f0 00 ac 8d 3e 68 d3 39 3e 97 65 d3 3c b4 fb ab be
       0.27670288 0.18147051 0.025805278 -0.33590472
000300 0d 9c ba 3e 91 84 8b be 6c 57 0b bd 5a d0 29 bf
       0.36447182 -0.27249578 -0.03401892 -0.66333544
000310 aa 49 d8 3e a4 61 ad 3c 4f 7e 2c 3d f6 b5 04 3e
       0.422437 0.021164723 0.042112645 0.12960038
000320 ce cd b7 3e 6c a7 db be c5 ad 4b 3f 6d cc f8 be
       0.35899204 -0.4290117 0.79562026 -0.48593464
000330 74 ff 0c bf 32 44 15 3e 91 1d ce 3e 77 0b 29 3e
       -0.5507729 0.14576796 0.40256932 0.1650828
000340 2c 16 e5 be 00 14 d9 bc 26 06 c5 be 92 9f 81 be
       -0.44743478 -0.026498795 -0.38481253 -0.25317055
000350 df 45 87 bd 5e 67 c7 3e 21 67 ba 3e 49 91 f2 3e
       -0.06605124 0.3894605 0.36406806 0.4737647
000360 9b 64 6c be 6c 15 48 3d cd ed 22 3f 14 35 14 3f
       -0.23085253 0.048848554 0.63644105 0.5789349
000370 e1 6d 50 bd 3f 1a b4 3e f5 c7 15 bf 2c 1c e9 be
       -0.05088604 0.35176274 -0.58508235 -0.45529306
000380 cf f0 08 3f 05 fd 9d be 18 af fc 3d ea 9f 8b 3d
       0.53492445 -0.308571 0.12338084 0.068176106
000390 d9 31 b1 bd 8b de c6 3e 71 98 71 3f 9f 5b 9c be
       -0.08652086 0.38841662 0.9437323 -0.3053865
0003a0 6a 9a fd 3e c3 d6 52 3e c4 26 a7 be be b9 88 be
       0.4953187 0.20589738 -0.32646763 -0.2670421
0003b0 8c 09 18 3f bd bc 86 be 58 aa 22 bf 97 7c 33 bf
       0.5938957 -0.2631587 -0.63541174 -0.70111984
0003c0 42 96 c8 3e 4a de ee 3e 13 7a 03 3f 6a 15 0c be
       0.39177138 0.46653968 0.51358145 -0.13680044
0003d0 1a 87 00 bf 22 ed 2e 3e 80 c7 25 3f 03 56 99 3e
       -0.5020615 0.17082646 0.6475754 0.29948434
0003e0 57 d2 9f 3e 92 ee ba be 5f 7b 66 3d c5 9f 04 3f
       0.31215164 -0.3651014 0.05627 0.5180629
0003f0 0f e3 09 bf 8d 09 28 3e 8d 3d ae 3d a9 a6 95 be
       -0.5386209 0.16409893 0.08507834 -0.29228714

network_body._body_endoder.seq_layers.0.bias f4 [128]
000000 86 a1 42 3d d4 5c 1a 3b 6a b4 be 3c a9 ff c6 bc
       0.047517322 0.0023553865 0.023279388 -0.02429183
000010 48 1d 90 3c 37 d2 97 3c 61 2b 49 bd 57 d1 ed bc
       0.017592087 0.018532855 -0.049113635 -0.029030485
000020 fc 6c 3d bc 05 56 b5 bc ef 6b 4d 3d e6 81 2a 3d
       -0.011561628 -0.022135744 0.05015176 0.041627787
000030 72 b1 12 bd 43 a7 fb bb 67 50 50 bc 22 f7 b2 bd
       -0.035813756 -0.0076798513 -0.012714482 -0.08738543
000040 7d a9 fd bb 94 b0 99 bc 59 df de 3c 48 09 c9 3d
       -0.007741152 -0.018760957 0.02720611 0.098162234
000050 9c c8 9a 3c 73 77 3a 3d 62 5b 3a 3d 0d 63 c3 3c
       0.018894486 0.045524072 0.045497306 0.023850942
000060 62 cd b6 bd 36 1f 60 3c 3a a9 e8 3c 58 64 47 bd
       -0.089258924 0.013679316 0.028401006 -0.04867968
000070 d6 18 f3 bc e0 c7 c7 bb bf 3c 97 3c 29 43 00 3d
       -0.029674929 -0.006096825 0.018461583 0.03131405
000080 a7 0d a5 3d 4d 18 45 bc 7e 64 e7 3c a4 c9 a3 3c
       0.080592446 -0.01202972 0.02824616 0.01999361
000090 38 d0 94 3c e8 ad 1a 3d 47 0e 71 3d b9 30 21 3c
       0.018165693 0.037763506 0.058851507 0.009838277
0000a0 9d fb 33 3d bb 9c 46 3d 3a 55 ff bc 1c 54 30 bc
       0.04394113 0.048489314 -0.031168569 -0.010762241
0000b0 95 38 eb bc 97 5a 50 3b 48 0e 0b 3c 54 f5 17 bd
       -0.028713504 0.0031792277 0.008487292 -0.037099198
0000c0 11 3a 3e 3d 8a 30 bb 3b 63 3b 85 bd 63 6c 3b bc
       0.046442095 0.0057125734 -0.06505468 -0.011439416
0000d0 f8 fa 25 3d 2a 33 88 3b 3a 83 c7 3c da 8a 24 bd
       0.040522546 0.00415649 0.024354566 -0.04017148
0000e0 f5 82 3d 3d 50 5a c0 3c de 1b a9 bc ea 17 3c 3d
       0.04626747 0.023480564 -0.02064317 0.045921244
0000f0 3f eb 8e 3b 7a 98 18 bd 91 94 31 3d 4e fe 78 3d
       0.0043615396 -0.037254788 0.043354575 0.0607894
000100 bf 3e 9e 3d 9b ee 72 bd c0 ce 50 bc a2 c0 b9 bc
       0.077268116 -0.059309583 -0.012744606 -0.022674862
000110 91 36 e4 3b e9 06 46 3c 01 98 29 3d 20 87 0f 3d
       0.0069645126 0.012086608 0.041404728 0.035040975
000120 19 ca c5 3c 0e ff 73 3d a1 6f 70 3d 04 f5 91 bd
       0.02414422 0.05956941 0.058700208 -0.07126811
000130 a7 62 ca bb 9b f0 23 3d 40 9a 43 3d fb 1c fe 3b
       -0.006176311 0.04002438 0.047754526 0.0077549196
000140 ea 69 68 3d be 61 38 3c 6a d6 2c 3c 23 11 a2 3c
       0.056741633 0.011253772 0.010549167 0.019783562
000150 a3 1b 17 3d b2 41 8c bc d8 15 84 bb 12 cb 27 3b
       0.03689159 -0.01712117 -0.0040309243 0.0025603217
000160 48 1a fc 3c 75 2d 49 3d 33 58 5b bc c0 bb 2b 3d
       0.03077425 0.049115617 -0.013387728 0.0419271
000170 5f 2b 82 3d 4c ba 12 bc 6b 9e 50 3c b3 2d 27 3c
       0.06355929 -0.008955549 0.012733082 0.010203767
000180 dc 79 d1 bc ae 18 82 3c 37 80 ad 3b 37 03 04 3d
       -0.025570802 0.015880909 0.0052948254 0.03222963
000190 ae 5f 0f 3d e5 bd 32 3c cd 47 94 bb d8 69 c4 3d
       0.035003357 0.010909532 -0.004525161 0.095905006
0001a0 83 78 27 bd 29 b9 41 3b 79 2f 1b 3d 30 1e 40 3c
       -0.040886413 0.0029559827 0.03788707 0.011725947
0001b0 83 6f 66 bd 5f 4a 44 3d 32 79 bd bc 51 2a a5 3d
       -0.05625869 0.04792249 -0.02312908 0.08064712
0001c0 c4 67 28 bd 3b c0 cd bc d3 3c 14 3d 87 6e 00 3d
       -0.041114584 -0.025116077 0.03619082 0.031355407
0001d0 06 00 98 3a a8 90 ae 3d 09 16 31 bd 41 7b 8a 3a
       0.0011596687 0.08523685 -0.043233905 0.0010565297
0001e0 c3 1f 61 3d 12 53 4d bc 85 e4 71 3d 94 81 08 ba
       0.05496193 -0.012532013 0.059055824 -0.0005207297
0001f0 46 6f 46 3d a2 a5 ef 3c d0 38 67 bc 9a 13 85 3c
       0.048445962 0.029253785 -0.014112666 0.016244698

network_body._body_endoder.seq_layers.2.weight f4 [128, 128]
000000 f1 f9 2b 3d 4e 17 6a bd 8d 6d a2 3d 4d 50 ce 3d
       0.04198641 -0.05715113 0.079310514 0.1007391
000010 c5 35 18 be 12 7d 08 bd 4f 2d 26 be 6f 18 3d bd
       -0.14864261 -0.0333224 -0.16228221 -0.04616588
000020 b4 d1 0b 3e 1a fe 19 3c 42 47 04 3e 48 26 9d 3d
       0.13654214 0.009398961 0.12917808 0.07673317
000030 3a 5b 56 3d d4 15 c0 bc 59 30 de 3c 38 81 00 3c
       0.052333094 -0.023447908 0.027122663 0.007843308
000040 f8 2e b4 bd 50 ea 03 3c 4e b8 5a 3d 3d 71 5c 3d
       -0.08798021 0.00805147 0.053398423 0.05381893
000050 a8 b1 bb 3d da d8 ce bd 75 7e b3 bd dd bc c1 3c
       0.091647446 -0.10099955 -0.08764354 0.023649627
000060 71 cc 1e be cc 38 20 be 48 c5 f7 bb a0 e3 1c 3d
       -0.15507676 -0.15646666 -0.0075613596 0.038303018
000070 22 09 f3 bc 88 59 d2 bd ce be b7 bc a1 56 3d bc
       -0.02966744 -0.10270983 -0.02242985 -0.0115562985
000080 eb 0a a5 3c e4 97 15 be 4b ac ba 3d 9d 4d 16 3e
       0.020146808 -0.14608723 0.091148935 0.14678045
000090 d3 81 06 be 1b c5 db 3b e1 1c a3 3d 73 2a b1 bd
       -0.13135462 0.0067068464 0.079644926 -0.08650675
0000a0 2e 37 1a be 53 ca cf bd cb 76 03 3d a3 8b d2 bd
       -0.15060112 -0.10146012 0.03209571 -0.1028054
0000b0 24 46 1e 3e 6e 1a 25 3e 7e 95 b7 3d 4a 70 d1 bd
       0.15456444 0.16123363 0.0896406 -0.102264956
0000c0 04 b2 41 3d 15 04 d6 3c 5b d9 87 3d 0d 9b a7 bd
       0.04728891 0.026124993 0.06633254 -0.081838705
0000d0 ae d1 f2 3d c5 85 f3 bd 8a fb fd bd 01 68 9d bd
       0.118563995 -0.11890749 -0.12401493 -0.07685853
0000e0 d4 6c d0 3c 84 67 01 be a8 85 b7 3b c2 29 c5 bd
       0.025442518 -0.12637144 0.00560065 -0.09627105
0000f0 7b 72 c5 bd 16 43 48 be e4 73 9c 3c 45 df a2 3d
       -0.09640976 -0.19556841 0.01909823 0.079527415
000100 52 8c ab 3c 24 a9 07 be 65 ec a3 3c 36 ea 38 bd
       0.020940933 -0.13248116 0.020010183 -0.045145236
000110 f8 7e 99 3e de 70 f0 bd 6e 5e 89 3d f9 64 06 3d
       0.29979682 -0.11740278 0.06707464 0.03281114
000120 03 b7 72 3d 1e ad 78 bd a3 1d 82 bc 1f de 25 be
       0.059256565 -0.060711972 -0.015883273 -0.16198014
000130 ec 3e d8 3d ce 1e 57 3d ca fb 15 3e 0b 87 82 3d
       0.105588764 0.052519612 0.14646831 0.06373414
000140 f6 48 05 bd ac 1d 40 3d 7a e6 04 be ae b2 a9 3d
       -0.032540284 0.046903297 -0.12978545 0.082860336
000150 c5 d4 13 3e b5 60 ae 3c fd e3 92 3c 95 76 57 3d
       0.14436634 0.021286348 0.017930979 0.052603323
000160 49 6a 7d bc e3 60 84 3d ae 2e b2 bd 1d c5 07 3d
       -0.015467235 0.06463792 -0.0870031 0.033146966
000170 f4 e1 8b 3d e5 47 fa 3c 8d 13 c1 3c 0e ab 18 3e
       0.068302065 0.03055186 0.023568893 0.14909002
000180 74 5d e7 3d 74 a8 3b 3d 2b 87 c1 3d 85 03 ab 3c
       0.11297122 0.045814946 0.09449609 0.020875702
000190 0d b2 db bc 2c b8 c1 bd da 84 18 3e d0 e0 28 bd
       -0.0268183 -0.09458956 0.14894429 -0.041230023
0001a0 0e 42 f2 3d e3 26 cc 3d 55 55 a9 3d 7d f4 8e 3d
       0.11829005 0.099683546 0.08268229 0.06980226
0001b0 57 2e 3f 3c 56 68 11 3b 61 5a 62 bc 93 f4 ac bd
       0.011668763 0.0022187433 -0.013815493 -0.08445086
0001c0 f1 5c 21 be 50 bc 39 3d b2 b4 bb bd db 7f f4 3d
       -0.1575811 0.045345604 -0.09165324 0.11938449
0001d0 42 ee a9 bc f5 b3 08 bd 43 6e ce 3d c7 a8 19 bd
       -0.020743493 -0.033374745 0.100796245 -0.037514474
0001e0 b5 86 85 bc 4e 59 42 3e 24 38 4d bd 46 8b f1 3d
       -0.016299585 0.1897938 -0.050102368 0.117941424
0001f0 2c 27 8d bc c0 90 01 3d dc 6c e5 bb 9f 2f 00 3e
       -0.017230593 0.031632185 -0.0070015024 0.12518166
000200 72 e0 6b bc 2c ec 57 3d 45 f9 07 3c 10 33 e9 3d
       -0.014396774 0.052715465 0.008299177 0.113866925
000210 c5 12 99 bd 0f 75 63 3d ae 06 4f bc 25 70 56 3c
       -0.07474283 0.055531558 -0.01263587 0.013088261
000220 6d 31 fc 3c 73 64 48 bd f8 9e af 3d 79 a8 a7 bd
       0.030785287 -0.04892392 0.08575243 -0.081864305
000230 19 00 ca 3d b8 46 88 3d 0b db d9 bd 97 7e b6 bd
       0.098633 0.066541135 -0.10637482 -0.08910864
000240 7e e7 53 3d f5 82 cb 3d 38 dc d3 bd 2e 17 a8 3d
       0.05173444 0.099370874 -0.10344738 0.08207546
000250 06 28 9e bd 72 6e d8 3d 36 eb 7f bd e9 d8 6a bc
       -0.077224776 0.10567941 -0.062480174 -0.014333942
000260 12 6e 3a 3e 26 50 09 be f1 09 00 3e 20 81 a1 3d
       0.18206051 -0.1340948 0.12503792 0.07885957
000270 c2 da e8 3c 99 00 a3 3d ed 5c f6 bd 26 dd 68 3d
       0.028424624 0.07959098 -0.12029443 0.05685153
000280 e5 f8 3e 3e 6a 90 2d bd 31 d3 31 3d ad 17 ed bb
       0.18649633 -0.042374052 0.0434143 -0.0072354884
000290 2e f3 15 be 94 96 1d bd 69 25 9f 3d be fa ed bd
       -0.14643547 -0.03847368 0.07770807 -0.11620091
0002a0 6f 36 04 3c eb 47 89 3d 3d 23 64 3a 91 91 ac 3d
       0.008069619 0.067031704 0.00087027607 0.08426202
0002b0 35 56 41 3c c3 2a a4 bd f5 35 9b bd 81 c3 da bd
       0.0118003385 -0.08015969 -0.07578651 -0.10681821
0002c0 ba 51 0b 3e 44 51 14 3d cf 6d 15 be ba 95 db bd
       0.13605395 0.036210313 -0.1459267 -0.107219175
0002d0 77 07 58 be 62 2f b0 bd df b2 9f bb 92 f1 7d bd
       -0.21096598 -0.086027876 -0.004873618 -0.061997958
0002e0 78 d7 1f 3e 60 e4 83 bd 0f e3 d7 bc c9 e1 85 bc
       0.15609539 -0.064400434 -0.026353387 -0.016343014
0002f0 ce 49 ee bc 5e 00 3c bc bd 15 01 3d 4e ea 4f 3d
       -0.029087927 -0.011474697 0.031514872 0.05076056
000300 73 30 4b 3c 10 84 22 be f8 51 a9 bd 94 d9 9d 3c
       0.012401688 -0.1587069 -0.082675874 0.019268788
000310 09 4d a2 3d 9a 8c 6d bd 5f 0d 22 3c 7b ff 8b bd
       0.079248495 -0.057995416 0.009890883 -0.068358384
000320 fd 51 c9 3d 7a 80 f7 bd aa a0 c9 bd 9e 97 1b 3e
       0.09830091 -0.12085052 -0.09845097 0.15194556
000330 77 43 bf 3d ff ed a7 bd c9 09 b7 bd 62 95 b0 3c
       0.0933904 -0.08199691 -0.08937413 0.021555606
000340 b4 17 a2 bd c6 79 99 3d fa 05 2e be 28 c7 62 3d
       -0.07914677 0.074939296 -0.16994467 0.05536571
000350 d5 a8 da bd 1a 59 a1 bc ec 42 e5 bd 1e ed 64 bc
       -0.106767334 -0.019695807 -0.11194405 -0.013972549
000360 f0 3a 1f be 22 c9 fd 3d 4c de a2 bd 3d 6d ea bd
       -0.15549827 0.12391879 -0.07952556 -0.11446617
000370 56 26 04 3e de 74 69 bd 7f 22 55 bd f6 90 cc 3d
       0.12905249 -0.05699622 -0.05203485 0.099885866
000380 73 d3 9c 3d 04 e0 12 bd 58 36 f1 bd 5e 07 62 be
       0.07657518 -0.03585817 -0.117779434 -0.22073123
000390 46 c6 fd 3d 91 cd 23 3e b2 a7 c2 bd 74 0e 36 bd
       0.12391333 0.15996386 -0.095046416 -0.044447377
0003a0 b1 3e 8a 3e 04 51 94 bd 0b 77 d3 bc 34 e3 1a bc
       0.27000955 -0.07242015 -0.0258136 -0.0094535835
0003b0 d4 86 0a be c4 0a a9 3c 20 dd 02 3c 56 57 d9 bd
       -0.13527995 0.020635016 0.007987291 -0.10612361
0003c0 75 18 aa bc af 3b 98 3d 62 5a 16 be fc 67 30 be
       -0.020763615 0.07433259 -0.14682916 -0.17227167
0003d0 97 03 a2 bd f7 3f 73 3e 20 9d e2 bb 94 10 03 3d
       -0.07910841 0.2375487 -0.0069157034 0.031998232
0003e0 0c b0 07 bd c3 0b c9 3c 7b 3f 20 bb 3e d7 de 3d
       -0.033126876 0.024541741 -0.00244519 0.10880898
0003f0 03 92 8b be 0e d3 97 3d 6d 46 37 3e 5b 67 9a bd
       -0.27259836 0.07413302 0.17897959 -0.07539245

network_body._body_endoder.seq_layers.2.bias f4 [128]
000000 86 97 27 bc 44 1c 35 bb 76 6c 70 3d 5e 78 57 3d
       -0.010228997 -0.0027635256 0.058697186 0.052605025
000010 59 11 ed 3c 8d 64 1e 3d 01 e7 bd 3c 79 f3 8e 3d
       0.028938936 0.03867011 0.02318144 0.069800325
000020 84 6e bd bc 03 a1 23 bd 42 e4 23 bc c4 35 8d bc
       -0.023123987 -0.039948475 -0.010003151 -0.017237552
000030 4e 9d 19 3d bf e2 0a bc 0b e5 9c 3d 34 78 23 3d
       0.037503533 -0.008476912 0.07660874 0.039909557
000040 a7 59 1b 3d ac ae 0d bd e0 75 9e 3c b7 79 e6 3b
       0.037927296 -0.03459041 0.019343317 0.0070335525
000050 88 83 d6 3c 04 ba 25 bd a5 b6 87 3b a5 85 94 bc
       0.026185766 -0.0404606 0.004141646 -0.018130133
000060 be c0 e2 3c 90 a7 28 3d 29 d5 d5 3b 3d da 96 bc
       0.027679797 0.041175425 0.006525655 -0.018414611
000070 11 e7 8b 3c 75 f4 e3 bc a9 eb 85 3b b5 ca 55 3c
       0.017077954 -0.027826527 0.004086931 0.013048817
000080 00 e0 e7 3c b5 d4 bc 3c bb f5 61 3c a9 bc 90 3c
       0.028305054 0.023050645 0.013791497 0.017668085
000090 a1 70 ab bb cf c9 65 3d dd 7a 00 3d 8d 0e cd 3c
       -0.0052319323 0.056100663 0.03136717 0.025031352
0000a0 fe af 8b 3d 05 53 3c 3d 15 eb 30 bd a6 e3 94 3c
       0.06820677 0.04597761 -0.04319294 0.018174957
0000b0 1d a1 74 bd be bf 66 3c 90 ad de bb 8a 81 05 bc
       -0.059723962 0.014083801 -0.0067955926 -0.00814856
0000c0 57 7e 5e 3c 4a c2 37 3b 44 48 0f 3d f4 40 84 bc
       0.013579926 0.002803939 0.034981027 -0.016144253
0000d0 d3 fa 34 3d 02 ca 4b bd 68 90 02 3d 01 bc 12 bc
       0.044184517 -0.049753197 0.031875998 -0.008955956
0000e0 58 57 0a ba 2b 7a ee ba 82 d3 3b bd 68 48 45 bd
       -0.00052772975 -0.0018194368 -0.045856006 -0.048164755
0000f0 c4 2b 5b 3b c3 ef 92 3c 16 8f da 3c ad b0 0c 3d
       0.0033442834 0.017936593 0.026679557 0.03434818
000100 32 44 06 bc 82 a1 df bc c3 c6 df ba e0 77 e4 bc
       -0.00819497 -0.027298693 -0.0017072785 -0.027889192
000110 95 66 89 3d c6 fd db 3c a9 7e 80 bc fd 07 bb 3d
       0.06709019 0.026854407 -0.015685396 0.09132383
000120 40 44 bd ba 2d ba 17 3d 5c ab 75 bc 37 7a 08 3d
       -0.0014439896 0.037042785 -0.014994469 0.03331968
000130 36 39 fa 38 01 37 c6 3c c6 24 ed bc 46 5c 66 3c
       0.00011931585 0.02419615 -0.028948199 0.014060086
000140 94 81 a9 3a 13 bb 11 bd 1a e7 77 3b ca cb 0a 3d
       0.0012932294 -0.0355788 0.0037826956 0.033885755
000150 eb 38 31 3d 78 de 11 3d 81 c8 16 3c 4a ea 9e 39
       0.04326717 0.035612553 0.009203077 0.00030310667
000160 06 8b 1d 3d 60 11 29 3d 14 35 a4 3c 9d a3 06 3d
       0.03846266 0.041276336 0.02004484 0.032870878
000170 c6 18 68 bd 0d a0 2a 3d 09 d4 22 3d f6 c6 d4 3c
       -0.05666425 0.041656543 0.039752994 0.025973778
000180 3e 83 37 3c ea fe ee 3c c1 a6 fa 3c 5a 85 9e 3c
       0.011200724 0.029174287 0.030597093 0.019350696
000190 71 13 2f 3d 8b e8 72 3d af c6 96 3c fe ef 85 3c
       0.04274315 0.0593038 0.018405287 0.016349789
0001a0 6e 4a cf 3b e7 94 5d bb ce 2c 01 3d 84 ce 03 3d
       0.0063260114 -0.0033810677 0.03153687 0.03217937
0001b0 ff 41 af 3b e3 aa 23 3d b3 5e d4 3c b2 f2 7b bb
       0.0053484435 0.039957892 0.025924062 -0.0038444218
0001c0 4f 4d e7 bc 1d 2b 67 3d 8b 06 74 bc 93 9f c5 3c
       -0.028235106 0.0564376 -0.014894138 0.024123942
0001d0 8b 04 b9 3b 1e ac 58 bb a7 df 93 bb 9f a8 1f 3d
       0.0056462935 -0.0033061574 -0.0045127454 0.03897917
0001e0 ca 8c 06 3d 9f 30 86 3c e2 c3 1a 3c 41 f5 bc bc
       0.03284911 0.016380606 0.009446116 -0.023066165
0001f0 ac 97 b0 3d 86 a6 c3 3c 47 b2 1e bd fc fc 81 3c
       0.08622679 0.023883116 -0.038744237 0.015867703

action_model._continuous_distribution.log_sigma f4 [1, 2]
000000 4e 19 a9 bc 1d 44 84 bb
       -0.020641949 -0.00403644

action_model._continuous_distribution.mu.weight f4 [2, 128]
000000 f7 9a af bc 4b f0 f9 3b 7b 5a 41 3d 97 31 53 3d
       -0.021436198 0.007627522 0.04720543 0.051560964
000010 10 fe 9f 3a 3a ce 04 3d 27 71 bc 3c 59 3c 88 3d
       0.0012206454 0.032423235 0.023003174 0.066521354
000020 e8 b2 4c bd e3 27 d4 bc 50 1f 49 3b 52 2e e2 bc
       -0.049975306 -0.025897926 0.003068883 -0.027609978
000030 f4 b0 27 3d e7 5b 64 bd cd cf eb 3d 47 2b 04 3c
       0.04094024 -0.055751707 0.11514244 0.008066959
000040 f2 20 1e 3d b1 10 a3 bc 0f 8c 35 bd df ba 83 bd
       0.038605638 -0.01990542 -0.044323023 -0.06432127
000050 b4 7e 34 b9 bf a6 72 bd 5d b9 b5 bb 94 12 00 bd
       -0.00017213338 -0.059241053 -0.0055457787 -0.031267717
000060 27 34 fa 3c 09 dc 70 3d 6b 0f f0 3c 26 b8 85 bc
       0.030542446 0.058803592 0.029304227 -0.01632316
000070 a4 e9 4e 3c 1e 8c 55 3b e7 cc b6 3a 70 ec d7 3c
       0.012628946 0.0032584737 0.0013946564 0.02635786
000080 07 57 5b ba 38 79 88 3c 4a 48 ac 3c 6a 2f 3a 3c
       -0.0008367155 0.016659364 0.021030564 0.011363843
000090 5e 7c b2 3c 86 42 99 3d d9 0d 5d 3d 03 70 5c 3c
       0.021787819 0.074833915 0.053968284 0.01345444
0000a0 7f 77 8d 3d 6d 6c 37 3d 23 79 24 bd e1 ad 72 3c
       0.06907558 0.044781137 -0.040154587 0.014811964
0000b0 36 92 ce bd 79 33 11 bd 8c a9 b9 3b 24 eb 66 3c
       -0.10086481 -0.03544948 0.0056659635 0.014094148
0000c0 b9 59 3d 3c b0 7c 38 bd 12 da c1 3c 55 45 5d bb
       0.011557036 -0.045040786 0.023663554 -0.003376325
0000d0 09 65 7b 3d 03 3e 0a bc 51 68 95 3c a6 5e 8e bd
       0.06137565 -0.008437636 0.018238219 -0.069516465
0000e0 f9 3a 12 bc 04 0c ce bd f6 f4 c8 bc e0 93 bf bc
       -0.008925193 -0.100608855 -0.024530869 -0.023385942
0000f0 97 9d 90 3c 44 cf ab 3c de 61 6b 3d 40 26 ab bd
       0.01765327 0.020972855 0.05746638 -0.08356905
000100 02 66 09 bd c0 76 99 bc 16 33 f5 bc 65 6c 15 bd
       -0.033544548 -0.018733382 -0.029931586 -0.036480326
000110 5a fd 8c 3d 00 e2 05 3d 05 eb 83 bd 3d 93 bc 3d
       0.068842605 0.032686234 -0.06441311 0.09207771
000120 63 01 51 bb 9c ea 05 3d c4 e6 78 3c ae 48 2e 3d
       -0.0031891696 0.032694444 0.015191738 0.04254978
000130 66 e8 fc 3a 31 b5 e0 3c 7b 0b 1e bd 01 93 f4 3c
       0.0019295334 0.027430149 -0.038585167 0.029855253
000140 5e 86 fa 3c a0 7c 9b bb eb f1 9e bc ca ef 4e 3d
       0.03058165 -0.004745081 -0.019402465 0.05052165
000150 2a dd 00 3d 7d 99 b8 3c aa 2e 29 bd 45 e3 8c 3a
       0.03146092 0.022534126 -0.041304268 0.0010748884
000160 ac 4e f2 3c 6c 3d 1f 3a b0 ee 20 bc 32 83 ac 3c
       0.02957853 0.0006074521 -0.009822533 0.021058653
000170 3b 33 7f bc 52 8b 40 3c 13 2c 8c 3d de 74 9a 3c
       -0.015576179 0.011751967 0.06844344 0.018854555
000180 e8 e7 0e bd cf 1d 64 3d 24 95 20 bd 51 ac 33 3b
       -0.03488913 0.05569249 -0.03920473 0.002741594
000190 78 07 51 3d 5e 28 7e 3d b0 1b ac 3c 74 cf 35 bd
       0.051032513 0.062050216 0.021009296 -0.044387296
0001a0 35 c0 e1 3c 41 bb 05 bb 52 8d cd 3c 8d a9 94 bc
       0.027557472 -0.0020405801 0.0250918 -0.018147254
0001b0 af b6 8b bd 9a e2 da 3c d8 21 51 3d 45 2c ca bb
       -0.068219535 0.02671938 0.051057667 -0.006169828
0001c0 62 82 03 3c 95 b1 4c 3d bd 69 e6 bc a0 52 e3 3c
       0.008026691 0.049974043 -0.028126592 0.02774936
0001d0 2d 44 21 3d e5 dd 01 bb 25 c3 26 bd 78 7c b2 bd
       0.039371658 -0.0019816097 -0.040713448 -0.08715147
0001e0 b5 fd cb 3c aa 86 97 3b 7b 5a 06 3d ca e1 59 bd
       0.02490125 0.0046242075 0.032801133 -0.053193845
0001f0 ff be be 3d 56 16 8e bd a4 36 01 bd fb 9e d0 3c
       0.09313773 -0.06937854 -0.03154625 0.025466433
000200 18 36 2a bd 52 81 7f bd df 65 12 bd 7e ae 33 3c
       -0.041555494 -0.06237919 -0.035741683 0.010966895
000210 2a d8 4d 3d b1 2d 78 bd 5f 0a dc 3c 5d d4 50 3c
       0.05025498 -0.06059045 0.026860414 0.012745944
000220 7a 80 32 bd 82 ac 26 bd db 78 31 bd 5b d0 17 3c
       -0.043579556 -0.04069186 -0.043328147 0.009265984
000230 4c 43 19 3d a4 f6 0b ba d6 e6 23 3d 3c e0 bd 3c
       0.037417695 -0.00053391815 0.040015064 0.023178212
000240 96 18 3b 3b 4e 9e 09 bc 17 cf ba bd b2 11 4f 3d
       0.002854859 -0.008399559 -0.091215305 0.050553985
000250 0d ba 75 3d 48 89 14 bd cd d6 a3 bd 83 5d b5 bb
       0.059991885 -0.036263734 -0.079999544 -0.005534829
000260 5d fa 90 bd bb 37 87 bd 12 19 16 3d 33 61 22 bd
       -0.07079003 -0.066024266 0.036645003 -0.039643478
000270 87 03 a8 3c d3 13 82 bb 63 94 ac bd b6 78 37 3c
       0.020509494 -0.0039696484 -0.0842674 0.011198213
000280 9d 64 3b 3d f6 ba 8e 3c e7 bf 6f 3d 85 b2 29 3d
       0.04575025 0.017423134 0.05853262 0.041430015
000290 9e 77 89 bb c1 98 02 3d 4e 2e 20 3d e9 18 b3 bd
       -0.0041951677 0.03188396 0.03910666 -0.087449856
0002a0 67 ce d9 3c 94 67 4b 3d f3 33 e1 bc 4f ee c2 bc
       0.026587678 0.049659327 -0.027490592 -0.023795275
0002b0 fa a6 4c bc 62 20 4d 3d 9a f0 dd bb 16 13 b4 3b
       -0.012490982 0.05007971 -0.0067730667 0.0054954393
0002c0 e0 35 cf bc 6e 6c 6f 3c df ab 27 3d b3 05 34 bd
       -0.025294244 0.014613254 0.040935393 -0.043950748
0002d0 54 1e 22 bd dc d6 85 bc 1d 92 10 be 27 8f c2 bd
       -0.039579704 -0.016337804 -0.14118238 -0.094999604
0002e0 fd 7b f4 3c e8 bb 5b bd fb 3c 0f bd 46 7c 24 bc
       0.029844278 -0.053646 -0.034970265 -0.010039395
0002f0 fb 8f 1e 3c ce eb 79 3b 07 45 90 bd c2 02 70 bd
       0.009677882 0.0038134935 -0.07044416 -0.05859638
000300 21 1d 82 bd f8 02 46 bc a9 ab 51 3c d2 65 aa 3b
       -0.06353212 -0.012085669 0.012797275 0.005200126
000310 52 f4 7f 3b d8 c8 44 3d 55 cb 8d bd 7f 2c 2d bd
       0.0039055538 0.048043102 -0.06923548 -0.042278763
000320 d8 40 b2 bd 5c 9e db bb e3 cc 5c bd c2 d1 57 3b
       -0.08703774 -0.0067022275 -0.053906333 0.0032931422
000330 87 59 39 3c 16 f0 f8 3b f4 aa 5c bc e2 10 7b bd
       0.011312849 0.00759698 -0.013468493 -0.061295398
000340 03 4c 08 3b a3 f2 53 bc 63 88 1f 3d 4a 7a 69 bd
       0.002079726 -0.012936267 0.038948428 -0.05700139
000350 aa c1 97 bd 94 c2 1e 3d 68 77 1f 3d 98 4a 3d 3d
       -0.07409985 0.038759783 0.038932234 0.046213716
000360 14 94 5e 3d 57 68 04 be f1 ef 11 3d 1a 3c 5e bc
       0.054340437 -0.12930427 0.035629217 -0.013564134
000370 7b cc 96 bc bb b9 08 3d ba b4 ac bc 5a 20 f3 bc
       -0.01840805 0.03338025 -0.02108227 -0.029678512
000380 4c 01 a2 3c d3 21 92 3a 28 12 2d 3d 9b 19 6c bd
       0.019776009 0.0011148996 0.042253643 -0.057641607
000390 f5 6c 2a bd 95 96 50 3c 2d cf d4 bd 2e d2 32 3d
       -0.041607816 0.012731214 -0.10391078 0.043657474
0003a0 2f a2 36 3c 3c 4a 81 3c 41 70 c4 bd e8 25 82 3d
       0.011147066 0.015782468 -0.09591723 0.06354886
0003b0 39 bc 83 3c f4 f9 c0 3c f5 70 fc 3c fc e8 45 bd
       0.016080962 0.023556687 0.03081558 -0.048317894
0003c0 64 20 4c ba 73 d8 7f 3c 82 31 15 bd a6 16 85 bd
       -0.0007786809 0.01561557 -0.036424167 -0.064984605
0003d0 96 6a 9a bb 64 44 94 bd 35 5a 28 bd 60 b0 96 bd
       -0.004712413 -0.07239607 -0.041101653 -0.073578596
0003e0 49 56 01 3d 27 be 6d bd 36 28 bd bc 9d 88 03 bc
       0.03157643 -0.05804267 -0.023090463 -0.008028177
0003f0 19 dd 12 3d 3e bf 2b 3d 88 89 2f bd 63 a6 ba bc
       0.035855386 0.04193043 -0.04285577 -0.022784417

action_model._continuous_distribution.mu.bias f4 [2]
000000 cd b0 10 3d 9c 31 c6 3c
       0.03532486 0.024193577

exp_avg f4 [128, 9]
000000 9f 16 c4 b8 98 d8 71 37 ab 46 0b 37 ad 3a d4 b8
       -9.350222e-05 1.4415149e-05 8.301499e-06 -0.00010119877
000010 84 2d 1e 37 8c 2e 08 39 1e 78 12 39 28 44 6d 37
       9.428131e-06 0.00012987311 0.00013968392 1.414217e-05
000020 41 23 71 39 4c ae dd 39 31 f2 e1 b8 0c 32 c3 b8
       0.00022996684 0.00042282266 -0.00010773948 -9.3076465e-05
000030 15 a0 39 b8 58 07 96 b8 d0 85 f4 b8 e0 bd 36 b7
       -4.4256525e-05 -7.153925e-05 -0.00011659751 -1.0892254e-05
000040 03 0b e1 b8 01 60 85 b9 0f 15 3e b9 ce 70 f7 37
       -0.00010730887 -0.00025439265 -0.00018127657 2.9497223e-05
000050 a2 c1 98 37 94 24 2f 39 31 b2 a4 37 42 62 0a b8
       1.820998e-05 0.00016702927 1.96333e-05 -3.2993274e-05
000060 ae 7c e0 b9 4a 0b f7 37 0a 07 41 38 d4 ac b4 b9
       -0.00042817503 2.9449951e-05 4.602134e-05 -0.00034461042
000070 86 c7 ff 38 c6 75 d8 38 2e 23 c9 39 82 90 ab 38
       0.00012196512 0.000103216196 0.00038363918 8.180832e-05
000080 87 29 0f b9 30 cb 45 ba 60 ac 00 39 ec 61 2a b9
       -0.00013653013 -0.0007545231 0.00012271246 -0.00016248942
000090 7e dc a2 b7 7c a4 0e b8 de a7 ba b6 3b 24 e4 b8
       -1.941458e-05 -3.4008626e-05 -5.5627743e-06 -0.00010878636
0000a0 a2 f1 bd b7 30 f9 eb 35 06 5a 70 39 3c 75 0e b8
       -2.2643075e-05 1.7581388e-06 0.0002292172 -3.396462e-05
0000b0 cb 6b b2 b5 65 c0 4e 39 7d 81 dc b8 9c b7 15 38
       -1.3293405e-06 0.00019717363 -0.000105145366 3.5695368e-05
0000c0 87 7e ac b8 74 2c 93 b8 64 9b 89 39 18 91 05 b9
       -8.225167e-05 -7.017786e-05 0.0002624645 -0.0001273792
0000d0 b0 c2 dc b8 6b b3 f2 39 80 bb 23 36 00 ec 8a b6
       -0.00010526681 0.00046291514 2.4398032e-06 -4.1401945e-06
0000e0 3b f2 7b 38 13 a0 02 b9 80 6a 2f b6 f9 fa 3f b8
       6.0068658e-05 -0.00012457398 -2.6139023e-06 -4.5771685e-05
0000f0 6c 3b b4 b9 90 8f 83 b6 70 b5 8e b8 0b 42 87 39
       -0.00034376548 -3.920817e-06 -6.804883e-05 0.00025798412
000100 b4 48 0d b9 db 54 bb b7 a9 28 03 b9 df 79 bc b8
       -0.00013473892 -2.2331651e-05 -0.0001250828 -8.987239e-05
000110 7c 9b 00 39 00 e2 3f b5 68 5b 0d b9 3a 7b 7b 39
       0.00012264954 -7.148192e-07 -0.0001348086 0.00023983131
000120 a2 6f 51 37 34 05 47 b7 d9 32 3c b7 65 08 bd b7
       1.2483362e-05 -1.1862536e-05 -1.1217512e-05 -2.2534465e-05
000130 02 07 04 b7 d8 4b 7f 36 7c 97 64 b7 8e 0a 46 b7
       -7.869445e-06 3.8042108e-06 -1.3625129e-05 -1.1804177e-05
000140 0b 79 02 38 14 8d 17 39 30 1a 93 b8 9f 25 3f b8
       3.1107145e-05 0.00014453038 -7.014384e-05 -4.5572986e-05
000150 b8 cc 90 b9 98 2a 45 b8 e2 c8 78 38 5c 5b 4f 3a
       -0.00027618348 -4.700813e-05 5.9314894e-05 0.0007910037
000160 f1 df 93 b8 60 9b 62 37 eb 73 bc b8 30 50 83 38
       -7.0512186e-05 1.3506826e-05 -8.98613e-05 6.261503e-05
000170 97 48 9b 37 02 39 42 38 be 49 2f 38 7e b5 92 b8
       1.8511242e-05 4.6306297e-05 4.179193e-05 -6.995628e-05
000180 dd 56 f4 b8 50 77 83 38 96 49 66 b8 c0 db 96 37
       -0.00011651006 6.2687905e-05 -5.4904805e-05 1.7983723e-05
000190 a0 c1 e8 b8 d7 16 19 b8 c5 68 1a ba b7 f8 9b b8
       -0.000110986875 -3.6499314e-05 -0.00058902457 -7.437303e-05
0001a0 6e 4b 67 39 de 87 93 3a 04 f5 e9 b8 02 ec 6e 39
       0.00022057976 0.0011255702 -0.000111559435 0.00022785368
0001b0 d2 71 87 39 08 08 0d b9 e2 c7 97 b8 a4 f4 0c ba
       0.0002583401 -0.000134498 -7.237472e-05 -0.00053770305
0001c0 e0 7a bc b8 91 0b b0 38 46 77 f0 39 27 5c 0d b9
       -8.987426e-05 8.3944884e-05 0.00045865233 -0.00013481137
0001d0 40 13 92 b6 5d d5 0a b8 e1 80 22 b8 46 48 df 36
       -4.35338e-06 -3.3100474e-05 -3.8743838e-05 6.6543316e-06
0001e0 64 67 76 b8 e7 3f da b7 9e dd c3 38 74 0a 88 39
       -5.874726e-05 -2.6017382e-05 9.339604e-05 0.0002594773
0001f0 f8 af 23 b8 6b 00 1f 39 29 fd 1c 39 40 75 e8 34
       -3.9026112e-05 0.00015163577 0.00014971629 4.3298678e-07
000200 98 5d 8d 36 8a 26 29 39 90 9f 8e 34 dc 92 50 b7
       4.213023e-06 0.00016131453 2.6565658e-07 -1.24319595e-05
000210 1c d2 32 b9 a0 ef d5 34 76 66 a7 b7 ea be 27 38
       -0.00017053675 3.9848692e-07 -1.9955663e-05 3.9993705e-05
000220 8b 54 30 38 82 b4 7f 37 32 c9 89 39 ee 32 eb 37
       4.2040407e-05 1.5241212e-05 0.00026280578 2.8037899e-05
000230 7c 4c e8 b8 d1 92 9f b9 22 66 30 38 de 1c 6d b9
       -0.000110768684 -0.0003043623 4.205679e-05 -0.00022612835
000240 8e 84 9e b9 48 89 ba 37 40 6b af 38 7c 05 d8 38
       -0.0003023487 2.2236854e-05 8.364627e-05 0.00010300704
000250 a0 84 79 37 40 be d7 36 e0 5f c0 b9 88 23 bb 37
       1.4872436e-05 6.4296473e-06 -0.00036692526 2.2308683e-05
000260 98 f8 9f 38 74 aa 3b 39 5c b1 0a 37 00 06 b6 33
       7.628015e-05 0.00017897208 8.266736e-06 8.476127e-08
000270 14 b0 91 b8 40 e2 b7 36 dc 6e 54 b8 b7 84 0d ba
       -6.946936e-05 5.480164e-06 -5.0647985e-05 -0.0005398499
000280 b2 e9 09 37 86 6b 11 b9 cb 09 5a 38 f8 ea ab 37
       8.220248e-06 -0.00013868333 5.198437e-05 2.0494204e-05
000290 9c 26 c8 b6 59 48 ad 38 b9 71 64 37 4b 51 ab b8
       -5.964959e-06 8.262759e-05 1.3616337e-05 -8.1690574e-05
0002a0 0e 0a ca b9 34 55 ab 37 33 ca 5e b9 8c 34 20 39
       -0.00038535934 2.0424464e-05 -0.00021246895 0.00015278364
0002b0 50 a9 6d b8 d8 79 1a b8 37 1e 37 ba f0 45 1f b8
       -5.6662888e-05 -3.6829937e-05 -0.00069853984 -3.797369e-05
0002c0 90 6d 95 37 60 61 fe 39 f0 e8 6e b8 70 76 e8 38
       1.7813203e-05 0.00048519205 -5.696056e-05 0.00011084683
0002d0 12 67 cc 38 ea 27 40 38 85 02 53 37 4a 8d 8f 39
       9.7466764e-05 4.581354e-05 1.2577167e-05 0.00027380354
0002e0 20 3f ff 37 84 79 27 38 f3 40 20 b8 56 6f 3f 38
       3.0427764e-05 3.9929073e-05 -3.820746e-05 4.564164e-05
0002f0 e0 76 26 38 76 e9 e5 b9 47 1c 8a 38 07 54 a7 38
       3.9688195e-05 -0.00043852226 6.58562e-05 7.978832e-05
000300 38 32 c8 b8 f7 52 38 38 1c ab 74 38 db ee 8d b9
       -9.546097e-05 4.3946286e-05 5.833349e-05 -0.00027071577
000310 3d 3e 8a 38 37 63 42 39 5c 9f c9 38 a0 54 ad b6
       6.5919456e-05 0.00018538242 9.61411e-05 -5.1656534e-06
000320 20 ef 0c b6 f4 ab 27 ba c0 bc 74 b6 94 ef 01 39
       -2.1000815e-06 -0.00063961674 -3.64687e-06 0.00012391648
000330 70 d2 f9 39 60 8d b7 b6 50 29 e1 37 96 47 f7 b7
       0.0004764977 -5.470283e-06 2.6841328e-05 -2.947803e-05
000340 c6 00 ab b7 5f 4c 20 b7 21 97 1a b9 82 68 64 b7
       -2.0385149e-05 -9.554525e-06 -0.00014742884 -1.3614192e-05
000350 a3 72 70 37 ac cb 3b b9 5c 4e ab b7 51 dd 62 37
       1.4331806e-05 -0.00017909583 -2.0421277e-05 1.3522179e-05
000360 46 69 a6 38 50 95 13 b8 d0 69 c8 37 cb 16 14 b9
       7.9351055e-05 -3.518659e-05 2.389113e-05 -0.00014122871
000370 9c 55 c5 b7 30 b3 84 38 0a ea 6e 38 30 00 14 b8
       -2.3524095e-05 6.327627e-05 5.6961588e-05 -3.5286124e-05
000380 76 61 c1 38 44 f5 83 ba 23 36 9b 39 9a d2 69 39
       9.221111e-05 -0.0010067602 0.0002960424 0.00022299067
000390 9f 37 79 3a 4e 6f 4f 39 a6 ce 2f b9 38 3f 6d ba
       0.00095068844 0.00019782523 -0.00016766283 -0.0009050253
0003a0 7b 93 9b 39 4a 54 9f b9 91 eb 1a b9 90 6e c5 b5
       0.00029673785 -0.00030389644 -0.0001477434 -1.4709822e-06
0003b0 d6 d8 cc b8 4d b9 93 38 d0 41 88 b5 b6 99 39 b8
       -9.767867e-05 7.044021e-05 -1.0151944e-06 -4.425059e-05
0003c0 5c ee 92 38 30 62 cc b5 e8 27 1b b9 d8 28 ae b8
       7.0062204e-05 -1.5227761e-06 -0.00014796818 -8.304574e-05
0003d0 a8 f0 56 38 40 bd 1a 37 96 f4 7d 39 62 ba 10 38
       5.1245705e-05 9.2231785e-06 0.00024219076 3.4505858e-05
0003e0 a8 59 92 b9 be cd 43 ba 90 17 59 38 9a 7e b5 b9
       -0.0002791409 -0.00074693176 5.1758776e-05 -0.00034617336
0003f0 c0 2d 2b 36 a0 87 09 b8 16 0a 3b b8 52 61 7b 39
       2.5507616e-06 -3.2789656e-05 -4.4593668e-05 0.0002397348

exp_avg_sq f4 [128, 9]
000000 e3 02 0e 36 1b 97 93 34 2b d2 c0 34 f4 e9 98 36
       2.116133e-06 2.7490827e-07 3.5915704e-07 4.5571887e-06
000010 03 e2 02 34 f7 05 6e 35 cf 88 60 36 3a 3e 93 34
       1.2189416e-07 8.867059e-07 3.3458234e-06 2.742616e-07
000020 b9 78 cf 35 e5 66 f6 36 0d 96 50 35 bc 11 08 36
       1.5457837e-06 7.34335e-06 7.770439e-07 2.0275902e-06
000030 1e 62 23 37 8d ea b8 34 4f 5e 68 36 5b e0 41 37
       9.738402e-06 3.444333e-07 3.4625589e-06 1.1555933e-05
000040 dd 07 50 35 cf 4c 85 36 6c 5f 89 36 7f 8a dc 34
       7.749748e-07 3.9726506e-06 4.0940267e-06 4.1078962e-07
000050 f7 f0 d2 35 a8 4b e1 36 3e b9 43 34 b7 9e 61 36
       1.5716349e-06 6.71433e-06 1.8228181e-07 3.3619997e-06
000060 b1 d9 cb 36 63 30 dc 34 3b 58 17 36 ff 2f 55 36
       6.075214e-06 4.10134e-07 2.255211e-06 3.176741e-06
000070 14 c0 dc 34 4b 11 58 35 28 90 a3 36 7f 86 43 34
       4.1117949e-07 8.0491435e-07 4.8745605e-06 1.820972e-07
000080 73 a4 ad 35 32 e9 95 36 43 f7 db 34 55 64 05 36
       1.2937365e-06 4.4676935e-06 4.0971835e-07 1.9876945e-06
000090 c6 94 b9 35 cb bc 20 34 c9 53 67 35 34 71 c7 35
       1.3826873e-06 1.4969844e-07 8.617613e-07 1.4859602e-06
0000a0 ae 9f 8e 33 80 0b 5b 35 9d 89 30 36 c1 73 20 34
       6.641436e-08 8.160059e-07 2.6306145e-06 1.4943272e-07
0000b0 73 e5 6c 35 c6 d5 3e 36 4c 57 85 34 ff e0 32 35
       8.8250744e-07 2.8436639e-06 2.4836697e-07 6.663758e-07
0000c0 9c 5d d6 35 82 82 eb 33 15 69 0d 36 56 32 01 36
       1.5971486e-06 1.09667795e-07 2.1071803e-06 1.9251797e-06
0000d0 6f 79 84 34 3d a0 c6 35 84 af bc 35 a9 27 03 34
       2.467527e-07 1.4798785e-06 1.4058173e-06 1.2214754e-07
0000e0 80 3d 5e 34 2a e6 e4 35 a3 ee 67 33 3f c3 ff 34
       2.0697735e-07 1.705431e-06 5.4000918e-08 4.7639512e-07
0000f0 97 30 8c 35 3b 76 02 34 51 5f 1b 35 3d 98 87 35
       1.0444954e-06 1.2150205e-07 5.7880703e-07 1.0102591e-06
000100 77 ad f4 33 aa ff be 34 a0 7a 56 35 89 73 58 33
       1.13936885e-07 3.5576278e-07 7.9899655e-07 5.0396498e-08
000110 c7 c7 38 35 e4 f8 95 35 fb 81 f3 33 44 79 1d 35
       6.8836056e-07 1.1173802e-06 1.13392126e-07 5.866352e-07
000120 9d ac 39 36 3a 58 52 34 25 65 8c 35 a4 8f 96 35
       2.7667622e-06 1.958987e-07 1.046025e-06 1.1217676e-06
000130 d7 e7 b9 33 03 e2 4c 36 65 c4 b7 35 d3 24 51 34
       8.656905e-08 3.0529925e-06 1.3691721e-06 1.9478038e-07
000140 3b 53 c5 35 ca 50 20 36 1c 76 ca 34 68 73 b5 34
       1.4701867e-06 2.3888883e-06 3.7711368e-07 3.3797846e-07
000150 ac 5e fa 36 fb cf 33 34 9b 09 51 35 39 12 9b 36
       7.461602e-06 1.6746337e-07 7.7872545e-07 4.6214814e-06
000160 06 4a ca 34 d7 53 e4 35 33 9f 18 35 ca 89 bd 33
       3.767929e-07 1.7011724e-06 5.685608e-07 8.826062e-08
000170 05 e3 f7 33 bb ea 8c 34 a3 ca 27 33 26 d2 0a 35
       1.15431284e-07 2.624782e-07 3.9067015e-08 5.171481e-07
000180 5c c7 c0 34 f4 c3 bc 33 87 70 32 35 c6 e6 fc 36
       3.590784e-07 8.790076e-08 6.6473916e-07 7.537051e-06
000190 da f4 b3 35 aa 47 ed 35 3c 83 d5 37 7a cc 1f 35
       1.34078e-06 1.7678733e-06 2.545269e-05 5.952967e-07
0001a0 c9 e2 3f 36 8d 2c a3 37 fc c5 b3 35 23 07 b1 36
       2.8593224e-06 1.945186e-05 1.339416e-06 5.275842e-06
0001b0 f0 1b d6 35 51 79 88 34 9d 5c 2c 35 85 0e a5 36
       1.5952373e-06 2.5420243e-07 6.4209763e-07 4.9190735e-06
0001c0 45 66 f2 33 cd 12 5d 35 f9 fd b7 36 7d 59 88 34
       1.1287606e-07 8.2356274e-07 5.4833913e-06 2.5397085e-07
0001d0 92 97 68 35 7c 23 b7 35 3b 7a 2d 34 68 f8 a3 34
       8.66473e-07 1.364489e-06 1.6156348e-07 3.0541855e-07
0001e0 4b 0b 49 36 90 c4 99 33 02 10 35 35 ce dd 2c 36
       2.9957907e-06 7.160372e-08 6.745105e-07 2.5759105e-06
0001f0 21 fd 2c 34 3b dc 45 35 cd c5 e9 35 78 76 3d 34
       1.6110836e-07 7.3708696e-07 1.741742e-06 1.7645095e-07
000200 78 a0 6d 35 64 d2 88 36 32 60 a8 33 e6 b6 24 35
       8.852289e-07 4.0776085e-06 7.8406075e-08 6.1360913e-07
000210 cb a3 8d 36 45 6c 3d 34 ca 32 18 35 0f f1 44 35
       4.2211955e-06 1.7641385e-07 5.669832e-07 7.3366476e-07
000220 14 03 dc 33 e7 a4 11 34 71 53 f2 35 4e 89 43 33
       1.0245108e-07 1.3564168e-07 1.805469e-06 4.5526853e-08
000230 fd 56 a2 34 02 18 8a 35 7f fa db 33 c7 c7 4c 35
       3.0238144e-07 1.0288788e-06 1.0243547e-07 7.6286636e-07
000240 01 43 86 36 5a 70 dc 34 f2 ee 4e 35 24 86 ba 36
       4.0013115e-06 4.105994e-07 7.708869e-07 5.558848e-06
000250 28 99 43 34 4d 9b 55 36 f7 d2 bc 36 4e 0c dc 34
       1.8216508e-07 3.182987e-06 5.627396e-06 4.0987146e-07
000260 82 86 1d 36 a5 72 0a 36 b4 21 66 34 9d 34 50 35
       2.3473117e-06 2.0630334e-06 2.143268e-07 7.75626e-07
000270 a1 77 ae 36 e9 8c cc 33 9a e5 0c 35 b9 65 a9 36
       5.1995307e-06 9.525122e-08 5.248818e-07 5.0484346e-06
000280 8a 1e 66 34 ff 9f 3a 35 c1 73 2d 35 2a 22 c2 33
       2.1431529e-07 6.9523225e-07 6.4615966e-07 9.0400434e-08
000290 cf 6e cb 33 1f e3 b2 35 80 8e 2c 33 2d db 52 34
       9.47308e-08 1.3328134e-06 4.0176474e-08 1.963751e-07
0002a0 74 72 8a 35 50 20 c2 33 48 8b 3b 35 02 bb e7 36
       1.0315111e-06 9.0397066e-08 6.986561e-07 6.906107e-06
0002b0 4f b6 92 35 65 8f 91 35 a4 b4 14 37 84 1d 02 35
       1.0930906e-06 1.0845075e-06 8.863546e-06 4.8471725e-07
0002c0 ec f8 9c 36 b7 b9 10 37 34 61 92 35 11 6d f6 36
       4.6781406e-06 8.626309e-06 1.0906138e-06 7.3440683e-06
0002d0 3e ca a3 36 cb 4c fe 34 fa 9a 2e 36 08 68 ec 36
       4.8813226e-06 4.736706e-07 2.6018229e-06 7.045459e-06
0002e0 c5 de 61 34 62 11 16 36 09 eb 35 37 92 1a fe 34
       2.1035801e-07 2.236186e-06 1.0843164e-05 4.733052e-07
0002f0 01 a4 11 36 92 8c 32 37 65 9e b1 35 32 5b 03 36
       2.1702147e-06 1.0642356e-05 1.3233627e-06 1.9573604e-06
000300 24 e8 9b 37 05 69 1d 35 30 28 b8 36 c9 77 90 37
       1.8585539e-05 5.863988e-07 5.4883058e-06 1.7221917e-05
000310 2f 16 b1 35 09 18 fc 36 30 0e c6 36 38 e2 5d 35
       1.3193984e-06 7.5129833e-06 5.9025115e-06 8.265811e-07
000320 b6 25 e4 35 0d c2 18 37 cb a7 c4 34 3a 68 8b 36
       1.6998299e-06 9.105087e-06 3.662993e-07 4.1546564e-06
000330 9d 60 57 37 c8 3c 5d 35 08 9d 7c 36 e0 b5 40 34
       1.2837493e-05 8.2417364e-07 3.764233e-06 1.7947559e-07
000340 5b 70 e2 32 c7 54 2c 34 5b 6b f2 34 33 e2 48 32
       2.6360956e-08 1.604959e-07 4.5154124e-07 1.1692964e-08
000350 82 79 f7 33 b5 40 d0 34 68 fe e1 32 0e f6 06 34
       1.1523936e-07 3.87901e-07 2.6309138e-08 1.2569237e-07
000360 e1 bd a8 35 80 a1 ec 33 8e ed ac 34 58 32 8e 35
       1.2572237e-06 1.1018983e-07 3.221034e-07 1.0594476e-06
000370 0e cf 51 33 c8 d2 87 35 41 88 6a 35 ef 08 ec 33
       4.884992e-08 1.0119629e-06 8.737007e-07 1.09912314e-07
000380 22 4b 5e 35 92 7a 0c 37 88 03 97 35 7c f4 28 36
       8.281078e-07 8.373188e-06 1.1251404e-06 2.517626e-06
000390 a4 e0 81 37 92 d1 05 35 46 c6 2b 36 ba 23 85 37
       1.5482605e-05 4.9851326e-07 2.5596396e-06 1.5871472e-05
0003a0 c7 8b 96 35 e3 45 87 36 22 d7 e8 35 a7 b8 50 34
       1.1216551e-06 4.0314494e-06 1.7347959e-06 1.9438686e-07
0003b0 7b 80 91 35 32 50 70 36 73 ab b8 33 16 7a 85 35
       1.0840735e-06 3.5809467e-06 8.599354e-08 9.944804e-07
0003c0 fe 38 39 36 e7 c0 4f 34 f1 09 40 35 47 2f a8 36
       2.7600322e-06 1.9348555e-07 7.154004e-07 5.012294e-06
0003d0 dd b0 14 35 1f 5c 9e 35 74 21 15 37 44 b0 83 34
       5.5391666e-07 1.1798728e-06 8.888881e-06 2.4528902e-07
0003e0 c6 1b 14 36 ab a4 e3 36 49 26 14 35 08 bd 1f 36
       2.2069885e-06 6.784297e-06 5.519001e-07 2.3802877e-06
0003f0 0e 64 9c 35 82 9b e7 33 7b 2d 39 34 73 9e 64 35
       1.1652025e-06 1.07850624e-07 1.7246013e-07 8.516719e-07

exp_avg f4 [128]
000000 64 2d 9e 37 56 07 16 b9 36 b2 24 38 7e 90 2b 39
       1.8856204e-05 -0.00014307848 3.926662e-05 0.00016361658
000010 a4 f1 3d b8 73 2c 13 b9 40 6a af b6 e0 79 3c b9
       -4.5286157e-05 -0.00014035571 -5.2277755e-06 -0.00017974479
000020 05 07 84 b7 96 2a c5 b8 be 49 af 38 ad f8 1b b9
       -1.5738895e-05 -9.401624e-05 8.358386e-05 -0.00014874591
000030 db 7a 3c b9 f8 3f 5a b8 20 9f 0e 35 e0 32 6b 38
       -0.00017974844 -5.2034826e-05 5.313068e-07 5.6075747e-05
000040 b0 84 f9 37 68 e2 37 37 b8 71 e4 37 f0 45 9f b8
       2.97449e-05 1.0960364e-05 2.7232672e-05 -7.594738e-05
000050 1f 3f 7f 38 f0 52 b8 38 80 bd f4 b6 85 68 e4 b7
       6.0855524e-05 8.789252e-05 -7.2938274e-06 -2.7228389e-05
000060 9c 55 45 b8 4e 6f cf 39 80 41 08 b6 60 ba 90 38
       -4.704819e-05 0.00039565045 -2.0303705e-06 6.90117e-05
000070 78 e4 37 b8 7e 64 ba b8 20 bd 1b 39 66 76 1c b9
       -4.3843378e-05 -8.887889e-05 0.00014852406 -0.00014921426
000080 fc 1b b6 37 f2 4c e7 38 c0 dd 3b b6 70 38 af 37
       2.1709122e-05 0.000110292705 -2.7994247e-06 2.0887906e-05
000090 f2 d2 1f b6 54 7b a7 38 8e fa c7 38 30 37 7c 38
       -2.3815633e-06 7.986152e-05 9.535729e-05 6.013288e-05
0000a0 aa 1f aa 38 2b 1b ef b8 f1 05 3d b8 d1 6f 1a b9
       8.1121296e-05 -0.000114014685 -4.5066645e-05 -0.0001472824
0000b0 fe ef f0 b8 df 76 09 b9 9a f2 d1 38 f0 8c f8 37
       -0.00011488794 -0.00013109621 0.00010011085 2.9629533e-05
0000c0 c0 4b 47 38 d6 3e 86 b7 00 2c 28 36 44 78 b0 b8
       4.7515845e-05 -1.6003305e-05 2.5059562e-06 -8.414735e-05
0000d0 f0 75 92 39 ff c5 90 38 a8 e4 72 37 d3 28 01 b8
       0.0002793516 6.903335e-05 1.4477562e-05 -3.0794017e-05
0000e0 60 5d e2 b8 f8 73 5d b7 05 f9 ea b8 b4 f9 4d 38
       -0.00010793912 -1.3199628e-05 -0.00011204373 4.9108363e-05
0000f0 d2 8e 4d 39 18 10 f5 b7 51 9b 43 38 00 e2 6d 35
       0.00019603528 -2.921377e-05 4.6636273e-05 8.8618253e-07
000100 a5 aa 05 39 24 3e bb 38 17 1a 6f 37 33 04 5a b4
       0.00012747438 8.9284295e-05 1.4251585e-05 -2.030436e-07
000110 ac 24 7a b8 80 2c ce 37 60 07 ee 38 a8 51 21 b8
       -5.9638798e-05 2.4577836e-05 0.00011350098 -3.846144e-05
000120 4b 78 3b 39 64 aa 78 39 5a 2f 63 39 b4 13 68 b9
       0.00017878522 0.00023714599 0.00021666047 -0.00022132584
000130 61 ad 97 b8 62 3b 95 b8 f8 d3 cd 38 33 95 05 b8
       -7.2325354e-05 -7.1159346e-05 9.814644e-05 -3.1848624e-05
000140 6a b4 f3 38 b6 ec e0 b7 54 18 94 38 ee 1d 79 b8
       0.00011620748 -2.6813108e-05 7.0617214e-05 -5.93941e-05
000150 a2 36 94 b8 e5 99 07 b9 ba 33 cb 38 d8 d4 53 b8
       -7.067366e-05 -0.00012931933 9.689429e-05 -5.0504546e-05
000160 57 1c e9 38 79 e6 68 38 d7 c1 47 b7 bf ad 59 39
       0.000111155845 5.5527755e-05 -1.1906456e-05 0.00020759458
000170 e1 cc 4a 39 7d a7 73 38 40 22 30 38 93 b2 80 b9
       0.00019340545 5.80917e-05 4.1993568e-05 -0.0002454711
000180 86 f9 ab b7 00 c8 ab b8 2a de 0d 38 27 c5 04 39
       -2.0500982e-05 -8.191168e-05 3.3823926e-05 0.00012661946
000190 e8 31 f9 36 54 4a ec b8 dd cb 7c b8 58 85 f0 b8
       7.426588e-06 -0.000112672016 -6.0271344e-05 -0.00011468929
0001a0 18 fa 27 b8 9c d3 24 b8 6f bc 3b 39 aa 18 41 39
       -4.004882e-05 -3.9297724e-05 0.00017903907 0.00018415102
0001b0 8c f9 f4 36 60 ac fa 38 24 71 b9 b7 d8 0e 61 38
       7.3008177e-06 0.00011953036 -2.2106404e-05 5.3658005e-05
0001c0 dc 12 01 b8 9c bc 19 b9 82 f8 25 39 68 33 71 39
       -3.077356e-05 -0.0001466148 0.00015828203 0.00023002701
0001d0 bc 2c 2f b8 00 51 85 b8 98 48 2e 38 24 75 df b8
       -4.1764913e-05 -6.3570216e-05 4.155244e-05 -0.00010655288
0001e0 bb c2 82 39 e3 1a 47 b7 34 40 14 b9 20 26 61 b7
       0.00024940618 -1.1867584e-05 -0.00014138297 -1.3419922e-05
0001f0 00 92 98 39 a5 97 9a b9 72 d0 d1 b8 e9 21 bb b7
       0.00029100478 -0.00029486153 -0.000100047226 -2.2307928e-05
