results/MoveToTarget/MoveToGoal/checkpoint.pt (torch, 438495 bytes, 36 tensors)

network_body._body_endoder.seq_layers.0.weight f4 [128, 6]
000000 c9 a7 22 3f f3 3b 9c 3e a6 7a 42 3f c3 63 62 3e
       0.6353727 0.30514488 0.75968397 0.22108369
000010 df c7 e5 bd 1d ea 17 bf 08 b6 ee be 70 f3 11 3f
       -0.11219763 -0.59341604 -0.46623254 0.5701208
000020 52 85 a0 bd a7 ee 0b 3f ee 60 81 be c3 ee 06 3f
       -0.07837929 0.5466103 -0.25269264 0.5270807
000030 6b cf e0 3e c2 4c ce bd 48 17 ba be b6 db d0 be
       0.43908247 -0.10073234 -0.36345887 -0.40792626
000040 d8 70 22 3e 16 aa e6 3c e9 30 9e 3e 4a 3b 9d bd
       0.15863359 0.028157275 0.3089669 -0.07677324
000050 e9 c9 e7 3d e8 9f b4 3e 58 a5 3f bf d3 cd 07 bf
       0.11317808 0.3527825 -0.7486167 -0.5304844
000060 37 69 db 3d 95 15 a0 be f4 6c 4e 3e 96 0a 91 be
       0.107134275 -0.31266466 0.2015875 -0.2832839
000070 cc f9 1c 3e 2d 7f 50 3e 18 cd 77 bf 85 79 6a be
       0.15329665 0.20361014 -0.96797323 -0.22897919
000080 1d e3 8b 3e 4a 63 3b 3f 29 17 ec 3e e9 23 86 3c
       0.2732171 0.7319838 0.4611142 0.016374545
000090 10 2c db 3d 73 1a 80 3e a2 e7 0c bf 99 a6 43 be
       0.10701764 0.2502018 -0.55040944 -0.1910652
0000a0 6d cf 9c bd 43 76 38 3f b4 eb ea be 23 df 51 bf
       -0.07656751 0.72055453 -0.45882952 -0.81981105
0000b0 5d 85 55 3d b6 e7 89 3e e1 75 d6 3d ff 21 c9 bb
       0.05212914 0.26934594 0.10471702 -0.006138086
0000c0 78 99 b4 be 7e 45 39 be 58 81 67 3d d3 ef 40 be
       -0.35273337 -0.18092915 0.056519836 -0.18841486
0000d0 14 9c 8e 3e 6b e7 55 be e3 2f c8 3d 43 19 e4 3e
       0.27853453 -0.2088906 0.09774759 0.44550523
0000e0 b4 7a 3e 3f 70 3f e3 be 67 7c be be 65 64 06 3f
       0.7440598 -0.44384336 -0.37204286 0.5249694
0000f0 35 e8 1f bf 1a 90 c6 be 73 8f f3 bd b9 ad b8 be
       -0.62463695 -0.38781816 -0.11892595 -0.3607004
000100 7c 1d fd 3d fa e0 32 be fb 21 1a bf eb 7b 01 bf
       0.12359139 -0.17468634 -0.602081 -0.5057971
000110 1c 8d 10 3f 32 1e 71 3d 63 80 f5 3d 2b bb b1 be
       0.56465316 0.058866687 0.119873784 -0.3471311
000120 c3 81 19 bd c7 09 8b 3e d5 26 d9 3d 33 60 51 be
       -0.037477266 0.27155897 0.1060311 -0.20446853
000130 96 04 cf 3e 76 50 65 be 98 ed 8c be c0 3a 27 bd
       0.40433186 -0.22393975 -0.2752502 -0.040827513
000140 b5 ee 2b bd 41 ee 70 3e 6d 02 7d 3e ba c7 0f 3f
       -0.041975696 0.23528387 0.24707957 0.56164134
000150 ac 28 e4 3e 7c 90 47 be 7e e0 a6 3e ce d8 48 3d
       0.4456228 -0.1948871 0.3259315 0.049034886
000160 79 7e 7f 3f 32 d9 11 3e df 6a ce 3c 8d ac c8 3e
       0.99802357 0.1424301 0.025197444 0.39194146
000170 64 71 5a 3f 04 74 9a 3e 39 de a7 3c 0c 4d 36 bf
       0.8532927 0.30166638 0.020491706 -0.71211314
000180 b0 19 c5 3d 0f c1 95 3e 61 6a 1b 3d 71 61 e4 be
       0.0962404 0.29248855 0.037943248 -0.44605592
000190 07 9c 96 3f 7a a0 58 3d 01 c9 35 3e e2 1b 3e bd
       1.1766366 0.052887417 0.17752458 -0.04641331
0001a0 8d a9 84 3f 54 00 43 bf 44 dd a5 3e e1 31 89 3d
       1.0364243 -0.76172376 0.32395375 0.06698967
0001b0 b8 f8 de 3e a4 58 aa be 91 c7 02 3e de e7 27 bf
       0.43549132 -0.33270752 0.12771441 -0.65588176
0001c0 a9 88 c2 3e c2 f0 36 3f c0 f7 2a bf db f1 30 3e
       0.37994888 0.7146112 -0.66784286 0.1727976
0001d0 a9 2e 8c be f3 38 c6 3e f6 98 57 bd 8d 2b 45 be
       -0.2737935 0.38715324 -0.05263611 -0.19254895
0001e0 f2 fe eb 3e a2 bd 16 bf fc 5b 6f be 02 8c 02 3f
       0.46092945 -0.58883107 -0.23374933 0.50994885
0001f0 89 97 84 3e fb 23 20 be 1c 1b 8c bd 6b 2a 94 3e
       0.25896862 -0.15638725 -0.06841108 0.28938612
000200 f4 a1 8b 3e ef f6 16 3f d3 ed d7 bd 82 c6 fc be
       0.27271998 0.5897054 -0.10543408 -0.493702
000210 20 a4 47 bf a8 4b 81 be da d4 47 be 57 9c b4 bd
       -0.7798481 -0.25253034 -0.1951479 -0.08818882
000220 13 3b 9d 3d d3 df 4c bd ec c3 77 be df 6f 99 3e
       0.07677283 -0.050018143 -0.24195832 0.29968163
000230 76 e3 f0 3e 90 bc 5b 3d 49 99 a3 bd c5 36 0e 3f
       0.4704854 0.053646624 -0.07988221 0.5555232
000240 37 c0 cf bd 3a 1a 7b be 53 57 c4 3d 7e e3 3c 3f
       -0.10144084 -0.24521723 0.09586968 0.73784626
000250 ad 4c d5 3e a3 a6 3f bd 94 2c cf bd 2a ea e7 be
       0.4166006 -0.046789777 -0.101159245 -0.4529584
000260 30 f7 b7 bd 38 93 b7 be 56 27 87 be 40 f7 91 3d
       -0.08982694 -0.35854506 -0.26397198 0.07127237
000270 d7 69 ed 3e fb 18 88 bc f8 dd 0e be dd 86 04 3f
       0.46369812 -0.016613474 -0.13951862 0.51768285
000280 41 8c da be 9f cb e6 3e fa 13 eb 3e fb 45 39 be
       -0.4268513 0.45077226 0.45913678 -0.18093102
000290 57 f6 94 be 3f fd ec be 25 cd fb bd 25 03 f7 3e
       -0.29094192 -0.4628696 -0.122949876 0.48244587
0002a0 d7 87 21 bd 48 84 02 3f d7 3f 3c bf 70 ec a3 be
       -0.039436188 0.50983095 -0.7353491 -0.32016325
0002b0 9e f6 b8 3d 2b d3 66 bf 3b ed 3a 3e c9 7d bb bd
       0.090314135 -0.90165967 0.18254559 -0.09154851
0002c0 70 1b 4e 3f d7 29 48 3c ce 45 31 be 6b 83 93 3e
       0.80510616 0.012217007 -0.17311785 0.288112
0002d0 df 3a 8c bc c0 6e 45 be ba a3 b1 be d7 a6 56 bf
       -0.017117916 -0.19280529 -0.34695226 -0.8384833
0002e0 52 dc 3e be 1c 32 ea be 13 e4 98 3e 0d b7 27 3e
       -0.18638733 -0.45741355 0.29861507 0.16378422
0002f0 fd 92 f4 be 82 3a 4f 3f 64 54 4e 3e be f7 cb 3b
       -0.47768393 0.8094865 0.2014938 0.0062246015
000300 fa 06 b8 3e 14 84 95 bd b2 b7 72 be e8 90 fb 3d
       0.35942823 -0.073005825 -0.23702887 0.12283498
000310 be 2e 00 3e 1e ca dc 3e a2 57 6e be ed 17 92 bd
       0.1251783 0.43122953 -0.23275617 -0.0713347
000320 08 fa 63 3e 03 7d 69 bd 43 d8 28 3f 52 4c d8 3e
       0.22263348 -0.057003986 0.6595499 0.42245728
000330 62 a3 d4 be 4b 3a 5d 3e 74 ad ad be 27 57 5c be
       -0.415309 0.21604268 -0.33921397 -0.21517621
000340 be c1 c2 3d 01 55 34 3e 46 8e ad 3e 22 c2 80 be
       0.0950961 0.17610551 0.3389761 -0.25148112
000350 62 12 e6 3b 70 64 6e 3e 26 a9 82 3e 89 ab 17 3f
       0.0070212344 0.23280501 0.25519675 0.59246117
000360 13 3e 41 be 59 65 17 3e 88 83 ec 3c 4a ee 1f bf
       -0.18871336 0.14784755 0.028871313 -0.62472975
000370 49 12 5a be 7a 4d d2 3d e3 fd ed be 11 c4 55 3d
       -0.21296038 0.10268684 -0.46482763 0.052188937
000380 61 80 09 3f a8 78 1c be 05 1b f8 bd b5 08 64 be
       0.53711516 -0.15280402 -0.121145286 -0.22268946
000390 eb a2 58 be 5d b0 23 3f c1 cb a8 bd 54 76 fe 3e
       -0.21155898 0.63940984 -0.08241988 0.49699652
0003a0 78 bf 8a 3e 6b 94 59 be 9c c5 7b be d6 58 0f 3f
       0.27099204 -0.21248023 -0.245871 0.5599493
0003b0 97 1c 53 3e 73 e8 22 bf 7b 61 b9 3e 33 19 9b 3d
       0.20616375 -0.6363594 0.36207184 0.07573166
0003c0 8c c3 dc be 38 25 3d 3f e0 5c d8 3e eb 6f 9e 3d
       -0.4311794 0.73884916 0.42258358 0.077361904
0003d0 51 f7 cd 3e e1 95 62 3f bf 82 35 3d da 67 bf bd
       0.4022775 0.8850995 0.044314142 -0.0934598
0003e0 56 30 8c 3e bd 9c dd be 21 4b f4 3e f8 9d 8a bd
       0.27380627 -0.43283644 0.4771357 -0.067684114
0003f0 59 f6 2b be 91 f8 39 bf 1a 16 38 3f 53 34 0d bf
       -0.16793193 -0.7264491 0.71908724 -0.55157965

network_body._body_endoder.seq_layers.0.bias f4 [128]
000000 34 67 bf 3b 51 0c 6f 3b 2f 6a c2 3b 90 30 80 3b
       0.00584116 0.0036475847 0.005933068 0.003912039
000010 33 a5 7f 3b 49 2e 78 3b 91 31 9c bb 57 17 b3 bb
       0.0039008379 0.0037869385 -0.004766651 -0.005465429
000020 bc 56 6d 3b 23 95 e3 bb 95 71 8c 3b 9f ea 99 3b
       0.0036215028 -0.0069452687 0.004286001 0.0046971585
000030 41 90 5a bb eb 96 a4 bb a6 f5 9c bb a7 66 6c 3b
       -0.0033350142 -0.0050228736 -0.0047900258 0.0036071928
000040 0d 62 83 ba 09 0d 9a bb c3 54 b3 bb 69 88 99 bb
       -0.0010023728 -0.004701261 -0.005472751 -0.004685451
000050 05 f4 78 bb 73 f9 72 3b 4b 58 8d bb 16 96 a0 bb
       -0.0037987244 0.0037074953 -0.004313504 -0.004900704
000060 8f 72 4b 3b d4 56 e7 b9 72 2d b7 bb 35 00 cc bb
       0.0031043624 -0.00044124445 -0.0055901343 -0.0062256106
000070 92 60 d1 3a e4 83 77 bb b5 1b b8 bb 3e d0 8e 3b
       0.0015974215 -0.0037767822 -0.0056185373 0.0043583205
000080 48 bf d1 ba 8f d4 86 3b 88 b0 a3 b8 72 87 6b bb
       -0.0016002441 0.0041146944 -7.805327e-05 -0.0035938886
000090 48 68 a1 3b 59 16 98 3b 84 02 af bb 57 fe 95 bb
       0.0049257614 0.004641336 -0.005340876 -0.004577439
0000a0 41 69 8b bb 5a a4 0b 3b 3b 6b 5d 3b 7a 55 b1 bb
       -0.0042544906 0.0021307678 0.0033785838 -0.005411801
0000b0 18 ef 7d 3b fe 55 cd bb f7 53 7e 3b 44 8b d5 3b
       0.0038747247 -0.0062663546 0.0038807371 0.006516846
0000c0 51 6b 92 bb 55 35 42 3b 78 31 95 3b 73 5d 4b 3b
       -0.0044683595 0.002963384 0.0045530163 0.0031031042
0000d0 12 d0 49 bb ae 23 bf bb 56 3a ec bb b3 3a 8e bb
       -0.0030794186 -0.005833111 -0.0072091026 -0.0043404936
0000e0 74 c9 a7 bb 81 01 78 3b 45 3d a5 3b 9a 98 21 3b
       -0.0051204506 0.0037842693 0.0050427043 0.0024657608
0000f0 f7 da b1 ba 10 fa 43 3b 5c 85 8d 3b bd 4e 05 3b
       -0.0013569285 0.0029903688 0.004318876 0.002034112
000100 37 7a ce 39 6d 8d 8b 3b 2f c1 8a 3b 4d e5 ef ba
       0.0003938244 0.0042588026 0.004234455 -0.001830259
000110 59 cc a8 bb c6 2b 9a bb 9a 98 91 3b c9 e5 b9 bb
       -0.0051513133 -0.004704925 0.0044432404 -0.0056731445
000120 d9 9f 75 bb 8a 32 20 3b 03 65 a3 bb 2c 1a 8c bb
       -0.003747931 0.0024444186 -0.004986407 -0.004275581
000130 4a 3e 80 3b f6 24 79 3b 5d 7c ab bb 8f dd ab 3b
       0.0039136754 0.0038016415 -0.005233331 0.0052449177
000140 4c fa 91 3b 65 94 8a bb ab 0d 83 bb bd d8 c4 3a
       0.0044548865 -0.004229116 -0.003999432 0.0015018206
000150 14 32 aa 3b 91 1e 92 3b c0 8d b2 bb ab 63 0d 3b
       0.005193958 0.00445921 -0.005449027 0.00215743
000160 8a 87 a1 bb 2e 6b 82 bb 9a e5 51 3b 64 bd 65 3b
       -0.0049294876 -0.003980062 0.0032027722 0.0035055513
000170 05 9a 39 ba db d5 04 3b be 1e 99 3b 98 ab ad bb
       -0.00070801406 0.002026907 0.004672854 -0.0052999966
000180 de f3 6b 3b a9 7f 97 bb 3b db 82 3b df e3 8e 3b
       0.003600351 -0.0046233726 0.0039934195 0.0043606604
000190 38 f2 85 bb c4 e3 90 bb 5d cd 81 3b a0 b0 66 bb
       -0.0040877126 -0.004421683 0.003961249 -0.0035200492
0001a0 39 89 c9 b9 43 91 83 3b b8 88 90 3b e8 c0 f4 3a
       -0.00038439946 0.0040151193 0.0044108294 0.0018673213
0001b0 62 3e 30 bb 6c ac 64 3b 5c 82 f8 ba fb eb 35 bb
       -0.0026892652 0.003489281 -0.0018959749 -0.0027759064
0001c0 77 43 74 3b 24 a8 c3 b9 43 76 a2 bb a1 83 3b 3b
       0.0037271657 -0.00037318573 -0.0049579456 0.0028612392
0001d0 f2 75 9a bb 8a 93 99 bb 02 8c 9b bb 36 76 ff bb
       -0.004713767 -0.0046867775 -0.004746915 -0.0077960743
0001e0 36 60 fd 3b 1a d9 a0 bb f9 5a 87 3b 63 94 d6 bb
       0.0077324165 -0.004908693 0.004130718 -0.006548451
0001f0 25 49 9c bb d3 b2 d2 ba d2 92 a4 ba 60 38 a1 bb
       -0.0047694617 -0.0016075022 -0.0012555963 -0.0049200505

network_body._body_endoder.seq_layers.2.weight f4 [128, 128]
000000 f0 6c 06 3d 0a 23 11 3b 55 79 8b ba c5 ea 94 3c
       0.032818735 0.002214613 -0.0010641018 0.018178353
000010 57 ba 30 bc 02 de 2c bd ec 8b ab bd 53 f0 81 3c
       -0.010786614 -0.04220391 -0.08376297 0.015861666
000020 4a 44 0c 3e 93 41 44 3e 0b b6 35 be 5e bf f9 bc
       0.13697925 0.1916564 -0.17745225 -0.030486759
000030 f2 0a 18 3d 8a 4c c2 bd 00 16 ab bc 71 73 98 bc
       0.037119813 -0.09487255 -0.020884514 -0.018609734
000040 90 19 85 3d 40 e0 22 3e 8e 29 14 bd 3e 1d 09 be
       0.06499016 0.15905857 -0.036172442 -0.13390061
000050 b4 22 1f 3e 8f 11 3e bd 8c bc da bd 86 d6 b1 3d
       0.15540582 -0.046403464 -0.10680494 0.08683495
000060 ff 9d fc bb d0 21 99 bc a5 22 33 be 46 63 b1 bc
       -0.0077092643 -0.01869288 -0.17493685 -0.021653783
000070 ab 5b c7 3d bd 32 a7 bd 46 77 0d be ad 64 cd bc
       0.09734281 -0.081639744 -0.1381503 -0.02507242
000080 d5 09 4b bd 2c 11 bc bc 2c 2a b3 bc bb 9a 1c be
       -0.049569923 -0.022957407 -0.021870695 -0.152934
000090 ba b0 1a 3c a6 b5 0a 3d 6f d5 41 bd 51 6d 29 3e
       0.009441549 0.03386464 -0.047322687 0.16545607
0000a0 ac b3 88 bd 8e 67 7b 3c f0 13 4c 3d cc b4 63 bd
       -0.06674895 0.015344514 0.0498237 -0.055592343
0000b0 95 96 ae bc ca 07 07 3e c0 0b b5 bd 80 20 73 3c
       -0.021312037 0.13186565 -0.08840132 0.014839292
0000c0 c9 08 81 bc 8e a2 b5 3d 1b 1c a3 bd c7 8c b7 bd
       -0.01575126 0.088688955 -0.07964345 -0.08962398
0000d0 b0 26 9a 3d b4 b6 c8 3c 5b d1 8b bd 5c c4 c6 3d
       0.0752691 0.024501182 -0.06827041 0.09705421
0000e0 ca 13 87 bd c4 da 21 bd c5 79 8b bd e1 01 9e 3b
       -0.06595571 -0.03951527 -0.06810335 0.0048220013
0000f0 75 99 89 bc d2 49 3e 3d 79 d3 8d bd c7 f8 56 3e
       -0.016796807 0.04645712 -0.06925101 0.20993339
000100 f4 1a f5 bb 0e d2 bd bd a4 b1 29 3d 76 92 8e 3d
       -0.0074800197 -0.092685804 0.041429177 0.06961529
000110 f3 c7 2b bd 06 5c 9d 3d cf 92 e7 3d ba 81 57 bb
       -0.041938733 0.07683568 0.113072984 -0.003288372
000120 88 d6 18 3b 17 aa 1b 3d 97 c8 a6 bc 0e 2a be bd
       0.002332123 0.038004007 -0.02035932 -0.09285365
000130 6c 4e 02 3d 89 8d c9 3d 26 a1 04 bd 17 15 3a bd
       0.03181307 0.09841449 -0.032380246 -0.04543027
000140 57 aa 73 3d f2 80 97 3c 9c 2d ca 3c a8 f3 ea bd
       0.05948862 0.018494103 0.024679951 -0.11472255
000150 b3 81 fb 3c 43 8d fb bc 15 93 98 3d 4e 8e 15 bd
       0.030701494 -0.030707007 0.07449929 -0.036512665
000160 6e ff 88 bd 27 f4 93 bd ce e4 b3 bc 37 ab 1e bd
       -0.06689344 -0.07224303 -0.021959689 -0.038737502
000170 c6 95 84 3d 55 8c 05 3e 55 65 a8 3c 98 54 32 3c
       0.064738795 0.13041814 0.020556131 0.0108844265
000180 20 25 31 3d de 9d a8 bc 23 a0 34 bc 66 d1 9a 3d
       0.043248296 -0.02058309 -0.011024508 0.07559471
000190 02 a3 ec bb a8 4b a3 bd 12 e7 dd 3d 63 21 3b 3d
       -0.0072215805 -0.07973415 0.10835089 0.045686137
0001a0 05 58 9d 3d 24 4a 8a 3d 61 c6 97 bd fc 28 0b be
       0.07682804 0.067524225 -0.07410885 -0.13589853
0001b0 e2 72 02 bc 57 87 e0 bc 31 d9 cd bd b4 ce 90 bc
       -0.0079619605 -0.027408285 -0.100511916 -0.017676689
0001c0 0c 87 e4 bd b5 5e 46 3d 0f 18 a1 bd 49 33 b3 3d
       -0.11158571 0.048430163 -0.07865917 0.08750016
0001d0 67 fc c9 bd 12 a2 bb 3d c1 36 df 3d 6e d3 7e 3d
       -0.09862595 0.09161772 0.10899115 0.062213354
0001e0 ec 87 8a bb 59 f4 b9 3d d8 44 75 3d af 2a 83 3d
       -0.004227629 0.09079809 0.059880108 0.064046256
0001f0 ea 31 91 3d 80 d1 24 3d 5c 98 10 3d 02 f1 36 3d
       0.070895985 0.040238857 0.03530155 0.044663437
000200 77 64 d9 bb ec 4f 61 be f6 9f 05 3d 5d 88 84 bd
       -0.006634291 -0.22003144 0.032623254 -0.06471322
000210 ba 81 f8 3d 9e 17 98 3d 28 1d d4 3d 1e 85 d8 bd
       0.121341184 0.074263796 0.103571236 -0.10572265
000220 4e 0c 8c bd 0b db 85 bd 3a 73 ba bc 12 e7 8b 3c
       -0.068382844 -0.0653592 -0.022760022 0.017077956
000230 0a 97 aa bc ad aa 32 bd c2 f1 18 bd aa 2b b6 bd
       -0.020823974 -0.0436198 -0.037339933 -0.08895047
000240 e2 eb 76 3c 71 e3 db 3d 19 86 dd 3d 2f 64 c7 bd
       0.015070887 0.107367404 0.10816593 -0.097359054
000250 d4 cc 11 bd 64 e6 71 bc 06 af 50 3d b3 7f de bd
       -0.03559573 -0.014764402 0.050948165 -0.108642004
000260 a2 d0 41 be 56 33 1c 3d ff 1d 86 bd 7e 78 c6 bd
       -0.18927243 0.038134895 -0.0654869 -0.09690951
000270 f7 34 e2 bb 59 cb 16 be 78 6d 63 bc 28 f1 53 3d
       -0.0069032866 -0.14726008 -0.01388108 0.051743656
000280 81 f8 37 bd 98 8f 9b bd 16 e5 a1 bd ff e6 7b 3a
       -0.044914726 -0.07595748 -0.07905023 0.0009609311
000290 4d bc 1d bd 59 8b 15 be 7f 46 eb 3d c9 09 ef bc
       -0.038509656 -0.14603938 0.114880554 -0.02917947
0002a0 76 fa 18 be be 71 0d bd f0 7f 06 bd e1 94 1f 3e
       -0.14939293 -0.0345323 -0.032836854 0.15584137
0002b0 f2 e8 01 3d c6 6d 9e 3d f9 dd 8a bd 81 e3 41 bd
       0.031716295 0.07735781 -0.06780619 -0.047336105
0002c0 a0 52 05 bd 18 40 d9 3d 43 81 1b 3c df 3e d3 3a
       -0.0325495 0.10607928 0.009491268 0.001611676
0002d0 c4 f4 50 bd 2a cd cd 3d a9 7d ce bc d7 4e 9c 3d
       -0.051014677 0.100488976 -0.025206404 0.07632225
0002e0 01 14 79 3d 96 35 a5 3d 6d 1c 7c bc 58 23 29 bd
       0.060810093 0.08066861 -0.015387637 -0.041293472
0002f0 91 43 b0 bd db 0a 22 3e 63 6e 8e 3d 15 d5 9f 3d
       -0.08606637 0.15824454 0.06954648 0.07804314
000300 cd 51 04 be 86 26 fb 3d a5 d5 b5 bd d9 9a 55 3d
       -0.1292183 0.12263207 -0.0887864 0.052149627
000310 f8 b2 cc 3a 01 64 6e 3d fa 8e 61 bb 17 ef 77 bd
       0.0015617302 0.05820084 -0.0034417496 -0.06053075
000320 af 56 50 3d 02 fb 8d bd 89 90 ee bd 6b 4a c4 3d
       0.050863918 -0.069326416 -0.11648662 0.095845066
000330 2d 5c 0f bd 15 e2 ce 3d 6f 10 8e 3d 3f 3c 98 3d
       -0.035000015 0.101017155 0.06936728 0.07433366
000340 1f a5 4e bc c2 20 a2 3d 3c 15 e0 3d 75 95 db 3c
       -0.01261261 0.07916404 0.1094155 0.026804665
000350 70 f9 88 3d 81 fd dc 3d ab 9f a5 bd 81 1b f7 3d
       0.066882014 0.107905395 -0.08087095 0.12065793
000360 57 cd a1 bb 92 59 af bc 88 80 e3 3c e7 24 42 3d
       -0.0049378085 -0.021405015 0.02777125 0.047398474
000370 83 35 3a 3d 66 55 5c bc b4 2f e7 bb 10 6d 74 bc
       0.04546119 -0.013448095 -0.007055247 -0.014918581
000380 c2 4d d4 bd 1d 91 ac bd 5c 90 f9 3c 00 77 83 bb
       -0.103663936 -0.08426116 0.030464344 -0.0040119886
000390 ed 33 b9 3d 36 ab 29 3e 56 ea 43 bb ac 44 f3 bc
       0.09043107 0.16569218 -0.0029894314 -0.029695831
0003a0 34 6e 39 be db b1 26 bd 79 96 cd 3d f3 e5 40 bd
       -0.18108445 -0.04069696 0.10038466 -0.047094297
0003b0 0d 78 f8 bc a6 cc 24 3c 0c f1 fa bc 4e ce ba 3d
       -0.030330682 0.010058558 -0.030632518 0.09121381
0003c0 56 17 e3 bd 5f f8 95 bd b3 e4 8c 3d ab 56 f2 ba
       -0.11088435 -0.07322764 0.068795584 -0.0018488964
0003d0 7c c3 07 bd 41 94 f9 bc 65 ad 2a 3d e0 68 45 bc
       -0.033145413 -0.0304662 0.04166927 -0.01204893
0003e0 f5 0d d6 3d 0c 07 b0 3d 96 5b 20 3c d9 00 d1 3d
       0.10451881 0.08595094 0.009787461 0.1020524
0003f0 71 ea dd 3d 15 73 2d bd 2e ad 91 bb 38 cf 23 be
       0.10835732 -0.04234608 -0.0044456935 -0.15997016

network_body._body_endoder.seq_layers.2.bias f4 [128]
000000 de 2f 11 bb 5c 1d e3 bb 0c d5 84 3b 16 f5 8a 3b
       -0.0022153775 -0.00693099 0.0040537175 0.0042406423
000010 3e 32 50 bb 42 30 48 3b c4 d8 74 3b c2 ba 27 3b
       -0.0031768228 0.0030546342 0.0037360648 0.0025593494
000020 58 bf 2c 3b 6c 85 97 3b 65 fd 95 3b 6a 50 92 ba
       0.0026359167 0.0046240594 0.004577326 -0.0011162881
000030 82 9b ea 3a 49 4b b0 bb 87 67 38 bb 6f 24 92 3b
       0.0017899128 -0.0053800684 -0.002813788 0.0044599096
000040 23 c9 9c 3b 98 09 78 3b bb 47 95 3b ad f0 2c bb
       0.0047847196 0.0037847515 0.00455567 -0.002638857
000050 1b 5f 6f 3b 7e 25 88 bb e1 ee 8f 3b cb ba 9b 3b
       0.0036525193 -0.00415486 0.0043924903 0.004752492
000060 a7 f3 ce ba 51 3d 98 bb f9 37 9b bb 2b 95 5c 3b
       -0.0015789167 -0.0046459814 -0.004736897 0.0033658247
000070 03 7e 69 bb 97 86 a4 bb 7f 72 c3 ba 97 89 80 3b
       -0.0035628087 -0.005020927 -0.0014911442 0.003922652
000080 91 03 8c 3b 8e fd 99 bb d3 64 a3 bb 4c 8c 9c 3b
       0.004272886 -0.0046994155 -0.0049863844 0.004777467
000090 9a cc 0e ba 6d 0a 51 bb 7d ca 8c bb 26 68 bd bb
       -0.0005447358 -0.0031897083 -0.0042965994 -0.0057802377
0000a0 92 5a 1e 3b 9a a2 3d ba 97 20 27 3b 39 ca 95 3b
       0.002416287 -0.00072340074 0.0025501603 0.004571226
0000b0 cf 97 91 bb f3 59 70 3b 7b 00 9a bb 48 8f 6d bb
       -0.004443146 0.0036674708 -0.0046997643 -0.0036248732
0000c0 fe f4 70 3b 0b 9d 87 bb e2 7b 86 3b 15 b4 9f bb
       0.003676712 -0.004138594 0.0041041235 -0.0048737624
0000d0 3d d6 9f bb 55 ed 8e 3b e5 c8 25 3b cb 3f de ba
       -0.004877834 0.0043617883 0.0025296744 -0.0016956268
0000e0 69 8e 47 bb 1d 62 99 bb 9a e2 67 bb df 86 21 3b
       -0.0030449873 -0.0046808855 -0.0035382868 0.002464704
0000f0 17 c1 cf 3a ec f1 83 ba c0 b6 3b 3b 3b b8 9c bb
       0.0015850392 -0.0010066605 0.0028642863 -0.004782704
000100 02 f8 8b bb e8 9d 92 3b fb 21 8a bb 6b 98 a7 bb
       -0.004271508 0.0044743903 -0.0042154766 -0.005114605
000110 7f f6 aa bb 2f ff 1f 3b fd c0 9d bb 7c 9a 58 b9
       -0.005217373 0.0024413576 -0.0048142658 -0.00020656915
000120 47 30 8b bb e0 84 1d bb 66 c8 93 bb e2 7d 8a 3a
       -0.0042476985 -0.0024035498 -0.0045099733 0.001056608
000130 9f 23 87 bb 60 cf 77 3b 11 f3 f9 3a ca b5 99 bb
       -0.0041241194 0.0037812814 0.0019069632 -0.0046908604
000140 7a 6c e4 bb e0 d3 af bb 73 1e 17 bb e0 f0 83 3b
       -0.006970939 -0.0053658336 -0.002305892 0.0040265173
000150 a5 f3 a1 bb f2 b4 85 bb c1 05 70 3b 14 b1 8e 3b
       -0.004942375 -0.0040804083 0.0036624523 0.0043546055
000160 4d 75 b0 3a 04 c5 0e bb a2 01 8c 3b 50 60 12 bb
       0.0013462693 -0.002178491 0.0042726556 -0.0022335239
000170 e8 96 cb 3a 00 7d 9c bb 22 83 a0 bb 37 c9 a8 bb
       0.0015532644 -0.0047756433 -0.0048984447 -0.00515094
000180 03 1a 9e bb 28 ea 3f 3b aa 4e 1d ba 19 ba 87 3b
       -0.004824878 0.0029283855 -0.00060007966 0.0041420576
000190 02 f7 c6 bb 56 04 a4 bb 3b 29 8d 3b 5c 4d 56 3b
       -0.006071926 -0.0050053997 0.0043078936 0.0032699918
0001a0 35 e0 52 ba 44 04 5e 3b ce 47 98 bb 16 9b 87 3b
       -0.00080442737 0.0033877054 -0.0046472317 0.0041383607
0001b0 74 12 58 3b 80 68 73 3b 62 d8 09 bb ad 42 36 3b
       0.0032969983 0.0037141144 -0.0021033515 0.0027810738
0001c0 48 a0 0a 3b e7 5c 7e 3b fa 57 82 bb 68 64 8c bb
       0.0021152664 0.0038812698 -0.003977773 -0.0042844303
0001d0 eb d1 a2 bb 56 ce 52 39 21 b9 5d 3b 19 94 fe ba
       -0.004968872 0.00020104027 0.003383227 -0.0019422799
0001e0 6d 27 3e ba 78 a8 30 3b 94 9f 1d 3b 67 94 9b bb
       -0.00072537997 0.0026955884 0.0024051415 -0.0047479155
0001f0 30 6b 51 bb aa 61 6f bb a7 3d c1 bb a9 1f a1 bb
       -0.0031954758 -0.0036526718 -0.005897242 -0.0049171043

action_model._continuous_distribution.log_sigma f4 [1, 2]
000000 61 62 7d bc 7a ac 35 bc
       -0.01546535 -0.011088485

action_model._continuous_distribution.mu.weight f4 [2, 128]
000000 15 14 6c 3b 1c 18 8a bc c3 b0 80 3c 4e 16 1a 3c
       0.0036022712 -0.0168572 0.015709287 0.009404732
000010 5e aa b1 bc fb c8 31 3c f3 66 23 3b 44 d5 5a 3a
       -0.021687683 0.01085114 0.0024933189 0.0008347819
000020 1d 85 ca bb 08 cc 43 3c d9 19 b2 3c ae 2a fd bb
       -0.006180419 0.0119505 0.02174084 -0.007726035
000030 a1 2b 42 bc 10 a1 73 bc a2 fb b6 3c 72 c6 f6 bb
       -0.011851222 -0.014869943 0.022336785 -0.0075309807
000040 cf 8f 88 bc 2f 95 a9 bb d8 6f c4 bc 74 0e d8 bb
       -0.016670136 -0.005175255 -0.023979113 -0.00659352
000050 32 8b 0c 3c b7 72 54 bc c9 7e a2 3c 34 1d 32 3d
       0.008578109 -0.012966803 0.019835846 0.04348488
000060 f7 a2 9b 3c 99 39 05 3c 95 73 1b bc e0 7f 80 bc
       0.018998606 0.008131408 -0.009488006 -0.015685976
000070 65 d3 0f bd 8f e4 28 bc 64 73 5c bc 74 82 2f 3a
       -0.03511371 -0.010308399 -0.013455246 0.0006695159
000080 3c 3a 81 3c f2 9f b4 39 ac 78 41 bc ee 58 aa 39
       0.015774839 0.00034451444 -0.011808556 0.00032491185
000090 cb ae 82 bc 84 f3 ae 3a 95 2f 69 3b e3 08 f9 bb
       -0.015952488 0.001334772 0.003558134 -0.0075999363
0000a0 f5 f7 91 3c be b4 15 3d b7 e6 c9 b9 41 84 50 3c
       0.01781843 0.036549322 -0.00038509603 0.012726844
0000b0 ce 95 0c 3a b9 44 26 3b 38 4d 4b bc e5 5b 59 3c
       0.0005362899 0.0025370552 -0.012408547 0.013266538
0000c0 f3 7c 02 bc 0e b0 02 3c 2e 9d de 3c b0 44 4d 3b
       -0.0079643605 0.007976545 0.027174558 0.0031321459
0000d0 98 e3 37 3c fc cf 8f 3c 96 36 90 bc 87 72 f7 bc
       0.011223696 0.01755523 -0.017604154 -0.030205978
0000e0 de c3 b7 3b cb 5e 54 bc 86 52 43 bc c0 34 34 bb
       0.005608066 -0.0129620535 -0.011921531 -0.0027497262
0000f0 7b e5 58 bc 76 45 a3 3c 14 cd c3 3c 20 cb b3 3b
       -0.013238306 0.019930582 0.0239015 0.005486861
000100 e2 ad a7 bb ae 13 dc 3a 34 4f 2d 3a f2 cf 71 3c
       -0.005117164 0.0016790533 0.00066112285 0.014759051
000110 e6 82 28 39 57 b5 7b 3c 95 ee d4 bc bd 03 ed bb
       0.00016070492 0.015363059 -0.025992671 -0.0072331117
000120 3b a6 5f bc 9b bb c9 3b 12 a3 90 3b 0b 86 d8 3c
       -0.013650472 0.0061563975 0.0044139707 0.026431104
000130 06 dd 6d ba 8f 9d ca 39 df aa 82 bb c0 71 8c 39
       -0.00090737676 0.00038645833 -0.0039876546 0.0002678763
000140 67 94 91 bc b3 00 f2 bc 4d 67 f5 bc 50 fe 87 3c
       -0.017770959 -0.029541349 -0.029956484 0.016600758
000150 27 c6 8e 3c c6 06 b5 bc 40 71 e0 bb 4f 97 df 3b
       0.01742847 -0.022097956 -0.006849438 0.0068234573
000160 c8 97 9b 3c b5 de 2d bc 7b 27 be ba 8e 15 44 bc
       0.018993273 -0.0106121795 -0.0014507616 -0.01196803
000170 da af 42 3b 07 20 69 bb c3 e7 68 bc dd cf 19 bb
       0.0029706866 -0.0035572068 -0.014215413 -0.0023469843
000180 1b e3 07 bc 6e df c2 bb 6c ad 17 3d d2 e8 3b 3c
       -0.008293892 -0.005947045 0.037030622 0.011469083
000190 26 61 55 bc 39 72 b7 bb 0d 51 fd 3b 04 d9 ff bb
       -0.01302365 -0.005598333 0.0077306093 -0.0078078527
0001a0 c4 dd 37 3b a8 ce 73 bb 16 bf 66 3b 99 e2 cc 3b
       0.0028055767 -0.0037202034 0.003520911 0.0062525985
0001b0 ef 42 26 bc 81 27 ae 3a 25 59 93 bb 8d 47 95 3b
       -0.010147794 0.001328692 -0.004496711 0.0045556487
0001c0 b7 32 b6 3b c0 3d 29 3d d2 38 c1 bb cd c5 d9 bc
       0.005560245 0.041318655 -0.005896666 -0.026583577
0001d0 f9 36 15 bc 82 38 40 bb e1 1d 9d bb 85 04 95 3c
       -0.009107345 -0.0029330556 -0.0047948216 0.018190632
0001e0 30 bd 92 bc 3c 06 2b 3c d7 39 62 3c 28 a2 f2 ba
       -0.017912477 0.010438498 0.013807735 -0.0018511461
0001f0 65 93 80 3b 40 22 17 3b e7 49 53 bd 6c 18 ef bb
       0.003923821 0.0023061186 -0.05158415 -0.0072966125
000200 99 90 68 3c bc 5d 85 3b 85 34 72 bc fe 2b 54 bc
       0.014194631 0.004070012 -0.014783029 -0.012949942
000210 e2 d9 f1 3a 81 44 b4 3b b6 ed eb bb 7e 84 63 bc
       0.0018451775 0.0055013304 -0.007199968 -0.013886569
000220 af 06 93 bc ac fe 3c bc e5 60 97 bc ff a4 3c 3a
       -0.017947523 -0.011535328 -0.01847882 0.0007196217
000230 59 83 3b bc bf 89 03 3c fa db 17 3c 39 e9 0a 3d
       -0.01144489 0.008028447 0.009268755 0.033913825
000240 bc 93 9c 3c 9d 3a 71 bc 4f 8d 28 3c d7 17 d0 3a
       0.019113414 -0.014723447 0.010287597 0.0015876245
000250 5d 15 91 3b ea bd 84 3c 59 b1 61 bc 90 c4 06 bd
       0.0044275955 0.01620384 -0.013775193 -0.0329023
000260 4a ea 6d 3c b3 97 ae 3b 0d 54 2a 3d 39 19 26 bd
       0.014521191 0.0053281425 0.041584063 -0.040551398
000270 77 bf 53 3c af cc 85 3c 60 30 1e bc b8 75 e7 bc
       0.012924067 0.016332952 -0.009655088 -0.028254375
000280 1d 9e 1e bd 4c cf a9 3c 8d d6 9c 3c 6f 1a 49 bc
       -0.038725007 0.02072873 0.019145275 -0.012274369
000290 31 e7 1d bb 0c 74 05 3c de 95 27 3c 1d ca bf 39
       -0.00240941 0.0081453435 0.010228602 0.00036580945
0002a0 fa fe d4 ba 32 c2 2b 3c a7 a3 5d bc 00 75 7e bc
       -0.0016250305 0.0104833115 -0.013527787 -0.015530825
0002b0 1d 56 7f 3c a2 87 13 bc c2 3c 05 3c 0f 40 11 3c
       0.015584496 -0.009004505 0.008132162 0.00886537
0002c0 0d 77 08 bd 64 2e cf b9 7d 19 26 bc 00 51 61 3c
       -0.03331666 -0.0003951668 -0.010137913 0.013752222
0002d0 92 d5 f0 3c d0 9b 4f bc 9d 75 a5 bc 36 76 28 bc
       0.029398713 -0.012671426 -0.020197684 -0.01028209
0002e0 e1 72 b9 3a 2f 6a 29 3c 5d e7 e7 3c 90 7e b1 3c
       0.0014148616 0.010340258 0.028308565 0.021666795
0002f0 ea 09 83 bc e7 58 68 3c dd bb 12 3a ca 23 4b 3c
       -0.015995938 0.014181352 0.0005597452 0.0123986695
000300 3c 22 53 3c fe 35 4f bb 1b 9b 06 3b 82 a2 35 bc
       0.01288658 -0.0031617875 0.0020539227 -0.011086108
000310 bb 28 94 bb 1e a3 f2 ba 8e 2c 6b 3b 9d d0 09 bc
       -0.004521457 -0.0018511747 0.003588471 -0.008411554
000320 eb a5 b3 3c fb f8 18 3c 9f c8 97 3c b4 0c 72 3c
       0.021929702 0.009336705 0.01852828 0.0147735365
000330 1d 63 e3 3a 14 56 94 bc 79 71 33 bc 85 eb 53 3c
       0.0017348264 -0.018107451 -0.010952347 0.01293457
000340 03 aa 87 3b 95 6e fe 3b 03 20 0d bb b8 da 3d bc
       0.00414014 0.0077646472 -0.0021533973 -0.011587791
000350 d6 09 05 bd 4b 9a d3 3b a3 10 af bc 56 92 e0 bc
       -0.032480083 0.006457602 -0.021370238 -0.027413528
000360 ba c1 2e 3c 4b bc 1b 3b 62 8a 01 bb 36 d6 fe bb
       0.010666305 0.0023763354 -0.001976632 -0.007777001
000370 8f e9 93 ba 18 98 95 ba 18 7b 64 3c 00 1e 2f 3c
       -0.0011284816 -0.0011413125 0.013945363 0.010688305
000380 20 cc 2e ba 5e 03 16 bb 59 2e b2 3c 5d 63 d4 bc
       -0.000666799 -0.002289019 0.021750616 -0.025926286
000390 5b 60 96 3b 2b 46 49 3d ff f3 d7 bc 61 1a 29 bc
       0.004589123 0.049139183 -0.026361464 -0.010321231
0003a0 2d f5 44 bb ac 59 91 bc db 1f a3 bb 00 38 c4 3c
       -0.0030053363 -0.017742954 -0.0049781627 0.023952484
0003b0 8d b9 3d 3b fd 34 fa bc 7a 07 d8 3c 1f ed 31 3d
       0.0028949708 -0.030542845 0.026370753 0.043439027
0003c0 3f 90 83 bb b9 16 a1 3a a9 fa 83 bb 5b 83 4b 3c
       -0.004014998 0.0012290097 -0.0040276838 0.012421454
0003d0 8b 1f da 3c 69 ff 8d bc 2b de 80 3c f3 33 39 3c
       0.026626369 -0.017333703 0.015730938 0.01130389
0003e0 92 35 4b bc 9c de 4f bb c3 22 52 3c f8 34 47 3c
       -0.012402909 -0.003171838 0.012825671 0.012158625
0003f0 43 4b d3 bc a3 49 7f 3c 22 7b ea 3c 6a 4d 57 bc
       -0.025792724 0.015581521 0.028623167 -0.013141016

action_model._continuous_distribution.mu.bias f4 [2]
000000 df fb 8d 3b d0 4f 96 bb
       0.004333004 -0.004587151

exp_avg f4 [128, 6]
000000 09 56 0d 35 28 35 85 b4 e8 d7 a1 34 c8 cf 47 b5
       5.265179e-07 -2.4811857e-07 3.014568e-07 -7.443564e-07
000010 c8 cf 47 b4 00 00 00 00 80 f5 12 3a f5 cb 60 b9
       -1.860891e-07 0.0 0.00056060404 -0.00021438285
000020 a2 a1 0f 39 f8 98 28 ba f8 98 28 b9 00 00 00 00
       0.00013697756 -0.00064314855 -0.00016078714 0.0
000030 e5 30 0f 38 d4 ef 53 b7 01 96 dc 36 d7 f3 1e b8
       3.4139393e-05 -1.2632419e-05 6.5739737e-06 -3.789723e-05
000040 d7 f3 1e b7 00 00 00 00 3f 57 07 38 81 ff 37 b7
       -9.474307e-06 0.0 3.2267762e-05 -1.0967139e-05
000050 40 ed db 35 a1 ff 09 b8 a1 ff 09 b7 00 00 00 00
       1.638582e-06 -3.290142e-05 -8.225355e-06 0.0
000060 d0 9c 5a 34 00 76 03 33 d8 26 ce b4 c0 2e c5 33
       2.035988e-07 3.0608135e-08 -3.8398753e-07 9.182031e-08
000070 c0 2e c5 32 00 00 00 00 d2 ff ad 39 2b e7 06 b9
       2.2955078e-08 0.0 0.00033187732 -0.00012865353
000080 05 93 b5 38 c3 5a ca b9 c3 5a ca b8 00 00 00 00
       8.658137e-05 -0.00038596065 -9.649016e-05 0.0
000090 59 2e 1d b9 d8 b4 6f 38 24 b8 11 b8 a4 c7 33 39
       -0.00014989953 5.7150464e-05 -3.474219e-05 0.00017145142
0000a0 a4 c7 33 38 00 00 00 00 3d c4 1f b9 a7 6a 77 38
       4.2862855e-05 0.0 -0.00015236526 5.8988717e-05
0000b0 6b 81 2f b8 f9 8f 39 39 f9 8f 39 38 00 00 00 00
       -4.184378e-05 0.00017696609 4.4241522e-05 0.0
0000c0 74 3d b8 39 f0 c2 04 b9 a4 3f 55 38 5f 24 c7 b9
       0.00035141 -0.00012661121 5.0842427e-05 -0.00037983336
0000d0 5f 24 c7 b8 00 00 00 00 11 c8 0f b7 91 2c 60 36
       -9.495834e-05 0.0 -8.570046e-06 3.3404542e-06
0000e0 01 40 1d b6 69 21 28 37 69 21 28 36 00 00 00 00
       -2.3432078e-06 1.0021359e-05 2.5053398e-06 0.0
0000f0 b6 e1 8a 39 5f c9 d6 b8 33 da 94 38 07 17 a1 b9
       0.0002648958 -0.000102418235 7.097833e-05 -0.0003072547
000100 07 17 a1 b8 00 00 00 00 fe 94 d7 39 93 9b 21 b9
       -7.6813674e-05 0.0 0.00041119003 -0.00015412112
000110 fd e5 b3 38 5f 69 f2 b9 5f 69 f2 b8 00 00 00 00
       8.578224e-05 -0.00046236344 -0.00011559086 0.0
000120 37 d6 67 b8 38 82 9f 37 b4 a4 7c b6 5c 43 6f 38
       -5.5274195e-05 1.9014915e-05 -3.7646796e-06 5.7044774e-05
000130 5c 43 6f 37 00 00 00 00 71 43 ab b9 04 e5 02 39
       1.4261193e-05 0.0 -0.0003266591 0.00012483081
000140 63 5a a6 b8 87 57 c4 39 87 57 c4 38 00 00 00 00
       -7.932333e-05 0.00037449246 9.3623115e-05 0.0
000150 94 de 42 b8 1a fe 91 37 fb 2d 1b b7 24 fd 5a 38
       -4.6460496e-05 1.7403672e-05 -9.249426e-06 5.2211006e-05
000160 24 fd 5a 37 00 00 00 00 5c 8f e5 38 56 66 2f b8
       1.30527515e-05 0.0 0.00010946274 -4.181856e-05
000170 8d 9e d8 37 bf 8c 03 b9 bf 8c 03 b8 00 00 00 00
       2.5823038e-05 -0.00012545566 -3.1363914e-05 0.0
000180 12 8b 6e b8 3c 1d a5 37 82 ec 99 b6 e2 ab 77 38
       -5.687314e-05 1.9683146e-05 -4.5872885e-06 5.9049467e-05
000190 e2 ab 77 37 00 00 00 00 fd d2 36 b7 d7 cd 82 36
       1.4762367e-05 0.0 -1.089717e-05 3.898265e-06
0001a0 b9 49 be b5 c0 34 44 37 c0 34 44 36 00 00 00 00
       -1.4177559e-06 1.1694792e-05 2.923698e-06 0.0
0001b0 91 fe 75 b7 37 9d bd 36 78 b2 76 b6 e7 35 8e 37
       -1.4662409e-05 5.650941e-06 -3.676074e-06 1.695282e-05
0001c0 e7 35 8e 36 00 00 00 00 2f 1e 0e ba 2d 9d 5a 39
       4.238205e-06 0.0 -0.0005421368 0.00020848653
0001d0 72 00 10 b9 dc f5 23 3a dc f5 23 39 00 00 00 00
       -0.00013733076 0.00062545924 0.00015636481 0.0
0001e0 7e 58 07 b9 cc bc 4e 38 2e fd ff b7 a3 0d 1b 39
       -0.00012907569 4.9290058e-05 -3.0516265e-05 0.00014787032
0001f0 a3 0d 1b 38 00 00 00 00 11 49 10 3a 38 4f 57 b9
       3.696758e-05 0.0 0.0005504052 -0.00020533509
000200 64 c2 e8 38 68 7b 21 ba 68 7b 21 b9 00 00 00 00
       0.0001109883 -0.00061600516 -0.00015400129 0.0
000210 f9 f8 e1 38 95 51 38 b8 c8 2a 23 38 33 3d 0a b9
       0.00010775211 -4.3944998e-05 3.890207e-05 -0.00013183504
000220 33 3d 0a b8 00 00 00 00 7d bf a0 b9 13 27 f3 38
       -3.295876e-05 0.0 -0.00030660248 0.00011594421
000230 ef 80 92 b8 55 5d b6 39 55 5d b6 38 00 00 00 00
       -6.985838e-05 0.00034783283 8.695821e-05 0.0
000240 27 83 1c 3a 9d 24 6b b9 84 48 04 39 70 5b 30 ba
       0.0005970471 -0.00022424986 0.00012615515 -0.00067274924
000250 70 5b 30 b9 00 00 00 00 a6 07 0e 36 e5 20 85 b5
       -0.00016818731 0.0 2.11641e-06 -9.918846e-07
000260 fe 05 b1 35 58 b1 47 b6 58 b1 47 b5 00 00 00 00
       1.3189272e-06 -2.9756538e-06 -7.4391346e-07 0.0
000270 8c 6e ce b8 62 20 23 38 74 b2 f1 b7 8c b0 f4 38
       -9.8434364e-05 3.8892387e-05 -2.8812537e-05 0.00011667711
000280 8c b0 f4 37 00 00 00 00 82 eb 7a b6 ea 14 97 35
       2.9169278e-05 0.0 -3.7389987e-06 1.1256463e-06
000290 f1 ed f6 34 82 9f 62 36 82 9f 62 35 00 00 00 00
       4.5994196e-07 3.376947e-06 8.4423675e-07 0.0
0002a0 0d 2d c9 38 b3 2e 16 b8 3e 8a a5 37 16 46 e1 b8
       9.592818e-05 -3.580628e-05 1.9733907e-05 -0.000107418906
0002b0 16 46 e1 b7 00 00 00 00 b2 38 d7 b6 40 5d 29 36
       -2.6854726e-05 0.0 -6.4140995e-06 2.523724e-06
0002c0 e6 bd 07 b6 d8 0b fe 36 d8 0b fe 35 00 00 00 00
       -2.0227103e-06 7.5711687e-06 1.8927922e-06 0.0
0002d0 0e 69 7d 34 50 f6 00 34 58 9b 52 b5 86 70 c1 34
       2.360068e-07 1.2010537e-07 -7.845715e-07 3.6030923e-07
0002e0 86 70 c1 33 00 00 00 00 c3 5c 91 39 f2 49 e8 b8
       9.007731e-08 0.0 0.00027725668 -0.000110763955
0002f0 46 72 bc 38 7a 37 ae b9 7a 37 ae b8 00 00 00 00
       8.985824e-05 -0.000332292 -8.3073e-05 0.0
000300 4a 23 72 b7 8c bf e4 36 d1 dd 0a b7 98 8f ab 37
       -1.443254e-05 6.8172285e-06 -8.277087e-06 2.0451655e-05
000310 98 8f ab 36 00 00 00 00 a7 27 7e 39 f3 d9 bd b8
       5.1129136e-06 0.0 0.000242381 -9.0528185e-05
000320 58 d8 4e 38 76 63 8e b9 76 63 8e b8 00 00 00 00
       4.9315713e-05 -0.00027158455 -6.789614e-05 0.0
000330 2c cc 46 39 39 f6 8b b8 db f8 a6 37 6a f1 51 b9
       0.00018958811 -6.673899e-05 1.9904624e-05 -0.00020021727
000340 6a f1 51 b8 00 00 00 00 ad ac 85 b8 e0 fb bd 37
       -5.0054317e-05 0.0 -6.3740976e-05 2.2647844e-05
000350 8e df 03 b7 e7 7c 8e 38 e7 7c 8e 37 00 00 00 00
       -7.860259e-06 6.7943525e-05 1.6985881e-05 0.0
000360 74 fa 2e 37 9e c9 86 b6 84 62 27 36 73 2e 4a b7
       1.0429521e-05 -4.0169825e-06 2.4942283e-06 -1.2050953e-05
000370 73 2e 4a b6 00 00 00 00 da ec 66 39 96 5f ac b8
       -3.0127383e-06 0.0 0.00022022743 -8.2194034e-05
000380 a8 80 3c 38 b2 47 81 b9 b2 47 81 b8 00 00 00 00
       4.4942513e-05 -0.00024658215 -6.1645536e-05 0.0
000390 b5 d5 32 b9 f1 7d 8b 38 f9 99 45 b8 e7 3c 51 39
       -0.00017055015 6.651495e-05 -4.711186e-05 0.00019954481
0003a0 e7 3c 51 38 00 00 00 00 74 eb ee b8 3e f9 33 38
       4.9886203e-05 0.0 -0.00011392581 4.290905e-05
0003b0 46 92 d2 b7 f3 fa 06 39 f3 fa 06 38 00 00 00 00
       -2.5102065e-05 0.00012872722 3.2181804e-05 0.0
0003c0 08 a7 d5 b9 80 3d 26 39 a3 6d eb b8 34 5c f9 39
       -0.00040750974 0.00015853904 -0.00011226095 0.00047561678
0003d0 34 5c f9 38 00 00 00 00 e4 45 ac 34 e0 94 e8 b3
       0.000118904194 0.0 3.208835e-07 -1.0830422e-07
0003e0 60 17 b3 b2 b4 6f ae b4 b4 6f ae b3 00 00 00 00
       -2.0848972e-08 -3.24913e-07 -8.122825e-08 0.0
0003f0 b4 66 13 38 d2 76 5d b7 92 2d fc 36 1e 19 26 b8
       3.514318e-05 -1.32002915e-05 7.5154903e-06 -3.9600876e-05

exp_avg_sq f4 [128, 6]
000000 70 8d 05 2f ac 6f 91 2d 73 69 47 2d a2 9d 23 2f
       1.2146528e-10 1.6534184e-11 1.1335255e-11 1.4880766e-10
000010 a2 9d 23 2d 00 00 00 00 02 75 dd 34 9b 66 88 33
       9.300479e-12 0.0 4.1249592e-07 6.351657e-08
000020 d2 31 6e 33 75 73 19 35 75 73 19 33 00 00 00 00
       5.5459004e-08 5.7164954e-07 3.5728096e-08 0.0
000030 74 37 da 30 2c ba 79 2f 37 51 0c 2f b9 78 0c 31
       1.5877348e-09 2.271256e-10 1.2761779e-10 2.0441304e-09
000040 b9 78 0c 2f 00 00 00 00 e0 d9 ac 31 42 b5 69 30
       1.2775815e-10 0.0 5.0306284e-09 8.502249e-10
000050 d5 65 79 30 f4 75 03 32 f4 75 03 30 00 00 00 00
       9.0730384e-10 7.652023e-09 4.7825144e-10 0.0
000060 a9 f2 97 2e d1 cf 99 2d 44 65 66 2e c9 09 2d 2f
       6.90979e-11 1.7486375e-11 5.2385887e-11 1.5737735e-10
000070 c9 09 2d 2d 00 00 00 00 59 0b 01 34 e2 ea bd 32
       9.836084e-12 0.0 1.201819e-07 2.2109308e-08
000080 8b 94 28 33 41 a8 55 34 41 a8 55 32 00 00 00 00
       3.9250647e-08 1.9898381e-07 1.2436488e-08 0.0
000090 04 aa bb 32 6f 85 aa 31 63 2d 59 32 20 d6 3f 33
       2.184698e-08 4.962821e-09 1.2641382e-08 4.46654e-08
0000a0 20 d6 3f 31 00 00 00 00 16 d4 86 33 ab bd 0c 32
       2.7915874e-09 0.0 6.2784395e-08 8.192198e-09
0000b0 6a 64 ff 30 5b 55 9e 33 5b 55 9e 31 00 00 00 00
       1.8582231e-09 7.3729744e-08 4.608109e-09 0.0
0000c0 f0 a5 96 34 0a 07 2f 33 e4 4b bd 32 fa e7 c4 34
       2.8060413e-07 4.0751765e-08 2.2037007e-08 3.667663e-07
0000d0 fa e7 c4 32 00 00 00 00 b4 c1 61 2e 98 3e 28 2d
       2.2922894e-08 0.0 5.133112e-11 9.563593e-12
0000e0 fb 6e 67 2d 6c 46 bd 2e 6c 46 bd 2c 00 00 00 00
       1.3155472e-11 8.6072344e-11 5.3795215e-12 0.0
0000f0 45 76 f9 33 88 e1 85 32 14 1e b8 31 be 9d 16 34
       1.1616479e-07 1.5585798e-08 5.3585243e-09 1.4027225e-07
000100 be 9d 16 32 00 00 00 00 9d 7f a6 34 9d c8 2f 33
       8.767016e-09 0.0 3.101276e-07 4.092782e-08
000110 70 6d 13 32 b1 c1 c5 34 b1 c1 c5 32 00 00 00 00
       8.581409e-09 3.6835038e-07 2.3021899e-08 0.0
000120 a4 f7 d5 32 a2 02 77 31 7c cd 0b 31 6f f1 0a 33
       2.4909077e-08 3.5944727e-09 2.0343967e-09 3.235021e-08
000130 6f f1 0a 31 00 00 00 00 ba d9 b8 34 19 d5 48 33
       2.0218882e-09 0.0 3.4431088e-07 4.675994e-08
000140 36 29 ba 32 b5 ef e1 34 b5 ef e1 32 00 00 00 00
       2.167199e-08 4.2083926e-07 2.6302454e-08 0.0
000150 df 6b 88 31 08 4a 30 30 14 ee 23 30 4c 53 c6 31
       3.9703845e-09 6.413363e-10 5.9637384e-10 5.772028e-09
000160 4c 53 c6 2f 00 00 00 00 60 03 8d 32 c0 06 13 31
       3.6075176e-10 0.0 1.6416095e-08 2.1395152e-09
000170 f5 8b 00 30 95 67 a5 32 95 67 a5 30 00 00 00 00
       4.676502e-10 1.9255632e-08 1.203477e-09 0.0
000180 63 a0 2e 32 20 41 f3 30 07 f5 15 31 a8 d4 88 32
       1.0164601e-08 1.7699087e-09 2.1821636e-09 1.5929189e-08
000190 a8 d4 88 30 00 00 00 00 30 98 34 30 86 05 b9 2e
       9.955743e-10 0.0 6.569989e-10 8.413807e-11
0001a0 7c 79 3e 2d 35 26 50 30 35 26 50 2e 00 00 00 00
       1.08272245e-11 7.5724255e-10 4.732766e-11 0.0
0001b0 ed a3 0b 30 92 9b a8 2e 53 27 b0 2e 04 af 3d 30
       5.080086e-10 7.66739e-11 8.010539e-11 6.900651e-10
0001c0 04 af 3d 2e 00 00 00 00 99 82 11 35 34 1d a4 33
       4.312907e-11 0.0 5.4206754e-07 7.642157e-08
0001d0 c1 d2 40 33 d9 a0 38 35 d9 a0 38 33 00 00 00 00
       4.4895163e-08 6.8779406e-07 4.298713e-08 0.0
0001e0 d7 57 bf 32 ea 8d 99 31 5b 20 1c 32 a9 bf 2c 33
       2.2275271e-08 4.46902e-09 9.087752e-09 4.0221185e-08
0001f0 a9 bf 2c 31 00 00 00 00 7a 47 0a 35 6b 3e a8 33
       2.513824e-09 0.0 5.151302e-07 7.8344634e-08
000200 a9 c8 86 33 3a 46 3d 35 3a 46 3d 33 00 00 00 00
       6.276361e-08 7.051018e-07 4.4068862e-08 0.0
000210 2a 96 34 33 d6 e7 cd 31 1e 5a 82 31 cc a4 67 33
       4.204609e-08 5.992642e-09 3.793743e-09 5.393376e-08
000220 cc a4 67 31 00 00 00 00 f3 8c 82 34 f9 1b 0b 33
       3.37086e-09 0.0 2.431694e-07 3.23889e-08
000230 33 7a 13 32 73 7f 9c 34 73 7f 9c 32 00 00 00 00
       8.584311e-09 2.9149996e-07 1.8218747e-08 0.0
000240 e9 06 e9 34 bb 47 98 33 97 46 a3 33 b2 50 2b 35
       4.340466e-07 7.091099e-08 7.603119e-08 6.381989e-07
000250 b2 50 2b 33 00 00 00 00 e9 0e 41 2e bc 8f 02 2d
       3.9887432e-08 0.0 4.3896362e-11 7.42156e-12
000260 f8 e5 09 2d bb e1 92 2e bb e1 92 2c 00 00 00 00
       7.838612e-12 6.679409e-11 4.1746307e-12 0.0
000270 05 fd 2c 32 16 4f f3 30 ca 34 4a 31 7e dc 88 32
       1.0069248e-08 1.7703055e-09 2.9424876e-09 1.5932752e-08
000280 7e dc 88 30 00 00 00 00 1d af 11 30 6b 6a 97 2e
       9.95797e-10 0.0 5.2999544e-10 6.8855886e-11
000290 ad 14 29 2d c3 57 2a 30 c3 57 2a 2e 00 00 00 00
       9.611129e-12 6.1970357e-10 3.8731473e-11 0.0
0002a0 80 78 2a 32 b4 1e f9 30 5a 56 32 31 42 21 8c 32
       9.922701e-09 1.8125861e-09 2.5951494e-09 1.6313269e-08
0002b0 42 21 8c 30 00 00 00 00 bc 48 28 31 c7 35 aa 2f
       1.0195793e-09 0.0 2.4488562e-09 3.096103e-10
0002c0 b7 20 e0 2e 79 7c 3f 31 79 7c 3f 2f 00 00 00 00
       1.0192152e-10 2.7864913e-09 1.741557e-10 0.0
0002d0 47 23 5e 2e 73 92 30 2d 64 a4 ac 2d c0 a4 c6 2e
       5.050829e-11 1.003696e-11 1.962714e-11 9.033263e-11
0002e0 c0 a4 c6 2c 00 00 00 00 bf d9 3b 34 81 c3 d3 32
       5.6457894e-12 0.0 1.7494948e-07 2.4652538e-08
0002f0 29 59 82 32 e3 3b 6e 34 e3 3b 6e 32 00 00 00 00
       1.5174537e-08 2.2187264e-07 1.386704e-08 0.0
000300 e3 07 ad 31 bf f3 bb 30 c8 83 94 31 3e 72 53 32
       5.0358593e-09 1.3675318e-09 4.3223487e-09 1.2307792e-08
000310 3e 72 53 30 00 00 00 00 0b 15 fa 33 27 1c 87 32
       7.69237e-10 0.0 1.164536e-07 1.572887e-08
000320 f6 5e af 31 b1 ff 17 34 b1 ff 17 32 00 00 00 00
       5.103966e-09 1.4155991e-07 8.847494e-09 0.0
000330 27 0e 92 33 e1 cf 56 32 5f 8b 95 32 df a9 f1 33
       6.801229e-08 1.2503706e-08 1.7409262e-08 1.12533364e-07
000340 df a9 f1 31 00 00 00 00 1c 97 1b 32 98 9a b9 30
       7.0333352e-09 0.0 9.056546e-09 1.350446e-09
000350 71 88 4f 30 f3 cd 50 32 f3 cd 50 30 00 00 00 00
       7.5500056e-10 1.2154021e-08 7.596263e-10 0.0
000360 0c f5 19 2f db 56 0d 2e 89 b8 b2 2e b8 01 9f 2f
       1.4002327e-10 3.213683e-11 8.127283e-11 2.8923153e-10
000370 b8 01 9f 2d 00 00 00 00 1f 02 3b 34 3b f6 ba 32
       1.807697e-11 0.0 1.7416504e-07 2.1765223e-08
000380 29 4c 07 31 0a 55 52 34 0a 55 52 32 00 00 00 00
       1.9688378e-09 1.9588711e-07 1.2242944e-08 0.0
000390 92 bc 19 34 ec 9b a5 32 44 0c 22 32 61 4f 3a 34
       1.4317837e-07 1.9279433e-08 9.43243e-09 1.7351478e-07
0003a0 61 4f 3a 32 00 00 00 00 8e 6b ea 32 91 07 70 31
       1.0844674e-08 0.0 2.7290096e-08 3.4928898e-09
0003b0 62 74 05 30 44 04 07 33 44 04 07 31 00 00 00 00
       4.855051e-10 3.1436016e-08 1.964751e-09 0.0
0003c0 b8 44 69 34 33 c9 0d 33 c3 28 e2 32 56 82 9f 34
       2.1724816e-07 3.301211e-08 2.6328399e-08 2.971089e-07
0003d0 56 82 9f 32 00 00 00 00 ce 81 45 2d e5 8c 23 2c
       1.8569306e-08 0.0 1.1226976e-11 2.3241905e-12
0003e0 bf 0e c9 2c 85 fe b7 2d 85 fe b7 2b 00 00 00 00
       5.7144007e-12 2.091772e-11 1.3073575e-12 0.0
0003f0 20 93 9c 30 3e 36 43 2f c6 a3 0a 2f 09 9d db 30
       1.1392309e-09 1.7754417e-10 1.2609211e-10 1.5978979e-09

exp_avg f4 [128]
000000 25 35 85 b4 fa cb 60 b9 d0 ef 53 b7 7c ff 37 b7
       -2.4811848e-07 -0.00021438292 -1.2632416e-05 -1.0967135e-05
000010 a0 75 03 33 2c e7 06 b9 de b4 6f 38 a4 6a 77 38
       3.0607794e-08 -0.00012865354 5.7150486e-05 5.8988706e-05
000020 eb c2 04 b9 91 2c 60 36 5e c9 d6 b8 98 9b 21 b9
       -0.00012661114 3.3404542e-06 -0.00010241823 -0.0001541212
000030 38 82 9f 37 07 e5 02 39 19 fe 91 37 58 66 2f b8
       1.9014915e-05 0.00012483085 1.740367e-05 -4.1818566e-05
000040 3d 1d a5 37 d3 cd 82 36 34 9d bd 36 26 9d 5a 39
       1.9683148e-05 3.898263e-06 5.65094e-06 0.00020848642
000050 d6 bc 4e 38 38 4f 57 b9 94 51 38 b8 1b 27 f3 38
       4.9290094e-05 -0.00020533509 -4.3944994e-05 0.00011594427
000060 9a 24 6b b9 ec 20 85 b5 61 20 23 38 f6 14 97 35
       -0.00022424982 -9.918854e-07 3.8892384e-05 1.1256477e-06
000070 b8 2e 16 b8 3a 5d 29 36 ad f5 00 34 f0 49 e8 b8
       -3.5806297e-05 2.5237227e-06 1.2010305e-07 -0.00011076394
000080 72 bf e4 36 f1 d9 bd b8 3e f6 8b b8 e0 fb bd 37
       6.8172167e-06 -9.052817e-05 -6.673903e-05 2.2647844e-05
000090 9f c9 86 b6 99 5f ac b8 f3 7d 8b 38 43 f9 33 38
       -4.016983e-06 -8.2194056e-05 6.6514964e-05 4.290907e-05
0000a0 75 3d 26 39 fc 94 e8 b3 ce 76 5d b7 ee ff 55 36
       0.00015853888 -1.0830442e-07 -1.3200288e-05 3.1888444e-06
0000b0 69 43 3c b8 8e c2 de 37 f9 3e de b8 d9 ff 1c b6
       -4.4885473e-05 2.6555059e-05 -0.000105975145 -2.3394734e-06
0000c0 07 15 a8 38 33 e8 a9 b8 02 1e 83 b9 2c eb f6 36
       8.014781e-05 -8.1017984e-05 -0.00025008625 7.358749e-06
0000d0 f7 1a 36 b8 d6 04 0f 38 b0 a5 28 36 6b 4c 15 38
       -4.3417294e-05 3.409836e-05 2.5130394e-06 3.5595538e-05
0000e0 ba 2a 5a 37 22 be 5d b7 29 a0 a6 b7 22 db 08 b9
       1.3003761e-05 -1.3216895e-05 -1.9863322e-05 -0.00013051604
0000f0 a0 23 e8 36 ac 30 bc b5 45 04 11 b7 75 5c 6d b7
       6.918286e-06 -1.4021257e-06 -8.643668e-06 -1.4147828e-05
000100 11 a0 83 b8 3c ff 87 b8 5a bc 71 b7 f8 d1 4c b4
       -6.2763815e-05 -6.484843e-05 -1.4408573e-05 -1.9075367e-07
000110 66 af 04 b7 49 69 c7 36 9c 17 1f b9 85 1f ad 36
       -7.908651e-06 5.942919e-06 -0.00015172217 5.159471e-06
000120 dd 1d 29 38 7e f8 b1 b7 69 39 9a 36 7f cd 8d b4
       4.0320552e-05 -2.1215757e-05 4.596241e-06 -2.6412815e-07
000130 a0 ba 92 b9 dc dc 2a b8 3e de 84 36 03 40 7f b8
       -0.00027986336 -4.073685e-05 3.959779e-06 -6.0856353e-05
000140 82 c1 06 b7 7b 0f 22 38 81 49 29 38 49 31 e7 b7
       -8.032077e-06 3.8638227e-05 4.0361196e-05 -2.7560296e-05
000150 ef d1 3e b8 37 f9 11 b8 78 73 ae 34 42 eb 1e b8
       -4.5495046e-05 -3.4802793e-05 3.249404e-07 -3.7889236e-05
000160 82 fa 06 38 3d 01 10 38 1f 97 7f b8 6a 45 6e b7
       3.2181393e-05 3.433343e-05 -6.093748e-05 -1.4202067e-05
000170 c2 82 b8 35 9d c0 5a b8 58 e9 f3 b5 56 c8 17 37
       1.3747124e-06 -5.2154635e-05 -1.8172823e-06 9.046946e-06
000180 aa 9f 56 b8 c3 ed b1 37 59 8a 6d b9 a3 45 12 b6
       -5.1170275e-05 2.121076e-05 -0.0002265362 -2.179623e-06
000190 a4 05 80 37 a2 f3 87 37 d4 f7 83 b8 63 7c 48 38
       1.5261416e-05 1.6206704e-05 -6.292728e-05 4.779956e-05
0001a0 d8 2e 83 b8 31 42 7f b9 53 5b 14 b7 2b 80 89 b7
       -6.255292e-05 -0.00024343353 -8.8427505e-06 -1.6391356e-05
0001b0 09 2a 56 37 f2 f2 8e b7 00 68 ce 37 fc 6b 51 b7
       1.2765181e-05 -1.704085e-05 2.4605542e-05 -1.2482513e-05
0001c0 ee 72 42 b9 65 78 8b b8 09 37 64 39 a0 0f bf b8
       -0.00018544096 -6.650462e-05 0.00021764277 -9.1105e-05
0001d0 d3 85 62 37 52 00 16 39 9c 34 ff 36 e1 9e 91 37
       1.3501808e-05 0.00014305234 7.6057167e-06 1.735933e-05
0001e0 99 ba ff 34 86 a6 6a 37 0d 0e fa b6 4c bb 38 b8
       4.763322e-07 1.3986259e-05 -7.4522163e-06 -4.4043452e-05
0001f0 b7 6f f7 35 07 34 16 38 7f 32 2d 37 a2 6f 8f 36
       1.8435447e-06 3.581124e-05 1.0323361e-05 4.274728e-06
