results/MoveToTarget/MoveToGoal/MoveToGoal-73612.onnx (onnx, 72461 bytes, 7 tensors)

action_model._continuous_distribution.log_sigma f4 [1, 2]
0	0xbc7d6261	-0.01546535
1	0xbc35ac7a	-0.011088485

action_model._continuous_distribution.mu.bias f4 [2]
0	0x3b8dfbdf	0.004333004
1	0xbb964fd0	-0.004587151

action_model._continuous_distribution.mu.weight f4 [2, 128]
0	0x3b6c1415	0.0036022712
1	0xbc8a181c	-0.0168572
2	0x3c80b0c3	0.015709287
3	0x3c1a164e	0.009404732
4	0xbcb1aa5e	-0.021687683
5	0x3c31c8fb	0.01085114
6	0x3b2366f3	0.0024933189
7	0x3a5ad544	0.0008347819
8	0xbbca851d	-0.006180419
9	0x3c43cc08	0.0119505
10	0x3cb219d9	0.02174084
11	0xbbfd2aae	-0.007726035
12	0xbc422ba1	-0.011851222
13	0xbc73a110	-0.014869943
14	0x3cb6fba2	0.022336785
15	0xbbf6c672	-0.0075309807
16	0xbc888fcf	-0.016670136
17	0xbba9952f	-0.005175255
18	0xbcc46fd8	-0.023979113
19	0xbbd80e74	-0.00659352
20	0x3c0c8b32	0.008578109
21	0xbc5472b7	-0.012966803
22	0x3ca27ec9	0.019835846
23	0x3d321d34	0.04348488
24	0x3c9ba2f7	0.018998606
25	0x3c053999	0.008131408
26	0xbc1b7395	-0.009488006
27	0xbc807fe0	-0.015685976
28	0xbd0fd365	-0.03511371
29	0xbc28e48f	-0.010308399
30	0xbc5c7364	-0.013455246
31	0x3a2f8274	0.0006695159
32	0x3c813a3c	0.015774839
33	0x39b49ff2	0.00034451444
34	0xbc4178ac	-0.011808556
35	0x39aa58ee	0.00032491185
36	0xbc82aecb	-0.015952488
37	0x3aaef384	0.001334772
38	0x3b692f95	0.003558134
39	0xbbf908e3	-0.0075999363
40	0x3c91f7f5	0.01781843
41	0x3d15b4be	0.036549322
42	0xb9c9e6b7	-0.00038509603
43	0x3c508441	0.012726844
44	0x3a0c95ce	0.0005362899
45	0x3b2644b9	0.0025370552
46	0xbc4b4d38	-0.012408547
47	0x3c595be5	0.013266538
48	0xbc027cf3	-0.0079643605
49	0x3c02b00e	0.007976545
50	0x3cde9d2e	0.027174558
51	0x3b4d44b0	0.0031321459
52	0x3c37e398	0.011223696
53	0x3c8fcffc	0.01755523
54	0xbc903696	-0.017604154
55	0xbcf77287	-0.030205978
56	0x3bb7c3de	0.005608066
57	0xbc545ecb	-0.0129620535
58	0xbc435286	-0.011921531
59	0xbb3434c0	-0.0027497262
60	0xbc58e57b	-0.013238306
61	0x3ca34576	0.019930582
62	0x3cc3cd14	0.0239015
63	0x3bb3cb20	0.005486861
64	0xbba7ade2	-0.005117164
65	0x3adc13ae	0.0016790533
66	0x3a2d4f34	0.00066112285
67	0x3c71cff2	0.014759051
68	0x392882e6	0.00016070492
69	0x3c7bb557	0.015363059
70	0xbcd4ee95	-0.025992671
71	0xbbed03bd	-0.0072331117
72	0xbc5fa63b	-0.013650472
73	0x3bc9bb9b	0.0061563975
74	0x3b90a312	0.0044139707
75	0x3cd8860b	0.026431104
76	0xba6ddd06	-0.00090737676
77	0x39ca9d8f	0.00038645833
78	0xbb82aadf	-0.0039876546
79	0x398c71c0	0.0002678763
80	0xbc919467	-0.017770959
81	0xbcf200b3	-0.029541349
82	0xbcf5674d	-0.029956484
83	0x3c87fe50	0.016600758
84	0x3c8ec627	0.01742847
85	0xbcb506c6	-0.022097956
86	0xbbe07140	-0.006849438
87	0x3bdf974f	0.0068234573
88	0x3c9b97c8	0.018993273
89	0xbc2ddeb5	-0.0106121795
90	0xbabe277b	-0.0014507616
91	0xbc44158e	-0.01196803
92	0x3b42afda	0.0029706866
93	0xbb692007	-0.0035572068
94	0xbc68e7c3	-0.014215413
95	0xbb19cfdd	-0.0023469843
96	0xbc07e31b	-0.008293892
97	0xbbc2df6e	-0.005947045
98	0x3d17ad6c	0.037030622
99	0x3c3be8d2	0.011469083
100	0xbc556126	-0.01302365
101	0xbbb77239	-0.005598333
102	0x3bfd510d	0.0077306093
103	0xbbffd904	-0.0078078527
104	0x3b37ddc4	0.0028055767
105	0xbb73cea8	-0.0037202034
106	0x3b66bf16	0.003520911
107	0x3bcce299	0.0062525985
108	0xbc2642ef	-0.010147794
109	0x3aae2781	0.001328692
110	0xbb935925	-0.004496711
111	0x3b95478d	0.0045556487
112	0x3bb632b7	0.005560245
113	0x3d293dc0	0.041318655
114	0xbbc138d2	-0.005896666
115	0xbcd9c5cd	-0.026583577
116	0xbc1536f9	-0.009107345
117	0xbb403882	-0.0029330556
118	0xbb9d1de1	-0.0047948216
119	0x3c950485	0.018190632
120	0xbc92bd30	-0.017912477
121	0x3c2b063c	0.010438498
122	0x3c6239d7	0.013807735
123	0xbaf2a228	-0.0018511461
124	0x3b809365	0.003923821
125	0x3b172240	0.0023061186
126	0xbd5349e7	-0.05158415
127	0xbbef186c	-0.0072966125
128	0x3c689099	0.014194631
129	0x3b855dbc	0.004070012
130	0xbc723485	-0.014783029
131	0xbc542bfe	-0.012949942
132	0x3af1d9e2	0.0018451775
133	0x3bb44481	0.0055013304
134	0xbbebedb6	-0.007199968
135	0xbc63847e	-0.013886569
136	0xbc9306af	-0.017947523
137	0xbc3cfeac	-0.011535328
138	0xbc9760e5	-0.01847882
139	0x3a3ca4ff	0.0007196217
140	0xbc3b8359	-0.01144489
141	0x3c0389bf	0.008028447
142	0x3c17dbfa	0.009268755
143	0x3d0ae939	0.033913825
144	0x3c9c93bc	0.019113414
145	0xbc713a9d	-0.014723447
146	0x3c288d4f	0.010287597
147	0x3ad017d7	0.0015876245
148	0x3b91155d	0.0044275955
149	0x3c84bdea	0.01620384
150	0xbc61b159	-0.013775193
151	0xbd06c490	-0.0329023
152	0x3c6dea4a	0.014521191
153	0x3bae97b3	0.0053281425
154	0x3d2a540d	0.041584063
155	0xbd261939	-0.040551398
156	0x3c53bf77	0.012924067
157	0x3c85ccaf	0.016332952
158	0xbc1e3060	-0.009655088
159	0xbce775b8	-0.028254375
160	0xbd1e9e1d	-0.038725007
161	0x3ca9cf4c	0.02072873
162	0x3c9cd68d	0.019145275
163	0xbc491a6f	-0.012274369
164	0xbb1de731	-0.00240941
165	0x3c05740c	0.0081453435
166	0x3c2795de	0.010228602
167	0x39bfca1d	0.00036580945
168	0xbad4fefa	-0.0016250305
169	0x3c2bc232	0.0104833115
170	0xbc5da3a7	-0.013527787
171	0xbc7e7500	-0.015530825
172	0x3c7f561d	0.015584496
173	0xbc1387a2	-0.009004505
174	0x3c053cc2	0.008132162
175	0x3c11400f	0.00886537
176	0xbd08770d	-0.03331666
177	0xb9cf2e64	-0.0003951668
178	0xbc26197d	-0.010137913
179	0x3c615100	0.013752222
180	0x3cf0d592	0.029398713
181	0xbc4f9bd0	-0.012671426
182	0xbca5759d	-0.020197684
183	0xbc287636	-0.01028209
184	0x3ab972e1	0.0014148616
185	0x3c296a2f	0.010340258
186	0x3ce7e75d	0.028308565
187	0x3cb17e90	0.021666795
188	0xbc8309ea	-0.015995938
189	0x3c6858e7	0.014181352
190	0x3a12bbdd	0.0005597452
191	0x3c4b23ca	0.0123986695
192	0x3c53223c	0.01288658
193	0xbb4f35fe	-0.0031617875
194	0x3b069b1b	0.0020539227
195	0xbc35a282	-0.011086108
196	0xbb9428bb	-0.004521457
197	0xbaf2a31e	-0.0018511747
198	0x3b6b2c8e	0.003588471
199	0xbc09d09d	-0.008411554
200	0x3cb3a5eb	0.021929702
201	0x3c18f8fb	0.009336705
202	0x3c97c89f	0.01852828
203	0x3c720cb4	0.0147735365
204	0x3ae3631d	0.0017348264
205	0xbc945614	-0.018107451
206	0xbc337179	-0.010952347
207	0x3c53eb85	0.01293457
208	0x3b87aa03	0.00414014
209	0x3bfe6e95	0.0077646472
210	0xbb0d2003	-0.0021533973
211	0xbc3ddab8	-0.011587791
212	0xbd0509d6	-0.032480083
213	0x3bd39a4b	0.006457602
214	0xbcaf10a3	-0.021370238
215	0xbce09256	-0.027413528
216	0x3c2ec1ba	0.010666305
217	0x3b1bbc4b	0.0023763354
218	0xbb018a62	-0.001976632
219	0xbbfed636	-0.007777001
220	0xba93e98f	-0.0011284816
221	0xba959818	-0.0011413125
222	0x3c647b18	0.013945363
223	0x3c2f1e00	0.010688305
224	0xba2ecc20	-0.000666799
225	0xbb16035e	-0.002289019
226	0x3cb22e59	0.021750616
227	0xbcd4635d	-0.025926286
228	0x3b96605b	0.004589123
229	0x3d49462b	0.049139183
230	0xbcd7f3ff	-0.026361464
231	0xbc291a61	-0.010321231
232	0xbb44f52d	-0.0030053363
233	0xbc9159ac	-0.017742954
234	0xbba31fdb	-0.0049781627
235	0x3cc43800	0.023952484
236	0x3b3db98d	0.0028949708
237	0xbcfa34fd	-0.030542845
238	0x3cd8077a	0.026370753
239	0x3d31ed1f	0.043439027
240	0xbb83903f	-0.004014998
241	0x3aa116b9	0.0012290097
242	0xbb83faa9	-0.0040276838
243	0x3c4b835b	0.012421454
244	0x3cda1f8b	0.026626369
245	0xbc8dff69	-0.017333703
246	0x3c80de2b	0.015730938
247	0x3c3933f3	0.01130389
248	0xbc4b3592	-0.012402909
249	0xbb4fde9c	-0.003171838
250	0x3c5222c3	0.012825671
251	0x3c4734f8	0.012158625
252	0xbcd34b43	-0.025792724
253	0x3c7f49a3	0.015581521
254	0x3cea7b22	0.028623167
255	0xbc574d6a	-0.013141016

network_body._body_endoder.seq_layers.0.bias f4 [128]
0	0x3bbf6734	0.00584116
1	0x3b6f0c51	0.0036475847
2	0x3bc26a2f	0.005933068
3	0x3b803090	0.003912039
4	0x3b7fa533	0.0039008379
5	0x3b782e49	0.0037869385
6	0xbb9c3191	-0.004766651
7	0xbbb31757	-0.005465429
8	0x3b6d56bc	0.0036215028
9	0xbbe39523	-0.0069452687
10	0x3b8c7195	0.004286001
11	0x3b99ea9f	0.0046971585
12	0xbb5a9041	-0.0033350142
13	0xbba496eb	-0.0050228736
14	0xbb9cf5a6	-0.0047900258
15	0x3b6c66a7	0.0036071928
16	0xba83620d	-0.0010023728
17	0xbb9a0d09	-0.004701261
18	0xbbb354c3	-0.005472751
19	0xbb998869	-0.004685451
20	0xbb78f405	-0.0037987244
21	0x3b72f973	0.0037074953
22	0xbb8d584b	-0.004313504
23	0xbba09616	-0.004900704
24	0x3b4b728f	0.0031043624
25	0xb9e756d4	-0.00044124445
26	0xbbb72d72	-0.0055901343
27	0xbbcc0035	-0.0062256106
28	0x3ad16092	0.0015974215
29	0xbb7783e4	-0.0037767822
30	0xbbb81bb5	-0.0056185373
31	0x3b8ed03e	0.0043583205
32	0xbad1bf48	-0.0016002441
33	0x3b86d48f	0.0041146944
34	0xb8a3b088	-7.805327e-05
35	0xbb6b8772	-0.0035938886
36	0x3ba16848	0.0049257614
37	0x3b981659	0.004641336
38	0xbbaf0284	-0.005340876
39	0xbb95fe57	-0.004577439
40	0xbb8b6941	-0.0042544906
41	0x3b0ba45a	0.0021307678
42	0x3b5d6b3b	0.0033785838
43	0xbbb1557a	-0.005411801
44	0x3b7def18	0.0038747247
45	0xbbcd55fe	-0.0062663546
46	0x3b7e53f7	0.0038807371
47	0x3bd58b44	0.006516846
48	0xbb926b51	-0.0044683595
49	0x3b423555	0.002963384
50	0x3b953178	0.0045530163
51	0x3b4b5d73	0.0031031042
52	0xbb49d012	-0.0030794186
53	0xbbbf23ae	-0.005833111
54	0xbbec3a56	-0.0072091026
55	0xbb8e3ab3	-0.0043404936
56	0xbba7c974	-0.0051204506
57	0x3b780181	0.0037842693
58	0x3ba53d45	0.0050427043
59	0x3b21989a	0.0024657608
60	0xbab1daf7	-0.0013569285
61	0x3b43fa10	0.0029903688
62	0x3b8d855c	0.004318876
63	0x3b054ebd	0.002034112
64	0x39ce7a37	0.0003938244
65	0x3b8b8d6d	0.0042588026
66	0x3b8ac12f	0.004234455
67	0xbaefe54d	-0.001830259
68	0xbba8cc59	-0.0051513133
69	0xbb9a2bc6	-0.004704925
70	0x3b91989a	0.0044432404
71	0xbbb9e5c9	-0.0056731445
72	0xbb759fd9	-0.003747931
73	0x3b20328a	0.0024444186
74	0xbba36503	-0.004986407
75	0xbb8c1a2c	-0.004275581
76	0x3b803e4a	0.0039136754
77	0x3b7924f6	0.0038016415
78	0xbbab7c5d	-0.005233331
79	0x3babdd8f	0.0052449177
80	0x3b91fa4c	0.0044548865
81	0xbb8a9465	-0.004229116
82	0xbb830dab	-0.003999432
83	0x3ac4d8bd	0.0015018206
84	0x3baa3214	0.005193958
85	0x3b921e91	0.00445921
86	0xbbb28dc0	-0.005449027
87	0x3b0d63ab	0.00215743
88	0xbba1878a	-0.0049294876
89	0xbb826b2e	-0.003980062
90	0x3b51e59a	0.0032027722
91	0x3b65bd64	0.0035055513
92	0xba399a05	-0.00070801406
93	0x3b04d5db	0.002026907
94	0x3b991ebe	0.004672854
95	0xbbadab98	-0.0052999966
96	0x3b6bf3de	0.003600351
97	0xbb977fa9	-0.0046233726
98	0x3b82db3b	0.0039934195
99	0x3b8ee3df	0.0043606604
100	0xbb85f238	-0.0040877126
101	0xbb90e3c4	-0.004421683
102	0x3b81cd5d	0.003961249
103	0xbb66b0a0	-0.0035200492
104	0xb9c98939	-0.00038439946
105	0x3b839143	0.0040151193
106	0x3b9088b8	0.0044108294
107	0x3af4c0e8	0.0018673213
108	0xbb303e62	-0.0026892652
109	0x3b64ac6c	0.003489281
110	0xbaf8825c	-0.0018959749
111	0xbb35ebfb	-0.0027759064
112	0x3b744377	0.0037271657
113	0xb9c3a824	-0.00037318573
114	0xbba27643	-0.0049579456
115	0x3b3b83a1	0.0028612392
116	0xbb9a75f2	-0.004713767
117	0xbb99938a	-0.0046867775
118	0xbb9b8c02	-0.004746915
119	0xbbff7636	-0.0077960743
120	0x3bfd6036	0.0077324165
121	0xbba0d91a	-0.004908693
122	0x3b875af9	0.004130718
123	0xbbd69463	-0.006548451
124	0xbb9c4925	-0.0047694617
125	0xbad2b2d3	-0.0016075022
126	0xbaa492d2	-0.0012555963
127	0xbba13860	-0.0049200505

network_body._body_endoder.seq_layers.0.weight f4 [128, 6]
0	0x3f22a7c9	0.6353727
1	0x3e9c3bf3	0.30514488
2	0x3f427aa6	0.75968397
3	0x3e6263c3	0.22108369
4	0xbde5c7df	-0.11219763
5	0xbf17ea1d	-0.59341604
6	0xbeeeb608	-0.46623254
7	0x3f11f370	0.5701208
8	0xbda08552	-0.07837929
9	0x3f0beea7	0.5466103
10	0xbe8160ee	-0.25269264
11	0x3f06eec3	0.5270807
12	0x3ee0cf6b	0.43908247
13	0xbdce4cc2	-0.10073234
14	0xbeba1748	-0.36345887
15	0xbed0dbb6	-0.40792626
16	0x3e2270d8	0.15863359
17	0x3ce6aa16	0.028157275
18	0x3e9e30e9	0.3089669
19	0xbd9d3b4a	-0.07677324
20	0x3de7c9e9	0.11317808
21	0x3eb49fe8	0.3527825
22	0xbf3fa558	-0.7486167
23	0xbf07cdd3	-0.5304844
24	0x3ddb6937	0.107134275
25	0xbea01595	-0.31266466
26	0x3e4e6cf4	0.2015875
27	0xbe910a96	-0.2832839
28	0x3e1cf9cc	0.15329665
29	0x3e507f2d	0.20361014
30	0xbf77cd18	-0.96797323
31	0xbe6a7985	-0.22897919
32	0x3e8be31d	0.2732171
33	0x3f3b634a	0.7319838
34	0x3eec1729	0.4611142
35	0x3c8623e9	0.016374545
36	0x3ddb2c10	0.10701764
37	0x3e801a73	0.2502018
38	0xbf0ce7a2	-0.55040944
39	0xbe43a699	-0.1910652
40	0xbd9ccf6d	-0.07656751
41	0x3f387643	0.72055453
42	0xbeeaebb4	-0.45882952
43	0xbf51df23	-0.81981105
44	0x3d55855d	0.05212914
45	0x3e89e7b6	0.26934594
46	0x3dd675e1	0.10471702
47	0xbbc921ff	-0.006138086
48	0xbeb49978	-0.35273337
49	0xbe39457e	-0.18092915
50	0x3d678158	0.056519836
51	0xbe40efd3	-0.18841486
52	0x3e8e9c14	0.27853453
53	0xbe55e76b	-0.2088906
54	0x3dc82fe3	0.09774759
55	0x3ee41943	0.44550523
56	0x3f3e7ab4	0.7440598
57	0xbee33f70	-0.44384336
58	0xbebe7c67	-0.37204286
59	0x3f066465	0.5249694
60	0xbf1fe835	-0.62463695
61	0xbec6901a	-0.38781816
62	0xbdf38f73	-0.11892595
63	0xbeb8adb9	-0.3607004
64	0x3dfd1d7c	0.12359139
65	0xbe32e0fa	-0.17468634
66	0xbf1a21fb	-0.602081
67	0xbf017beb	-0.5057971
68	0x3f108d1c	0.56465316
69	0x3d711e32	0.058866687
70	0x3df58063	0.119873784
71	0xbeb1bb2b	-0.3471311
72	0xbd1981c3	-0.037477266
73	0x3e8b09c7	0.27155897
74	0x3dd926d5	0.1060311
75	0xbe516033	-0.20446853
76	0x3ecf0496	0.40433186
77	0xbe655076	-0.22393975
78	0xbe8ced98	-0.2752502
79	0xbd273ac0	-0.040827513
80	0xbd2beeb5	-0.041975696
81	0x3e70ee41	0.23528387
82	0x3e7d026d	0.24707957
83	0x3f0fc7ba	0.56164134
84	0x3ee428ac	0.4456228
85	0xbe47907c	-0.1948871
86	0x3ea6e07e	0.3259315
87	0x3d48d8ce	0.049034886
88	0x3f7f7e79	0.99802357
89	0x3e11d932	0.1424301
90	0x3cce6adf	0.025197444
91	0x3ec8ac8d	0.39194146
92	0x3f5a7164	0.8532927
93	0x3e9a7404	0.30166638
94	0x3ca7de39	0.020491706
95	0xbf364d0c	-0.71211314
96	0x3dc519b0	0.0962404
97	0x3e95c10f	0.29248855
98	0x3d1b6a61	0.037943248
99	0xbee46171	-0.44605592
100	0x3f969c07	1.1766366
101	0x3d58a07a	0.052887417
102	0x3e35c901	0.17752458
103	0xbd3e1be2	-0.04641331
104	0x3f84a98d	1.0364243
105	0xbf430054	-0.76172376
106	0x3ea5dd44	0.32395375
107	0x3d8931e1	0.06698967
108	0x3edef8b8	0.43549132
109	0xbeaa58a4	-0.33270752
110	0x3e02c791	0.12771441
111	0xbf27e7de	-0.65588176
112	0x3ec288a9	0.37994888
113	0x3f36f0c2	0.7146112
114	0xbf2af7c0	-0.66784286
115	0x3e30f1db	0.1727976
116	0xbe8c2ea9	-0.2737935
117	0x3ec638f3	0.38715324
118	0xbd5798f6	-0.05263611
119	0xbe452b8d	-0.19254895
120	0x3eebfef2	0.46092945
121	0xbf16bda2	-0.58883107
122	0xbe6f5bfc	-0.23374933
123	0x3f028c02	0.50994885
124	0x3e849789	0.25896862
125	0xbe2023fb	-0.15638725
126	0xbd8c1b1c	-0.06841108
127	0x3e942a6b	0.28938612
128	0x3e8ba1f4	0.27271998
129	0x3f16f6ef	0.5897054
130	0xbdd7edd3	-0.10543408
131	0xbefcc682	-0.493702
132	0xbf47a420	-0.7798481
133	0xbe814ba8	-0.25253034
134	0xbe47d4da	-0.1951479
135	0xbdb49c57	-0.08818882
136	0x3d9d3b13	0.07677283
137	0xbd4cdfd3	-0.050018143
138	0xbe77c3ec	-0.24195832
139	0x3e996fdf	0.29968163
140	0x3ef0e376	0.4704854
141	0x3d5bbc90	0.053646624
142	0xbda39949	-0.07988221
143	0x3f0e36c5	0.5555232
144	0xbdcfc037	-0.10144084
145	0xbe7b1a3a	-0.24521723
146	0x3dc45753	0.09586968
147	0x3f3ce37e	0.73784626
148	0x3ed54cad	0.4166006
149	0xbd3fa6a3	-0.046789777
150	0xbdcf2c94	-0.101159245
151	0xbee7ea2a	-0.4529584
152	0xbdb7f730	-0.08982694
153	0xbeb79338	-0.35854506
154	0xbe872756	-0.26397198
155	0x3d91f740	0.07127237
156	0x3eed69d7	0.46369812
157	0xbc8818fb	-0.016613474
158	0xbe0eddf8	-0.13951862
159	0x3f0486dd	0.51768285
160	0xbeda8c41	-0.4268513
161	0x3ee6cb9f	0.45077226
162	0x3eeb13fa	0.45913678
163	0xbe3945fb	-0.18093102
164	0xbe94f657	-0.29094192
165	0xbeecfd3f	-0.4628696
166	0xbdfbcd25	-0.122949876
167	0x3ef70325	0.48244587
168	0xbd2187d7	-0.039436188
169	0x3f028448	0.50983095
170	0xbf3c3fd7	-0.7353491
171	0xbea3ec70	-0.32016325
172	0x3db8f69e	0.090314135
173	0xbf66d32b	-0.90165967
174	0x3e3aed3b	0.18254559
175	0xbdbb7dc9	-0.09154851
176	0x3f4e1b70	0.80510616
177	0x3c4829d7	0.012217007
178	0xbe3145ce	-0.17311785
179	0x3e93836b	0.288112
180	0xbc8c3adf	-0.017117916
181	0xbe456ec0	-0.19280529
182	0xbeb1a3ba	-0.34695226
183	0xbf56a6d7	-0.8384833
184	0xbe3edc52	-0.18638733
185	0xbeea321c	-0.45741355
186	0x3e98e413	0.29861507
187	0x3e27b70d	0.16378422
188	0xbef492fd	-0.47768393
189	0x3f4f3a82	0.8094865
190	0x3e4e5464	0.2014938
191	0x3bcbf7be	0.0062246015
192	0x3eb806fa	0.35942823
193	0xbd958414	-0.073005825
194	0xbe72b7b2	-0.23702887
195	0x3dfb90e8	0.12283498
196	0x3e002ebe	0.1251783
197	0x3edcca1e	0.43122953
198	0xbe6e57a2	-0.23275617
199	0xbd9217ed	-0.0713347
200	0x3e63fa08	0.22263348
201	0xbd697d03	-0.057003986
202	0x3f28d843	0.6595499
203	0x3ed84c52	0.42245728
204	0xbed4a362	-0.415309
205	0x3e5d3a4b	0.21604268
206	0xbeadad74	-0.33921397
207	0xbe5c5727	-0.21517621
208	0x3dc2c1be	0.0950961
209	0x3e345501	0.17610551
210	0x3ead8e46	0.3389761
211	0xbe80c222	-0.25148112
212	0x3be61262	0.0070212344
213	0x3e6e6470	0.23280501
214	0x3e82a926	0.25519675
215	0x3f17ab89	0.59246117
216	0xbe413e13	-0.18871336
217	0x3e176559	0.14784755
218	0x3cec8388	0.028871313
219	0xbf1fee4a	-0.62472975
220	0xbe5a1249	-0.21296038
221	0x3dd24d7a	0.10268684
222	0xbeedfde3	-0.46482763
223	0x3d55c411	0.052188937
224	0x3f098061	0.53711516
225	0xbe1c78a8	-0.15280402
226	0xbdf81b05	-0.121145286
227	0xbe6408b5	-0.22268946
228	0xbe58a2eb	-0.21155898
229	0x3f23b05d	0.63940984
230	0xbda8cbc1	-0.08241988
231	0x3efe7654	0.49699652
232	0x3e8abf78	0.27099204
233	0xbe59946b	-0.21248023
234	0xbe7bc59c	-0.245871
235	0x3f0f58d6	0.5599493
236	0x3e531c97	0.20616375
237	0xbf22e873	-0.6363594
238	0x3eb9617b	0.36207184
239	0x3d9b1933	0.07573166
240	0xbedcc38c	-0.4311794
241	0x3f3d2538	0.73884916
242	0x3ed85ce0	0.42258358
243	0x3d9e6feb	0.077361904
244	0x3ecdf751	0.4022775
245	0x3f6295e1	0.8850995
246	0x3d3582bf	0.044314142
247	0xbdbf67da	-0.0934598
248	0x3e8c3056	0.27380627
249	0xbedd9cbd	-0.43283644
250	0x3ef44b21	0.4771357
251	0xbd8a9df8	-0.067684114
252	0xbe2bf659	-0.16793193
253	0xbf39f891	-0.7264491
254	0x3f38161a	0.71908724
255	0xbf0d3453	-0.55157965

network_body._body_endoder.seq_layers.2.bias f4 [128]
0	0xbb112fde	-0.0022153775
1	0xbbe31d5c	-0.00693099
2	0x3b84d50c	0.0040537175
3	0x3b8af516	0.0042406423
4	0xbb50323e	-0.0031768228
5	0x3b483042	0.0030546342
6	0x3b74d8c4	0.0037360648
7	0x3b27bac2	0.0025593494
8	0x3b2cbf58	0.0026359167
9	0x3b97856c	0.0046240594
10	0x3b95fd65	0.004577326
11	0xba92506a	-0.0011162881
12	0x3aea9b82	0.0017899128
13	0xbbb04b49	-0.0053800684
14	0xbb386787	-0.002813788
15	0x3b92246f	0.0044599096
16	0x3b9cc923	0.0047847196
17	0x3b780998	0.0037847515
18	0x3b9547bb	0.00455567
19	0xbb2cf0ad	-0.002638857
20	0x3b6f5f1b	0.0036525193
21	0xbb88257e	-0.00415486
22	0x3b8feee1	0.0043924903
23	0x3b9bbacb	0.004752492
24	0xbacef3a7	-0.0015789167
25	0xbb983d51	-0.0046459814
26	0xbb9b37f9	-0.004736897
27	0x3b5c952b	0.0033658247
28	0xbb697e03	-0.0035628087
29	0xbba48697	-0.005020927
30	0xbac3727f	-0.0014911442
31	0x3b808997	0.003922652
32	0x3b8c0391	0.004272886
33	0xbb99fd8e	-0.0046994155
34	0xbba364d3	-0.0049863844
35	0x3b9c8c4c	0.004777467
36	0xba0ecc9a	-0.0005447358
37	0xbb510a6d	-0.0031897083
38	0xbb8cca7d	-0.0042965994
39	0xbbbd6826	-0.0057802377
40	0x3b1e5a92	0.002416287
41	0xba3da29a	-0.00072340074
42	0x3b272097	0.0025501603
43	0x3b95ca39	0.004571226
44	0xbb9197cf	-0.004443146
45	0x3b7059f3	0.0036674708
46	0xbb9a007b	-0.0046997643
47	0xbb6d8f48	-0.0036248732
48	0x3b70f4fe	0.003676712
49	0xbb879d0b	-0.004138594
50	0x3b867be2	0.0041041235
51	0xbb9fb415	-0.0048737624
52	0xbb9fd63d	-0.004877834
53	0x3b8eed55	0.0043617883
54	0x3b25c8e5	0.0025296744
55	0xbade3fcb	-0.0016956268
56	0xbb478e69	-0.0030449873
57	0xbb99621d	-0.0046808855
58	0xbb67e29a	-0.0035382868
59	0x3b2186df	0.002464704
60	0x3acfc117	0.0015850392
61	0xba83f1ec	-0.0010066605
62	0x3b3bb6c0	0.0028642863
63	0xbb9cb83b	-0.004782704
64	0xbb8bf802	-0.004271508
65	0x3b929de8	0.0044743903
66	0xbb8a21fb	-0.0042154766
67	0xbba7986b	-0.005114605
68	0xbbaaf67f	-0.005217373
69	0x3b1fff2f	0.0024413576
70	0xbb9dc0fd	-0.0048142658
71	0xb9589a7c	-0.00020656915
72	0xbb8b3047	-0.0042476985
73	0xbb1d84e0	-0.0024035498
74	0xbb93c866	-0.0045099733
75	0x3a8a7de2	0.001056608
76	0xbb87239f	-0.0041241194
77	0x3b77cf60	0.0037812814
78	0x3af9f311	0.0019069632
79	0xbb99b5ca	-0.0046908604
80	0xbbe46c7a	-0.006970939
81	0xbbafd3e0	-0.0053658336
82	0xbb171e73	-0.002305892
83	0x3b83f0e0	0.0040265173
84	0xbba1f3a5	-0.004942375
85	0xbb85b4f2	-0.0040804083
86	0x3b7005c1	0.0036624523
87	0x3b8eb114	0.0043546055
88	0x3ab0754d	0.0013462693
89	0xbb0ec504	-0.002178491
90	0x3b8c01a2	0.0042726556
91	0xbb126050	-0.0022335239
92	0x3acb96e8	0.0015532644
93	0xbb9c7d00	-0.0047756433
94	0xbba08322	-0.0048984447
95	0xbba8c937	-0.00515094
96	0xbb9e1a03	-0.004824878
97	0x3b3fea28	0.0029283855
98	0xba1d4eaa	-0.00060007966
99	0x3b87ba19	0.0041420576
100	0xbbc6f702	-0.006071926
101	0xbba40456	-0.0050053997
102	0x3b8d293b	0.0043078936
103	0x3b564d5c	0.0032699918
104	0xba52e035	-0.00080442737
105	0x3b5e0444	0.0033877054
106	0xbb9847ce	-0.0046472317
107	0x3b879b16	0.0041383607
108	0x3b581274	0.0032969983
109	0x3b736880	0.0037141144
110	0xbb09d862	-0.0021033515
111	0x3b3642ad	0.0027810738
112	0x3b0aa048	0.0021152664
113	0x3b7e5ce7	0.0038812698
114	0xbb8257fa	-0.003977773
115	0xbb8c6468	-0.0042844303
116	0xbba2d1eb	-0.004968872
117	0x3952ce56	0.00020104027
118	0x3b5db921	0.003383227
119	0xbafe9419	-0.0019422799
120	0xba3e276d	-0.00072537997
121	0x3b30a878	0.0026955884
122	0x3b1d9f94	0.0024051415
123	0xbb9b9467	-0.0047479155
124	0xbb516b30	-0.0031954758
125	0xbb6f61aa	-0.0036526718
126	0xbbc13da7	-0.005897242
127	0xbba11fa9	-0.0049171043

network_body._body_endoder.seq_layers.2.weight f4 [128, 128]
0	0x3d066cf0	0.032818735
1	0x3b11230a	0.002214613
2	0xba8b7955	-0.0010641018
3	0x3c94eac5	0.018178353
4	0xbc30ba57	-0.010786614
5	0xbd2cde02	-0.04220391
6	0xbdab8bec	-0.08376297
7	0x3c81f053	0.015861666
8	0x3e0c444a	0.13697925
9	0x3e444193	0.1916564
10	0xbe35b60b	-0.17745225
11	0xbcf9bf5e	-0.030486759
12	0x3d180af2	0.037119813
13	0xbdc24c8a	-0.09487255
14	0xbcab1600	-0.020884514
15	0xbc987371	-0.018609734
16	0x3d851990	0.06499016
17	0x3e22e040	0.15905857
18	0xbd14298e	-0.036172442
19	0xbe091d3e	-0.13390061
20	0x3e1f22b4	0.15540582
21	0xbd3e118f	-0.046403464
22	0xbddabc8c	-0.10680494
23	0x3db1d686	0.08683495
24	0xbbfc9dff	-0.0077092643
25	0xbc9921d0	-0.01869288
26	0xbe3322a5	-0.17493685
27	0xbcb16346	-0.021653783
28	0x3dc75bab	0.09734281
29	0xbda732bd	-0.081639744
30	0xbe0d7746	-0.1381503
31	0xbccd64ad	-0.02507242
32	0xbd4b09d5	-0.049569923
33	0xbcbc112c	-0.022957407
34	0xbcb32a2c	-0.021870695
35	0xbe1c9abb	-0.152934
36	0x3c1ab0ba	0.009441549
37	0x3d0ab5a6	0.03386464
38	0xbd41d56f	-0.047322687
39	0x3e296d51	0.16545607
40	0xbd88b3ac	-0.06674895
41	0x3c7b678e	0.015344514
42	0x3d4c13f0	0.0498237
43	0xbd63b4cc	-0.055592343
44	0xbcae9695	-0.021312037
45	0x3e0707ca	0.13186565
46	0xbdb50bc0	-0.08840132
47	0x3c732080	0.014839292
48	0xbc8108c9	-0.01575126
49	0x3db5a28e	0.088688955
50	0xbda31c1b	-0.07964345
51	0xbdb78cc7	-0.08962398
52	0x3d9a26b0	0.0752691
53	0x3cc8b6b4	0.024501182
54	0xbd8bd15b	-0.06827041
55	0x3dc6c45c	0.09705421
56	0xbd8713ca	-0.06595571
57	0xbd21dac4	-0.03951527
58	0xbd8b79c5	-0.06810335
59	0x3b9e01e1	0.0048220013
60	0xbc899975	-0.016796807
61	0x3d3e49d2	0.04645712
62	0xbd8dd379	-0.06925101
63	0x3e56f8c7	0.20993339
64	0xbbf51af4	-0.0074800197
65	0xbdbdd20e	-0.092685804
66	0x3d29b1a4	0.041429177
67	0x3d8e9276	0.06961529
68	0xbd2bc7f3	-0.041938733
69	0x3d9d5c06	0.07683568
70	0x3de792cf	0.113072984
71	0xbb5781ba	-0.003288372
72	0x3b18d688	0.002332123
73	0x3d1baa17	0.038004007
74	0xbca6c897	-0.02035932
75	0xbdbe2a0e	-0.09285365
76	0x3d024e6c	0.03181307
77	0x3dc98d89	0.09841449
78	0xbd04a126	-0.032380246
79	0xbd3a1517	-0.04543027
80	0x3d73aa57	0.05948862
81	0x3c9780f2	0.018494103
82	0x3cca2d9c	0.024679951
83	0xbdeaf3a8	-0.11472255
84	0x3cfb81b3	0.030701494
85	0xbcfb8d43	-0.030707007
86	0x3d989315	0.07449929
87	0xbd158e4e	-0.036512665
88	0xbd88ff6e	-0.06689344
89	0xbd93f427	-0.07224303
90	0xbcb3e4ce	-0.021959689
91	0xbd1eab37	-0.038737502
92	0x3d8495c6	0.064738795
93	0x3e058c55	0.13041814
94	0x3ca86555	0.020556131
95	0x3c325498	0.0108844265
96	0x3d312520	0.043248296
97	0xbca89dde	-0.02058309
98	0xbc34a023	-0.011024508
99	0x3d9ad166	0.07559471
100	0xbbeca302	-0.0072215805
101	0xbda34ba8	-0.07973415
102	0x3ddde712	0.10835089
103	0x3d3b2163	0.045686137
104	0x3d9d5805	0.07682804
105	0x3d8a4a24	0.067524225
106	0xbd97c661	-0.07410885
107	0xbe0b28fc	-0.13589853
108	0xbc0272e2	-0.0079619605
109	0xbce08757	-0.027408285
110	0xbdcdd931	-0.100511916
111	0xbc90ceb4	-0.017676689
112	0xbde4870c	-0.11158571
113	0x3d465eb5	0.048430163
114	0xbda1180f	-0.07865917
115	0x3db33349	0.08750016
116	0xbdc9fc67	-0.09862595
117	0x3dbba212	0.09161772
118	0x3ddf36c1	0.10899115
119	0x3d7ed36e	0.062213354
120	0xbb8a87ec	-0.004227629
121	0x3db9f459	0.09079809
122	0x3d7544d8	0.059880108
123	0x3d832aaf	0.064046256
124	0x3d9131ea	0.070895985
125	0x3d24d180	0.040238857
126	0x3d10985c	0.03530155
127	0x3d36f102	0.044663437
128	0xbbd96477	-0.006634291
129	0xbe614fec	-0.22003144
130	0x3d059ff6	0.032623254
131	0xbd84885d	-0.06471322
132	0x3df881ba	0.121341184
133	0x3d98179e	0.074263796
134	0x3dd41d28	0.103571236
135	0xbdd8851e	-0.10572265
136	0xbd8c0c4e	-0.068382844
137	0xbd85db0b	-0.0653592
138	0xbcba733a	-0.022760022
139	0x3c8be712	0.017077956
140	0xbcaa970a	-0.020823974
141	0xbd32aaad	-0.0436198
142	0xbd18f1c2	-0.037339933
143	0xbdb62baa	-0.08895047
144	0x3c76ebe2	0.015070887
145	0x3ddbe371	0.107367404
146	0x3ddd8619	0.10816593
147	0xbdc7642f	-0.097359054
148	0xbd11ccd4	-0.03559573
149	0xbc71e664	-0.014764402
150	0x3d50af06	0.050948165
151	0xbdde7fb3	-0.108642004
152	0xbe41d0a2	-0.18927243
153	0x3d1c3356	0.038134895
154	0xbd861dff	-0.0654869
155	0xbdc6787e	-0.09690951
156	0xbbe234f7	-0.0069032866
157	0xbe16cb59	-0.14726008
158	0xbc636d78	-0.01388108
159	0x3d53f128	0.051743656
160	0xbd37f881	-0.044914726
161	0xbd9b8f98	-0.07595748
162	0xbda1e516	-0.07905023
163	0x3a7be6ff	0.0009609311
164	0xbd1dbc4d	-0.038509656
165	0xbe158b59	-0.14603938
166	0x3deb467f	0.114880554
167	0xbcef09c9	-0.02917947
168	0xbe18fa76	-0.14939293
169	0xbd0d71be	-0.0345323
170	0xbd067ff0	-0.032836854
171	0x3e1f94e1	0.15584137
172	0x3d01e8f2	0.031716295
173	0x3d9e6dc6	0.07735781
174	0xbd8addf9	-0.06780619
175	0xbd41e381	-0.047336105
176	0xbd0552a0	-0.0325495
177	0x3dd94018	0.10607928
178	0x3c1b8143	0.009491268
179	0x3ad33edf	0.001611676
180	0xbd50f4c4	-0.051014677
181	0x3dcdcd2a	0.100488976
182	0xbcce7da9	-0.025206404
183	0x3d9c4ed7	0.07632225
184	0x3d791401	0.060810093
185	0x3da53596	0.08066861
186	0xbc7c1c6d	-0.015387637
187	0xbd292358	-0.041293472
188	0xbdb04391	-0.08606637
189	0x3e220adb	0.15824454
190	0x3d8e6e63	0.06954648
191	0x3d9fd515	0.07804314
192	0xbe0451cd	-0.1292183
193	0x3dfb2686	0.12263207
194	0xbdb5d5a5	-0.0887864
195	0x3d559ad9	0.052149627
196	0x3accb2f8	0.0015617302
197	0x3d6e6401	0.05820084
198	0xbb618efa	-0.0034417496
199	0xbd77ef17	-0.06053075
200	0x3d5056af	0.050863918
201	0xbd8dfb02	-0.069326416
202	0xbdee9089	-0.11648662
203	0x3dc44a6b	0.095845066
204	0xbd0f5c2d	-0.035000015
205	0x3dcee215	0.101017155
206	0x3d8e106f	0.06936728
207	0x3d983c3f	0.07433366
208	0xbc4ea51f	-0.01261261
209	0x3da220c2	0.07916404
210	0x3de0153c	0.1094155
211	0x3cdb9575	0.026804665
212	0x3d88f970	0.066882014
213	0x3ddcfd81	0.107905395
214	0xbda59fab	-0.08087095
215	0x3df71b81	0.12065793
216	0xbba1cd57	-0.0049378085
217	0xbcaf5992	-0.021405015
218	0x3ce38088	0.02777125
219	0x3d4224e7	0.047398474
220	0x3d3a3583	0.04546119
221	0xbc5c5566	-0.013448095
222	0xbbe72fb4	-0.007055247
223	0xbc746d10	-0.014918581
224	0xbdd44dc2	-0.103663936
225	0xbdac911d	-0.08426116
226	0x3cf9905c	0.030464344
227	0xbb837700	-0.0040119886
228	0x3db933ed	0.09043107
229	0x3e29ab36	0.16569218
230	0xbb43ea56	-0.0029894314
231	0xbcf344ac	-0.029695831
232	0xbe396e34	-0.18108445
233	0xbd26b1db	-0.04069696
234	0x3dcd9679	0.10038466
235	0xbd40e5f3	-0.047094297
236	0xbcf8780d	-0.030330682
237	0x3c24cca6	0.010058558
238	0xbcfaf10c	-0.030632518
239	0x3dbace4e	0.09121381
240	0xbde31756	-0.11088435
241	0xbd95f85f	-0.07322764
242	0x3d8ce4b3	0.068795584
243	0xbaf256ab	-0.0018488964
244	0xbd07c37c	-0.033145413
245	0xbcf99441	-0.0304662
246	0x3d2aad65	0.04166927
247	0xbc4568e0	-0.01204893
248	0x3dd60df5	0.10451881
249	0x3db0070c	0.08595094
250	0x3c205b96	0.009787461
251	0x3dd100d9	0.1020524
252	0x3dddea71	0.10835732
253	0xbd2d7315	-0.04234608
254	0xbb91ad2e	-0.0044456935
255	0xbe23cf38	-0.15997016
