results/PreyTest2/PreyBrain/PreyBrain/PreyBrain-0.pt (torch, 152335 bytes, 12 tensors)

network_body._body_endoder.seq_layers.0.weight f4 [128, 9]
000000 7b f6 58 3e 80 6e fe 3d b8 3d 2e bd 57 b9 dc 3e
       0.21187775 0.1242342 -0.04253933 0.43110153
000010 6b a0 91 3d d2 20 ad 3e 96 7a bd bc 72 24 c8 3e
       0.071106754 0.33814102 -0.023129743 0.39090306
000020 4f 0b 79 bd 4a de f4 3d 0c 62 0b be de 3c 75 3d
       -0.0608018 0.11956461 -0.1361162 0.0598725
000030 c3 38 e6 3e f2 c8 a1 bd 9b 63 15 3e b3 1b 02 3f
       0.4496518 -0.078996554 0.14588778 0.50823516
000040 36 81 34 bd 72 32 00 3d 9b 7b bc 3d 78 d0 63 be
       -0.044068538 0.03129811 0.09203263 -0.22247493
000050 92 39 fd 3e cc 6c 30 3e f7 9a 94 3e 7b 87 46 bf
       0.49457985 0.17229003 0.2902448 -0.77550477
000060 54 a1 7d bd 14 72 f1 3e de 52 45 3e 13 bb 23 bf
       -0.061921433 0.47157347 0.19269893 -0.6395733
000070 b0 54 ed 3b 72 29 97 3d 8f 35 39 be be 34 44 be
       0.0072427616 0.07380952 -0.18086837 -0.19160745
000080 8a 2a b6 bd 9b 9a d8 bd 0f d8 58 3e d4 c9 38 3f
       -0.088948324 -0.10576364 0.2117617 0.72182965
000090 c8 88 17 3f ff ab 4e 3e 3a 39 7e be 0e a3 5a be
       0.59193087 0.20182799 -0.24826518 -0.21351263
0000a0 08 f3 51 be 55 bf 1e 3f a7 97 0a be 5a 75 f3 be
       -0.20502865 0.620107 -0.13534413 -0.4755047
0000b0 82 a6 88 3e 28 a9 39 bd 97 4a 37 bd b8 22 c5 3e
       0.26689535 -0.045327336 -0.04474887 0.3850305
0000c0 e7 8b 45 3e 0b 3f 89 be 77 9a 55 be ca 2a 15 be
       0.1929165 -0.2680591 -0.20859705 -0.14567104
0000d0 cc 2a 01 3e 88 c0 1b bf f2 ac 1f 3e 3b 8d 0e be
       0.12613982 -0.60840654 0.15593317 -0.13921063
0000e0 bc 6f 0b 3f 53 33 e2 bb eb 50 e9 bc 01 55 19 3e
       0.5446737 -0.006903091 -0.028480968 0.14973833
0000f0 e8 08 67 3d aa 7b 10 3f a7 09 85 bd 92 87 77 3e
       0.056404978 0.56438696 -0.06495982 0.2417281
000100 f0 62 9b 3d 27 a0 82 3e 3a 70 ef bd f4 c7 b5 be
       0.0758723 0.25512812 -0.116913274 -0.35504115
000110 e6 99 ba be fb 5d ad bd aa 3b f4 3c 2c 89 61 3e
       -0.3644554 -0.08465191 0.029813606 0.22024983
000120 78 a8 b6 be f2 ad 9a bc 83 4d e1 3d e4 df 08 3f
       -0.35675406 -0.018881772 0.11001112 0.5346663
000130 54 d2 fd 3d 68 e3 53 3b 8c d3 85 be 4a 1e 9a 3e
       0.123936325 0.003233159 -0.2613796 0.30101234
000140 8f e4 60 3e b1 2e 10 3e 2b fb 66 3e a2 2c c0 3d
       0.21962188 0.14080311 0.2255675 0.09383513
000150 d1 69 18 bf 90 11 1b 3f 88 98 19 3f b4 16 5b be
       -0.59536463 0.60573673 0.5999837 -0.2139538
000160 97 72 e6 3c da e9 40 3e fa cb b3 3e 28 1e 67 be
       0.028130813 0.18839207 0.3511656 -0.22570097
000170 a8 7e 29 3f 66 d9 91 bb 4e 85 ab 3d 48 cd 48 bf
       0.6620889 -0.0044509647 0.08375035 -0.78438234
000180 9f 62 34 be fc 7a f3 be b3 ae 63 3e e8 cb 04 bf
       -0.17615746 -0.47554767 0.22234611 -0.51873636
000190 4b 9c 53 bf 5c 5b 76 3e 30 90 c8 3e 38 25 4f bf
       -0.8266036 0.24058288 0.39172506 -0.80916166
0001a0 b8 82 0d be bf e1 26 be ec fd 9e 3e f4 f0 9d 3d
       -0.13819396 -0.16297053 0.31053102 0.07711974
0001b0 6e 9a a7 bd 08 ff 65 be 6c 4c 6e 3e 3f 26 24 3d
       -0.08183752 -0.22460568 0.2327134 0.040075537
0001c0 19 c5 89 3e 62 dd 8d 3e 78 4b a7 3d 06 ed 2f be
       0.26908186 0.27707964 0.081686914 -0.17180261
0001d0 f2 74 1d bd 0e 70 d6 bd 59 9e 28 3f 1c 81 18 3e
       -0.038441606 -0.104705915 0.6586662 0.14893001
0001e0 ab 74 02 3c c3 0f 37 be 48 63 dc 3c b6 67 bf be
       0.007962386 -0.17877106 0.02690281 -0.37383813
0001f0 6c fc 0f bc 03 5c 4a be 0f 19 45 3e 78 12 b8 bd
       -0.008788209 -0.19761662 0.1924784 -0.08987898
000200 ee 51 08 3d 02 02 a1 3d 46 33 15 3f e4 93 bd 3c
       0.03328126 0.07861711 0.5828136 0.023141809
000210 90 bf 07 bf 1a a6 39 be 7c f8 77 bd cd e2 97 3e
       -0.53026676 -0.18129769 -0.060539708 0.29665223
000220 b6 6c d0 3e 9a 87 2a bf aa ae 6a 3c fb 82 5a 3e
       0.4070794 -0.6661316 0.01432387 0.21339028
000230 b6 d6 00 3e a6 21 08 3e c8 06 c0 be 88 9b 73 3e
       0.12581906 0.13294086 -0.37505174 0.23789799
000240 e0 12 88 be c4 58 bc bd a7 b2 0f be a0 66 9d be
       -0.265769 -0.09196618 -0.14032994 -0.3074236
000250 e2 55 92 bd 2c 7a 9f 3e 8a 15 70 3d 4c 52 cb 3c
       -0.07145287 0.31147897 0.05861429 0.024819516
000260 6e b7 6a 3e 4c ba 0a 3f b0 f5 2b 3d 16 09 76 be
       0.22921535 0.54190516 0.041982353 -0.24026904
000270 34 77 0c 3d 08 e0 1d 3f cb 53 da be 84 55 5b 3c
       0.03429337 0.6166997 -0.42642054 0.013387088
000280 76 6e 54 be 16 e9 b6 bd c2 fb 3d 3d 24 94 68 be
       -0.20745263 -0.08931176 0.046382673 -0.22712761
000290 24 a8 8a be bc d2 ba be 3b e8 08 be 80 e1 b4 3e
       -0.27081406 -0.36488903 -0.13369839 0.35328293
0002a0 b4 97 a1 3d b6 4a 8f be d6 ef a8 3e e0 d3 dc 3d
       0.07890263 -0.27986687 0.3299548 0.107825994
0002b0 32 8e 30 3e 0f 16 ee 3e ef f3 a8 bd 87 f9 48 3f
       0.17241743 0.46501204 -0.08249652 0.7850575
0002c0 78 04 17 be 42 ab bd be f2 d4 0d bb 54 0e c9 bb
       -0.14747798 -0.37044722 -0.0021641818 -0.0061357412
0002d0 b4 b5 e9 bd 0c f1 a0 3e 88 68 ac 3e c8 62 74 3e
       -0.1141161 0.31433904 0.336735 0.23865807
0002e0 10 ac df 3c 37 83 5f 3f 49 9b 0c 3f d7 ca 39 3f
       0.027303725 0.8730959 0.54924446 0.72575134
0002f0 a8 85 38 be ec 48 35 be b4 11 58 bf e8 a6 cc 3c
       -0.18019736 -0.17703599 -0.8440201 0.02498193
000300 50 9f 4f bc d3 51 02 3e 94 17 be 3e 03 b9 e3 be
       -0.01267226 0.12726526 0.37127364 -0.4447709
000310 2e 8c c6 be f4 f0 8c 3e f7 9a 80 bd ee 70 0a bf
       -0.38778824 0.27527583 -0.06279557 -0.5407857
000320 10 89 43 bd 22 5c 9b be e5 dd 16 3f ba 66 71 be
       -0.047738135 -0.3034373 0.58932334 -0.23574343
000330 08 e4 a1 bd 0b e0 b7 3d 7b 0f 3c bd 0a 1b 4a 3d
       -0.07904822 0.0897828 -0.0459132 0.049342193
000340 31 db 21 bd 92 be da 3d 5b c1 1a bd d2 2a bf be
       -0.039515678 0.1068088 -0.037782054 -0.37337357
000350 2d 8b 92 be 5e 47 14 bf 3f 80 a9 3e ce 00 8c be
       -0.28621808 -0.579214 0.33105657 -0.27344364
000360 c3 0e fd be 03 88 d8 bd 8b 93 d8 bd d6 75 df bd
       -0.49425325 -0.10572817 -0.105750166 -0.10911147
000370 99 e3 93 be 9b d1 ba 3e ba 40 be 3d f4 64 a7 be
       -0.2888458 0.3648804 0.09289689 -0.3269421
000380 c8 b4 70 be c7 0d b9 be f1 a2 8d be 5c d0 c0 3d
       -0.23506463 -0.36143324 -0.27663377 0.094147414
000390 17 c7 0f bd f7 da dd bd 63 6a ad be 34 c1 23 3f
       -0.035101976 -0.1083278 -0.3387023 0.6396668
0003a0 3b a7 b2 bd 7f 5f be 3e f0 b6 14 bf 6c a0 d4 bd
       -0.08723303 0.37182233 -0.5809164 -0.103821605
0003b0 27 e2 5d bc a0 80 8d be 64 5e ea 3e ec 97 0a be
       -0.013542688 -0.27637196 0.4577514 -0.13534516
0003c0 10 17 f1 3e 6f 80 68 be 3c da a6 3d 8a 1f 12 3f
       0.47087908 -0.22705244 0.08147094 0.57079375
0003d0 18 85 ac be ab 6a 46 bd da d8 b1 bc d6 87 85 be
       -0.33695292 -0.04844157 -0.021709848 -0.26080197
0003e0 62 6b 57 3d 8e 20 86 3d d8 2e 49 bf 3b 95 ad be
       0.052592643 0.06549178 -0.785871 -0.33902916
0003f0 f6 c8 de 3c 11 90 8b be 3e 0f fd 3e d6 c8 0e 3f
       0.027195435 -0.2725835 0.4942569 0.557752

network_body._body_endoder.seq_layers.0.bias f4 [128]
000000 00 00 00 00 00 00 00 00 00 00 00 00 00 00 00 00
       0.0 0.0 0.0 0.0
000010 00 00 00 00 00 00 00 00 00 00 00 00 00 00 00 00
       0.0 0.0 0.0 0.0
000020 00 00 00 00 00 00 00 00 00 00 00 00 00 00 00 00
       0.0 0.0 0.0 0.0
000030 00 00 00 00 00 00 00 00 00 00 00 00 00 00 00 00
       0.0 0.0 0.0 0.0
000040 00 00 00 00 00 00 00 00 00 00 00 00 00 00 00 00
       0.0 0.0 0.0 0.0
000050 00 00 00 00 00 00 00 00 00 00 00 00 00 00 00 00
       0.0 0.0 0.0 0.0
000060 00 00 00 00 00 00 00 00 00 00 00 00 00 00 00 00
       0.0 0.0 0.0 0.0
000070 00 00 00 00 00 00 00 00 00 00 00 00 00 00 00 00
       0.0 0.0 0.0 0.0
000080 00 00 00 00 00 00 00 00 00 00 00 00 00 00 00 00
       0.0 0.0 0.0 0.0
000090 00 00 00 00 00 00 00 00 00 00 00 00 00 00 00 00
       0.0 0.0 0.0 0.0
0000a0 00 00 00 00 00 00 00 00 00 00 00 00 00 00 00 00
       0.0 0.0 0.0 0.0
0000b0 00 00 00 00 00 00 00 00 00 00 00 00 00 00 00 00
       0.0 0.0 0.0 0.0
0000c0 00 00 00 00 00 00 00 00 00 00 00 00 00 00 00 00
       0.0 0.0 0.0 0.0
0000d0 00 00 00 00 00 00 00 00 00 00 00 00 00 00 00 00
       0.0 0.0 0.0 0.0
0000e0 00 00 00 00 00 00 00 00 00 00 00 00 00 00 00 00
       0.0 0.0 0.0 0.0
0000f0 00 00 00 00 00 00 00 00 00 00 00 00 00 00 00 00
       0.0 0.0 0.0 0.0
000100 00 00 00 00 00 00 00 00 00 00 00 00 00 00 00 00
       0.0 0.0 0.0 0.0
000110 00 00 00 00 00 00 00 00 00 00 00 00 00 00 00 00
       0.0 0.0 0.0 0.0
000120 00 00 00 00 00 00 00 00 00 00 00 00 00 00 00 00
       0.0 0.0 0.0 0.0
000130 00 00 00 00 00 00 00 00 00 00 00 00 00 00 00 00
       0.0 0.0 0.0 0.0
000140 00 00 00 00 00 00 00 00 00 00 00 00 00 00 00 00
       0.0 0.0 0.0 0.0
000150 00 00 00 00 00 00 00 00 00 00 00 00 00 00 00 00
       0.0 0.0 0.0 0.0
000160 00 00 00 00 00 00 00 00 00 00 00 00 00 00 00 00
       0.0 0.0 0.0 0.0
000170 00 00 00 00 00 00 00 00 00 00 00 00 00 00 00 00
       0.0 0.0 0.0 0.0
000180 00 00 00 00 00 00 00 00 00 00 00 00 00 00 00 00
       0.0 0.0 0.0 0.0
000190 00 00 00 00 00 00 00 00 00 00 00 00 00 00 00 00
       0.0 0.0 0.0 0.0
0001a0 00 00 00 00 00 00 00 00 00 00 00 00 00 00 00 00
       0.0 0.0 0.0 0.0
0001b0 00 00 00 00 00 00 00 00 00 00 00 00 00 00 00 00
       0.0 0.0 0.0 0.0
0001c0 00 00 00 00 00 00 00 00 00 00 00 00 00 00 00 00
       0.0 0.0 0.0 0.0
0001d0 00 00 00 00 00 00 00 00 00 00 00 00 00 00 00 00
       0.0 0.0 0.0 0.0
0001e0 00 00 00 00 00 00 00 00 00 00 00 00 00 00 00 00
       0.0 0.0 0.0 0.0
0001f0 00 00 00 00 00 00 00 00 00 00 00 00 00 00 00 00
       0.0 0.0 0.0 0.0

network_body._body_endoder.seq_layers.2.weight f4 [128, 128]
000000 83 8a 9b 3d 8b 71 05 3d 0b 12 f2 bd 6f 8f 2b 3b
       0.075947784 0.032578986 -0.11819848 0.0026178022
000010 de 86 32 bd 2b d7 68 bb 5f de 1f be e1 7f 8d bc
       -0.04358565 -0.003552864 -0.15612172 -0.017272891
000020 39 d8 a9 3c cf 0a 42 3d 79 e8 cb bd c1 2a c0 3b
       0.020732986 0.04737359 -0.0995645 0.0058644717
000030 ad 12 9b bd ae 0e 0e be 95 39 bb bd 00 45 ce bd
       -0.075719215 -0.13872787 -0.09141842 -0.100717545
000040 46 e3 a4 3c e4 07 ae 3d e1 76 c2 3c 71 f0 ef bd
       0.020127904 0.08497599 0.023738327 -0.117157824
000050 7a 67 79 bc d2 52 01 be 86 6a 22 bd 77 6c 20 bd
       -0.015222425 -0.1262925 -0.03965237 -0.03916594
000060 12 a0 96 3d 7a 3a 3a bd f5 98 ba 3d 08 77 87 bc
       0.0735475 -0.045465924 0.091112055 -0.01653625
000070 a1 dd 0c be 7c 80 80 3c c2 bf 59 3d 19 d8 f6 bd
       -0.1375642 0.015686266 0.05316139 -0.12052936
000080 79 5b 0e 3e a5 9c c0 bd 06 3a 3e bd c0 3c b6 3d
       0.13902082 -0.094048776 -0.046442054 0.08898306
000090 79 6c 3d bd 2b 83 01 3e 35 3c ff bd 55 71 31 3d
       -0.046246026 0.12647693 -0.124626555 0.043320972
0000a0 85 f1 ad bd 53 5f 12 bd 2c 31 2d 3e 22 f3 d7 3d
       -0.08493332 -0.03573544 0.16913289 0.10544421
0000b0 6d 15 c6 3d cf 37 b4 ba 08 e8 be 3d cc ba 90 bd
       0.096720554 -0.0013749542 0.093216 -0.07066879
0000c0 f5 a1 41 3e db 96 cb bd 8e a1 da bd 1b 4f 35 3e
       0.18909438 -0.09940883 -0.10675345 0.17705958
0000d0 aa bc 4a bd d5 9b c0 3d f4 27 0a be 9c bb c6 3d
       -0.04949633 0.094047226 -0.13491803 0.097037524
0000e0 7a 2c 0b be da 82 67 3c c3 9e 82 3d 95 fa b0 bc
       -0.13591185 0.014130319 0.06377938 -0.021603862
0000f0 e6 d8 d7 bd 79 1b e4 3d 61 9b 69 3d 62 4b 0c bd
       -0.10539417 0.111380525 0.057032946 -0.03425158
000100 a4 f8 83 39 4e b6 9a 3d 04 47 f1 bc da 98 1b be
       0.0002517152 0.07554303 -0.029452808 -0.15195027
000110 c2 f2 63 bc c8 c1 fc bd 7d 48 19 3d b4 31 d3 bc
       -0.013912858 -0.12341648 0.037422646 -0.025780536
000120 23 b6 fb bd 6d da af 3d 0a 01 8b bc 88 a4 14 be
       -0.12290599 0.08586583 -0.016968269 -0.14515889
000130 d0 f7 e1 bd c6 c4 c3 bd b5 87 c1 3c 15 8d 58 bc
       -0.110335946 -0.09559016 0.02362428 -0.01321723
000140 96 b8 ed bc 5f 2e 26 3b 22 6b 1e 3c 09 0f be 3d
       -0.029018681 0.002535723 0.009669097 0.092802115
000150 7d 95 41 3e 3f 2c 0c 3d 23 7b 0c bd 4d 12 b6 bc
       0.18904682 0.034221884 -0.03429712 -0.022225523
000160 90 41 e3 bd 21 d0 75 3d 61 e8 ba 3d 3f 5f c5 bc
       -0.110964894 0.06001294 0.09126354 -0.024093268
000170 83 08 cd 3d cb c1 d4 bd 5e de 03 bd 57 75 8f 3c
       0.10011389 -0.103885256 -0.032194488 0.017512007
000180 53 0b 47 be 62 40 00 3e 8c 9b 34 3e 1d a7 21 bc
       -0.19437914 0.1252456 0.17637461 -0.009866503
000190 86 85 c0 bc b5 f0 bf 3b 6b 3a 1b 3d b0 f5 7e 3d
       -0.023501169 0.005857552 0.03789751 0.062246025
0001a0 e5 b7 0e bc f1 01 2b 3c ce 88 66 bd 48 0f 79 be
       -0.008710836 0.010437475 -0.05628281 -0.24322236
0001b0 76 6d 3e 3e be 51 35 bc 95 a6 b3 3d 8a 54 80 bb
       0.18596444 -0.011066852 0.087720074 -0.003916328
0001c0 07 c9 0f 3e 32 83 b6 bd 38 a5 b1 3d 3b 2d e6 bd
       0.1404153 -0.08911742 0.08674091 -0.11239096
0001d0 5a fc 3f bd 85 16 bf 3c 33 b7 40 3e f0 43 bd 3d
       -0.04687152 0.023326168 0.18819885 0.09241474
0001e0 bf 6b c8 3d 3e 91 70 bd ef a2 0d 3d 12 f8 11 3e
       0.09786176 -0.058732264 0.034579214 0.14254788
0001f0 4c 50 29 bc 72 6d 23 bd 7c 63 97 3d d9 b4 8a b9
       -0.010334086 -0.039899297 0.07392022 -0.00026456153
000200 8e 70 ec bd d7 1d 08 3d 9a a9 1a bd ab 6c 25 3d
       -0.115449056 0.033231582 -0.0377594 0.040386837
000210 d0 d0 cc 3c ba 06 3d 3e 57 94 af 3d 36 a0 0b bb
       0.025001913 0.18459597 0.085732155 -0.002130521
000220 53 7b b8 3d ac e9 9f bc 80 c1 0a 3e 65 f2 03 3c
       0.09007897 -0.019520603 0.13550377 0.008053397
000230 05 63 3b 3d 56 08 59 bd 22 f4 86 3d 79 46 45 3d
       0.04574873 -0.052986465 0.065895334 0.04816291
000240 57 63 08 3d 33 1f 0d 3d 52 25 1a 3e f5 35 4e 3e
       0.033297863 0.034453582 0.15053299 0.2013777
000250 8d 9a 86 bd 22 75 e1 3c f2 dd 2c 3b 33 01 1f 3e
       -0.06572447 0.027521674 0.0026377407 0.15527801
000260 02 8d 1f 3d d3 4d 07 bd 6c 81 74 3c c8 e9 bb bd
       0.038952835 -0.033033203 0.014923435 -0.091754496
000270 d0 b2 6e bd 6c 15 10 3c 2a 9c 9d 3c 87 2a bc 3d
       -0.058275998 0.00879417 0.019239504 0.09187799
000280 6a 7a 93 bc 9b 2d 88 3d e6 4b e1 3d 76 bb 8c bc
       -0.018002708 0.066493236 0.110008046 -0.017179232
000290 3a 5d c1 3d 35 46 0f be 25 5b 36 3d d3 80 41 3e
       0.0944161 -0.13991626 0.044520516 0.18896799
0002a0 70 18 eb 3d c5 fb 4b bd a2 25 f8 3c f1 02 88 3c
       0.114792705 -0.049800653 0.030291382 0.016602965
0002b0 36 a8 28 be 35 17 86 bd 32 c9 ac 3d b8 c5 a6 3c
       -0.16470417 -0.06547395 0.084368125 0.020357952
0002c0 6d 59 dc 3d a1 f1 c0 3c 81 ce e9 bd 2a 31 54 bd
       0.10759244 0.023552718 -0.114163406 -0.0518047
0002d0 44 4d c5 3d a4 f2 6e bd d3 f9 fb 3b 0e b7 db 3d
       0.09633878 -0.05833687 0.0076896935 0.10728274
0002e0 5a 61 3d 3e f6 13 ed 3a fa 59 fb bc 12 ac 84 3c
       0.18494168 0.0018087614 -0.030682553 0.01619533
0002f0 e0 2c bf 3d 4d 93 b7 3d c4 5c c5 bd f9 0c c0 3d
       0.09334731 0.08963642 -0.09636834 0.09377474
000300 f4 be 4f be 66 03 2c bd cd 1b d4 3d fc 87 b9 3d
       -0.20287687 -0.04199543 0.10356865 0.0905914
000310 bb f6 a8 bd 8e e1 8c bb 93 99 99 3d 50 fd 3a be
       -0.08250185 -0.004299349 0.07499995 -0.18260694
000320 d1 ce 43 3d 10 98 10 3d 23 cd 19 3d cd 24 9d bb
       0.047804657 0.035301268 0.03754915 -0.0047956468
000330 35 a3 b6 3b 08 4f 30 3d 5e b7 15 bd 82 fc cb bc
       0.005573655 0.04304412 -0.036551826 -0.024900679
000340 50 f1 64 3d 93 d1 0d 3d e7 a8 34 3e 0e ac 98 3d
       0.055894196 0.034623694 0.17642556 0.07454692
000350 82 16 bb 3c be 97 25 3e de e0 11 3e b0 93 09 3e
       0.022837881 0.16171166 0.14245936 0.13435245
000360 f3 5e a5 bc d4 aa c2 bc eb a6 9f bd b5 5f 9c 3c
       -0.020186877 -0.023763098 -0.07795509 0.019088605
000370 b2 f4 67 3d 7f fa 00 bd 9e b7 8b 3c ea c0 e1 bd
       0.056629844 -0.03148889 0.017055329 -0.110231236
000380 21 7a 8c bd 7a da 87 bb b7 7f b3 3d 1e 6e e0 3a
       -0.06859232 -0.0041459175 0.08764594 0.0017122661
000390 a0 e3 41 3d d2 30 89 3c 58 a4 d1 bd da 23 d9 bc
       0.04733622 0.016746912 -0.10236424 -0.026506353
0003a0 74 7e 25 bc de 3d 27 bd db 56 b1 3c 62 24 98 3d
       -0.01010095 -0.040830486 0.021647861 0.074288145
0003b0 01 28 9f bb 91 cb ec bd 6e 85 77 bd 87 d6 33 be
       -0.0048570638 -0.11562265 -0.060429983 -0.17562304
0003c0 5a ed a4 bd 05 68 8c bc 14 09 85 3d 17 90 01 3d
       -0.08053084 -0.017139444 0.06495872 0.031631555
0003d0 a3 9d 37 3d b1 9f 75 bd 37 28 aa bd a4 b4 9c bd
       0.04482807 -0.059966747 -0.083084516 -0.07651642
0003e0 3a d8 04 3e 35 bb 0c 3e 02 de 71 3b ef b9 1b bd
       0.12973109 0.13743289 0.0036906009 -0.038019117
0003f0 b1 a3 61 3c ba 03 96 bc 59 55 7b bd 5a 90 9a bb
       0.013771937 -0.018312324 -0.06136069 -0.004716915

network_body._body_endoder.seq_layers.2.bias f4 [128]
000000 00 00 00 00 00 00 00 00 00 00 00 00 00 00 00 00
       0.0 0.0 0.0 0.0
000010 00 00 00 00 00 00 00 00 00 00 00 00 00 00 00 00
       0.0 0.0 0.0 0.0
000020 00 00 00 00 00 00 00 00 00 00 00 00 00 00 00 00
       0.0 0.0 0.0 0.0
000030 00 00 00 00 00 00 00 00 00 00 00 00 00 00 00 00
       0.0 0.0 0.0 0.0
000040 00 00 00 00 00 00 00 00 00 00 00 00 00 00 00 00
       0.0 0.0 0.0 0.0
000050 00 00 00 00 00 00 00 00 00 00 00 00 00 00 00 00
       0.0 0.0 0.0 0.0
000060 00 00 00 00 00 00 00 00 00 00 00 00 00 00 00 00
       0.0 0.0 0.0 0.0
000070 00 00 00 00 00 00 00 00 00 00 00 00 00 00 00 00
       0.0 0.0 0.0 0.0
000080 00 00 00 00 00 00 00 00 00 00 00 00 00 00 00 00
       0.0 0.0 0.0 0.0
000090 00 00 00 00 00 00 00 00 00 00 00 00 00 00 00 00
       0.0 0.0 0.0 0.0
0000a0 00 00 00 00 00 00 00 00 00 00 00 00 00 00 00 00
       0.0 0.0 0.0 0.0
0000b0 00 00 00 00 00 00 00 00 00 00 00 00 00 00 00 00
       0.0 0.0 0.0 0.0
0000c0 00 00 00 00 00 00 00 00 00 00 00 00 00 00 00 00
       0.0 0.0 0.0 0.0
0000d0 00 00 00 00 00 00 00 00 00 00 00 00 00 00 00 00
       0.0 0.0 0.0 0.0
0000e0 00 00 00 00 00 00 00 00 00 00 00 00 00 00 00 00
       0.0 0.0 0.0 0.0
0000f0 00 00 00 00 00 00 00 00 00 00 00 00 00 00 00 00
       0.0 0.0 0.0 0.0
000100 00 00 00 00 00 00 00 00 00 00 00 00 00 00 00 00
       0.0 0.0 0.0 0.0
000110 00 00 00 00 00 00 00 00 00 00 00 00 00 00 00 00
       0.0 0.0 0.0 0.0
000120 00 00 00 00 00 00 00 00 00 00 00 00 00 00 00 00
       0.0 0.0 0.0 0.0
000130 00 00 00 00 00 00 00 00 00 00 00 00 00 00 00 00
       0.0 0.0 0.0 0.0
000140 00 00 00 00 00 00 00 00 00 00 00 00 00 00 00 00
       0.0 0.0 0.0 0.0
000150 00 00 00 00 00 00 00 00 00 00 00 00 00 00 00 00
       0.0 0.0 0.0 0.0
000160 00 00 00 00 00 00 00 00 00 00 00 00 00 00 00 00
       0.0 0.0 0.0 0.0
000170 00 00 00 00 00 00 00 00 00 00 00 00 00 00 00 00
       0.0 0.0 0.0 0.0
000180 00 00 00 00 00 00 00 00 00 00 00 00 00 00 00 00
       0.0 0.0 0.0 0.0
000190 00 00 00 00 00 00 00 00 00 00 00 00 00 00 00 00
       0.0 0.0 0.0 0.0
0001a0 00 00 00 00 00 00 00 00 00 00 00 00 00 00 00 00
       0.0 0.0 0.0 0.0
0001b0 00 00 00 00 00 00 00 00 00 00 00 00 00 00 00 00
       0.0 0.0 0.0 0.0
0001c0 00 00 00 00 00 00 00 00 00 00 00 00 00 00 00 00
       0.0 0.0 0.0 0.0
0001d0 00 00 00 00 00 00 00 00 00 00 00 00 00 00 00 00
       0.0 0.0 0.0 0.0
0001e0 00 00 00 00 00 00 00 00 00 00 00 00 00 00 00 00
       0.0 0.0 0.0 0.0
0001f0 00 00 00 00 00 00 00 00 00 00 00 00 00 00 00 00
       0.0 0.0 0.0 0.0

action_model._continuous_distribution.log_sigma f4 [1, 2]
000000 00 00 00 00 00 00 00 00
       0.0 0.0

action_model._continuous_distribution.mu.weight f4 [2, 128]
000000 b5 29 fa bb dc 32 b4 3b f6 70 37 3c 70 69 da 3c
       -0.0076343664 0.005499227 0.011196366 0.026661605
000010 47 6a 1e 3a 4a fe cd bb 9f 3f be 3c f8 f5 f0 3c
       0.0006043058 -0.006286417 0.023223696 0.029414162
000020 4c 55 12 3c 53 17 14 bd e8 20 02 bc 5d cd 01 bc
       0.008931469 -0.036155056 -0.007942416 -0.007922498
000030 0c 84 3a 3c ff b0 a9 3b ce 7a 81 3b 20 77 6b bb
       0.0113840215 0.0051785703 0.003951407 -0.0035929158
000040 b9 2b 08 3d 11 fd af bb f8 79 cd bc 95 12 d4 3c
       0.033244822 -0.005370744 -0.025082573 0.025887767
000050 8b e1 9c 3b b2 de f2 bc 6a 25 6a bb b1 4d 23 3d
       0.004787629 -0.029647205 -0.0035727867 0.039869014
000060 0f 8d ff bb c6 4b cc 3b 88 59 6e b9 f3 f7 c9 bc
       -0.007798798 0.006234619 -0.00022730802 -0.024654364
000070 57 8d 82 3b 1c 9d 45 bc ab fa 7b 3a c3 31 3a 3c
       0.003984134 -0.012061384 0.00096122426 0.011364403
000080 e2 72 79 3c e2 e7 ee ba 3c ae bc bb b5 4b 82 3c
       0.015225144 -0.0018227065 -0.005758075 0.01590524
000090 f7 a9 54 3c 96 2c a7 3a 96 78 a2 bb e7 d9 da ba
       0.012979976 0.0012754377 -0.0049582226 -0.001669702
0000a0 87 f6 0a bc c4 98 0c 3c 67 5d d9 3c 50 c9 36 3b
       -0.008481628 0.008581344 0.026533796 0.0027890988
0000b0 65 8b ce bb 5b 02 11 3d a0 0d 21 3c 43 2f d1 bc
       -0.006303238 0.035402637 0.009829909 -0.025535231
0000c0 cd 69 e4 bc 96 1f b4 3a 5b d4 f8 3b 1f 4f 9c b9
       -0.027882481 0.0013742323 0.007593674 -0.00029813588
0000d0 da e2 c8 bb 5f 7f eb 3c 3a 31 b9 3b 13 30 82 3c
       -0.0061305584 0.028747259 0.00565162 0.015892064
0000e0 a4 06 1c bd 57 07 73 3c 00 c1 35 bc 5a 67 c7 bc
       -0.03809227 0.014833293 -0.011093378 -0.024341274
0000f0 c0 5f d6 bb 4d 72 50 3d 9d 95 94 bc bc b0 c2 3b
       -0.006542176 0.050890256 -0.018137747 0.0059414785
000100 0d f1 8e 3b 2d d0 63 ba 48 44 4f 3c 10 dd e2 bc
       0.0043622316 -0.00086903834 0.012650557 -0.027693301
000110 3b c2 49 3c 67 61 df 3c 73 c3 ea 3b 07 ad af 3c
       0.012314375 0.027268125 0.0071644126 0.02144481
000120 41 69 b9 3b ed 0f ef 3a 97 5d 9b bc 84 fb 2e bb
       0.005658299 0.0018238999 -0.018965526 -0.0026700208
000130 5a 45 dc bc 92 9b 4a bd 04 4e 23 3c ed ad d2 bb
       -0.026888538 -0.04946477 0.009967331 -0.006429425
000140 03 9d a4 bb 72 fd b9 3c 51 26 16 3c bd dd 9b 3c
       -0.0050236 0.02270386 0.009164409 0.019026631
000150 44 11 bf bc d2 33 85 3c 83 51 57 3b a9 9c 04 3c
       -0.023323663 0.016260061 0.0032854981 0.008093991
000160 ec 0c 83 bc 7a 3e 64 bc 5d 0b df 3b f2 ee af bc
       -0.015997373 -0.013930911 0.0068067745 -0.021476243
000170 f8 23 a2 bc ac 50 ae bc f3 9d 65 3b 56 cb 94 3b
       -0.019792542 -0.021278702 0.0035036772 0.004540841
000180 32 30 72 bc 90 a3 03 bc fd 85 85 3c 00 a9 d9 bc
       -0.0147819985 -0.008034602 0.016299242 -0.026569843
000190 8d 2f 51 bc 53 f1 98 3b f0 65 e9 3c 61 5d ad 3c
       -0.012767685 0.00466744 0.02849099 0.02116269
0001a0 b7 b4 0b bc ff 10 ba ba 2a 93 a4 bc 59 d3 86 bc
       -0.0085269725 -0.0014195739 -0.020089705 -0.0164582
0001b0 1d 55 54 bc 47 60 a5 3c b0 53 13 ba dd aa e7 bb
       -0.012959746 0.02018751 -0.00056200754 -0.007069929
0001c0 3c 6a 88 3b e0 9b b7 3b a6 90 2b 3c 81 d1 45 3c
       0.0041630547 0.0056032985 0.010471499 0.012073875
0001d0 77 1b 3b bc 94 61 b4 bc 97 12 9c bb 23 93 e3 3c
       -0.011420122 -0.022019185 -0.0047629583 0.027780121
0001e0 2b 94 e8 bb c2 c6 18 bd e9 0b cc bb 61 5d 2b bd
       -0.007097741 -0.037298925 -0.0062270057 -0.0418371
0001f0 7e 74 04 3b 3e 8d ad bc 7f 77 87 bc 42 5f 06 bc
       0.0020211036 -0.021185514 -0.016536472 -0.008201422
000200 ff e9 95 bc 42 f3 ac bc 57 0b 13 3c a8 00 73 3c
       -0.018300055 -0.021112088 0.008974872 0.014831699
000210 ad 3e aa 3c 6d 72 bc 3c 54 27 0e bc 55 03 52 3c
       0.02078184 0.023003781 -0.008676369 0.012818177
000220 0b fd 0e 39 7b 74 13 3c 05 ee f8 bc 63 11 8d ba
       0.00013636441 0.008999939 -0.030386934 -0.0010762628
000230 5b c0 db 3b 9d 60 3f 3b b8 83 20 bc d0 58 8b bc
       0.00670628 0.0029201873 -0.009797029 -0.017010123
000240 03 72 19 bc da 6d 5c bc ec 00 27 bc 85 4b 51 3c
       -0.009365561 -0.013453925 -0.010193091 0.012774353
000250 c3 40 e2 ba 69 51 2c b9 88 7e 77 3c 21 3f c4 bc
       -0.0017261732 -0.00016433526 0.015105851 -0.023955883
000260 23 d6 83 3c 20 9b 5e bb 50 68 72 3c 72 5b e9 3b
       0.01609332 -0.0033966973 0.014795378 0.007121497
000270 55 1c d4 3b ad 34 a1 bc ca aa ac bb cf e9 26 bc
       0.006473104 -0.019678438 -0.005269383 -0.01018758
000280 ea 91 b7 bc 12 a3 71 bc ed 10 4d bc 1f a9 95 3c
       -0.022408444 -0.014748352 -0.012516242 0.01826912
000290 55 ba 4f bc 0b 4c 8a bc 12 04 92 bb 6a 61 03 bc
       -0.012678702 -0.016881963 -0.0044560516 -0.008018831
0002a0 e2 81 11 3b 54 e4 87 bc 98 a3 a3 3b b7 36 f7 bb
       0.002220266 -0.016588368 0.004993867 -0.0075443643
0002b0 2f 6e 99 3c 9a 4d 5c 3b 43 65 28 bc 57 8e 3f 3a
       0.018729297 0.003361559 -0.010278049 0.0007307282
0002c0 ab e9 7c bb c0 0f c1 bc 9a 09 ae bb 2b ef 35 3c
       -0.0038591425 -0.02356708 -0.005311203 0.011104385
0002d0 5d c8 3e 3b ba 20 e4 3c 43 a8 91 bc 78 03 aa ba
       0.0029111125 0.027847636 -0.017780429 -0.0012971004
0002e0 f3 a4 ba bc 62 ca 4c bc aa 83 67 bd 72 1c d0 3c
       -0.022783732 -0.012499424 -0.05652205 0.025404189
0002f0 1d c3 52 bc 1a 8c 38 3b d7 09 8b 3a 4f 62 fc bc
       -0.012863901 0.002815968 0.0010607791 -0.030808596
000300 05 4d 4f bc af 5f b1 bc bb d3 b0 3c 2e 18 b6 3a
       -0.01265264 -0.02165207 0.021585336 0.0013892704
000310 15 bd 39 bc df 31 58 bb 85 c6 c0 ba ae cf 29 3c
       -0.011336585 -0.003298871 -0.0014707601 0.010364456
000320 93 c0 b6 3c 9b 99 3c bc d4 40 31 3c 6e 5d 11 3c
       0.022308623 -0.011511232 0.010818679 0.008872373
000330 1b 3c 0c bd 29 4d 39 3d a5 4c 92 bb 6f 84 9b 3c
       -0.03423701 0.0452396 -0.004464703 0.018984048
000340 f5 bc d7 b9 74 6a 12 3a 06 e5 8f 3b df fe 43 bd
       -0.0004114878 0.0005585321 0.0043913154 -0.047850486
000350 cb 9e b6 bc ef d8 dd bc 2b 34 02 3b dd 3f 8c bc
       -0.022292515 -0.027080981 0.001986752 -0.017120296
000360 4d 5a 3d 3c ea 43 40 bc e5 f9 04 3b 8a 21 2b 3d
       0.011557174 -0.011734942 0.002029055 0.041780032
000370 1b 62 83 bc 7b 82 e5 3c c8 5e 56 3c 73 61 b2 bb
       -0.016037991 0.02801632 0.013084121 -0.0054437458
000380 ea 30 01 3b 17 26 c3 bb 93 9c 63 bc 8b 8c 3d bd
       0.0019712993 -0.0059554684 -0.013892311 -0.04627661
000390 7f 8e a8 3c 0a aa 0c 3b 8c 5f 0d bc 1f ba 75 bb
       0.02057576 0.0021463656 -0.008628737 -0.003749497
0003a0 b8 3d f7 ba 9d 8b c0 3b bf 14 81 bb 57 5c 25 3b
       -0.0018862998 0.005876018 -0.0039392407 0.002523204
0003b0 8e 19 95 bc 08 79 02 ba cf 96 22 bc 50 3d 1c 3c
       -0.018200662 -0.00049771415 -0.009923651 0.009536102
0003c0 5c a2 1d bc c3 65 93 bc 2a d2 94 bc e5 b0 d0 bc
       -0.009621229 -0.01799286 -0.01816662 -0.025474975
0003d0 2d f9 f8 3c ff cb c5 bc 1f 48 fd bb b7 27 b4 3c
       0.030392254 -0.024145124 -0.007729545 0.021991594
0003e0 c3 fe 16 bd 4b f4 d6 bc 30 b5 98 bb c6 5b 2d ba
       -0.036864053 -0.026239535 -0.004660271 -0.00066131016
0003f0 92 54 73 bc 7c 66 93 bc 82 b6 55 3b ba 02 84 bc
       -0.014851706 -0.017993204 0.0032610004 -0.016114581

action_model._continuous_distribution.mu.bias f4 [2]
000000 00 00 00 00 00 00 00 00
       0.0 0.0

network_body._body_endoder.seq_layers.0.weight f4 [128, 9]
000000 3c b8 0e bf e5 ed 26 3f f9 26 8f 3e 26 e0 fd 3a
       -0.5574987 0.6520675 0.2795942 0.001936917
000010 52 b6 05 be 40 f1 ba 3d 3b 6e 88 be e6 f4 e2 3e
       -0.13057831 0.09128046 -0.266466 0.44327468
000020 13 9a ec 3d 02 58 b7 3e e6 b0 69 3d 34 d2 cb bd
       0.11552825 0.35809332 0.05705347 -0.099522024
000030 9e dc 96 bd 47 c5 22 be 5a 44 23 bf 63 29 3d be
       -0.07366298 -0.15895568 -0.6377617 -0.18472819
000040 91 47 a4 be 42 fd 4a 3b c7 0f eb 3e 77 c5 42 bd
       -0.3208585 0.0030973707 0.45910475 -0.0475516
000050 70 c5 55 3d b4 9b c2 be 79 34 80 be 28 9b 8a be
       0.052190244 -0.38009417 -0.25040033 -0.270715
000060 6f 87 b2 3f c5 3b 10 bf 72 8f 88 3e 32 11 4b be
       1.3947581 -0.563412 0.2667194 -0.19830778
000070 bb 16 cf be 43 c4 e3 3d 12 57 69 3d e2 56 95 3a
       -0.4044703 0.11121418 0.056967802 0.0011393691
000080 ca 50 26 3e c7 7b b2 3e 5f 99 46 3d 13 19 1e 3e
       0.16241756 0.3486006 0.04848611 0.15439253
000090 68 51 98 3e 20 48 70 bd 0e de 00 3f b0 c1 3c be
       0.29749608 -0.058662534 0.5033883 -0.18433261
0000a0 82 2f 38 bf 7c ae 82 3c c0 a8 ad 3e ec 48 5c be
       -0.7194749 0.015952341 0.3391781 -0.21512192
0000b0 0e a7 99 bc c5 8e 05 3e 1b 09 93 be 06 d2 28 bb
       -0.018756416 0.13042744 -0.28717884 -0.002575995
0000c0 44 79 83 be fb 71 3d be 07 94 05 be bb 7a ff be
       -0.25678456 -0.18500511 -0.13044749 -0.49898323
0000d0 64 24 e7 3e 7a 47 19 be 0b 8b 9b bd fc 40 34 3e
       0.4514495 -0.14968672 -0.0759488 0.17602915
0000e0 ec 68 ed bc c8 b8 8f bd 59 ad 01 be 84 02 9d 3d
       -0.028980695 -0.07017666 -0.12663783 0.076664954
0000f0 06 24 0a 3d 7c 40 9d 3e a6 9c 1c be a6 6f e4 be
       0.03372576 0.3071326 -0.15294132 -0.4461643
000100 00 ee 85 be ae 56 da bc ef ab bb be 28 09 f7 be
       -0.26158142 -0.02665266 -0.36654612 -0.48249173
000110 a0 24 82 3d d0 55 14 be 4a a1 59 3c da 57 7d 3e
       0.06354642 -0.1448586 0.013283083 0.24740544
000120 b2 c6 3d 3f f9 67 9d be 8e 0b 8c bd 53 f5 3d 3e
       0.7413131 -0.30743387 -0.068381414 0.18550615
000130 06 d8 98 be 74 c3 b1 3e 3b 85 6e 3e 43 3e 64 bd
       -0.29852313 0.3471943 0.23293011 -0.05572344
000140 c9 20 17 be 72 5c d7 be eb 42 6e 3d d0 42 5f be
       -0.147586 -0.42062718 0.058169287 -0.2180283
000150 bf f3 97 3d 1a f6 92 3e 6e 81 32 3f d2 78 07 be
       0.07419538 0.28703386 0.69728744 -0.13229683
000160 35 b2 1b bc 3b 36 db bd 83 de e8 3e 7f da 3e be
       -0.009502937 -0.10703703 0.45482263 -0.18638037
000170 93 05 14 bf 0f 56 95 be 62 26 c4 3d 9f df 6c be
       -0.57821006 -0.2916722 0.095776334 -0.2313218
000180 59 6b 8b bd bc ba 58 3e 3a 8b c9 3d aa ae aa 3c
       -0.06807584 0.21164984 0.098410085 0.02083524
000190 bb 62 de 3e 5a 0f aa be 84 1d 96 be ac 1c f0 3e
       0.434347 -0.33214837 -0.29319394 0.46896875
0001a0 2e 73 91 be 77 13 cc bc c2 5f d0 be d7 c2 3d 3f
       -0.28408188 -0.024911625 -0.40698057 0.74125427
0001b0 14 bb bd be 78 96 d1 be 4b 46 3d 3f 36 20 b7 be
       -0.37056792 -0.4093511 0.73935384 -0.35766762
0001c0 ee 2f 90 bd 4e dc 8f be 38 76 d2 bd dc d3 5b 3f
       -0.07040392 -0.28097767 -0.10276455 0.85870147
0001d0 a3 96 64 3d c0 11 8e be c6 f7 35 be 93 18 ef 3e
       0.05580772 -0.27747917 -0.177703 0.46698436
0001e0 df bf a9 be 97 0b 33 be b8 85 12 3e ac 82 1a 3d
       -0.331542 -0.1748489 0.14308822 0.037722275
0001f0 0b fc 96 3e 06 88 03 3f b3 a9 ab 3e 3a 9b d9 3d
       0.2948917 0.5137943 0.33527908 0.1062531
000200 53 b5 be be 20 f9 09 3f c3 a2 89 3e ce 1d 1d 3f
       -0.37247714 0.5389576 0.2688199 0.61373603
000210 5b 82 4f bf 9c 5d 91 3e 2c d5 b6 be 4f c1 66 bd
       -0.8105828 0.2839173 -0.35709512 -0.056336697
000220 c3 65 c0 be 77 28 3a 3f 93 cd 85 3e d4 92 b7 bd
       -0.37577638 0.72717994 0.26133403 -0.08963552
000230 1c 24 90 bd af 11 ac be be 69 a7 be 45 2f 0f 3d
       -0.07038137 -0.33607242 -0.32697862 0.03495719
000240 8a de 34 be 0c c6 37 3e bf d8 cb 3e 4c c8 aa 3e
       -0.17663017 0.17946643 0.39813802 0.3335594
000250 b3 d6 72 3e f8 83 14 3f 44 70 de 3e 08 d5 94 be
       0.23714714 0.5801387 0.43445027 -0.2906878
000260 8f 91 bb bd 4c b2 9b 3e eb 68 2e 3f 5d 15 22 bc
       -0.091586225 0.30409467 0.6812884 -0.009892789
000270 14 b6 49 bf 30 cb 8e be 02 fd bf bc 17 ec c2 bd
       -0.78793454 -0.27889395 -0.023436073 -0.09517687
000280 77 e4 bc 3e a7 26 11 be c6 5a 81 3d ac fa 92 3e
       0.36893055 -0.14174901 0.06316142 0.28706872
000290 28 ff 84 3e 7a 9c 59 3d 50 18 d3 3d 4f 43 38 3e
       0.2597592 0.053127743 0.103073716 0.17994426
0002a0 8c b8 e4 3e 7c 17 32 3d b2 7d e1 3a 40 eb 6b be
       0.44672048 0.043479428 0.0017203598 -0.2303896
0002b0 06 4e 5e 3f a4 63 fe be dc 02 e6 be db c3 ed be
       0.86837804 -0.49685395 -0.44924057 -0.46438488
0002c0 aa b7 db be 54 c4 50 3f 6e e0 d0 3d 96 75 84 3e
       -0.42913562 0.8154957 0.101990566 0.2587096
0002d0 08 3d 4b be 92 17 79 3e f6 b7 5f be 98 27 01 3e
       -0.198475 0.24325398 -0.2184752 0.1261276
0002e0 7a fe 10 3e e4 0c b2 bd d0 2a 2d bd f7 4f ba be
       0.14159575 -0.08693865 -0.042277157 -0.36389133
0002f0 7a 4c a0 3e 5b d1 30 3e 13 01 2b 3f b7 23 aa bd
       0.31308347 0.17267363 0.66798514 -0.08307593
000300 6e 37 f1 bd a3 a8 de bd c0 3d 04 3e e8 30 09 bf
       -0.117781505 -0.10872009 0.12914181 -0.5359025
000310 29 9c a4 3e 7c e4 8c be 44 31 1e 3e c7 d3 5c 3d
       0.3215039 -0.2751807 0.15448481 0.053912904
000320 84 d1 4d be ba f1 8c be 11 c6 96 be d4 d5 e4 3e
       -0.20099455 -0.27528173 -0.29447988 0.44694388
000330 52 4d e7 3e 96 05 19 3e e2 8a 8c be c2 f3 ba bd
       0.45176178 0.14943537 -0.2744971 -0.09128524
000340 6c 0e 71 be 83 88 44 be db 02 5e 3e a7 80 c7 be
       -0.23540658 -0.191927 0.21680777 -0.3896534
000350 4e 80 0d 3e 51 24 a7 3e 32 c6 0b 3e 86 50 97 3e
       0.13818476 0.32644895 0.13649824 0.29553622
000360 c3 28 ed bb 62 b6 53 be 8e 09 2f 3d f8 0b 13 be
       -0.007237525 -0.20675042 0.04273372 -0.14360034
000370 23 05 5e 3e 09 6f a5 3e ef f1 04 3f 1e fa 62 be
       0.21681647 0.32311276 0.5193166 -0.22165725
000380 26 37 50 bc 74 0c a6 3e 93 05 c3 bd 6c de 36 3f
       -0.012708461 0.32431376 -0.095225476 0.7143314
000390 7b 64 da be 9a 98 43 bf 8f 82 f5 3e 9e 79 05 3e
       -0.42654786 -0.76404727 0.4795117 0.13034675
0003a0 f7 6d 71 bd c2 80 e3 be 40 37 84 bb 58 fb ba be
       -0.05894276 -0.44434172 -0.0040349066 -0.36519885
0003b0 29 c6 98 be a4 c8 fe bc 18 4b 61 be b7 d7 fc 3c
       -0.29838684 -0.031101532 -0.22001302 0.03086458
0003c0 b2 ea 4c 3d 46 0a 0f bf 5c cc 11 bd db 99 b2 3e
       0.05002851 -0.5587505 -0.035595283 0.34883007
0003d0 c8 17 cf be 90 55 46 3e 34 f1 db 3e 9e 20 11 3d
       -0.4044783 0.19368577 0.4295746 0.035431497
0003e0 ad a5 a7 3e 28 17 31 be a8 ec c9 be 23 bf 6b bf
       0.32743588 -0.1729399 -0.39438367 -0.92088526
0003f0 6c be cd 3d 96 fe 82 bb 12 cd 8c bd 10 a6 9e be
       0.10046086 -0.003997634 -0.068750516 -0.3098607

network_body._body_endoder.seq_layers.0.bias f4 [128]
000000 00 00 00 00 00 00 00 00 00 00 00 00 00 00 00 00
       0.0 0.0 0.0 0.0
000010 00 00 00 00 00 00 00 00 00 00 00 00 00 00 00 00
       0.0 0.0 0.0 0.0
000020 00 00 00 00 00 00 00 00 00 00 00 00 00 00 00 00
       0.0 0.0 0.0 0.0
000030 00 00 00 00 00 00 00 00 00 00 00 00 00 00 00 00
       0.0 0.0 0.0 0.0
000040 00 00 00 00 00 00 00 00 00 00 00 00 00 00 00 00
       0.0 0.0 0.0 0.0
000050 00 00 00 00 00 00 00 00 00 00 00 00 00 00 00 00
       0.0 0.0 0.0 0.0
000060 00 00 00 00 00 00 00 00 00 00 00 00 00 00 00 00
       0.0 0.0 0.0 0.0
000070 00 00 00 00 00 00 00 00 00 00 00 00 00 00 00 00
       0.0 0.0 0.0 0.0
000080 00 00 00 00 00 00 00 00 00 00 00 00 00 00 00 00
       0.0 0.0 0.0 0.0
000090 00 00 00 00 00 00 00 00 00 00 00 00 00 00 00 00
       0.0 0.0 0.0 0.0
0000a0 00 00 00 00 00 00 00 00 00 00 00 00 00 00 00 00
       0.0 0.0 0.0 0.0
0000b0 00 00 00 00 00 00 00 00 00 00 00 00 00 00 00 00
       0.0 0.0 0.0 0.0
0000c0 00 00 00 00 00 00 00 00 00 00 00 00 00 00 00 00
       0.0 0.0 0.0 0.0
0000d0 00 00 00 00 00 00 00 00 00 00 00 00 00 00 00 00
       0.0 0.0 0.0 0.0
0000e0 00 00 00 00 00 00 00 00 00 00 00 00 00 00 00 00
       0.0 0.0 0.0 0.0
0000f0 00 00 00 00 00 00 00 00 00 00 00 00 00 00 00 00
       0.0 0.0 0.0 0.0
000100 00 00 00 00 00 00 00 00 00 00 00 00 00 00 00 00
       0.0 0.0 0.0 0.0
000110 00 00 00 00 00 00 00 00 00 00 00 00 00 00 00 00
       0.0 0.0 0.0 0.0
000120 00 00 00 00 00 00 00 00 00 00 00 00 00 00 00 00
       0.0 0.0 0.0 0.0
000130 00 00 00 00 00 00 00 00 00 00 00 00 00 00 00 00
       0.0 0.0 0.0 0.0
000140 00 00 00 00 00 00 00 00 00 00 00 00 00 00 00 00
       0.0 0.0 0.0 0.0
000150 00 00 00 00 00 00 00 00 00 00 00 00 00 00 00 00
       0.0 0.0 0.0 0.0
000160 00 00 00 00 00 00 00 00 00 00 00 00 00 00 00 00
       0.0 0.0 0.0 0.0
000170 00 00 00 00 00 00 00 00 00 00 00 00 00 00 00 00
       0.0 0.0 0.0 0.0
000180 00 00 00 00 00 00 00 00 00 00 00 00 00 00 00 00
       0.0 0.0 0.0 0.0
000190 00 00 00 00 00 00 00 00 00 00 00 00 00 00 00 00
       0.0 0.0 0.0 0.0
0001a0 00 00 00 00 00 00 00 00 00 00 00 00 00 00 00 00
       0.0 0.0 0.0 0.0
0001b0 00 00 00 00 00 00 00 00 00 00 00 00 00 00 00 00
       0.0 0.0 0.0 0.0
0001c0 00 00 00 00 00 00 00 00 00 00 00 00 00 00 00 00
       0.0 0.0 0.0 0.0
0001d0 00 00 00 00 00 00 00 00 00 00 00 00 00 00 00 00
       0.0 0.0 0.0 0.0
0001e0 00 00 00 00 00 00 00 00 00 00 00 00 00 00 00 00
       0.0 0.0 0.0 0.0
0001f0 00 00 00 00 00 00 00 00 00 00 00 00 00 00 00 00
       0.0 0.0 0.0 0.0

network_body._body_endoder.seq_layers.2.weight f4 [128, 128]
000000 42 7d 8f bc 4f 10 4f 3d fe 20 52 be ee 23 a6 3d
       -0.017515782 0.050552662 -0.20520398 0.08112322
000010 d2 87 17 3e 8d 13 27 bd 91 b2 29 bd 4a a0 25 3d
       0.14797905 -0.04079013 -0.04143006 0.040436067
000020 d3 d5 78 bd 7b a3 e1 3c 91 d5 c0 3d 94 0a ff bc
       -0.060750794 0.027543774 0.094157346 -0.031132974
000030 ff ff 41 3d 02 5e 56 be 7e c5 ba 3c 09 96 07 bb
       0.047363278 -0.20934299 0.02279925 -0.0020688793
000040 30 72 d0 bc 89 87 d4 bc d8 d4 4c 3d 14 48 03 3b
       -0.025445074 -0.025943534 0.05000767 0.0020031976
000050 bf bc 9d 3d 65 bf 4d bd aa 75 1f bd bb 66 50 3b
       0.07702016 -0.050231356 -0.038930573 0.0031799513
000060 b2 5a 88 3d e8 9d 0a be 11 f1 29 bd 00 df e2 bd
       0.06657924 -0.13536799 -0.041489664 -0.1107769
000070 27 59 34 3c eb 9f c0 3d 11 f1 e9 bd c8 67 50 3d
       0.011007584 0.09405502 -0.11422933 0.050880224
000080 2e d9 e9 3d bf 3d 8a 3c 17 d4 07 bd 88 e8 be bc
       0.11418377 0.016875146 -0.03316125 -0.023304239
000090 f6 ba a9 3b 42 07 74 3e 14 df 40 3d c9 c1 88 3e
       0.005179758 0.23830894 0.047087744 0.26710346
0000a0 8b bc 08 be 39 9a cb bd aa fe 0f 3e 56 01 1a bc
       -0.13353173 -0.09941525 0.1406199 -0.009399733
0000b0 ab e0 3a 3d 2d b1 c2 3d 8a 26 3c 3d 92 1c 91 3e
       0.045624416 0.0950645 0.04593519 0.2834211
0000c0 e5 d3 cd bd d5 9b 0e 3e a7 b9 aa 3d 9e fe 81 3c
       -0.10050181 0.13926633 0.083361916 0.015868481
0000d0 10 83 91 bc 16 d6 8d 3d aa 57 c2 bd aa 9f 7c bc
       -0.01776269 0.06925599 -0.09489377 -0.015418926
0000e0 80 77 96 bd b6 73 9d bd 3b 79 53 3c a7 cd e1 3d
       -0.073470116 -0.07688086 0.012907322 0.11025553
0000f0 2f bc cf bd 20 03 c2 3d 36 e3 48 bd 1b de ae 3d
       -0.10143315 0.09473252 -0.04904481 0.08538457
000100 c0 0a 51 be 3a 97 cd 3c 47 27 27 3e cc eb 2b 3e
       -0.20414257 0.025096525 0.16323577 0.16789168
000110 df 09 4f bd 34 13 34 bd f7 c2 97 3d 31 5e ac bd
       -0.050546523 -0.043963626 0.074102335 -0.08416403
000120 0e a0 1c 3c 08 a4 87 bd c4 1d 0a bc 30 99 a5 3b
       0.009559644 -0.06623083 -0.008429948 0.0050536618
000130 3f a9 98 bd dd 52 31 3d 87 94 84 bd ef a3 2a be
       -0.07454156 0.043291915 -0.06473642 -0.16664098
000140 87 b4 4e bd 85 1a 0f be 2a a3 5c 3d a0 91 2f bc
       -0.050465133 -0.1397496 0.053866543 -0.010715872
000150 6b 9a 59 bd 28 29 2b 3e 66 06 d6 3d 21 48 82 bb
       -0.05312578 0.16714919 0.10450439 -0.0039758836
000160 d6 a4 fc 3d 0e 60 90 3d 3f 94 65 3d 3f 30 ea bc
       0.123361275 0.07049571 0.05604958 -0.028587459
000170 d5 42 63 3c 1e be 8b bc 18 f2 f2 bd 18 5a b8 3d
       0.0138709145 -0.017058428 -0.11862582 0.09001559
000180 db 7e bb bc 33 45 0f 3e ed ed a6 3d 53 4d 37 3d
       -0.022887638 0.13991241 0.081508495 0.044751476
000190 9c 18 18 3d d2 64 ac bd 30 68 a4 bd 40 55 3c 3d
       0.037132844 -0.084176674 -0.08027685 0.04597974
0001a0 e2 75 62 bd 5f 40 62 bd 66 a2 51 bb e0 05 aa bc
       -0.055288203 -0.05523717 -0.0031987666 -0.020754755
0001b0 fc 59 2a 3e 56 a6 a0 3d d5 55 41 bc 22 1f 03 3d
       0.16635889 0.07844226 -0.011800249 0.032012112
0001c0 6d d1 8b 3c 62 2e a0 3d f4 65 e3 3d ba 5e 54 bc
       0.017067635 0.07821347 0.111034304 -0.012962038
0001d0 d8 93 49 3d 41 5e 0e 3d ff 42 8b bd 13 b3 95 bd
       0.04921326 0.034757856 -0.06799888 -0.07309546
0001e0 55 13 be 3b da 3c cd 3d 0b ce a3 bd dc ce ee 3d
       0.0058006444 0.10021372 -0.07998284 0.11660549
0001f0 32 ee a8 bc e5 0e 02 be f4 d9 b5 bd 77 03 53 3d
       -0.020621393 -0.12700994 -0.08879462 0.051516976
000200 a6 2a d6 3d af 4b 37 3c a7 a8 ff b9 be a3 22 3e
       0.10457353 0.011187478 -0.00048763046 0.15882775
000210 58 80 6c bd 02 fe 63 3b 3b 78 22 3e d0 18 71 3c
       -0.057739586 0.0034788852 0.15866177 0.014715388
000220 95 05 12 3d df 03 25 be a2 90 e8 3c 4e f4 b6 bc
       0.035649855 -0.16114758 0.028389279 -0.02233329
000230 6c 96 14 3e 0c 55 2c 3d da 11 30 3c ed 2a 8c bd
       0.14510506 0.042073295 0.010746444 -0.06844125
000240 fd e2 ad bd 8d a1 e2 bd 38 6c 06 3e e8 a8 01 bc
       -0.0849056 -0.110659696 0.1312722 -0.007913806
000250 a6 08 9e bd da 64 b4 3d 07 9a ce bc aa 49 47 3e
       -0.07716493 0.088082984 -0.02521993 0.19461694
000260 68 ce d1 bd 5d 6a cd 3c b4 29 2a be c1 8e 97 bd
       -0.10244447 0.025075132 -0.16617471 -0.07400275
000270 e7 71 e7 bd eb c5 49 3d 5d 18 01 bd e8 1f 7d 3a
       -0.11301022 0.049261015 -0.031517375 0.00096559385
000280 1d 7c e3 3d 27 9f 57 bd f5 c6 ac bd 50 36 bf 3c
       0.11107657 -0.052642014 -0.084363855 0.023341328
000290 0d e9 40 3d f5 85 fe bd ad 60 00 be ef ab 28 be
       0.047097255 -0.12427894 -0.12536879 -0.16471837
0002a0 b1 8f bb 3b 45 ae 84 3d b2 94 dd bc 41 fd e1 bd
       0.0057239165 0.06478552 -0.027048443 -0.110346325
0002b0 13 b6 f8 3d 3b f5 07 3e 42 ec a2 bc ed 01 8f 3d
       0.12144103 0.13277142 -0.019888047 0.06982789
0002c0 2f 0e 1e 3d d4 fe 42 3e e6 6b ae bd 2f fe f7 3d
       0.038587745 0.19042522 -0.08516674 0.121090285
0002d0 ce 1f 16 be 70 cf 8f bd 71 7a 9d bb 7f 7f 55 bd
       -0.1466057 -0.070219874 -0.004805856 -0.052123543
0002e0 a8 51 03 3e d3 39 05 3d 42 5c 80 bb ce 89 1f 3d
       0.12824118 0.03252585 -0.003917248 0.03894978
0002f0 1a 8b 32 3c e1 d6 9c bc 16 45 db bd 9c a0 62 bd
       0.010897422 -0.019145431 -0.107065365 -0.05532895
000300 74 d7 1f bd de 20 92 3c 59 af cd bd 1d 7b 32 be
       -0.03902383 0.017837938 -0.100432105 -0.17429776
000310 83 ba b9 3c c3 8e 20 bd bb c7 c9 3d a3 f6 75 3d
       0.022671944 -0.03919865 0.09852549 0.060049664
000320 c8 18 89 bd 2c ce d3 bc 5f 65 47 be 0c 25 14 3d
       -0.0669418 -0.025855146 -0.19472264 0.036168143
000330 51 7a d4 bc 94 d8 0b 3d 86 6b ec bd 54 df 0f 3d
       -0.025937231 0.034142092 -0.11543946 0.03512509
000340 f1 73 be bd 94 8e a9 bd f5 61 8d 3d fa 0c 1d be
       -0.09299458 -0.08279148 0.069034494 -0.15336981
000350 07 35 60 be 2e 8b 2c 3c 8b 9c 85 bc b7 39 a9 bd
       -0.21895228 0.01053123 -0.016309997 -0.08262961
000360 61 dc 9a bd 5c 07 4d 3e 46 c9 08 3e 12 95 1f bd
       -0.07561565 0.20022339 0.1335803 -0.038960524
000370 46 52 12 3d 9b 77 a5 3c ce 6b 6e 3c 68 fc bd 3c
       0.035722993 0.020198634 0.01455207 0.023191646
000380 d8 17 4f 3d bd 8f 8b 3d 76 f6 fe bc 5e 7e af bb
       0.05055985 0.06814525 -0.031123381 -0.0053556403
000390 ff 94 0b 3e 3a be 04 3e 8d f0 31 be db 76 63 bd
       0.13631056 0.1296319 -0.17376919 -0.05553327
0003a0 f2 8f b4 3c 8a 37 2f be d3 d8 0b be dc 6c 7f bd
       0.022041295 -0.1711103 -0.1365693 -0.062359676
0003b0 3f 0e a7 3c ab 8d 0c 3c 17 d9 fc 3d 7c eb ce bc
       0.020392535 0.008578698 0.12346094 -0.025258772
0003c0 b4 99 cb bc 99 c7 01 3d 96 84 7a 3d cc 16 c7 bd
       -0.024853565 0.03168449 0.0611616 -0.09721145
0003d0 28 5d 0c bd 48 68 f2 3d 45 cd c2 3c a4 bb 09 be
       -0.03426853 0.11836296 0.02377952 -0.13450485
0003e0 b1 82 ea 3c 95 53 a8 3d 91 5d e0 bd 42 3c 80 bd
       0.028626772 0.08219067 -0.109553464 -0.06261493
0003f0 1c 8b 92 3b c9 f6 d8 bc 6f 7f 43 3e 39 a7 a6 3c
       0.0044721495 -0.026484864 0.19091581 0.02034341

network_body._body_endoder.seq_layers.2.bias f4 [128]
000000 00 00 00 00 00 00 00 00 00 00 00 00 00 00 00 00
       0.0 0.0 0.0 0.0
000010 00 00 00 00 00 00 00 00 00 00 00 00 00 00 00 00
       0.0 0.0 0.0 0.0
000020 00 00 00 00 00 00 00 00 00 00 00 00 00 00 00 00
       0.0 0.0 0.0 0.0
000030 00 00 00 00 00 00 00 00 00 00 00 00 00 00 00 00
       0.0 0.0 0.0 0.0
000040 00 00 00 00 00 00 00 00 00 00 00 00 00 00 00 00
       0.0 0.0 0.0 0.0
000050 00 00 00 00 00 00 00 00 00 00 00 00 00 00 00 00
       0.0 0.0 0.0 0.0
000060 00 00 00 00 00 00 00 00 00 00 00 00 00 00 00 00
       0.0 0.0 0.0 0.0
000070 00 00 00 00 00 00 00 00 00 00 00 00 00 00 00 00
       0.0 0.0 0.0 0.0
000080 00 00 00 00 00 00 00 00 00 00 00 00 00 00 00 00
       0.0 0.0 0.0 0.0
000090 00 00 00 00 00 00 00 00 00 00 00 00 00 00 00 00
       0.0 0.0 0.0 0.0
0000a0 00 00 00 00 00 00 00 00 00 00 00 00 00 00 00 00
       0.0 0.0 0.0 0.0
0000b0 00 00 00 00 00 00 00 00 00 00 00 00 00 00 00 00
       0.0 0.0 0.0 0.0
0000c0 00 00 00 00 00 00 00 00 00 00 00 00 00 00 00 00
       0.0 0.0 0.0 0.0
0000d0 00 00 00 00 00 00 00 00 00 00 00 00 00 00 00 00
       0.0 0.0 0.0 0.0
0000e0 00 00 00 00 00 00 00 00 00 00 00 00 00 00 00 00
       0.0 0.0 0.0 0.0
0000f0 00 00 00 00 00 00 00 00 00 00 00 00 00 00 00 00
       0.0 0.0 0.0 0.0
000100 00 00 00 00 00 00 00 00 00 00 00 00 00 00 00 00
       0.0 0.0 0.0 0.0
000110 00 00 00 00 00 00 00 00 00 00 00 00 00 00 00 00
       0.0 0.0 0.0 0.0
000120 00 00 00 00 00 00 00 00 00 00 00 00 00 00 00 00
       0.0 0.0 0.0 0.0
000130 00 00 00 00 00 00 00 00 00 00 00 00 00 00 00 00
       0.0 0.0 0.0 0.0
000140 00 00 00 00 00 00 00 00 00 00 00 00 00 00 00 00
       0.0 0.0 0.0 0.0
000150 00 00 00 00 00 00 00 00 00 00 00 00 00 00 00 00
       0.0 0.0 0.0 0.0
000160 00 00 00 00 00 00 00 00 00 00 00 00 00 00 00 00
       0.0 0.0 0.0 0.0
000170 00 00 00 00 00 00 00 00 00 00 00 00 00 00 00 00
       0.0 0.0 0.0 0.0
000180 00 00 00 00 00 00 00 00 00 00 00 00 00 00 00 00
       0.0 0.0 0.0 0.0
000190 00 00 00 00 00 00 00 00 00 00 00 00 00 00 00 00
       0.0 0.0 0.0 0.0
0001a0 00 00 00 00 00 00 00 00 00 00 00 00 00 00 00 00
       0.0 0.0 0.0 0.0
0001b0 00 00 00 00 00 00 00 00 00 00 00 00 00 00 00 00
       0.0 0.0 0.0 0.0
0001c0 00 00 00 00 00 00 00 00 00 00 00 00 00 00 00 00
       0.0 0.0 0.0 0.0
0001d0 00 00 00 00 00 00 00 00 00 00 00 00 00 00 00 00
       0.0 0.0 0.0 0.0
0001e0 00 00 00 00 00 00 00 00 00 00 00 00 00 00 00 00
       0.0 0.0 0.0 0.0
0001f0 00 00 00 00 00 00 00 00 00 00 00 00 00 00 00 00
       0.0 0.0 0.0 0.0

value_heads.value_heads.extrinsic.weight f4 [1, 128]
000000 61 ce 41 be ab 46 2c be d4 02 e6 bd 27 1d 4b be
       -0.18926384 -0.16823833 -0.11231008 -0.1983534
000010 e8 ea ee 3c 14 63 ae bd 50 af 8f 3d 32 26 02 be
       0.029164746 -0.085149914 0.0701586 -0.12709883
000020 dd a8 02 be ea bc d4 bd 38 6f 0e 3e d4 f3 5b be
       -0.12759729 -0.10387595 0.13909614 -0.21479732
000030 9d 67 db bd 6b fd f6 bd 52 cc 57 3e dc 3b 0e bd
       -0.10713122 -0.120600544 0.21074036 -0.034725055
000040 77 6f 4d be 00 a6 2b 3e 6a 90 50 be 30 dd b0 3c
       -0.20062052 0.16762543 -0.2036759 0.021589845
000050 66 2b b0 bd da 13 8b bd 98 b4 17 bd e4 6d 15 3e
       -0.086020276 -0.06790896 -0.037037462 0.14592701
000060 28 29 28 bd 50 e4 12 bd f0 88 3a 3d c8 3d e0 3d
       -0.041054875 -0.035862267 0.04554075 0.10949284
000070 58 7d bc bc 28 7e 94 3d 6a c4 db bd 46 c7 90 bd
       -0.023008987 0.07250625 -0.107308224 -0.070692584
000080 de cd 4f 3e 2c 44 2e 3e fa e1 bd bd 13 e3 5b be
       0.20293376 0.17018193 -0.09271617 -0.2147334
000090 58 8d 13 3e 68 b4 c5 3c 70 53 21 3e 32 48 53 3e
       0.14409387 0.024133876 0.15754485 0.20633009
0000a0 06 c0 82 bd 7b 5c d8 bd bc bf 9c 3d 74 05 36 3e
       -0.06384282 -0.10564514 0.07653758 0.17775518
0000b0 74 c5 57 3e 40 59 b1 bd af 02 2a be bb fa 48 be
       0.21071416 -0.08659601 -0.16602586 -0.19626896
0000c0 88 83 f3 bc 0b e0 59 be 08 13 f8 bc c8 de 4e 3d
       -0.029725805 -0.21276872 -0.030282512 0.05050543
0000d0 94 87 47 bd cd 54 cf bd 78 fa d1 3d b9 e9 2f be
       -0.04871328 -0.10123596 0.10252851 -0.17179002
0000e0 f8 88 86 bc a0 85 be bb 58 ae b2 3c f8 ba 10 be
       -0.016422734 -0.005814269 0.02181165 -0.14133823
0000f0 f0 3c e9 bc 58 0a 3e 3e 54 d0 6a bd 60 a9 5a 3d
       -0.02847144 0.18558633 -0.057327583 0.053384185
000100 89 7d 0d be f6 7f 1a be 64 44 99 3d dd e9 50 be
       -0.13817419 -0.15087876 0.074837476 -0.20401712
000110 c0 1c e2 3d ae ea 83 bd 00 dc 14 b9 e0 c1 b0 bb
       0.1104064 -0.06441246 -0.00014196336 -0.0053942055
000120 5c eb 45 3e 60 75 3e 3c f9 20 d5 bd 17 ea de bd
       0.19328064 0.011624664 -0.1040668 -0.10884493
000130 5e 46 32 3e 41 fc 40 be 60 3d 14 3c e6 ad 1e 3e
       0.17409655 -0.18846227 0.009047836 0.15496024
000140 73 79 24 be b4 d9 1f be 8d a2 ff bd 84 40 da bd
       -0.16061954 -0.15610391 -0.12482176 -0.10656837
000150 9e 4a 21 3e 67 3a f9 bd d4 b7 17 be ac 7f 7f bd
       0.1575112 -0.121693425 -0.14816219 -0.062377617
000160 e2 04 0a be 72 14 2a 3e 2c 8a 35 bd a2 87 41 be
       -0.13478425 0.16609362 -0.044321224 -0.18899396
000170 cc d2 ec 3d 90 60 fe bd f5 6f 1a be b8 30 b9 bc
       0.11563644 -0.124207616 -0.1508177 -0.022606239
000180 40 d7 f8 bb 54 16 d0 3d 28 46 d7 3d 0c ac b7 3d
       -0.007594019 0.10160509 0.10511428 0.08968362
000190 28 17 ea 3c 84 e0 bf 3d 48 84 91 3c 5e 5f 38 3e
       0.028575495 0.09368995 0.017763272 0.1800513
0001a0 b2 e8 01 be c8 6c 4e 3d d0 50 03 be 00 79 df ba
       -0.12686422 0.05039671 -0.12823796 -0.0017049611
0001b0 a6 5b 4e be 08 d1 27 3e 76 fa 99 bd 2b 0a 11 be
       -0.20152149 0.16388333 -0.07518475 -0.14164035
0001c0 58 a4 45 bd c0 6c c5 3b ae be d4 bd 7d ba 58 be
       -0.048252434 0.006024927 -0.10387932 -0.2116489
0001d0 0c 19 bc 3d 1d d8 0d be b0 2e 47 be 70 3a d6 3d
       0.09184465 -0.13851972 -0.19451404 0.10460365
0001e0 98 1b 6c bd b5 c6 02 be 04 1d 82 3d f2 e2 90 bd
       -0.057643503 -0.12771113 0.063531905 -0.070745364
0001f0 e4 40 57 3e f0 05 38 be 90 f6 48 3c c7 12 ed bd
       0.21020848 -0.17971015 0.012265816 -0.11575847
