results/Test2/MoveToGoal.onnx (onnx, 69381 bytes, 5 tensors)

action_model._continuous_distribution.mu.weight f4 [1, 128]
000000 48 26 d6 ba 79 91 c2 3b 0a c2 5f 3c bf de 40 3c
       -0.0016338313 0.005937752 0.013657102 0.011771857
000010 03 3b 7f 3c fb eb 6f 3c a8 5b 37 ba 15 9a 95 bc
       0.015578034 0.0146436645 -0.0006994554 -0.018261949
000020 a3 a1 19 3d be 68 34 bc 50 b1 ca 3c 37 6e 6d 3c
       0.037507664 -0.011011301 0.024742752 0.014491609
000030 1b 83 4a 3a 53 3c ed bb 6e 1f 39 bb 1f c3 0b 3c
       0.0007725225 -0.007239857 -0.0028247493 0.008530407
000040 d0 c4 66 bc 06 3a 81 3c 3d 86 bb 3c 39 ce 9a 3c
       -0.01408501 0.015774738 0.022891158 0.018897163
000050 15 1d f8 3b 42 f1 48 bb 68 cf 5c 3c 2a f5 11 3b
       0.007571826 -0.003066138 0.013477184 0.0022271373
000060 62 c1 e3 bc 54 86 b9 bb ff bc bb bc 76 ea 87 bc
       -0.027802173 -0.005661765 -0.022917269 -0.016591292
000070 a0 34 aa ba b4 42 90 3c 90 4d 76 3c ab a2 2d b9
       -0.0012985654 0.017609932 0.015033141 -0.00016559164
000080 60 a2 60 bb a2 56 48 bc 3d 09 c3 3b 39 e0 b6 bc
       -0.003427647 -0.012227686 0.005952029 -0.022323715
000090 b5 46 15 b9 0f 47 aa 3b cf 6e bd 3b 12 6a 77 3a
       -0.00014236088 0.005196459 0.0057810317 0.0009438108
0000a0 8b 91 0e bc 2d e4 23 bc a3 17 a6 bc 64 61 c9 bc
       -0.008701692 -0.010003132 -0.020274943 -0.024582572
0000b0 a7 fa e4 bc 4a 99 29 3b 27 82 87 3c c2 5b 67 bc
       -0.027951552 0.002587872 0.016541554 -0.014120998
0000c0 28 85 66 3b 33 30 fa bc bc e1 1b bb 90 b8 a6 bc
       0.0035174582 -0.030540561 -0.0023785671 -0.020351678
0000d0 bc f4 14 3c 03 66 0a bc 0f 33 a3 ba 00 8a 90 3c
       0.009091552 -0.008447173 -0.001245113 0.017643929
0000e0 00 49 67 bc 66 8e 0b bc 17 7c 28 b9 7e ed 0b bb
       -0.014116526 -0.008517837 -0.00016067956 -0.0021351273
0000f0 c3 cb 13 3c c0 5d aa ba 39 40 35 bc 90 89 6c 3b
       0.009020749 -0.001299791 -0.011062675 0.0036092736
000100 3f 47 2a bc fa 60 72 bb 17 60 e1 ba 75 0c 78 bc
       -0.010392963 -0.0036984072 -0.0017194775 -0.015139689
000110 c0 d3 8e bc db 3f ec bb 0e 05 10 3d 2e d7 a3 3a
       -0.017434955 -0.0072097606 0.03516107 0.0012500042
000120 44 ad a1 bc a7 5a 8f ba 56 c5 04 bc a9 88 2d bd
       -0.01973594 -0.0010937051 -0.008103689 -0.042366657
000130 e8 62 9c bc e5 b3 e5 3b 0d b9 f6 3b 28 8b 03 3d
       -0.01909013 0.0070099705 0.007529384 0.03211513
000140 a0 1d 07 bc 33 d2 03 bc cf c5 83 bb 9a c9 06 ba
       -0.008246809 -0.008045721 -0.0040213834 -0.00051417353
000150 43 fd a3 ba f1 b8 87 bb 57 20 d0 3b 57 6d f4 3c
       -0.0012511391 -0.00414192 0.0063515115 0.029837294
000160 54 ab 03 3d d3 72 8a 3b a8 63 71 bb a4 9b 93 bb
       0.032145813 0.004225114 -0.0036833081 -0.004504638
000170 cc a6 b1 bc 1d ad 40 bc a0 af 5c bc 59 62 01 3c
       -0.02168598 -0.011760023 -0.013469607 0.007896983
000180 cf 98 56 3c 26 c3 05 3d c8 64 1f bd 58 b1 87 3b
       0.013097956 0.03265681 -0.038914472 0.004141014
000190 7e 08 92 3b d0 39 ff 3c 93 b3 f0 3b df 90 de 3c
       0.0044565788 0.031155497 0.0073456257 0.02716869
0001a0 fd 22 4f 3c b6 c5 09 bd 38 6e 1c 3c a7 fc 4a 3d
       0.012642619 -0.033635817 0.009547763 0.049557354
0001b0 6b 01 96 bc d8 7e 0b 3d 37 77 26 3d 93 a2 40 bc
       -0.018311223 0.034056515 0.040641036 -0.011757511
0001c0 73 9f 24 3b ab 45 71 bb b3 31 c6 bc af 64 ee 3a
       0.0025119453 -0.0036815207 -0.02419362 0.0018187965
0001d0 23 30 23 3b 0f 56 59 3c 73 53 25 3c fd d0 d3 bc
       0.0024900518 0.013265147 0.010090697 -0.02585649
0001e0 d7 3a a4 bb 3d 28 4f 3c 37 d3 fd 38 90 0e df 3c
       -0.005011897 0.012643871 0.00012103322 0.027228624
0001f0 67 84 c0 3b 3c d7 90 bb 05 0b 50 3b 62 1f e2 bb
       0.0058751586 -0.004420189 0.003174485 -0.006900714

network_body._body_endoder.seq_layers.0.bias f4 [128]
000000 00 00 00 00 00 00 00 00 00 00 00 00 00 00 00 00
       0.0 0.0 0.0 0.0
000010 00 00 00 00 00 00 00 00 00 00 00 00 00 00 00 00
       0.0 0.0 0.0 0.0
000020 00 00 00 00 00 00 00 00 00 00 00 00 00 00 00 00
       0.0 0.0 0.0 0.0
000030 00 00 00 00 00 00 00 00 00 00 00 00 00 00 00 00
       0.0 0.0 0.0 0.0
000040 00 00 00 00 00 00 00 00 00 00 00 00 00 00 00 00
       0.0 0.0 0.0 0.0
000050 00 00 00 00 00 00 00 00 00 00 00 00 00 00 00 00
       0.0 0.0 0.0 0.0
000060 00 00 00 00 00 00 00 00 00 00 00 00 00 00 00 00
       0.0 0.0 0.0 0.0
000070 00 00 00 00 00 00 00 00 00 00 00 00 00 00 00 00
       0.0 0.0 0.0 0.0
000080 00 00 00 00 00 00 00 00 00 00 00 00 00 00 00 00
       0.0 0.0 0.0 0.0
000090 00 00 00 00 00 00 00 00 00 00 00 00 00 00 00 00
       0.0 0.0 0.0 0.0
0000a0 00 00 00 00 00 00 00 00 00 00 00 00 00 00 00 00
       0.0 0.0 0.0 0.0
0000b0 00 00 00 00 00 00 00 00 00 00 00 00 00 00 00 00
       0.0 0.0 0.0 0.0
0000c0 00 00 00 00 00 00 00 00 00 00 00 00 00 00 00 00
       0.0 0.0 0.0 0.0
0000d0 00 00 00 00 00 00 00 00 00 00 00 00 00 00 00 00
       0.0 0.0 0.0 0.0
0000e0 00 00 00 00 00 00 00 00 00 00 00 00 00 00 00 00
       0.0 0.0 0.0 0.0
0000f0 00 00 00 00 00 00 00 00 00 00 00 00 00 00 00 00
       0.0 0.0 0.0 0.0
000100 00 00 00 00 00 00 00 00 00 00 00 00 00 00 00 00
       0.0 0.0 0.0 0.0
000110 00 00 00 00 00 00 00 00 00 00 00 00 00 00 00 00
       0.0 0.0 0.0 0.0
000120 00 00 00 00 00 00 00 00 00 00 00 00 00 00 00 00
       0.0 0.0 0.0 0.0
000130 00 00 00 00 00 00 00 00 00 00 00 00 00 00 00 00
       0.0 0.0 0.0 0.0
000140 00 00 00 00 00 00 00 00 00 00 00 00 00 00 00 00
       0.0 0.0 0.0 0.0
000150 00 00 00 00 00 00 00 00 00 00 00 00 00 00 00 00
       0.0 0.0 0.0 0.0
000160 00 00 00 00 00 00 00 00 00 00 00 00 00 00 00 00
       0.0 0.0 0.0 0.0
000170 00 00 00 00 00 00 00 00 00 00 00 00 00 00 00 00
       0.0 0.0 0.0 0.0
000180 00 00 00 00 00 00 00 00 00 00 00 00 00 00 00 00
       0.0 0.0 0.0 0.0
000190 00 00 00 00 00 00 00 00 00 00 00 00 00 00 00 00
       0.0 0.0 0.0 0.0
0001a0 00 00 00 00 00 00 00 00 00 00 00 00 00 00 00 00
       0.0 0.0 0.0 0.0
0001b0 00 00 00 00 00 00 00 00 00 00 00 00 00 00 00 00
       0.0 0.0 0.0 0.0
0001c0 00 00 00 00 00 00 00 00 00 00 00 00 00 00 00 00
       0.0 0.0 0.0 0.0
0001d0 00 00 00 00 00 00 00 00 00 00 00 00 00 00 00 00
       0.0 0.0 0.0 0.0
0001e0 00 00 00 00 00 00 00 00 00 00 00 00 00 00 00 00
       0.0 0.0 0.0 0.0
0001f0 00 00 00 00 00 00 00 00 00 00 00 00 00 00 00 00
       0.0 0.0 0.0 0.0

network_body._body_endoder.seq_layers.0.weight f4 [128, 1]
000000 cf 15 82 3f 16 b2 db 3f ac f4 21 bf 00 ea a7 bf
       1.0162905 1.7163723 -0.63263965 -1.3118286
000010 91 9b 81 be b4 4f aa be f7 d0 70 3f 3c 7e fe be
       -0.25314 -0.33263934 0.94068855 -0.49705684
000020 6c f3 04 3f db 86 29 c0 43 36 4b bf 1b 92 dd 3d
       0.5193393 -2.648856 -0.7937967 0.10818883
000030 53 e4 04 40 01 9e fe 3f 95 32 be be 84 ae 62 bf
       2.0764358 1.9891969 -0.37147966 -0.8854754
000040 63 cf 86 bf 56 e9 af bf c9 61 cc bf 6d a5 f0 3d
       -1.0532039 -1.3743083 -1.5967342 0.117503025
000050 51 72 e5 3e 35 c3 7b bf cf 09 40 bf 1c b6 e4 3d
       0.4481378 -0.9834474 -0.75014967 0.11167547
000060 54 45 f5 3e f1 ca a8 3e d2 3e 09 bf eb 75 f6 3e
       0.47904456 0.32967332 -0.5361148 0.4813684
000070 a4 3c 94 bf c3 77 96 3f a8 cd 20 40 b2 26 1b bf
       -1.1581006 1.1755298 2.5125523 -0.6060592
000080 7b a2 43 3f 47 48 e7 3f 2a d1 a2 bf 6a 01 12 40
       0.764198 1.8068932 -1.2720082 2.2813363
000090 e2 d5 06 be 53 75 fc be 06 88 29 bf 60 ff 8f be
       -0.13167527 -0.4930826 -0.6622318 -0.28124523
0000a0 ed 92 94 be 97 35 77 be ed 22 a0 bf c9 00 22 c0
       -0.29018345 -0.24141537 -1.2510659 -2.531298
0000b0 f1 b1 92 bf 06 e5 65 bf f9 51 00 bf b8 ac 75 bf
       -1.1460553 -0.8980259 -0.5012508 -0.9596667
0000c0 84 67 67 bf 35 0c 1a bf 2f 37 ba 3d f4 ea f6 3e
       -0.9039233 -0.60174876 0.09092557 0.4822613
0000d0 63 43 7f 3f e5 06 7f bf 70 5c 8b 3e f9 97 38 be
       0.997122 -0.99619895 0.27218962 -0.18026723
0000e0 39 ff 66 be e2 9f 21 bf 9d 08 ca be 29 9a 07 3f
       -0.22558297 -0.63134587 -0.39459696 0.52969605
0000f0 35 78 a7 3f ae 61 64 bf 85 10 39 3e aa b2 23 3e
       1.3083559 -0.8921155 0.18072708 0.15986124
000100 e1 29 1d bf 7f 78 1c 3f 7d 27 31 3f 6f c3 1c c0
       -0.6139203 0.6112136 0.6920088 -2.4494283
000110 a7 60 96 be 63 8f 9a bf 56 ef 30 3f ba 26 df 3f
       -0.29370615 -1.2075008 0.691152 1.7433693
000120 3f e5 62 bf 0b 4d 89 3f 0a f4 5d 40 32 b6 4b 3f
       -0.8863105 1.0726637 3.46802 0.79574883
000130 40 80 83 3f c3 69 02 bf b9 c2 2d 3e ec 32 e3 3f
       1.0273514 -0.5094263 0.16968812 1.7749915
000140 b5 d3 f4 3c 6e a9 fa be 08 01 a2 3f d0 49 48 bf
       0.029886106 -0.4895739 1.2656565 -0.7823763
000150 52 23 da 3d a9 9b fe bf ea b3 d5 be 0d f2 e9 3e
       0.10651268 -1.9891254 -0.41738826 0.45692483
000160 77 e6 a6 3f 56 57 f5 3d c0 f3 a4 3f 21 44 ce 3f
       1.3039082 0.11979549 1.2886887 1.6114541
000170 5d 9f f2 3f 6b 85 82 3f f8 be 78 bf 9c 7f 65 3f
       1.8954884 1.0196966 -0.97166395 0.8964784
000180 62 e1 9f 3e ea 74 4a 3e 29 4c 7c 3f 00 0c 23 3f
       0.3122664 0.19771162 0.9855371 0.63690186
000190 73 69 28 bf e8 73 62 3d f2 b0 01 3e c7 93 21 bf
       -0.657859 0.055286318 0.12665156 -0.63116115
0001a0 a8 a8 6e bf b9 95 bd 3e 7c 8c 84 3e 83 71 24 3e
       -0.932261 0.37028292 0.2588843 0.16058926
0001b0 6e 5a 50 bf 23 2d d9 3e bc 1f bc 3f 51 61 b9 3e
       -0.81387985 0.4241725 1.4697185 0.3620706
0001c0 dd 16 82 3f 2b 3b 5c be a8 a2 f7 bd b0 99 8f bf
       1.0163227 -0.21506946 -0.12091571 -1.1218777
0001d0 53 31 81 3f c8 10 fe bf a3 4e 68 3f 56 5f 9a 3f
       1.0093178 -1.9848871 0.9074499 1.2060344
0001e0 80 b5 42 bf 98 85 f4 3d ce e3 1e 3f d5 c7 2b bf
       -0.760582 0.119395435 0.6206635 -0.67101794
0001f0 89 3b 20 bf ee 76 28 bf 7b a9 a2 3e 55 e4 00 3f
       -0.62590843 -0.6580647 0.31769928 0.5034841

network_body._body_endoder.seq_layers.2.bias f4 [128]
000000 00 00 00 00 00 00 00 00 00 00 00 00 00 00 00 00
       0.0 0.0 0.0 0.0
000010 00 00 00 00 00 00 00 00 00 00 00 00 00 00 00 00
       0.0 0.0 0.0 0.0
000020 00 00 00 00 00 00 00 00 00 00 00 00 00 00 00 00
       0.0 0.0 0.0 0.0
000030 00 00 00 00 00 00 00 00 00 00 00 00 00 00 00 00
       0.0 0.0 0.0 0.0
000040 00 00 00 00 00 00 00 00 00 00 00 00 00 00 00 00
       0.0 0.0 0.0 0.0
000050 00 00 00 00 00 00 00 00 00 00 00 00 00 00 00 00
       0.0 0.0 0.0 0.0
000060 00 00 00 00 00 00 00 00 00 00 00 00 00 00 00 00
       0.0 0.0 0.0 0.0
000070 00 00 00 00 00 00 00 00 00 00 00 00 00 00 00 00
       0.0 0.0 0.0 0.0
000080 00 00 00 00 00 00 00 00 00 00 00 00 00 00 00 00
       0.0 0.0 0.0 0.0
000090 00 00 00 00 00 00 00 00 00 00 00 00 00 00 00 00
       0.0 0.0 0.0 0.0
0000a0 00 00 00 00 00 00 00 00 00 00 00 00 00 00 00 00
       0.0 0.0 0.0 0.0
0000b0 00 00 00 00 00 00 00 00 00 00 00 00 00 00 00 00
       0.0 0.0 0.0 0.0
0000c0 00 00 00 00 00 00 00 00 00 00 00 00 00 00 00 00
       0.0 0.0 0.0 0.0
0000d0 00 00 00 00 00 00 00 00 00 00 00 00 00 00 00 00
       0.0 0.0 0.0 0.0
0000e0 00 00 00 00 00 00 00 00 00 00 00 00 00 00 00 00
       0.0 0.0 0.0 0.0
0000f0 00 00 00 00 00 00 00 00 00 00 00 00 00 00 00 00
       0.0 0.0 0.0 0.0
000100 00 00 00 00 00 00 00 00 00 00 00 00 00 00 00 00
       0.0 0.0 0.0 0.0
000110 00 00 00 00 00 00 00 00 00 00 00 00 00 00 00 00
       0.0 0.0 0.0 0.0
000120 00 00 00 00 00 00 00 00 00 00 00 00 00 00 00 00
       0.0 0.0 0.0 0.0
000130 00 00 00 00 00 00 00 00 00 00 00 00 00 00 00 00
       0.0 0.0 0.0 0.0
000140 00 00 00 00 00 00 00 00 00 00 00 00 00 00 00 00
       0.0 0.0 0.0 0.0
000150 00 00 00 00 00 00 00 00 00 00 00 00 00 00 00 00
       0.0 0.0 0.0 0.0
000160 00 00 00 00 00 00 00 00 00 00 00 00 00 00 00 00
       0.0 0.0 0.0 0.0
000170 00 00 00 00 00 00 00 00 00 00 00 00 00 00 00 00
       0.0 0.0 0.0 0.0
000180 00 00 00 00 00 00 00 00 00 00 00 00 00 00 00 00
       0.0 0.0 0.0 0.0
000190 00 00 00 00 00 00 00 00 00 00 00 00 00 00 00 00
       0.0 0.0 0.0 0.0
0001a0 00 00 00 00 00 00 00 00 00 00 00 00 00 00 00 00
       0.0 0.0 0.0 0.0
0001b0 00 00 00 00 00 00 00 00 00 00 00 00 00 00 00 00
       0.0 0.0 0.0 0.0
0001c0 00 00 00 00 00 00 00 00 00 00 00 00 00 00 00 00
       0.0 0.0 0.0 0.0
0001d0 00 00 00 00 00 00 00 00 00 00 00 00 00 00 00 00
       0.0 0.0 0.0 0.0
0001e0 00 00 00 00 00 00 00 00 00 00 00 00 00 00 00 00
       0.0 0.0 0.0 0.0
0001f0 00 00 00 00 00 00 00 00 00 00 00 00 00 00 00 00
       0.0 0.0 0.0 0.0

network_body._body_endoder.seq_layers.2.weight f4 [128, 128]
000000 37 d8 75 3d 3d 10 86 3c 1d 21 5c 3d 2d de 95 3b
       0.06002065 0.016365165 0.053742517 0.0045736046
000010 a7 a6 2f bd 42 83 73 bd 4c fb 1d 3e b7 79 dd 3d
       -0.04288354 -0.05945135 0.15427893 0.10814231
000020 c6 e7 9e 3c b5 7f 95 bd 67 ee 77 3e 92 38 bd 3a
       0.019397628 -0.07299749 0.24212037 0.0014436415
000030 f6 0f c2 bd 64 c5 d7 bc 10 e6 49 be 26 42 0b be
       -0.094757006 -0.02633924 -0.19716668 -0.13599452
000040 e0 c8 4d be 1a 28 d5 bd e9 42 be bd 85 b2 78 3c
       -0.20096159 -0.104080394 -0.09290106 0.015179281
000050 f7 28 34 3c 43 a3 68 3d 9a 2c 8b 3d 28 2b 94 bd
       0.010996095 0.056796324 0.067956164 -0.07234794
000060 2b 3b 64 bd 88 a5 bb bd c4 e5 00 be 38 53 68 be
       -0.05572049 -0.09162432 -0.12587649 -0.22687995
000070 5b ab 8c 3c a8 84 c3 3c df 74 1a be 98 59 a1 be
       0.017171552 0.023866966 -0.15083645 -0.31513667
000080 09 10 dd 3d c1 5b 1a 3d 35 cb 1c 3b 38 ab de 3c
       0.10794074 0.03768516 0.0023924832 0.027181253
000090 ac 9f 0e bd 6a 17 f8 3d 28 ee 28 3e e6 21 34 bd
       -0.034820244 0.12113841 0.164971 -0.04397764
0000a0 eb 3d c1 3d 6e b3 8c 3d 6c 83 1c be ce 98 6f bd
       0.09435638 0.06870161 -0.15284508 -0.058495335
0000b0 9a 2a 40 bd 2a 48 3d 3d 39 c6 f8 3c 55 58 a5 bd
       -0.046915628 0.0462114 0.030367957 -0.080734886
0000c0 e7 e5 31 bd 2a 18 03 be bf cd f6 bb 81 63 1c be
       -0.043432143 -0.12802187 -0.007531851 -0.15272333
0000d0 b2 05 76 3d db 3f e3 3d b8 e6 1e bc 76 e5 f3 3d
       0.060064025 0.11096164 -0.009698562 0.119090006
0000e0 8b b8 72 bd b4 9d 85 bc 10 82 da bc 8f 7c c7 3c
       -0.059258025 -0.01631055 -0.026673347 0.024351386
0000f0 89 e8 a9 3d 95 b7 37 3d 44 c8 27 3c 16 ac e3 3d
       0.08296306 0.04485281 0.010240618 0.11116807
000100 8a 98 d8 3d 1c 7e bb 3d 3f 02 44 bd 78 e9 8c 3d
       0.105759695 0.09154913 -0.047853705 0.06880468
000110 96 a9 bf 3d 3d b9 f3 3d 87 bc e6 3d 6a 27 cb bc
       0.09358518 0.11900566 0.112664275 -0.024799068
000120 56 be c4 3d 0a 9b 73 bc 5f 94 03 3e 12 78 9a bc
       0.09606616 -0.014868507 0.12849568 -0.018856082
000130 5c fc 5e 3c d7 7d 87 bc 2a 8e 87 3d 9b a8 24 3d
       0.013609972 -0.016539497 0.066189125 0.040199857
000140 4c 4b 08 be e5 b9 83 bc bb c5 bc 3d 49 05 e1 bb
       -0.13309973 -0.016079852 0.092174016 -0.006867085
000150 c1 8f a3 3d f2 8a b4 3c b2 27 b4 bc 8a 9e 36 be
       0.07986403 0.02203891 -0.021991584 -0.17833915
000160 8c dc 02 be cf ae ad bb 46 1a 9c bd d1 0a 00 be
       -0.12779444 -0.00530038 -0.07622199 -0.12504126
000170 cf 43 c8 3d ae ed 9e bb d0 ae 9d bd 4a 17 09 bc
       0.097785585 -0.004850111 -0.076993585 -0.008367369
000180 de 63 0f 3c 89 aa 8b 3d a5 a3 44 be bf cd f6 3d
       0.008751838 0.068196364 -0.1920305 0.12050962
000190 66 87 8f 3d 35 94 f8 3c 58 fa c6 bd 83 5e 13 3d
       0.07008247 0.030344108 -0.09715718 0.035978805
0001a0 36 03 4d bd 00 95 81 3d 3c 1c 93 bc 93 f5 ee 3d
       -0.05005189 0.063272476 -0.0179578 0.11667933
0001b0 3d 49 db 3d 9c 34 3b bc b9 a4 06 be f1 84 cf 3d
       0.107073285 -0.011426117 -0.13148774 0.101327784
0001c0 3e d8 3c 3d 74 5b ca ba 89 48 3c bd 40 5a 3a 3e
       0.046104662 -0.0015438632 -0.045967612 0.1819849
0001d0 20 dd a4 bd 75 e4 8c 3d a4 28 84 3b 8a 94 d6 bd
       -0.08049989 0.06879512 0.004033165 -0.1047755
0001e0 c1 6b d6 bd b8 b6 80 3d b4 2c 87 bd 92 df 40 3e
       -0.10469771 0.06284851 -0.06600323 0.18835285
0001f0 67 ff db bd 79 85 a4 3d 51 a3 99 bc 19 53 36 be
       -0.107420735 0.080332704 -0.018754633 -0.17805137
000200 ce f8 b1 bb ab 4f a5 3d 91 18 26 3e e3 28 96 bd
       -0.005431271 0.08071836 0.16220309 -0.07332017
000210 82 cb 83 3d 8f ec 23 3e 5a 07 ff bc 9e f5 7a bc
       0.064353004 0.16008209 -0.031131435 -0.015317349
000220 42 cc fd 3c ac 37 37 3d 5a 20 5f bc c2 a3 89 bd
       0.030981187 0.044730827 -0.013618553 -0.067206874
000230 1d be 01 be 56 44 fa bb 43 94 ff 3d b8 06 07 3d
       -0.12670179 -0.007637541 0.124794506 0.032965392
000240 42 8e e4 3d 45 f6 0f bd 8b 6d 42 be af 49 bf 3d
       0.11159946 -0.03514697 -0.189871 0.09340226
000250 c1 8f 9b 3c d1 d8 16 bd 6b 81 81 bd 29 82 6e 3d
       0.018989446 -0.036827866 -0.06323513 0.0582296
000260 d6 a5 7b bd 78 07 a1 3d b8 a2 0d 3e 5f 5d 72 3d
       -0.06143745 0.07862753 0.13831604 0.059171077
000270 fb 4a a6 bd 60 a5 af 3d 96 53 2d be 10 d8 a0 bd
       -0.0811977 0.08576465 -0.16926417 -0.07853711
000280 48 36 2b be ab 4b 6a 3d ed 32 55 bd c0 f2 da bd
       -0.16719925 0.05720107 -0.05205052 -0.10690832
000290 b0 99 25 3d fd 24 0c 3d db 7d ec 3d 5e 5f e6 3d
       0.04042977 0.034214962 0.115474425 0.112486586
0002a0 c6 c6 44 3e 7b c5 4a 3d 42 2e 8b bc 07 ec d6 39
       0.19216451 0.04950474 -0.01698983 0.00040993115
0002b0 be 7a 8c 3d 8f 17 a7 bc d0 7f ab bd 9a c4 d7 3d
       0.06859349 -0.020396976 -0.08373988 0.10535546
0002c0 5f 4c a0 bc b5 1a 77 3b 7a 85 6c 3e 6f 98 53 be
       -0.019567667 0.0037705128 0.23097792 -0.20663618
0002d0 6c b8 d0 3d 25 1e 1e 3c ec 38 09 3d 04 d6 f0 bd
       0.10191426 0.009650742 0.03350155 -0.1175957
0002e0 b0 c9 f8 3d 3b 93 1f 3d 1e 61 ba 3b 03 97 74 bd
       0.12147844 0.03895877 0.005687847 -0.05971433
0002f0 58 14 41 3e 4d 57 4e 3e c1 02 3c bd 95 2f 6a bc
       0.18855417 0.2015049 -0.045901064 -0.014293571
000300 7b d9 26 bd ca 35 83 3b c1 82 82 be 18 d1 db bc
       -0.04073475 0.004004215 -0.25490382 -0.026833102
000310 55 ed 56 bd 28 73 be bd d0 2e 19 3e a9 bf 28 3e
       -0.05247243 -0.09299308 0.14959264 0.16479363
000320 7e 25 94 3d 83 98 35 3d b3 3e b9 3c 03 29 e0 bc
       0.072337136 0.0443349 0.022612905 -0.027363306
000330 82 c3 4a 3d c3 ec 6b bc 6f 83 20 3e e9 0d 50 bd
       0.049502857 -0.01439971 0.15675138 -0.050794516
000340 58 a1 27 3d f7 3d cd bd e0 9d 04 be 9d 0b 3f bd
       0.040925354 -0.100215845 -0.1295085 -0.046641935
000350 1f 42 d1 3c 1c 9d 86 be aa 0f 9d 3d da 01 ac bd
       0.025544224 -0.2629174 0.07669003 -0.08398791
000360 ed 74 d6 3d 53 c9 1e 3e db 83 80 bd a2 75 b0 3d
       0.104715206 0.15506487 -0.062751494 0.08616187
000370 89 9f 46 bd ce 0a 07 3b 26 5b b4 bd 5d ee 38 3e
       -0.04849199 0.0020605805 -0.08806448 0.18059678
000380 7e 4c 14 3e d7 bd 92 3c 40 8b 44 bd 8a c5 e8 bd
       0.14482304 0.017912788 -0.04798436 -0.113658026
000390 32 c9 16 bd 2e 48 84 bd 29 c0 80 bd 52 9e 28 bc
       -0.03681297 -0.0645908 -0.06286652 -0.010291653
0003a0 6e 7b 4b 3c 54 44 aa bd 54 89 23 bb c5 33 12 be
       0.012419565 -0.08313814 -0.002495368 -0.14277561
0003b0 93 2a e8 bd 72 55 65 bd 2e 8f fb bc c5 00 bd 3c
       -0.113362454 -0.05598969 -0.030707922 0.023071656
0003c0 c6 86 b5 3d 37 9e a8 3d 64 66 6c 3e 69 29 fa 3c
       0.088635966 0.08233302 0.23085934 0.030537324
0003d0 33 fb 07 3d 07 81 da 3b 39 af db 3a a1 68 0f 3e
       0.033198547 0.0066682133 0.0016760594 0.14004757
0003e0 2a 22 f6 3b 40 67 a4 3d 76 02 91 bd 16 1b 5c 3d
       0.007511397 0.08027506 -0.070805475 0.05373677
0003f0 51 be 75 3d d3 af c8 3a e7 3f 55 be 76 ad 05 be
       0.059995953 0.0015311189 -0.20825158 -0.13054451
