Assets/Brains/PreyBrain.onnx (onnx, 73997 bytes, 7 tensors)

action_model._continuous_distribution.log_sigma f4 [1, 2]
00000000: bdc8 acbd 909f eabd
-0.08436725 -0.114562154

action_model._continuous_distribution.mu.bias f4 [2]
00000000: be0e 36bd 1caf 21bb
-0.044447653 -0.0024671024

action_model._continuous_distribution.mu.weight f4 [2, 128]
00000000: c230 d9bd 35d7 67bd 9c3b a8bb 00a2 4a3d
00000010: 2a7c ad3d 559f a73d 81d8 f03b c016 ac3d
00000020: 327c 9bbd 8993 263d 2c94 263d d036 10bd
00000030: 4b85 8dbd 3bcc 2abc 5318 2dbd 4cc1 4a3d
00000040: c69d 1f3c 5ed3 433e 0c63 06be 4181 f9bb
00000050: b2ee 57bd 9112 f13d e43c 66bd 0671 aabd
00000060: 5aa0 61bc c7dd 28bd f6fe 92bd 7c59 f53b
00000070: 2a27 95bd 481f d93d fbe6 913d f21e ae3c
00000080: fe3a a3bb b586 cf3c ad27 2cbd 78be 073d
00000090: 293a 393c 98b3 84bd 85ee 8e3d 5894 42bd
000000a0: 83a5 10bd 1c4b eebc 1d17 81bd f9a1 323e
000000b0: 06db 453d 3ad8 bcbb fe17 47bd a005 913d
000000c0: fa1b 803d 124a a23d 2d48 103d 9d6c d93c
000000d0: 87d3 0d3e 04c3 69bd fd59 d5bc 067a 613d
000000e0: d5c2 d83d 901f 053c e41f b53d f265 3abd
000000f0: 11b8 893c 9385 b7bd f2fe ad3c f4f8 193e
00000100: 6d4d 583d a589 a33d 90c4 b9bd 9493 16bd
00000110: d4ad 60bd 7cb5 d33d a2f0 ed3b 1e23 66bd
00000120: d753 8abd 494a 9b3c 2322 70bd a31e d13d
00000130: 23b4 e53d 572b a6bc d1f7 bf3c 1d7c 523d
00000140: 97d4 11bc 8708 22bb 2757 a23d e507 60bd
00000150: 1605 393d 617a 183e a988 2b3d 7693 02bd
00000160: 86fa e83d 26b7 17bd 4c78 a23c 0d5e f53d
00000170: 32fe adbd 71f8 bc3d ecf5 de3c ce66 b3bc
00000180: 5ec6 94bd 86a1 3a3d 493a a0bd 4be5 c63d
00000190: d469 cf3d 1812 303b 221f a63d 0793 143d
000001a0: 11e0 03bc 8d4b c53c 852d 4b3d e644 f93d
000001b0: b517 0abe e5c8 cabc 29d7 14bd afc8 0f3e
000001c0: 58ff 213e 3661 73bd 5278 433e ea0a cf3d
000001d0: d118 023e 908e 8d3d de7b ac3d b56c 3b3d
000001e0: bf60 b3bc 1028 a0ba 2266 d2bc c95a 8fbd
000001f0: 4fc7 7f3d 169a 8bbd 9667 12bd 94ac 6d3c
00000200: 5df2 1f3c 6cac dcbc 6adc 21bb 952a 013d
00000210: ba0d 24bc 5949 793b 8182 e93c a93f 9abd
00000220: 1c6f ebbc e610 cc3c 5402 0cbe 860c 523d
00000230: 9bd3 173d cef7 a1bd 7b70 e23c 3c9a da3c
00000240: 14fa 73bc f169 e7bb 05fb 913d 1709 923d
00000250: 86cc c6bc 50cc bfbd 910d 653c 9e2b c2bc
00000260: 7758 7abc be94 f93c 445d b7bd fabf 913d
00000270: 1762 7e3d 033a 72bc f09c c6bc 4ac3 96bd
00000280: c135 773c 6980 03bd c93b f3bc 92dd eb3d
00000290: 4b03 ab3d f27a 24bb e9aa 20bd a60e 9abd
000002a0: 0393 763d 9351 553d 1ee8 823d f760 edbd
000002b0: 640d 33be ecfe 2ebd 974a f33a cc72 fe3b
000002c0: bf6b d5bd 9aca ef3c 41b2 d8b9 cf8b 123d
000002d0: bf88 9cbc 26c3 44bc 4d74 da3c e045 3b3d
000002e0: 1bfc 92bc 2745 973d 6e43 663d a789 893c
000002f0: cb10 cf3d 0eca 1bbd 6883 1ebd 955f 42be
00000300: e89e f9bc 8a08 7f3d d7f6 fd3d 9023 153c
00000310: 7523 d6bc c56b e63c 6abd db3d 00b4 70bd
00000320: 44b1 993d 38d9 183d 5862 e2bb 7468 05bd
00000330: 7c1f 113c 6468 1ebd aaf3 ee3c b0a7 8cbd
00000340: d5b6 d0bc 8339 3f3d dad7 223e a204 78bd
00000350: d7af 55bd 4baf 13bd 023e 973b 48c8 283d
00000360: b693 d4bd 23da 97bc 0176 553d e263 763d
00000370: e8ef 30bd f78e 3bbd 77f3 2a3d c16f 57bd
00000380: 1d00 a5bc 2a89 be3d 2561 3cbd 6430 38bd
00000390: b846 5cbd f3b0 4b3d 935a 853d 1145 3e3d
000003a0: a66c 0abe 2b17 b73d 3573 c53c de83 0dbd
000003b0: 1f3f 4d3d cb8b b6bc 7448 3c3d 93ab 4abd
000003c0: 9fba b8bd c746 5abd 3823 efbd 2a0b 03bc
000003d0: b01e 253c 6f1b 1ebd a3d9 0fbe d6d7 18bc
000003e0: 2baf 633d 8764 593d f163 8abc 482f 623c
000003f0: de70 e43a ca3d 21bb 6032 043b 8734 183d
-0.10605003 -0.05660172 -0.005134059 0.0494709 0.08470948 0.08184687 0.007350028 0.08402777
-0.07592048 0.040668044 0.04066865 -0.035208523 -0.06910189 -0.010424669 -0.042259526 0.04950075
0.009742206 0.19123599 -0.13123721 -0.007614285 -0.052717872 0.117711194 -0.056210414 -0.08322339
-0.013771141 -0.04122713 -0.07177536 0.007487474 -0.072828606 0.106016695 0.07124134 0.02125499
-0.0049813977 0.025332788 -0.042030025 0.03314063 0.01130537 -0.06479567 0.06979088 -0.047504753
-0.035314094 -0.02908855 -0.06303237 0.174446 0.04830458 -0.005763081 -0.048606865 0.07081151
0.06255336 0.07924284 0.035225082 0.026541049 0.13850223 -0.057070747 -0.026043886 0.05504801
0.10584036 0.008125201 0.08843973 -0.04550738 0.016811403 -0.08961024 0.021239731 0.15036374
0.052808214 0.07985238 -0.090706944 -0.036761835 -0.054853275 0.1033735 0.0072613517 -0.056185834
-0.067542724 0.01895632 -0.058626305 0.102109216 0.11215999 -0.020284338 0.023433598 0.051387895
-0.008900783 -0.002472432 0.07926779 -0.05469503 0.045170866 0.14890434 0.041878376 -0.03187891
0.113759086 -0.0370399 0.019832753 0.119808294 -0.084957495 0.09227074 0.027216874 -0.021899607
-0.07264398 0.045564197 -0.07823617 0.09711703 0.10127607 0.0026866253 0.08111407 0.03627303
-0.008049027 0.024083877 0.049603958 0.121713445 -0.13485606 -0.024753997 -0.036338005 0.14041398
0.15820062 -0.05941888 0.19088867 0.101095036 0.12704779 0.06911957 0.08422063 0.045757968
-0.021896718 -0.0012218971 -0.025683466 -0.06999738 0.062445935 -0.06816499 -0.03574332 0.014506478
0.009762374 -0.026937686 -0.0024698027 0.03153475 -0.010013038 0.0038038103 0.028504612 -0.075316735
-0.028739505 0.024910402 -0.13672763 0.051281475 0.037067037 -0.07908593 0.027641525 0.026684873
-0.014891166 -0.0070621897 0.07127956 0.0713064 -0.024267446 -0.093651414 0.013980285 -0.023702439
-0.015279881 0.030466434 -0.08953336 0.07116695 0.062105265 -0.014784339 -0.024244756 -0.07361467
0.0150884995 -0.032104883 -0.029691594 0.115168706 0.083502375 -0.0025097695 -0.039225493 -0.07522325
0.060198795 0.05207975 0.06391929 -0.1159076 -0.17485577 -0.04272358 0.0018561658 0.0077651497
-0.104209416 0.029271413 -0.0004133154 0.035777863 -0.019108174 -0.012009418 0.026666785 0.045720935
-0.017942479 0.07386237 0.05621665 0.01678927 0.10110625 -0.03803449 -0.038699538 -0.18981774
-0.03047128 0.062264003 0.124005966 0.009102717 -0.026139954 0.02812756 0.10729487 -0.05876541
0.07504514 0.03731653 -0.006908696 -0.032570317 0.008857604 -0.038673773 0.029168922 -0.06867921
-0.025477806 0.046685707 0.15902653 -0.060551293 -0.052169647 -0.036055844 0.004615546 0.041206628
-0.10379736 -0.018536633 0.05211449 0.06015385 -0.043197542 -0.04579064 0.041736092 -0.05259681
-0.020141656 0.09303506 -0.04599108 -0.044968024 -0.05377838 0.0497293 0.06511416 0.046452586
-0.13518009 0.08939966 0.024102787 -0.034549586 0.050109025 -0.022283455 0.045967534 -0.049480032
-0.0901997 -0.053290155 -0.11676639 -0.007998267 0.010078117 -0.03860038 -0.14047866 -0.009328803
0.055586975 0.053074386 -0.016893359 0.013805218 0.0017428657 -0.002460348 0.0020171627 0.03715947

network_body._body_endoder.seq_layers.0.bias f4 [128]
00000000: 2929 e33c f410 7a3d 7d07 83bd 4e24 6b3c
00000010: db57 d5bc 73f3 b93c d89c 083d 9701 853d
00000020: aad2 fe3c a2e5 4d3d 4bd9 59bb 5519 3ebd
00000030: 934f 05bd fb6c edbb 267b 4b3d 11a5 b9bd
00000040: ca1e 8b3d 0be9 453d 3227 283d 1de6 febc
00000050: e251 283d ac91 e03c d344 0dbd b968 4b3d
00000060: 08d5 d83d 0e1a 883d 9284 fe3d 27a3 fe3c
00000070: e0bd 17bd d076 fb3b d948 cf3c b767 5dbc
00000080: 71be bb3b b147 143d a0e2 753d 720a 053d
00000090: 6346 4e3d da00 bbbc 820b bd3d 907a 233b
000000a0: cb60 9e3a 43da 0b3c f4b4 0bbd b9f9 263d
000000b0: 6dd7 683d 4cbc 8b3c c24a 6a3b 476c 8b3c
000000c0: 9ac5 bfbc c3cf ae3c 6224 f6bc 3439 563d
000000d0: 5463 cb3c e198 b03d 1ebb c33c 3a2f 07bd
000000e0: b885 b43d 7e90 3b3d 7585 063e 7880 94bc
000000f0: 1889 873b e207 493d f2d2 50bc 63f7 4c3d
00000100: 53b6 03bc d1f2 7e3c a48c d93b 2a34 133b
00000110: b755 433d 2d21 6dbd fa46 503d 56e4 2abc
00000120: 87cc 963d 313f 83ba f865 aabd 9f91 933d
00000130: 834f 7cbd 7c9c 9ebc fb07 1abb c845 283d
00000140: b385 2f3d 7136 76bb dfbe a43d b971 5c3c
00000150: 7c58 953b 6421 273c 8227 cc3c 44d5 fe3b
00000160: 6b24 f2bc 9346 ab3d 4c8f a03c 4c16 c33c
00000170: f0eb 613d f08f d63c d798 a33d 4d20 163d
00000180: 20eb 823c d306 bb3d cef7 a13b bffb 713c
00000190: 959c 8b3d 728f 02bc 5446 4fbd 20a4 e73b
000001a0: 5f16 323d 1adc b6bb 029e d43d ba43 9dbd
000001b0: e821 0e3d 4df2 92bc 7834 6c3d cfea c83c
000001c0: 93c4 b5bc d769 5a3d 22e0 163e 4e43 b23b
000001d0: ad9e cd3d 9f76 903b 6e18 0f3b 1fc4 cb3c
000001e0: 1f30 943d a055 39bd 1d51 393d 909b 383d
000001f0: 3532 1c3d 6304 dd3d 7c51 9fbc 9501 d2bd
0.027729588 0.061051324 -0.06397913 0.014351917 -0.02604287 0.022699093 0.033352703 0.06494444
0.031106312 0.050267823 -0.003324109 -0.046410877 -0.03254659 -0.0072456575 0.04967799 -0.09064687
0.06792982 0.04831795 0.041053005 -0.031115586 0.041093715 0.027413212 -0.034489464 0.04966042
0.105875075 0.066455945 0.124276295 0.031083656 -0.037046313 0.0076740757 0.025303291 -0.013513497
0.0057294895 0.036201183 0.06003058 0.032480665 0.050360095 -0.022827554 0.092307106 0.002494488
0.001208329 0.008535924 -0.034108117 0.040765498 0.05684607 0.01705756 0.0035750126 0.017019404
-0.023409653 0.021339303 -0.030046646 0.052300647 0.024827637 0.08622909 0.023892935 -0.033004023
0.08814567 0.045792095 0.13136847 -0.018127665 0.004136216 0.049079783 -0.012745606 0.050040614
-0.008039075 0.015560822 0.00663908 0.0022461512 0.047689166 -0.057892967 0.05084894 -0.010430416
0.07363229 -0.0010013339 -0.0832023 0.072055094 -0.061599266 -0.019361727 -0.0023503292 0.041082174
0.042852115 -0.003756907 0.08044218 0.013454848 0.0045576673 0.010200832 0.024921183 0.007776888
-0.029558381 0.0836307 0.01959958 0.023814343 0.05515665 0.026191682 0.07988136 0.0366519
0.015981257 0.09132161 0.0049428707 0.014769494 0.06816975 -0.00796877 -0.05060418 0.007069126
0.043478366 -0.0055804374 0.103817 -0.076789334 0.034700304 -0.017937804 0.057667226 0.024526028
-0.02218846 0.053323593 0.14733937 0.0054401523 0.10040031 0.004408672 0.002183463 0.024873791
0.07235741 -0.045247674 0.04524337 0.04507023 0.03813382 0.10791852 -0.019448034 -0.10254208

network_body._body_endoder.seq_layers.0.weight f4 [128, 9]
00000000: a179 6e3d 8c67 143f 0aaf e1be 25e7 45be
00000010: bb88 0fbf bc5e 3f3e 385c 8b3e 3c99 ecbd
00000020: fe0e b3bd 64de 0a3f b6f6 b4bd 6169 2b3e
00000030: 9faa b23e 872c 3c3f d381 6f3f 418e 733e
00000040: 78be 4c3e 8eb7 dbbe 2522 673e 9647 d9bd
00000050: 470b 6e3d b8af 69be 76cf d0be 0e18 66be
00000060: e4a5 57bd 0045 bcbe 8851 1a3c 0d4b 673e
00000070: 61e2 97be 04a4 0cbf dcb0 c9bb 8413 ef3e
00000080: 08c7 263f 0e75 853e 19ef b4bd d39f b23c
00000090: 0bfe b63d 58f8 52be 11fd 143e e763 fabe
000000a0: 2e4b 033f 59e8 4f3e 2f35 50bf eafc c6be
000000b0: 5345 c8bd daea 64be 386e f2be 1786 893e
000000c0: 4d62 943f 9206 373f 1ba3 82be 89bd 77be
000000d0: ae7f f13e 5a0b 63bd 2373 1d3e fdae 343d
000000e0: b20e d03e 356a 523e 484e 053e e68f 913e
000000f0: 1292 07bf c1d8 1a3f 6f93 aabc fccb bf3d
00000100: 2514 063d 24bf c9bd 6d5e c0be 93c7 093f
00000110: 362d b93e 2bb8 4bbe 1b13 b93e c94a d73a
00000120: 0546 873e 020d 063e 4267 d23e 0c37 64be
00000130: 733e 89bd 6a75 c23e 2b5d 89bd 9c60 073e
00000140: 71d7 a8be dcb7 253e 6fc5 623e 6273 7bbe
00000150: b7fb ffbe d8e4 983e a124 76be eb68 d9bd
00000160: ea85 403e 371a ff3e 2511 80be d0b9 1cbf
00000170: bbd0 3cbe 94d1 013d 4110 203f b5fe 8dbc
00000180: b44f 563c 7352 643d c535 cf3d 8903 6fbd
00000190: ceb3 e9bc 7680 3cbd 248c 3abe 7c13 24bf
000001a0: 50b1 333f 1813 473f c430 583e 5b08 1fbe
000001b0: 0484 cfbd e51b 25be 17a4 083f 1eb4 303f
000001c0: 2669 6cbe 5233 1dbf 4517 64be 406c 593e
000001d0: 3b2c 08bf d927 32be 96f6 d2bd b4b2 e83e
000001e0: d2dc 403e cd2f 043f 9e98 5e3e bb04 11bf
000001f0: 4a05 a23d 900c fabe 9700 a63e 8193 32be
00000200: b35a 9c3e 7c58 253e f148 f7bd da75 863e
00000210: b8cb 4fbe ba6c 153f e8f3 10bf adda e7be
00000220: 9685 97be a97b 213e 80a3 2abe 142b e6be
00000230: 6b3e 3c3e 45c8 65be c01e 613e 040c 93be
00000240: 1226 21be f244 14be da60 c2be afed 8abe
00000250: fdb2 5cbe 83c3 37bf 03bf abbe ff65 253e
00000260: 5ffe d2be 307b c6bd 3db2 0f3f f294 93be
00000270: 1bd2 04be cc47 50be e792 343f 28bb 3ebd
00000280: 23b2 bcbe 69ec af3e 5c49 063e 59c7 e1bd
00000290: 9645 c63d 73f2 83bd 393a 753e a989 993e
000002a0: 44a3 123e a752 633e 3f45 07bf 5ae1 bcbe
000002b0: fb34 1f3d 7740 21bf 561f 12bf 6a7e eebb
000002c0: f373 9ebd 8f88 093e 7aea 963d bbfd 1cbd
000002d0: fc86 29bd b46d f9be d67d 833f 66d3 3d3d
000002e0: 094c e13e d1d4 443d adaf 87bb 267f dd3d
000002f0: 7600 113f 7bfb 84be 1c99 4e3d 273e 91be
00000300: bea8 293e ce29 0f3e 7b5b 313d 43ff cfbd
00000310: 07f0 c7bd c551 d63e bf4d cabd fafc b7be
00000320: 4dce 4ebd 82f4 12be 71cf 6d3e 002c c6be
00000330: 5ee7 043f 5577 0cbf c868 fa3c acfb d2be
00000340: 5ec8 debd 91db bebe 51b5 b63e 7284 36be
00000350: a69b d1bd 747e 953d 49e9 0dbe 7ba8 d93e
00000360: 2b12 8abe a12f 583e 35ff d53e 6ef5 dfbd
00000370: fed7 e53e b930 27bd 1c06 b83e 0d05 8cbe
00000380: e6bb f0be a146 bcbe 866a 0abf 653f 023d
00000390: c561 78bd e936 993e af9c 6b3f 7b22 ee3e
000003a0: bcf1 eb3e 26f8 f1be f875 03be 2a48 c63e
000003b0: 55c5 303f a6fc fabd 7c11 c93e 83d3 413f
000003c0: 5050 cc3e 9133 313e c4ec 26bf d09f f93e
000003d0: 0a7a 3abe c4d6 953e 7bd6 8bbe df6f 813e
000003e0: b9b6 be3e bf47 5fbe 63f6 193e 09d7 983e
000003f0: 2c53 52bd 5abc 6abb a100 2dbe 7a10 37bf
0.058221463 0.579705 -0.44078857 -0.19326456 -0.5606801 0.18688482 0.27218795 -0.11552665
-0.08743094 0.5424559 -0.08836119 0.16739418 0.348958 0.73505443 0.9355747 0.23784734
0.19994533 -0.4291348 0.22571619 -0.10609357 0.058116224 -0.22820938 -0.4078328 -0.22470114
-0.05264844 -0.36771393 0.009418853 0.22587223 -0.296649 -0.5493777 -0.0061551165 0.46694577
0.6514745 0.26065868 -0.08834667 0.021804726 0.089351736 -0.20602548 0.14549662 -0.48904344
0.5128659 0.20303477 -0.8133115 -0.38864833 -0.097788475 -0.22355214 -0.47349715 0.26860115
1.1592499 0.714944 -0.25515065 -0.24193396 0.47167724 -0.055430748 0.15375952 0.044112194
0.40636212 0.20548327 0.13018143 0.28430098 -0.5295726 0.6048699 -0.020822255 0.09365079
0.032734055 -0.0985091 -0.3757204 0.5382015 0.36167306 -0.19894473 0.3614739 0.0016425486
0.26420608 0.130909 0.41094404 -0.22286624 -0.06701364 0.37980205 -0.067072235 0.13220447
-0.3297687 0.16183418 0.22145627 -0.24555734 -0.4999673 0.29862094 -0.2403741 -0.10615715
0.18801084 0.49824688 -0.2501308 -0.6122103 -0.18439 0.03169401 0.625248 -0.017333368
0.013080526 0.055742692 0.101176776 -0.05835298 -0.02852812 -0.046020947 -0.18217522 -0.6409223
0.7019243 0.7776351 0.21112353 -0.15530531 -0.10132602 -0.16123922 0.5337538 0.69024837
-0.23086986 -0.61406434 -0.22274502 0.212327 -0.5319249 -0.17398013 -0.10300939 0.4544884
0.18834236 0.5163544 0.21737906 -0.56647843 0.07911165 -0.4883771 0.32422325 -0.17439081
0.30537948 0.16147035 -0.12074459 0.2626179 -0.20292556 0.5836903 -0.5662217 -0.45284024
-0.29594105 0.15769829 -0.16663933 -0.4495474 0.18383186 -0.22439678 0.21984386 -0.28720105
-0.15737179 -0.14479426 -0.37964517 -0.27134463 -0.21552654 -0.717827 -0.33544168 0.1615219
-0.41209695 -0.09691465 0.56131345 -0.28824574 -0.12970774 -0.20339888 0.70536655 -0.046565205
-0.36854658 0.34360054 0.13113922 -0.11024351 0.09681241 -0.06442728 0.23947991 0.2998784
0.14320093 0.22199498 -0.52840036 -0.3689068 0.038868885 -0.6298899 -0.57079065 -0.0072782533
-0.07736959 0.13430999 0.073689416 -0.038327914 -0.041388497 -0.4871651 1.0272777 0.046344183
0.44003323 0.04805452 -0.004140815 0.10815267 0.5664133 -0.25973114 0.050438985 -0.2836773
0.16568276 0.13980791 0.043300133 -0.10156109 -0.097625785 0.4185926 -0.0987811 -0.35935193
-0.050489713 -0.14351085 0.23223664 -0.38705444 0.5191554 -0.54869586 0.030567542 -0.41207635
-0.10878061 -0.3727689 0.35685208 -0.17823961 -0.10234766 0.0729951 -0.13858522 0.42511353
-0.26966986 0.21111919 0.4179627 -0.10935484 0.4489135 -0.04081795 0.3594216 -0.27347603
-0.47018355 -0.36772636 -0.5406879 0.03179874 -0.060640115 0.29924706 0.92035955 0.46510682
0.46082866 -0.47259635 -0.1283797 0.38726932 0.69051105 -0.1225522 0.39271152 0.75713366
0.39905024 0.17304827 -0.65205026 0.4875474 -0.18210617 0.29265416 -0.27312073 0.25280663
0.3724878 -0.21804713 0.15035395 0.2985156 -0.05134885 -0.0035817833 -0.16894771 -0.71509516

network_body._body_endoder.seq_layers.2.bias f4 [128]
00000000: ab44 a33d c86a 9a3d b859 dcbc 7a7e 3abd
00000010: decd 88bb 6997 b1bc 57bf abbc ebf4 193d
00000020: d672 833d 39e8 f8bc c8a6 a33c 4c9f 1c3d
00000030: c43d 6d3d 8c09 7a3c 5f17 d23c 04aa 08bd
00000040: c51a 2dbd 422e 8f3d 4c09 bf3d ee11 dc3c
00000050: 8a5e fc3c 3ad6 193d 8794 6f3d 74ac 8e3d
00000060: 49cb 68bb c6ff 153d 7ea7 d43d b36a 443c
00000070: a858 a63d b150 95bd d2a1 d3bc ba29 8c3a
00000080: 7c55 163c af74 46bc e8c5 113d ce74 e63b
00000090: 36ba bbbc 1fcf aa3d 680c 93b9 d48a 913d
000000a0: 1d58 cc3b ba6a a13c 8887 6a3d 3664 c13d
000000b0: 7f14 453d 1453 2bbb b0e6 2cbd 33ec f4bc
000000c0: b315 263d 9525 533d 05fb 90bc 3cf6 6bbc
000000d0: 24e2 a0bc a545 263d 454a fc3b de1c e23c
000000e0: ed4a 863b 68b8 b83c 887a 903d 3a31 6e3d
000000f0: 235f 18bd 61a0 7e3d 27a5 8abc 87d0 8a3d
00000100: 8837 23bd 7c1d 843d 66c6 153d 2a44 9a3c
00000110: eb7f 583d 2496 f3bc e884 2c3d 1131 2b3d
00000120: a112 d93c a5eb 893c 3f7a ba3c d2b9 72bc
00000130: 4e53 113c d88e 7e3c 7c3c 3ebc f592 b53c
00000140: 78a8 cfba 57b4 de3c 7b4e d23b c51c 7b3d
00000150: 8218 afbc 66cb 763c 9561 14bd 6c2f 673c
00000160: 1aa7 233d 6b1b fbbb f790 c339 c507 01bd
00000170: f73a b63d 3ef2 14bd 337b 3a3c a28d 00bd
00000180: d7a8 143d 5d2e f93c 48b9 cb3d 6394 f8bb
00000190: a091 d73c cec3 943c 602a f83c 3061 31bc
000001a0: 0ea7 6a3d 360e ab3c 3c45 fcba 9010 173d
000001b0: bfb5 853d d4ad 95ba fa6c 0f3d 3d82 653d
000001c0: e3d4 f23c 5bab 053d 9801 143d f81a 213c
000001d0: 75ec 783b 4d8a 5c3c 92f9 113d 90b0 35bd
000001e0: cea1 113c 8def 1f3c 53ed 4e3d 8469 803d
000001f0: 46a8 243d 0d73 c73c 420c 2c3d 2c80 783b
0.07972082 0.07539898 -0.02689825 -0.045530774 -0.004174932 -0.021678643 -0.020965261 0.037587088
0.064183876 -0.03038417 0.019976988 0.038237855 0.057920232 0.015261065 0.02564591 -0.033365265
-0.042261858 0.06991245 0.09327945 0.026864018 0.030806798 0.037557818 0.058491256 0.069664866
-0.0035521558 0.036620878 0.10383509 0.01198833 0.081223786 -0.07290781 -0.025833998 0.0010693588
0.0091756545 -0.0121127805 0.03558913 0.007032967 -0.02291594 0.083402865 -0.00028047268 0.071065575
0.00623609 0.019704212 0.05725816 0.09442942 0.04811525 -0.0026142048 -0.04221219 -0.029897785
0.040548038 0.051549513 -0.01769782 -0.014401969 -0.019639082 0.040593762 0.0076992833 0.027601656
0.0040982873 0.02254887 0.07054621 0.058152415 -0.037200104 0.062164668 -0.016924454 0.06778055
-0.03984788 0.06450936 0.03656616 0.018831331 0.052856367 -0.029734679 0.042118937 0.04179484
0.02649814 0.016835997 0.02276337 -0.014814811 0.008869959 0.015536986 -0.0116111 0.022164801
-0.0015843054 0.027185602 0.006418047 0.061306734 -0.02137399 0.015063142 -0.036225874 0.014110427
0.039954282 -0.0076631806 0.00037301306 -0.03150155 0.088979654 -0.036363833 0.011381912 -0.03138507
0.03629383 0.030417616 0.09947449 -0.0075860485 0.026314557 0.018159773 0.030293643 -0.010826394
0.057288222 0.0208808 -0.0019246708 0.03688103 0.06528806 -0.0011419603 0.035016038 0.056032408
0.029642528 0.03263412 0.036134332 0.00983309 0.0037982736 0.013460708 0.0356384 -0.044357836
0.008888675 0.009761703 0.0505193 0.062701255 0.04019954 0.024346853 0.042003877 0.0037918193

network_body._body_endoder.seq_layers.2.weight f4 [128, 128]
00000000: 2ef1 b1bc 47ce 6f3e 314e d9bd 1c62 203e
00000010: 03fd 1fbe 1191 83be 44b4 eebd 8300 4b3d
00000020: 6c5b 19bd 193c 163d fe67 9bbd b799 b23b
00000030: 4f43 2bbe 5d00 54be 3104 1d3d 54c4 00be
00000040: c0be 363e 7090 0fbe 6144 313e f0bf 353c
00000050: 695e 4e3d 628f 01bd f99d 2abe a87f 8cbd
00000060: a1ac 353c 0cbc 04be d1eb 6cbc 3a83 35bd
00000070: 30c2 c3bd ce12 b9bd 725c 42be 60c8 dd3b
00000080: 86cd b8bd 090f ca3d 8478 56bd c7ce 8a3c
00000090: fca8 1e3e b1f6 55be f819 893c 1b95 c1bc
000000a0: dca5 dabd 4960 96be 9aea 23be cf3d d9bc
000000b0: 3c87 34bd 0034 f63c fe16 7cbc 2123 e4bd
000000c0: ceac c5bc 16cd 943d a177 fdbc ddf0 493b
000000d0: 285a a23c 41d7 3f3d 612a 483e 397a cf3c
000000e0: 2953 623d ccda e3bd 9dca efbd 80ac c43c
000000f0: 12bf 17be 1ed7 e4bd 1b86 5abc 63ed 4ebd
00000100: 98e1 7f3b 43ac e8bc 9eb2 8bbc 0708 b33d
00000110: 35d0 e43d 4f9d 98bc b771 963d ad93 23be
00000120: b209 4abd b535 003d 9fd8 f3bd 0acb c4bb
00000130: ee6e 90bd 7959 72bd 4905 9f3c cf66 493e
00000140: 040c bbbb 27fb 04be 0f8b bfbd 39e4 40bd
00000150: 429d 09bc 92df 33bd a2a5 07be 78df 533e
00000160: f069 f2bd a287 65bb 7e72 8dbb f247 ae3c
00000170: fcb4 93bc 72a6 ae3d 7d68 213e 7f23 cbbd
00000180: 6743 8bbd b581 163d cfa4 d8bd 6459 76bd
00000190: 10c8 353c adfa bdbc 94ca bc3b eb45 48bd
000001a0: 4b97 b6bc 6dd6 d3bd b029 88bd 45d1 943c
000001b0: 10ca 613d 63d7 8fbc f3c5 313d 2526 fb3d
000001c0: bcb0 9f3c 6081 953c e918 43bc 3bb8 c73c
000001d0: 6e11 533a 2242 a93d af0e 82bd dbb2 e4bd
000001e0: c863 6ebe ab2c 35bd aa58 833b 816e 5bbd
000001f0: cbfa 0bbe fc20 18be a52d e63d 2900 95be
00000200: 58b0 e7bc 5594 463e 4903 33bc 39f3 403e
00000210: dfd5 6ebd 5cc2 d33c 031c 7d3d 7646 f93d
00000220: 2562 453e ffec 853d a0e4 273c a7dd cebd
00000230: 627e b33c 08a1 a73d 390e 87bd 8203 69be
00000240: 0bc5 9bbd 1179 89be 4edc ad3d ce94 0a3e
00000250: 1258 263e ede2 5dbe 3ce0 b1bc 4f3c 0bbe
00000260: a4de 803e db3a f33c 1a87 9d3d 688c 1a3c
00000270: 433c 963e 64c6 1c3d 0658 2abc 3494 08be
00000280: 29af 8b3c 6186 483d 796a a9bd 7618 34bd
00000290: 774e b93c 091c fdbd 8a90 cc3d c81d a7bd
000002a0: 82f0 8dbd 0d75 14be 5c60 0abb 67e9 b43d
000002b0: c73a 303d 0f8b d8bc e216 92b9 7152 18bd
000002c0: 66d5 9f3c bcbe a43d 7ba8 aabd 7e28 063e
000002d0: 68c5 53bc 2abe 373d ca9f 86bc 1e05 d2bd
000002e0: 19fd 0b3d a8d9 703d a9df 373e 09c4 cf3d
000002f0: b0eb 27bd 16f9 bfbd fe1f 7ebd 093f c23b
00000300: 51ac b1bc 6f5b c23d c0da c5bc 640a b53c
00000310: 1d57 53bd d4b9 b43d fa34 5e3d 1c11 7fbd
00000320: d5a6 0a3c bb71 70bc 9ae7 8a3c a457 dabd
00000330: fdbd 8e3c 1ba9 a13d 0177 58be dfbd 933c
00000340: 4f09 b43c 6525 65bd 724d 073e ecb1 df3d
00000350: 6382 56be 443a 483d 6803 fe3c fb04 1cbd
00000360: 4042 8b3d c9ad 293d 2645 fc3d 1a3e 21be
00000370: bad4 0bbe ec21 33bd 03ad 6b3b 78bb 123e
00000380: c492 433e 5f8b 113e dec4 88be f7c5 3fbd
00000390: e9a7 c9bc a736 983c b7cc 84bd 25b4 7b3c
000003a0: 4ac0 ffbd a43d 6bbd c246 8abd 2b48 b9bd
000003b0: fa45 b23d dc41 92bc b869 a0bc 5835 20bb
000003c0: 80b1 ee3c 4622 7d3b 670a abbc 6679 07be
000003d0: fbf6 533d d340 2abe dcd5 873d 1fdc 1e3e
000003e0: 1efa 40bd 368c 82bd bd21 ffbd 5432 d03d
000003f0: d40d 5f3d 3c13 043e 6024 e6bc 535e 2bbd
-0.021721449 0.23418532 -0.10610617 0.15662426 -0.1562386 -0.25696614 -0.11655477 0.049561035
-0.037440702 0.036678407 -0.07588194 0.005450453 -0.16724895 -0.20703264 0.038334075 -0.12574893
0.17846203 -0.14019942 0.1731124 0.011093125 0.050383005 -0.03163088 -0.16661824 -0.06860286
0.011088521 -0.12962359 -0.01446052 -0.0443146 -0.09558523 -0.0903679 -0.18980578 0.0067682713
-0.090235755 0.09866149 -0.052361026 0.016944302 0.1549415 -0.20894887 0.016736016 -0.02363067
-0.106761664 -0.29370335 -0.16007462 -0.02651873 -0.044074282 0.030054092 -0.015386341 -0.11139513
-0.024130251 0.072656795 -0.030940833 0.0030813732 0.01981838 0.04683614 0.19547416 0.025326835
0.05525509 -0.111257166 -0.11708567 0.024008036 -0.14818981 -0.11173843 -0.013337637 -0.05051936
0.0039044376 -0.028402453 -0.017052945 0.087417655 0.11172525 -0.018629698 0.07345908 -0.15974303
-0.049325652 0.03130122 -0.119065516 -0.0060056495 -0.07052408 -0.05916736 0.0194117 0.19668125
-0.0057082195 -0.12986432 -0.09352695 -0.04709265 -0.00839931 -0.043914385 -0.13246778 0.20690715
-0.11836612 -0.003502347 -0.004316627 0.02127454 -0.018030636 0.08527841 0.15762515 -0.0991888
-0.06799965 0.036744792 -0.1057831 -0.060143843 0.011095062 -0.02319082 0.005761454 -0.048894804
-0.022288939 -0.10343633 -0.06648576 0.018166194 0.055124342 -0.01755876 0.04340167 0.12263135
0.019493453 0.018250167 -0.0119077945 0.02437984 0.00080516085 0.08264567 -0.06350457 -0.111669265
-0.23280251 -0.04423205 0.0040083723 -0.05357218 -0.13669889 -0.14856333 0.11239175 -0.29101685
-0.02828233 0.19392522 -0.010926076 0.18842782 -0.058309432 0.025849514 0.061794292 0.121716425
0.1927572 0.06539344 0.01024738 -0.101008706 0.02191085 0.08185011 -0.0659451 -0.22755244
-0.07605942 -0.2685018 0.084892854 0.13533327 0.16244534 -0.21668597 -0.021713369 -0.13597225
0.2516986 0.02969115 0.07691784 0.0094328895 0.2934285 0.038275138 -0.010396963 -0.13337785
0.017051296 0.04895628 -0.08272261 -0.04396864 0.022620423 -0.12358863 0.09988506 -0.08159977
-0.06930639 -0.14497776 -0.0021114564 0.088335805 0.043024804 -0.026433496 -0.0002786434 -0.037187997
0.019510936 0.08044192 -0.08332916 0.13101384 -0.012925483 0.04485909 -0.016433615 -0.10254882
0.03417692 0.058801323 0.17956413 0.101448126 -0.040996253 -0.09373681 -0.06204223 0.0059279245
-0.021688612 0.09490096 -0.02415216 0.022099681 -0.05159675 0.088245064 0.05424974 -0.062272176
0.008462627 -0.014675553 0.01695614 -0.106612474 0.017424578 0.078935824 -0.21139146 0.018034874
0.021977095 -0.055943865 0.13213137 0.10922608 -0.20948176 0.04888369 0.031007484 -0.038090687
0.067997456 0.0414255 0.123178765 -0.15746346 -0.13655367 -0.043733522 0.0035961277 0.14329326
0.19098955 0.14213322 -0.26712698 -0.046819653 -0.024616199 0.018580748 -0.06484359 0.015362774
-0.12487848 -0.057431832 -0.06751777 -0.09046968 0.08704753 -0.01785367 -0.01958166 -0.0024445858
0.029137373 0.0038625165 -0.020878984 -0.13229904 0.05174921 -0.16626291 0.06632587 0.15513657
-0.04711353 -0.06374399 -0.12457607 0.10165849 0.054456547 0.12897962 -0.028093517 -0.041838
