Assets/Brains/PreyBrainOld.onnx (onnx, 73997 bytes, 7 tensors)

action_model._continuous_distribution.log_sigma f4 [1, 2]
000000 4c da 59 bd 8e 55 9a bd
       -0.0531867 -0.075358495

action_model._continuous_distribution.mu.bias f4 [2]
000000 6b 7b 2a bd 22 d7 95 bb
       -0.041621607 -0.004572765

action_model._continuous_distribution.mu.weight f4 [2, 128]
000000 c2 49 cd bd d1 8b 51 bd 70 d8 19 bb 92 2c 54 3d
       -0.10023834 -0.05115873 -0.0023474954 0.051800318
000010 d2 a3 93 3d a1 06 a9 3d 8a 90 1e 3b 0e 4e a9 3d
       0.072089806 0.082532175 0.0024195039 0.08266841
000020 91 97 94 bd 9e 99 1a 3d b9 06 1c 3d d5 39 19 bd
       -0.072554715 0.037744157 0.03809235 -0.03740867
000030 95 85 8c bd de 11 a4 bb 23 ff 39 bd 52 5b 33 3d
       -0.06861416 -0.0050070127 -0.045409333 0.04378826
000040 ce 0f 19 3c 46 69 3d 3e 15 2b 0b be f8 37 1e bc
       0.009342147 0.1849719 -0.13590653 -0.009656899
000050 51 26 50 bd 4a 8d f7 3d 0b a1 68 bd 8a 6c a6 bd
       -0.05081779 0.120874956 -0.056794208 -0.08126171
000060 79 ca 8b bb 31 7e 2a bd 2b d9 8e bd f8 5d cc 3b
       -0.00426608 -0.04162425 -0.06975015 0.006236788
000070 09 95 98 bd 63 7a be 3d 3c 6a 8d 3d dc 4b f7 3c
       -0.07450301 0.09300687 0.06905028 0.03018754
000080 c2 f4 7b bb 11 ed d8 3c 08 2a 34 bd 37 b7 d8 3c
       -0.0038445448 0.02648023 -0.043985397 0.026454551
000090 e2 71 04 3c b3 f2 7e bd 60 00 73 3d 6a 14 3e bd
       0.008083792 -0.062243175 0.05932653 -0.046406187
0000a0 9b a4 3e bd e5 2b 09 bd a1 57 79 bd c3 fa 35 3e
       -0.0465437 -0.033489127 -0.060874585 0.17771439
0000b0 27 64 77 3d 84 c3 6d 3a ee 95 32 bd 57 0f 89 3d
       0.060398247 0.00090699666 -0.043600015 0.06692379
0000c0 b2 a7 85 3d 2d 46 9c 3d de f1 14 3d ef cf d2 3c
       0.06526126 0.076305725 0.036363475 0.025733916
0000d0 34 7d 05 3e 4d aa 6b bd 85 86 ca bc a7 02 4e 3d
       0.13036042 -0.05753546 -0.024722347 0.0502955
0000e0 f4 10 e8 3d 4d 3a cb 3b 2e a3 b3 3d 85 c6 3e bd
       0.113313586 0.0062020184 0.087713584 -0.04657604
0000f0 36 1d 31 3c a2 e8 9f bd ae c4 aa 3c e4 cf 11 3e
       0.010810187 -0.07808043 0.020845737 0.1423946
000100 16 23 48 3d 96 ef 9c 3d 1d a3 cd bd 96 3f 1d bd
       0.048861586 0.07662885 -0.10040877 -0.03839072
000110 52 9b 53 bd c8 4f c3 3d 25 48 bb 3b 8c ba 6a bd
       -0.051661797 0.095367014 0.0057153874 -0.05730681
000120 54 72 91 bd a2 1e 85 3c c3 55 54 bd 62 3c c7 3d
       -0.071018845 0.016249958 -0.0518396 0.09728314
000130 73 1e dd 3d f3 17 77 bc 33 f4 bd 3c 1e 4b 4e 3d
       0.10796823 -0.0150813935 0.023187732 0.050364606
000140 29 15 ac bb 23 60 ec bb d8 57 ba 3d 1e 5b 3f bd
       -0.005251546 -0.007213609 0.09098786 -0.046717755
000150 da 74 59 3d c0 2d 0f 3e ab 93 24 3d 36 cf 06 bd
       0.053089954 0.13982296 0.04017989 -0.032912455
000160 7a d9 d7 3d 64 63 fd bc 94 d0 95 3c 2f 9d ef 3d
       0.10539527 -0.030931182 0.018287934 0.11699902
000170 35 e0 9f bd 3d f6 b4 3d 91 0f a6 3c 99 f1 0b bc
       -0.07806436 0.08836029 0.020271095 -0.008541488
000180 33 ea 8e bd 35 b7 36 3d 9b 63 93 bd 33 45 bd 3d
       -0.06978264 0.044608314 -0.071967326 0.09241714
000190 fe d1 c9 3d eb aa e4 3b 42 32 af 3d 6a cf 1c 3d
       0.09854506 0.006978383 0.08554508 0.038283743
0001a0 cb d8 76 ba 9c 86 84 3c 1c dd 41 3d 85 bf 04 3e
       -0.000941646 0.016177468 0.047330007 0.12963684
0001b0 a1 c7 03 be 84 e6 c7 bc 4c 4c 11 bd 44 d8 16 3e
       -0.12869121 -0.02440191 -0.035473153 0.14730936
0001c0 de 44 1d 3e 7a 85 70 bd c7 94 39 3e 2f 33 e1 3d
       0.15358302 -0.058721043 0.1812316 0.109960906
0001d0 87 e9 ee 3d 88 a9 8d 3d 93 b7 a1 3d 21 fa 23 3d
       0.116656356 0.06917101 0.07896342 0.040033463
0001e0 90 b5 b8 bc f2 37 fa ba 19 3d da bc 03 fb 89 bd
       -0.022547513 -0.0019090159 -0.026640462 -0.0673733
0001f0 c2 6d 7d 3d 00 0a 87 bd f1 54 15 bd 1f a8 6a 3c
       0.06187225 -0.06593704 -0.03645796 0.01432231
000200 2b a8 dc b9 c3 ba f0 bc e6 52 14 bc 0a 18 03 3d
       -0.00042086965 -0.02938593 -0.009052968 0.032005347
000210 f1 3e 18 3c 4e a6 a3 3b 6a 13 c4 3c 3b 16 93 bd
       0.00929235 0.0049941903 0.023935039 -0.071819745
000220 06 f1 01 bd 43 7c cf 3c c8 89 19 be 0c d7 62 3d
       -0.031724 0.025327807 -0.14993966 0.055380866
000230 68 43 1f 3d e4 f6 84 bd c8 bc bb 3c b9 6a f6 3c
       0.038882643 -0.06492403 0.022917166 0.030080186
000240 03 13 86 bc 0e 1d 6c bb 05 63 45 3d 2a 94 94 3d
       -0.016366487 -0.003602806 0.048190136 0.072548226
000250 c3 cd fa bc 8e 7d 99 bd 93 de 64 3c ce f9 de bc
       -0.030615693 -0.07494651 0.013969081 -0.027218726
000260 ba df 4f bc 4d bd f3 3c 23 10 c7 bd 15 53 9d 3d
       -0.012687618 0.029753352 -0.09719875 0.07681862
000270 fd b3 7d 3d f9 b9 51 bc ac d2 a8 bc 47 d5 86 bd
       0.06193923 -0.012800687 -0.020608269 -0.06583648
000280 73 94 84 3c b3 f5 f3 bc 4b 09 fe bc 76 c7 f9 3d
       0.016184067 -0.029780244 -0.03101029 0.12196247
000290 38 28 a7 3d 43 dd 6a bb ca 1b 28 bd 76 c8 a1 bd
       0.08161968 -0.0035837449 -0.041042127 -0.07899563
0002a0 c0 a7 93 3d 5c 3c 71 3d f2 a1 87 3d 3d 37 e6 bd
       0.0720973 0.058895454 0.066226855 -0.112410046
0002b0 a8 b4 34 be 2f b8 f4 bc a6 51 84 bc 33 51 0f 3c
       -0.1764704 -0.029872982 -0.016152214 0.008747387
0002c0 b4 84 ed bd 70 5d 05 3d 88 f9 44 bc 39 c2 ef 3c
       -0.11597577 0.032559812 -0.0120223835 0.029267417
0002d0 e7 f1 47 bc 8c e0 a8 bb bd 74 c4 3c c1 7e 0e 3d
       -0.01220367 -0.005153721 0.023981446 0.03478885
0002e0 4a aa 32 3c 04 58 a2 3d f8 cc 81 3d a8 d3 b8 3c
       0.010904858 0.07926944 0.06337923 0.022561863
0002f0 18 b3 c6 3d be 35 4b bd 02 75 4b bd 5f ab 45 be
       0.09702128 -0.0496118 -0.049672134 -0.19303654
000300 e6 f3 e9 bc 12 3d 91 3d bd ed d0 3d 14 bc 77 ba
       -0.028558683 0.07091726 0.10201595 -0.0009450328
000310 0c 6f e6 bc b0 e3 ea 3c c6 be f2 3d fa 1f 50 bd
       -0.028129123 0.028673023 0.118527934 -0.050811745
000320 ff ef 8d 3d 5c fb 3e 3d 47 01 d9 bb 14 38 00 bd
       0.06930541 0.046626434 -0.0066224667 -0.03130348
000330 37 21 8a 3a 99 f4 1b bd 23 90 fb 3c 35 9f 80 bd
       0.0010538463 -0.038075063 0.030708378 -0.06280366
000340 8c 19 a1 bc c3 58 86 3d b2 2c 19 3e 41 36 53 bd
       -0.019665502 0.06559899 0.14958456 -0.051565412
000350 0a 55 4a bd 56 e8 38 bd 3a 51 96 3b 6f 14 3f 3d
       -0.049397506 -0.045143448 0.0045873197 0.046650346
000360 3b ea e9 bd 29 e5 0a bd f9 f6 39 3d f6 7b 78 3d
       -0.11421629 -0.03390995 0.045401547 0.060665093
000370 cb ae 22 bd fc 6d 25 bd 70 09 d0 3c 9a 94 47 bd
       -0.039717477 -0.040388092 0.025395125 -0.048725702
000380 32 0d ad bc ac 18 e3 3d 12 a6 18 bd 56 18 34 bd
       -0.021124456 0.1108869 -0.037267752 -0.04396852
000390 71 2f 49 bd d0 46 6a 3d 2c 95 83 3d 06 0b 28 3d
       -0.04911751 0.05719644 0.06424937 0.041026138
0003a0 57 03 05 be 3c 9f d1 3d 97 3f 37 3c 84 e2 aa b9
       -0.12989555 0.1023545 0.011184595 -0.00032593694
0003b0 8c c3 45 3d ec 98 df bc 6d 10 52 3d a8 38 29 bd
       0.04828219 -0.027294599 0.051285196 -0.041313797
0003c0 89 63 8a bd 0a 9c 2e bd 1d d5 f8 bd 49 08 69 bb
       -0.06757266 -0.04262928 -0.12150023 -0.0035557917
0003d0 3c 94 49 3c 9a 36 20 bd a5 70 17 be 66 49 03 bc
       0.012303408 -0.039114572 -0.14789064 -0.008013105
0003e0 4e 22 61 3d a0 f2 5d 3d ab 18 f5 bb 1a ef fc 3c
       0.054964356 0.054186463 -0.0074797473 0.030875731
0003f0 94 96 41 ba 2e 02 a8 bb e5 95 53 3b 71 36 24 3d
       -0.00073848036 -0.005127213 0.003228539 0.040090982

network_body._body_endoder.seq_layers.0.bias f4 [128]
000000 ba 9f a5 3c bb d3 7f 3d 36 16 42 bd 19 50 89 3c
       0.020217765 0.06245778 -0.047384463 0.016761826
000010 55 fc bf bc ca 7a 2a 3d 84 e3 15 3d be 6f 89 3d
       -0.023435751 0.041621007 0.03659393 0.06710766
000020 e1 8b f9 3c 34 9d 4e 3d ef ad 78 3c 05 36 53 bd
       0.030462207 0.05044289 0.015178188 -0.05156519
000030 a4 8d c4 bc fc 81 7d 3b 03 73 36 3d d6 b0 d8 bd
       -0.02399332 0.0038682213 0.044543277 -0.10580604
000040 39 ab 9c 3d ba 2a 37 3d 8b 06 29 3d a7 33 1d bd
       0.07649846 0.04471848 0.041266005 -0.038379338
000050 76 39 d2 3c 40 2d 08 3d 71 03 0b bd b8 cd 86 3d
       0.025662165 0.03324628 -0.03393883 0.065822065
000060 c4 37 8f 3d 25 28 1e 3d ec 8e d7 3d 21 77 07 3d
       0.06993058 0.038612504 0.10525307 0.033072595
000070 bb 21 19 bd 23 f2 92 3c 42 42 03 3d dc 8a 80 bc
       -0.037385684 0.017937725 0.03204561 -0.015691213
000080 a1 b2 60 bc 95 61 13 3d c3 91 8f 3d 13 53 03 3d
       -0.013714463 0.035981733 0.07010224 0.032061648
000090 6a 73 5c 3d 96 71 90 bc 82 b2 a9 3d f2 fc 5b 3c
       0.053821005 -0.017632287 0.08286001 0.013427006
0000a0 31 ca a6 3b d7 c2 0d 3c 66 9b 2d bc 49 45 0c 3d
       0.005090021 0.0086524105 -0.010596132 0.034245763
0000b0 fa 88 3a 3d 6a c8 a2 3c 57 d8 3e 3a 7b 50 08 3b
       0.045540787 0.019870955 0.0007280162 0.0020799923
0000c0 97 69 b1 bc d3 86 fe 3c db 7e e8 bc e0 67 5a 3d
       -0.021656794 0.031070149 -0.028380802 0.05332172
0000d0 a8 cc 14 3d 6e 8c a5 3d 2b cf 04 3c 09 12 fe bc
       0.036327988 0.080834255 0.008106033 -0.03101446
0000e0 57 a0 b4 3d 6f 03 47 3d a8 fe e7 3d b8 4e 41 bd
       0.08819645 0.04858726 0.11327869 -0.047194213
0000f0 bc c8 57 3b 61 88 af 3c f9 7f 3a ba fc 81 75 3d
       0.0032926043 0.021427335 -0.00071144063 0.059938416
000100 7e 0e a8 bc 11 bc e7 3c d4 e3 f3 ba 24 5a 7f bc
       -0.020514723 0.02828792 -0.0018607327 -0.015585456
000110 9f b0 41 3d 65 04 9b bd 44 c3 45 3d 02 93 f6 3b
       0.04728758 -0.075691976 0.048281923 0.007524849
000120 14 7d 46 3d a1 8e b3 3b 13 da cf bd 11 9d 93 3d
       0.048459128 0.005479649 -0.10149016 0.072076924
000130 9f 78 4e bd 03 4c 96 bc 0a 4b c0 bc df 0c c8 3c
       -0.050408002 -0.018346792 -0.023473281 0.0244202
000140 19 8d 15 3d 12 22 d5 bb fe 80 86 3d cb da 89 3b
       0.036511514 -0.0065043056 0.06567572 0.0042069904
000150 29 8a 40 bc 14 54 81 3c f8 57 8e 3c dc c8 7b 3c
       -0.01175169 0.015787162 0.017375931 0.015367713
000160 eb 91 c7 bc 85 8b 65 3d f9 6d 9e 3c c7 ce 91 3c
       -0.024361571 0.05604126 0.019339548 0.017798794
000170 db ca 87 3d a1 53 b5 3c 1d 9c 80 3d 24 d3 2d 3d
       0.066304885 0.022134604 0.06279776 0.042437688
000180 8f 8e 79 3c 2b 4b 9a 3d d5 50 b8 38 d2 d1 6b 3c
       0.0152317425 0.075338684 8.78886e-05 0.014393287
000190 07 56 7b 3d fd 0c 80 3a f0 08 0e bd 5f 37 15 bc
       0.06136134 0.0009769496 -0.034676492 -0.00910744
0001a0 c8 de 55 3d 79 fb e1 3b ea 2d f0 3d 8a 86 93 bd
       0.052214414 0.006896433 0.117275074 -0.07203396
0001b0 d5 54 8b 3c c8 83 0d bd 20 5c 4f 3d ba 3b c9 bb
       0.017008225 -0.034549505 0.050624967 -0.006141153
0001c0 04 50 e3 bb dd fe 43 3d bd f2 00 3e 24 c4 c9 3b
       -0.006937029 0.04785048 0.12592597 0.006157415
0001d0 ad 71 94 3d 30 b3 e7 3b ad f7 97 bc d5 e5 a3 3b
       0.072482444 0.0070709214 -0.018550718 0.0050017633
0001e0 6a f3 aa 3d c1 d0 5d bd e1 39 2f 3d 8d 69 bb 3c
       0.08347209 -0.05415416 0.042779807 0.022877479
0001f0 91 e9 cf 3c 06 2c e4 3d 05 8f 96 bc 90 fd c3 bd
       0.025379928 0.11141209 -0.018378744 -0.095698476

network_body._body_endoder.seq_layers.0.weight f4 [128, 9]
000000 fa 87 86 3d eb 7c 12 3f be 72 df be 00 1f 35 be
       0.06568904 0.5722186 -0.4364223 -0.17687607
000010 d6 78 11 bf 69 a3 49 3e 48 d9 8d 3e a3 fb fb bd
       -0.56825006 0.19691242 0.27704835 -0.12303855
000020 89 73 99 bd 1c 8a 0c 3f 5e 16 b2 bd 07 13 1d 3e
       -0.0749274 0.5489824 -0.086956725 0.1533929
000030 f5 8d b6 3e b9 7e 3c 3f 86 0b 6e 3f d2 7a 6b 3e
       0.3565518 0.73630863 0.92986333 0.22996071
000040 25 2f 4e 3e cc 71 dd be ea ad 76 3e a2 43 b7 bd
       0.20135172 -0.43250883 0.2408978 -0.08948447
000050 a5 3d 7e 3d 54 ad 70 be 59 73 c8 be 17 90 63 be
       0.062070508 -0.2350362 -0.39150503 -0.22222935
000060 2f 4a 50 bd ef c5 b3 be 18 d7 63 ba 67 2e 67 3e
       -0.050851997 -0.3511195 -0.0008691414 0.22576295
000070 b6 ad 96 be 80 7e 0f bf 7f 1c f0 bc b0 5c f0 3e
       -0.29429406 -0.560524 -0.029310463 0.46945715
000080 80 af 27 3f be eb 85 3e 9b ff af bd 2f 59 f9 3c
       0.65502167 0.2615642 -0.08593675 0.030438034
000090 98 36 a4 3d cb 4b 50 be 84 30 1e 3e a3 23 01 bf
       0.080182254 -0.20341413 0.15448195 -0.50445
0000a0 70 0b 04 3f 5b ed 59 3e a7 1e 4f bf 40 a7 c5 be
       0.5157995 0.2128195 -0.80906147 -0.38604164
0000b0 2a 42 c5 bd 8d 2d 4c be 6a bc e8 be 99 fb 85 3e
       -0.096317604 -0.19939251 -0.4545625 0.26168516
0000c0 b0 05 95 3f 4b d0 3b 3f 21 39 81 be 33 e0 85 be
       1.1642361 0.73364705 -0.25238898 -0.26147613
0000d0 de 2f fb 3e 53 01 86 bd 0a 92 1e 3e cc d6 41 3d
       0.49059957 -0.06543221 0.15485397 0.047323987
0000e0 32 7d cc 3e 53 16 3d 3e 1f 93 08 3e b4 bd 95 3e
       0.39939266 0.18465547 0.13337372 0.29246294
0000f0 31 13 09 bf 2c ad 1b 3f c8 63 94 bc a9 bd b5 3d
       -0.5354491 0.60811114 -0.018113986 0.088740654
000100 25 10 0f 3d 9d 63 d3 bd 88 37 c3 be 47 64 0a 3f
       0.034927506 -0.10321734 -0.38128304 0.5405926
000110 e8 f3 be 3e 26 65 4b be a3 2e ba 3e 63 f5 85 3c
       0.3729546 -0.19862804 0.36363706 0.016352361
000120 49 ba 88 3e 7f 5b 05 3e 1e 20 c8 3e 46 0c 64 be
       0.26704624 0.13023184 0.39087003 -0.22270307
000130 50 bd 8a bd 04 1b c4 3e 65 18 8f bd be b7 06 3e
       -0.0677439 0.3830186 -0.06987075 0.1315603
000140 2a 48 ab be 24 c8 22 3e 45 08 63 3e 89 13 6a be
       -0.33453494 0.1589666 0.22171123 -0.22859015
000150 6f fb 00 bf 64 22 99 3e 07 14 7a be 6e 91 b7 bd
       -0.5038366 0.2990905 -0.24421702 -0.089632854
000160 c9 b3 40 3e 69 55 04 3f ac 85 84 be 47 fc 17 bf
       0.18818583 0.51692826 -0.25883234 -0.5936932
000170 70 37 38 be 88 25 1d 3d 04 d9 24 3f 22 6f 02 3c
       -0.17989898 0.03836587 0.6439364 0.007961066
000180 12 f9 49 bb b3 0d 98 3d dd 35 d1 3d e0 f8 70 bd
       -0.0030818623 0.07424488 0.10215352 -0.058831096
000190 16 11 0a bd 9a 59 2a bd 9d 18 38 be 3e 6a 25 bf
       -0.0337077 -0.041589357 -0.17978139 -0.6461524
0001a0 13 0f 35 3f 85 aa 46 3f 90 e9 52 3e 0e e5 17 be
       0.70726126 0.7760394 0.2059691 -0.14833471
0001b0 ac 8e b4 bd 16 59 1c be 31 c2 05 3f 8b 45 32 3f
       -0.08816275 -0.15268359 0.5224944 0.69637364
0001c0 9f b1 63 be 8b 10 1f bf 57 aa 6c be 63 2e 62 3e
       -0.22235726 -0.6213462 -0.23111854 0.22088008
0001d0 e7 72 0c bf 10 30 15 be 53 23 bc bd e1 44 e0 3e
       -0.5486283 -0.14569116 -0.09186425 0.4380255
0001e0 dd 3b 3f 3e af 07 07 3f 29 7b 66 3e 6d f1 14 bf
       0.1867518 0.527461 0.2250792 -0.58180887
0001f0 1a c8 b8 3d 03 94 fd be c7 a0 a7 3e de e0 37 be
       0.09022541 -0.49526986 0.3273985 -0.17956874
000200 34 54 90 3e 68 a2 21 3e 65 f2 00 be e3 74 83 3e
       0.28189242 0.1578461 -0.12592466 0.25675115
000210 43 21 50 be 45 1c 14 3f 22 a8 12 bf 36 81 d2 be
       -0.20325188 0.57855636 -0.572878 -0.41114205
000220 03 48 9f be 41 35 20 3e c7 16 2e be b6 f0 ed be
       -0.31109628 0.15645315 -0.17000876 -0.4647271
000230 6e 9c 27 3e 43 e4 60 be d9 98 51 3e 01 93 8b be
       0.16368267 -0.21962075 0.20468463 -0.27260593
000240 c5 0c 26 be e2 72 0b be aa 4d c4 be c5 c5 6f be
       -0.16215809 -0.13618043 -0.38340503 -0.23415287
000250 3c ce 53 be 87 b0 36 bf b9 75 af be 3f 2c 2e 3e
       -0.20684141 -0.7136311 -0.34269503 0.17009066
000260 c9 fa dc be 04 68 d5 bd a8 cb 0e 3f 6b 71 88 be
       -0.43160084 -0.1042023 0.55779505 -0.2664903
000270 6f 18 03 be 3f e1 53 be 01 4c 34 3f 0e 62 2c bd
       -0.1280229 -0.20691393 0.7042847 -0.0420857
000280 ff 89 be be d0 8d b8 3e 8a a2 0a 3e 30 66 e1 bd
       -0.37214658 0.36045694 0.13538566 -0.11005819
000290 54 45 b1 3d b5 0b 84 bd 52 66 75 3e f0 fd 9e 3e
       0.086558014 -0.064475454 0.23964813 0.31053114
0002a0 90 59 0d 3e 7f 8a 63 3e 31 1e 05 bf 12 75 b7 be
       0.13803697 0.22220801 -0.51999193 -0.35831505
0002b0 04 6f 01 3d d7 cd 1f bf 76 51 0e bf 73 21 72 bc
       0.031600013 -0.6242346 -0.5559305 -0.014778483
0002c0 52 ef 88 bd 80 33 05 3e 32 0a 88 3d b1 4a bc bc
       -0.06686272 0.13007927 0.066425696 -0.022984834
0002d0 44 d2 3c bd 0e ac 00 bf f3 44 82 3f eb 50 4b 3d
       -0.046098962 -0.50262535 1.0177292 0.049637716
0002e0 42 51 d9 3e 87 2f 0e 3d 91 2c 35 3c 98 e4 bd 3d
       0.42444807 0.034713294 0.011057989 0.092721164
0002f0 90 6f 0e 3f 66 46 87 be dc 8d 66 3d 4e 16 90 be
       0.5563898 -0.26420897 0.05628763 -0.28142017
000300 ff ee 2d 3e 79 43 15 3e 77 f4 40 3d dd e3 d6 bd
       0.16985701 0.1457652 0.04710814 -0.1049268
000310 d5 fd bb bd 05 0a d8 3e 0e e5 c5 bd 6b b8 b7 be
       -0.09179274 0.42195144 -0.09662829 -0.35882887
000320 ca 2d 0b bd 80 02 14 be 9c 33 6e 3e 2f 96 bf be
       -0.033979215 -0.14454079 0.23261875 -0.37419268
000330 eb f3 04 3f 3e 53 0c bf d0 4d 2d 3d 06 86 d0 be
       0.5193469 -0.5481452 0.042310536 -0.40727252
000340 17 b9 bd bd cc b5 be be 6d bd bc 3e 0c 4e 26 be
       -0.09263819 -0.37248075 0.3686327 -0.1624071
000350 56 6d ac bd 41 0d 5e 3d 4c b9 fa bd ec fc da 3e
       -0.08419292 0.05421186 -0.12242374 0.4277109
000360 e8 e3 87 be 54 59 33 3e de e9 d5 3e 98 9d d6 bd
       -0.26541066 0.17514545 0.4177999 -0.10479277
000370 1d 6c d3 3e 69 83 44 bd c3 9d bf 3e 58 6c 9e be
       0.4129342 -0.047976885 0.3742505 -0.30942035
000380 ec 3e e4 be 30 04 b4 be 56 8a 11 bf bf bc 40 3d
       -0.44579256 -0.35159445 -0.5685171 0.047055002
000390 cf 6d 58 bd 02 e3 8a 3e 38 e0 6a 3f 81 a0 f6 3e
       -0.052839097 0.27126318 0.9174838 0.4816933
0003a0 3e b0 dd 3e 77 4d dd be 73 7e f0 bd 62 87 bc 3e
       0.43298525 -0.43223163 -0.11742868 0.3682204
0003b0 e4 7f 2f 3f 2d 31 eb bd de 4a bf 3e 09 98 40 3f
       0.6855452 -0.11483989 0.37361807 0.7523199
0003c0 5a 82 d1 3e c1 b8 1d 3e 4d db 22 bf 06 e4 fb 3e
       0.40919763 0.1540251 -0.63615876 0.49197406
0003d0 e8 67 38 be d8 67 94 3e 3f df 93 be 53 71 82 3e
       -0.18008387 0.28985476 -0.2888126 0.25477085
0003e0 66 55 bc 3e 46 78 5a be bb ff 1b 3e 63 dd 9d 3e
       0.36783904 -0.21334943 0.15234272 0.30832967
0003f0 7d f0 60 bd 1a 8f 80 bb b2 70 25 be 70 97 37 bf
       -0.054916847 -0.003923309 -0.16156271 -0.7171545

network_body._body_endoder.seq_layers.2.bias f4 [128]
000000 ef 57 9c 3d 93 c8 96 3d b5 80 95 bc 01 8e 24 bd
       0.076339595 0.07362475 -0.018249849 -0.040174488
000010 2a 77 a3 bb 4b 8d 6c bc cc b5 de bc 82 a9 27 3d
       -0.0049885707 -0.014437984 -0.027186297 0.04093314
000020 2d d5 7b 3d 24 70 e3 bc 39 e9 0e 3d 60 82 17 3d
       0.061482597 -0.027763434 0.034890387 0.03698957
000030 42 92 5d 3d 2e 12 ee 3c 97 ea c1 3c a9 b8 ce bc
       0.05409456 0.029061403 0.023671431 -0.025234537
000040 b7 da 08 bd 46 0e 8c 3d 57 2a be 3d c6 63 fd 3c
       -0.033411708 0.0683866 0.092854194 0.030931365
000050 56 f6 13 3d 0b 4b 1b 3d 6d d5 60 3d 9c 05 8a 3d
       0.036123596 0.037913363 0.05489104 0.06739351
000060 12 36 40 bb 32 e9 08 3d e0 f4 d2 3d 28 dc 8c 3c
       -0.0029329103 0.033425517 0.103006124 0.017194822
000070 c7 01 9b 3d 45 23 9c bd 28 9d c9 bc c9 59 ab 3c
       0.075686984 -0.07623915 -0.02461107 0.020916836
000080 90 04 6f 3c 9a 9d 52 bc 01 14 1d 3d f3 8d 9b bb
       0.01458849 -0.012854958 0.038349155 -0.0047471463
000090 42 92 7e bc 16 f9 a5 3d 40 37 00 3b 34 a8 99 3d
       -0.0155378 0.0810415 0.0019564182 0.07502785
0000a0 6d 17 b3 3c 00 92 a1 3c 35 13 4c 3d 18 8c c6 3d
       0.021861756 0.019722939 0.049823005 0.096946895
0000b0 9d 33 9b 3d 12 b9 03 bb 5b db 35 bd 3e 60 cb bc
       0.07578204 -0.0020099324 -0.044398647 -0.024826165
0000c0 aa 9f 5b 3d 1e 2a 40 3d 0a be 4e bc 5f c6 22 bc
       0.053619064 0.046915166 -0.012618551 -0.009934991
0000d0 3e 3c b7 bc b2 b1 2b 3d 47 e9 87 3b f6 6d f9 3c
       -0.022367593 0.04191751 0.004147682 0.030447941
0000e0 ee a5 06 3c da b0 aa 3c ca 84 8c 3d f5 b5 61 3d
       0.008218272 0.020836283 0.06861265 0.05510517
0000f0 c6 26 1c bd b8 55 86 3d de f4 2f bb 34 ef 91 3d
       -0.038122915 0.06559318 -0.0026848833 0.071257025
000100 ae da 2e bd 03 4a 7c 3d 45 8f cd 3c 7c 6f 9a 3c
       -0.042689018 0.06159402 0.02509273 0.018851988
000110 e4 ce 54 3d d4 ca c7 bc d4 40 2c 3d ae ec 26 3d
       0.05195512 -0.024388708 0.042054012 0.04075306
000120 99 d3 04 3d 97 6d bc 3c 68 25 83 3c a6 30 a6 bc
       0.032428358 0.023001475 0.016009048 -0.02028687
000130 96 7a 16 3c f0 2f 98 3c 55 51 30 bc 5b 78 a7 3c
       0.0091845 0.018577546 -0.010761579 0.020443132
000140 cd fa 47 bb ad 0f f3 3c 45 cf 46 3c fd e7 62 3d
       -0.003051448 0.02967056 0.012134378 0.055397023
000150 96 de 9d bb 10 1a 85 3c 8d 42 ff bc 4a 47 6e 3c
       -0.004817794 0.01624778 -0.031159664 0.014543364
000160 d2 6b 3e 3d ba 73 38 bc f1 33 6c 3c d7 38 f5 bc
       0.046489544 -0.01125806 0.014416681 -0.02993433
000170 b1 c1 a7 3d 96 d5 1d bd e9 ac 26 3c 8c 6c b9 bc
       0.081912406 -0.03853377 0.010173061 -0.022634767
000180 92 c4 0a 3d 94 7f 4a 3d cf 66 bf 3d 0d d1 1c bc
       0.03387887 0.049438074 0.09345781 -0.009571326
000190 be 72 ee 3c 52 17 b4 3c 44 96 0e 3d e5 9f 26 bc
       0.029107448 0.021983776 0.034811273 -0.010169958
0001a0 b8 8b 83 3d ad a0 12 3d 42 e0 a3 ba 70 0e 1d 3d
       0.064231336 0.035797764 -0.0012502747 0.038343847
0001b0 dd 0d 7a 3d 8c 13 66 3b d4 55 1b 3d 48 c5 7f 3d
       0.061048377 0.0035106866 0.03792365 0.062444
0001c0 14 79 29 3d f6 27 fa 3c 5c 79 2a 3d 9b e9 9f 3c
       0.041375235 0.030536633 0.041619644 0.019520571
0001d0 24 bd 37 b9 6e c8 99 3c f8 da 2a 3d 36 66 2a bd
       -0.000175227 0.01877233 0.04171273 -0.041601382
0001e0 50 95 02 3c 13 8a 97 3b cd fc 4a 3d d6 5b 80 3d
       0.007970169 0.004624614 0.049557496 0.06267516
0001f0 8a b8 29 3d 46 c9 d6 3c 95 9f 24 3d bd 8f ab 3b
       0.041435756 0.026219022 0.04019125 0.005235641

network_body._body_endoder.seq_layers.2.weight f4 [128, 128]
000000 d4 28 b3 bc 77 18 6a 3e f6 b4 e9 bd ca 9e 1f 3e
       -0.021870054 0.22860895 -0.11411469 0.15587917
000010 4a 65 21 be 06 81 82 be 52 10 e4 bd a5 02 37 3d
       -0.15761295 -0.25489062 -0.11135925 0.044680256
000020 d3 51 4d bd 82 be 12 3d c6 c7 8f bd b0 88 d0 3b
       -0.05012686 0.035826214 -0.07020526 0.0063639507
000030 33 fa 23 be ef 34 51 be 9a 10 c8 3c 2a 2a fa bd
       -0.16013412 -0.20430349 0.024421979 -0.122150734
000040 3a aa 31 3e 5c ab ff bd 77 c0 27 3e 28 f1 2e 3c
       0.17350093 -0.12483856 0.16382013 0.010677613
000050 50 c9 53 3d be c3 d5 bc fd 77 25 be da 0f 8a bd
       0.05170566 -0.026094314 -0.16159053 -0.06741305
000060 56 0b 82 3c be 36 f5 bd 28 fc ad bc cd 1a 44 bd
       0.015874546 -0.11973332 -0.021238402 -0.04787712
000070 51 7c d9 bd 35 18 b4 bd 90 60 44 be 11 72 9d 3b
       -0.106194146 -0.087936796 -0.1917746 0.0048048575
000080 0f 60 c6 bd 0c 3c ca 3d 21 a2 43 bd 48 8a c4 3b
       -0.096862905 0.09874734 -0.04776204 0.0059979297
000090 23 d1 1b 3e e7 5d 47 be bb 52 2b 3c 75 c8 e0 bc
       0.15216498 -0.19469415 0.010456736 -0.027439335
0000a0 a0 86 d0 bd 64 f4 8e be ef fd 22 be 20 21 16 bd
       -0.10181928 -0.2792083 -0.1591718 -0.036652684
0000b0 d3 d0 29 bd b9 bd dc 3c df 9e ad bc ab 29 e2 bd
       -0.041458916 0.026945936 -0.02119392 -0.11043104
0000c0 3b 56 c8 bc 24 05 8c 3d 42 5c fb bc 1e 11 fe bb
       -0.02445518 0.06836918 -0.03068364 -0.0077535054
0000d0 8e d9 93 3c 5c 8c 0c 3d d4 85 49 3e 51 a7 fa 3c
       0.018048074 0.034313545 0.19679958 0.03059736
0000e0 1a a0 7f 3d b2 b1 e4 bd 70 28 f6 bd 29 9c 0b 3d
       0.062408544 -0.11166705 -0.120194316 0.034084473
0000f0 9f 75 08 be 27 ff c4 bd 59 c6 35 bc 6c c6 49 bd
       -0.13326119 -0.09618979 -0.011094653 -0.049261495
000100 d5 31 1e bb 7c 93 86 bc aa c1 b5 bc d1 72 a9 3d
       -0.002413859 -0.016427748 -0.022187073 0.082738526
000110 25 cf e0 3d 0c 42 99 bc 8e 9c 84 3d 4e 4f 22 be
       0.1097701 -0.018708251 0.06475173 -0.15850565
000120 04 58 53 bd 65 67 ab 3c a2 2a f5 bd ea da f0 3b
       -0.05159761 0.020923326 -0.11971022 0.0073503153
000130 eb 73 a8 bd b6 78 6f bd 7b e2 8b 3b 8d f3 46 3e
       -0.082252346 -0.05846473 0.004268942 0.19428845
000140 c5 50 95 bb a7 8b e4 bd 38 15 c0 bd af 19 17 bd
       -0.0045567476 -0.11159449 -0.09379047 -0.03688973
000150 2c f0 cf bb 3c 1b 34 bd 1a 9f 02 be cd 73 54 3e
       -0.0063457694 -0.043971285 -0.12756005 0.207473
000160 a8 bf f1 bd 7b 8e b0 b9 0f 05 12 3c 6c db 09 3d
       -0.11804134 -0.00033675492 0.008912339 0.033656523
000170 14 20 db bc 9c 8f ad 3d 89 41 22 3e b8 01 ce bd
       -0.026748694 0.08474657 0.15845312 -0.100589216
000180 c4 7b 8d bd 12 89 b7 3c ce 8f d1 bd de 52 63 bd
       -0.06908372 0.022404227 -0.10232507 -0.05549895
000190 18 80 42 3c 60 8f af bc 7c b5 1c bb 3b 1a 6a bd
       0.01187136 -0.021430671 -0.0023911884 -0.05715392
0001a0 ec ea 9b bc 26 ef d1 bd 38 86 86 bd ab 3a 30 3c
       -0.019032918 -0.10250692 -0.06568569 0.010756175
0001b0 9b f3 64 3d d4 a2 ab bc e5 04 29 3d 98 4f f6 3d
       0.055896383 -0.020951666 0.041264433 0.120269
0001c0 32 6f 9b 3c fb 8b 81 3c 4b 76 51 bb 19 74 81 3c
       0.01897392 0.015813818 -0.0031961377 0.01580243
0001d0 14 a9 cc ba e1 9c ac 3d 1e 1d 85 bd c8 52 e0 bd
       -0.0015614354 0.0842836 -0.06499694 -0.10953289
0001e0 10 33 69 be 65 fe f0 bc 9c ab 8b ba 28 4d 59 bd
       -0.22773385 -0.02941818 -0.0010656002 -0.053052098
0001f0 48 25 18 be c0 0d 24 be eb 99 ed 3d 04 67 8b be
       -0.14857972 -0.1602087 0.11601623 -0.27227032
000200 fc 5a d1 bc ab 8a 42 3e 30 ce 3d bc c4 fb 4a 3e
       -0.02555608 0.1899821 -0.011584803 0.19822603
000210 58 f3 62 bd c8 41 b9 3c 42 fd 7b 3d 15 25 fd 3d
       -0.055407852 0.022614375 0.061520822 0.123605885
000220 78 c3 41 3e 41 c1 85 3d 81 3d 81 3c a5 22 cf bd
       0.18922222 0.06531001 0.015776398 -0.1011403
000230 b6 37 17 3c f8 fe a9 3d 27 2b 8f bd 66 f4 66 be
       0.009229591 0.083005846 -0.069906525 -0.22554168
000240 40 8e 99 bd 0c 3f 85 be f7 c7 a4 3d 21 b9 0b 3e
       -0.07497835 -0.26024663 0.08045953 0.1364484
000250 01 2e 1d 3e 19 06 55 be 7c 49 b6 bc d3 8c 0e be
       0.1534958 -0.20803107 -0.022251837 -0.13920908
000260 18 55 7e 3e fc 62 00 3d 3e 74 96 3d 46 37 d7 3b
       0.24837148 0.0313444 0.0734639 0.0065678684
000270 51 30 97 3e 5a f8 32 3d 57 6c 92 bc d3 a2 0a be
       0.2952905 0.043693878 -0.017873926 -0.13538675
000280 6a 03 69 3c 41 82 35 3d 1f 0d af bd 6a 3b 38 bd
       0.014222005 0.044313673 -0.085474245 -0.044978537
000290 81 00 d7 3c 40 ae f7 bd 2e cc c4 3d 39 bc a7 bd
       0.026245357 -0.120937824 0.09609257 -0.081901975
0002a0 6e 8c 9e bd 26 10 14 be ef e2 da bb 93 ac b6 3d
       -0.077416286 -0.14459285 -0.0066798846 0.08919635
0002b0 9e 52 26 3d 47 57 b4 bc 4a a8 3a 3a e3 b4 21 bd
       0.040606134 -0.022014273 0.0007120414 -0.039479148
0002c0 e2 26 44 3c 2a f8 95 3d fa a1 b5 bd 3a ed 03 3e
       0.011972161 0.07322724 -0.08868785 0.12883464
0002d0 56 9d 69 bc 96 ad 2c 3d 32 2d 60 bc 7a c6 c0 bd
       -0.014258703 0.042157732 -0.01368265 -0.094128564
0002e0 4b 1c 0c 3d f4 1c 86 3d ac 11 28 3e 08 26 cd 3d
       0.03420667 0.06548491 0.16412991 0.100170195
0002f0 7e 2f 23 bd bb 41 c2 bd ee a2 65 bd 67 b8 02 3c
       -0.039840214 -0.09485193 -0.056063585 0.007978535
000300 05 cf e2 bc 1d ae bf 3d cb 03 e1 bc 3f fe 39 3c
       -0.027686605 0.09359381 -0.027467629 0.011352121
000310 41 9b 56 bd 0a b0 ae 3d f0 56 63 3d 4c 34 7c bd
       -0.052394155 0.085296705 0.055502832 -0.06157331
000320 f7 20 04 3b 77 51 a1 bc 58 ea 82 3c 02 33 e7 bd
       0.002016125 -0.019692166 0.015980884 -0.11289026
000330 06 e1 90 3c f2 ab 84 3d 87 60 5b be 87 15 4c 3c
       0.017685425 0.064781085 -0.21423541 0.012456304
000340 37 a8 19 3d 8d 7e 45 bd 31 a5 04 3e 16 e6 de 3d
       0.037513938 -0.04821639 0.1295364 0.10883729
000350 ce e5 5e be 66 2d 33 3d 22 f5 fc 3c 49 5e 16 bd
       -0.21767351 0.043744467 0.030878607 -0.03671101
000360 e6 d0 9c 3d 55 36 14 3d a0 7b 01 3e cb 20 16 be
       0.07657032 0.036184628 0.12644815 -0.14660947
000370 66 d9 15 be fd d1 57 bd a6 b8 0d 3b 1e 72 14 3e
       -0.14633712 -0.052690495 0.0021624952 0.14496657
000380 94 d7 48 3e bd 9f 00 3e f0 0e 83 be f1 d1 49 bd
       0.19613487 0.12560935 -0.25597334 -0.04927248
000390 06 c5 a7 bc 8b 6a be 3c 21 69 84 bd 12 ee 31 3c
       -0.02047969 0.023244163 -0.06465364 0.010859983
0003a0 27 16 00 be 64 d8 5b bd 1e 0d 8f bd 07 6c b3 bd
       -0.1250845 -0.053673163 -0.06984924 -0.08760839
0003b0 4c bc af 3d b8 44 88 bc 20 16 ae bc 34 9f 88 bb
       0.08580837 -0.01663433 -0.021250784 -0.004169369
0003c0 dc 5e c9 3c cb 70 ba 3a 1b 64 a2 bb 81 91 0f be
       0.024581365 0.0014224289 -0.004955781 -0.14020349
0003d0 47 e7 3d 3d 07 ca 2a be a3 f9 5f 3d 1d f1 2a 3e
       0.04636314 -0.1667863 0.05468143 0.1669354
0003e0 10 a5 3c bd 39 d6 92 bd d9 82 fa bd 8b 5e ca 3d
       -0.046055853 -0.07169766 -0.122319885 0.09881314
0003f0 14 4f 56 3d 7a 75 f3 3d f5 f5 11 bd 68 24 35 bd
       0.05232151 0.11887641 -0.035634954 -0.044224173
