results/ppo/PreyBrain/PreyBrain-0.pt (torch, 152335 bytes, 12 tensors)

network_body._body_endoder.seq_layers.0.weight f4 [128, 9]
0	0xbebf34bf	-0.3734493
1	0xbebf60ef	-0.37378642
2	0xbeca1c43	-0.39474687
3	0xbc941486	-0.018076193
4	0xbdde7d2e	-0.1086372
5	0x3f838fa6	1.0278213
6	0x3e5e44fa	0.21706
7	0x3dbe2a44	0.09285405
8	0x3ec61e5b	0.38695034
9	0xbe31c99c	-0.17362064
10	0xbf1d5a37	-0.6146578
11	0x3e20e82b	0.15713565
12	0xba9bd73a	-0.0011889704
13	0xbeb3899e	-0.3506593
14	0xbdb7f1bf	-0.08981656
15	0x3e2b9e76	0.16759667
16	0x3d8a08c3	0.067399524
17	0xbf501fe8	-0.81298685
18	0xbe0ea5e2	-0.13930467
19	0xbe809966	-0.25117034
20	0x3beec094	0.0072861407
21	0x3eada530	0.3391509
22	0xbc7c14f4	-0.015385855
23	0xbdaeabd6	-0.08528869
24	0x3e18b9a1	0.14914562
25	0xbe8cf40e	-0.2752995
26	0xbe5a0f07	-0.21294795
27	0x3e5382a4	0.20655304
28	0xbdb90cef	-0.0903567
29	0x3ea4a93a	0.3216036
30	0xbdb673df	-0.089088194
31	0x3eacd8ae	0.33759063
32	0xbe251688	-0.16121876
33	0x3ea07124	0.3133632
34	0xbce07e6e	-0.027404036
35	0x3e45a6ae	0.19301865
36	0x3ef2d9df	0.47431847
37	0x3d144ac9	0.036204133
38	0xbedd06b7	-0.43169186
39	0x3e868e6f	0.26280543
40	0xbeafe60a	-0.34355193
41	0x3e3a9f3b	0.18224804
42	0xbe838ebe	-0.2569484
43	0xbe493177	-0.19647776
44	0x3e8c8e10	0.27452135
45	0xbe893f95	-0.26806322
46	0x3f1c336a	0.6101595
47	0x3f254ed2	0.64573395
48	0x3e49574b	0.19662206
49	0x3d2a5882	0.041588314
50	0xbd2540f0	-0.040345132
51	0xbe2ea237	-0.17054068
52	0x3efbd5d0	0.49186563
53	0x3e557996	0.20847163
54	0x3f3941cc	0.72366023
55	0xbe2f93a3	-0.17146163
56	0x3eb7b846	0.35882777
57	0x3f38e18e	0.7221917
58	0xbf196912	-0.5992595
59	0x3ef7f5f0	0.48429823
60	0x3e9ce45a	0.30642968
61	0xbe5e2052	-0.21692017
62	0x3edf6bce	0.43636936
63	0xbe94b966	-0.29047698
64	0xbe94c674	-0.29057658
65	0xbee9f6f7	-0.45696232
66	0xbea02517	-0.31278297
67	0xbf0527e9	-0.52014023
68	0xbdb3b58c	-0.08774862
69	0xbe1d36b3	-0.15352897
70	0x3e8f7c5d	0.2802457
71	0xbe6fbb4e	-0.23411295
72	0x3dcbff13	0.09960761
73	0x3e387c8a	0.18016258
74	0x3eb1bc6c	0.34714067
75	0x3e9f1972	0.310741
76	0x3e014ec8	0.12627709
77	0xbe9ee787	-0.31036016
78	0x3f55e744	0.8355601
79	0xbb40d172	-0.0029421714
80	0xbe81c9cc	-0.2534927
81	0x3d93c5b6	0.07215445
82	0xbcea6964	-0.028614707
83	0xbcf18ad4	-0.029485144
84	0x3e71bc2b	0.23606937
85	0x3d05910b	0.032609027
86	0xbd07acba	-0.03312371
87	0xbe3c8d16	-0.18413195
88	0x3f318f86	0.69359624
89	0x3ee3a9f8	0.44465613
90	0x3ead0d3f	0.33799168
91	0x3e7f415e	0.2492728
92	0x3dc26a56	0.09492938
93	0x3f529d2a	0.82271063
94	0xbe17f6f2	-0.14840296
95	0xbddb242f	-0.10700261
96	0x3f10142c	0.5628078
97	0xbdf9978b	-0.12187108
98	0x3e5398d0	0.20663762
99	0x3ad43a0e	0.0016191618
100	0xbf357158	-0.70876074
101	0xbe814970	-0.2525134
102	0x3e3390f3	0.17535762
103	0x3c673d94	0.014113802
104	0xbd29ae80	-0.04142618
105	0x3e6ef007	0.2333375
106	0x3f02fb32	0.51164544
107	0x3e0d8d50	0.13823438
108	0x3ec539f4	0.38520777
109	0x3e3f9f1f	0.18713044
110	0x3f1308de	0.57435405
111	0xbed71cd7	-0.4201419
112	0xbd3848cc	-0.0449913
113	0x3f3bf5b3	0.7342178
114	0xbeea96b2	-0.45818096
115	0x3de9a120	0.11407685
116	0xbdfb6f5b	-0.12277099
117	0xbe92c061	-0.28662398
118	0xbf32740c	-0.69708323
119	0xbe8a3f64	-0.27001488
120	0x3e143926	0.14474925
121	0xbef3ea3c	-0.47639644
122	0x3f35820e	0.7090157
123	0xbf32933c	-0.6975591
124	0xbf0a0019	-0.539064
125	0x3e58d5af	0.21175264
126	0x3e91777e	0.28411478
127	0xbeaeb364	-0.3412124
128	0xbd6fea87	-0.058573272
129	0xbf0b7255	-0.5447133
130	0xbe0ab516	-0.13545641
131	0xbe86eed1	-0.26354077
132	0xbd844f82	-0.064604774
133	0x3e335c36	0.17515644
134	0x3edc4bc0	0.43026543
135	0x3d805bee	0.06267534
136	0xbe1524d2	-0.14564827
137	0xbf06c827	-0.5264916
138	0x3eee7dce	0.46580356
139	0x3e2e322a	0.17011324
140	0x3d105c83	0.035244476
141	0xbe00354f	-0.12520336
142	0x3da12399	0.07868118
143	0xbe12b820	-0.1432805
144	0x3e3a0e30	0.18169475
145	0xbe566484	-0.20936781
146	0xbeb2854e	-0.34867328
147	0x3df09582	0.11747266
148	0x3e4673c4	0.19380099
149	0xbe23d042	-0.15997413
150	0xbe918d23	-0.2842799
151	0xbf755a83	-0.95841235
152	0x3eadeb43	0.33968553
153	0x3f2f6e33	0.68527526
154	0xbec2743a	-0.379793
155	0x3d94df24	0.07269123
156	0xbec74ed2	-0.38927323
157	0x3e346a07	0.17618571
158	0xbe0d2429	-0.13783325
159	0xbe9bc9bb	-0.30427346
160	0xbec31f06	-0.38109607
161	0xbeb36f22	-0.35045725
162	0x3e3bb160	0.18329382
163	0xbf229aae	-0.6351727
164	0xbedbf442	-0.4295979
165	0xbe214a18	-0.15750921
166	0xbe8648b4	-0.26227343
167	0xbe82652c	-0.25467813
168	0xbf0b8780	-0.5450363
169	0x3cc192a8	0.023629501
170	0xbd83e28f	-0.06439697
171	0x3e0910a4	0.13385254
172	0xbf00ca68	-0.5030885
173	0xbe56809f	-0.20947503
174	0xbe2c69e0	-0.16837263
175	0xbe6ef06b	-0.233339
176	0x3d9e5992	0.07731928
177	0xbe80cf73	-0.2515827
178	0x3e452496	0.19252238
179	0x3e476be2	0.19474748
180	0xbe78528a	-0.24250236
181	0x3ec2681c	0.37970054
182	0xbde02548	-0.10944611
183	0xbd022cc0	-0.03178096
184	0x3efd1a08	0.49433923
185	0x3e3818ae	0.17978165
186	0x3e19d592	0.15022877
187	0xbe85322e	-0.26014847
188	0xbf102328	-0.56303644
189	0xbde0ac80	-0.10970402
190	0xbe237dd3	-0.15965967
191	0xbea04c87	-0.31308386
192	0x3e2b5144	0.16730219
193	0x3d6ffa47	0.058588292
194	0x3e1aa52c	0.1510207
195	0xbe96c83f	-0.2944965
196	0xbf0fd620	-0.56186104
197	0x3e9dfc7a	0.30856687
198	0x3d982aae	0.074300155
199	0x3e9bdb5f	0.30440804
200	0xbf0b8207	-0.5449528
201	0x3f3db0aa	0.7409769
202	0x3e849b32	0.25899655
203	0x3f1d08a9	0.6134134
204	0x3e15f8ca	0.14645687
205	0x3f200f5f	0.62523454
206	0x3e08a184	0.13342863
207	0x3e787a5a	0.24265423
208	0x3ea12e9c	0.31480873
209	0xbe9b174e	-0.30291218
210	0xbe9b54ec	-0.30338228
211	0x3ee8612e	0.45386642
212	0xbd872056	-0.065979645
213	0x3ec20317	0.37892982
214	0xbe9f4392	-0.3110624
215	0xbe53638b	-0.20643441
216	0x3f47c84a	0.7803999
217	0x3d45935a	0.04823623
218	0x3dda9222	0.10672404
219	0x3f9cfa7a	1.2263939
220	0xbe93f367	-0.2889664
221	0x3e2fdb4a	0.17173496
222	0x3e836d16	0.25669163
223	0xbf3b3824	-0.7313254
224	0x3e6fa032	0.23400953
225	0x3cbbe064	0.022934146
226	0x3f170203	0.58987445
227	0x3ed790bf	0.4210262
228	0xbd12ba62	-0.03582228
229	0xbe50bf63	-0.20385508
230	0x3ee5fa58	0.4491756
231	0x3b9fcd4e	0.004876769
232	0xbe3f3112	-0.18671063
233	0x3e68afbc	0.22723287
234	0xbeddc840	-0.4331684
235	0x3df25e66	0.11834411
236	0x3eff556b	0.49869856
237	0xbee7cb22	-0.45272166
238	0x3eea1228	0.45716977
239	0x3e652bfa	0.22380057
240	0x3f4e4603	0.8057558
241	0x3e9b66bc	0.30351818
242	0x3d9ac4bf	0.075570576
243	0x3f148dda	0.5802895
244	0x3dc6838a	0.09693058
245	0xbe8646de	-0.26225942
246	0xbd889f46	-0.06671004
247	0xbdb1bb77	-0.08678334
248	0xbe96bdb8	-0.2944162
249	0x3e6cdf34	0.2313202
250	0xbd320d0b	-0.04346947
251	0x3e29337f	0.1652355
252	0x3edcccf2	0.4312511
253	0x3de318f0	0.11088741
254	0x3e995820	0.29950047
255	0xbe2816d4	-0.16414958

network_body._body_endoder.seq_layers.0.bias f4 [128]
0	0x00000000	0.0
1	0x00000000	0.0
2	0x00000000	0.0
3	0x00000000	0.0
4	0x00000000	0.0
5	0x00000000	0.0
6	0x00000000	0.0
7	0x00000000	0.0
8	0x00000000	0.0
9	0x00000000	0.0
10	0x00000000	0.0
11	0x00000000	0.0
12	0x00000000	0.0
13	0x00000000	0.0
14	0x00000000	0.0
15	0x00000000	0.0
16	0x00000000	0.0
17	0x00000000	0.0
18	0x00000000	0.0
19	0x00000000	0.0
20	0x00000000	0.0
21	0x00000000	0.0
22	0x00000000	0.0
23	0x00000000	0.0
24	0x00000000	0.0
25	0x00000000	0.0
26	0x00000000	0.0
27	0x00000000	0.0
28	0x00000000	0.0
29	0x00000000	0.0
30	0x00000000	0.0
31	0x00000000	0.0
32	0x00000000	0.0
33	0x00000000	0.0
34	0x00000000	0.0
35	0x00000000	0.0
36	0x00000000	0.0
37	0x00000000	0.0
38	0x00000000	0.0
39	0x00000000	0.0
40	0x00000000	0.0
41	0x00000000	0.0
42	0x00000000	0.0
43	0x00000000	0.0
44	0x00000000	0.0
45	0x00000000	0.0
46	0x00000000	0.0
47	0x00000000	0.0
48	0x00000000	0.0
49	0x00000000	0.0
50	0x00000000	0.0
51	0x00000000	0.0
52	0x00000000	0.0
53	0x00000000	0.0
54	0x00000000	0.0
55	0x00000000	0.0
56	0x00000000	0.0
57	0x00000000	0.0
58	0x00000000	0.0
59	0x00000000	0.0
60	0x00000000	0.0
61	0x00000000	0.0
62	0x00000000	0.0
63	0x00000000	0.0
64	0x00000000	0.0
65	0x00000000	0.0
66	0x00000000	0.0
67	0x00000000	0.0
68	0x00000000	0.0
69	0x00000000	0.0
70	0x00000000	0.0
71	0x00000000	0.0
72	0x00000000	0.0
73	0x00000000	0.0
74	0x00000000	0.0
75	0x00000000	0.0
76	0x00000000	0.0
77	0x00000000	0.0
78	0x00000000	0.0
79	0x00000000	0.0
80	0x00000000	0.0
81	0x00000000	0.0
82	0x00000000	0.0
83	0x00000000	0.0
84	0x00000000	0.0
85	0x00000000	0.0
86	0x00000000	0.0
87	0x00000000	0.0
88	0x00000000	0.0
89	0x00000000	0.0
90	0x00000000	0.0
91	0x00000000	0.0
92	0x00000000	0.0
93	0x00000000	0.0
94	0x00000000	0.0
95	0x00000000	0.0
96	0x00000000	0.0
97	0x00000000	0.0
98	0x00000000	0.0
99	0x00000000	0.0
100	0x00000000	0.0
101	0x00000000	0.0
102	0x00000000	0.0
103	0x00000000	0.0
104	0x00000000	0.0
105	0x00000000	0.0
106	0x00000000	0.0
107	0x00000000	0.0
108	0x00000000	0.0
109	0x00000000	0.0
110	0x00000000	0.0
111	0x00000000	0.0
112	0x00000000	0.0
113	0x00000000	0.0
114	0x00000000	0.0
115	0x00000000	0.0
116	0x00000000	0.0
117	0x00000000	0.0
118	0x00000000	0.0
119	0x00000000	0.0
120	0x00000000	0.0
121	0x00000000	0.0
122	0x00000000	0.0
123	0x00000000	0.0
124	0x00000000	0.0
125	0x00000000	0.0
126	0x00000000	0.0
127	0x00000000	0.0

network_body._body_endoder.seq_layers.2.weight f4 [128, 128]
0	0x3c8c0afb	0.01709508
1	0xbcc6be7d	-0.024260754
2	0x3c93f18e	0.018059518
3	0x3cb87a59	0.022519277
4	0xbd5c9ee3	-0.053862464
5	0xbbe799c7	-0.0070678922
6	0xbcbbdcca	-0.022932429
7	0xbd1a7034	-0.03770466
8	0x3d4c6adf	0.049906608
9	0x3df5c035	0.11999551
10	0xbd83aeb1	-0.06429804
11	0xbbf2a7f6	-0.0074052764
12	0x3d7d4862	0.061836608
13	0x3cff1693	0.031138694
14	0x3d46384a	0.048393525
15	0x3e031fdf	0.12805127
16	0x3e034edf	0.12823056
17	0x3d8dab90	0.069174886
18	0xbccdc09e	-0.025116261
19	0xbdca3163	-0.09872701
20	0xbc8697cb	-0.016429802
21	0xbdb2fde7	-0.08739834
22	0xbcc3bb89	-0.023893135
23	0xbd5c2492	-0.053745814
24	0x3e5fd3f9	0.21858205
25	0x3cd48e49	0.025946753
26	0xbda20adc	-0.079122275
27	0xbc8fe4ed	-0.017565215
28	0xbdcb8aa0	-0.0993855
29	0x3dd33dd2	0.10314526
30	0xbd8693af	-0.06571137
31	0xbdd5dcfb	-0.10442539
32	0xbe0d9888	-0.13827717
33	0x3dbf4ee6	0.093412206
34	0x3d4f127c	0.050554737
35	0x3cf45666	0.029826354
36	0xbd3685b7	-0.044561114
37	0xbd8213e4	-0.0635145
38	0x3db1276b	0.086500965
39	0x3c90dceb	0.017683467
40	0xbd217637	-0.03941938
41	0xbccbdb26	-0.024884772
42	0xbd0ed547	-0.034871366
43	0xbc299bc4	-0.010352079
44	0x3ce2928c	0.02765777
45	0x3e38c9d7	0.18045746
46	0x3e6358a3	0.22201781
47	0xbd3a9b3e	-0.045558207
48	0xbd6e67e8	-0.05820456
49	0x3e314db6	0.173148
50	0xbd85e582	-0.06537916
51	0xbde02070	-0.10943687
52	0xbe5abdf9	-0.21361531
53	0x3d809e61	0.062802084
54	0xbd02022e	-0.03174036
55	0xbd8b7086	-0.068085715
56	0xbbbf4896	-0.0058375103
57	0xbc515abd	-0.012777981
58	0xbda54f81	-0.08071805
59	0xbe3909fa	-0.18070212
60	0xbd96fb3c	-0.07372138
61	0xbbf5dfb7	-0.0075034755
62	0xbd89567c	-0.06705949
63	0xbdcbca5f	-0.099507086
64	0x3e2b0e9f	0.16704796
65	0x3e491950	0.19638562
66	0xbaa08780	-0.0012247413
67	0x3be99d21	0.007129327
68	0x3e041f5f	0.12902592
69	0x3d2cd51c	0.042195424
70	0x3d06728e	0.03282409
71	0x3d32478a	0.043525256
72	0xb8b05767	-8.408614e-05
73	0x3b049322	0.00202293
74	0xbadedb3a	-0.001700259
75	0x3d10cd01	0.035351757
76	0x3bc22e93	0.0059259622
77	0x3b8b7675	0.0042560645
78	0xbcb2ecea	-0.021841485
79	0xbe371ff2	-0.1788328
80	0x3d20697e	0.039163105
81	0x3d8887d6	0.06666534
82	0x3d281e24	0.04104437
83	0xbc18ef86	-0.009334451
84	0x3d265500	0.040608406
85	0x3e49118e	0.19635603
86	0xbdedb5c5	-0.116069354
87	0xbd97e0c8	-0.074159205
88	0x3d3b07ab	0.04566161
89	0x3c5e7280	0.013577104
90	0x3da692cc	0.08133468
91	0xbc501b82	-0.012701871
92	0x3d819266	0.063267514
93	0x3cdd083b	0.026981464
94	0xbd2f01de	-0.04272639
95	0xbd52fdb6	-0.05151149
96	0x3e2115ee	0.15731022
97	0x3da22924	0.07918003
98	0xbd36c33a	-0.044619776
99	0x3d1b0523	0.037846696
100	0xbe1d19c1	-0.15341856
101	0x3d07c5ce	0.033147626
102	0x3d15c189	0.036561523
103	0x3c001fab	0.00782005
104	0xbd1e1056	-0.038589798
105	0xbd7f6957	-0.06235632
106	0x3e06ebfe	0.13175961
107	0x3d3c4c66	0.045971297
108	0x3af508bf	0.0018694623
109	0xbdf8de12	-0.121517316
110	0xbd71c8e5	-0.05902948
111	0xbde55cf4	-0.1119937
112	0x3d68b982	0.05681754
113	0x3df61f21	0.12017656
114	0x3c5c2be5	0.0134382
115	0x3df9a8e5	0.12190417
116	0x3d9a9ec4	0.075498134
117	0xbdf16e93	-0.117886685
118	0xbd19bbbb	-0.03753255
119	0x3cebd692	0.028788839
120	0x3ce29f90	0.027663976
121	0x3be44000	0.006965637
122	0x3d062cdb	0.03275762
123	0xbdb25caf	-0.08709084
124	0x3d85e92d	0.065386154
125	0xbd86f7e0	-0.06590247
126	0x3e518519	0.20460929
127	0x3caafa78	0.020871386
128	0xbd3c0b89	-0.04590944
129	0x3dc86b5c	0.09786102
130	0xbcdec23c	-0.027192228
131	0xbc8f29fb	-0.017476073
132	0xbd8acaab	-0.06776937
133	0xbd475b93	-0.048671316
134	0xbd44afd3	-0.04801924
135	0xbe0b6727	-0.13613568
136	0x3da14eaf	0.07876336
137	0x3dfe3378	0.12412161
138	0x3da6ca55	0.081440605
139	0x3e13ac3d	0.14421172
140	0xbccb7e95	-0.024840632
141	0x3bef04f0	0.00729429
142	0x3e2b962d	0.16756506
143	0x3d7c839d	0.061648954
144	0xbd49dd59	-0.04928336
145	0xbd92f284	-0.071751624
146	0x3d3b478a	0.04572252
147	0x3c99a82c	0.018756948
148	0xbd3e1e42	-0.046415575
149	0xbc950e10	-0.018195182
150	0x3d5d3893	0.05400903
151	0x3d8c95b5	0.06864492
152	0xbdfebff2	-0.124389544
153	0xbda933b0	-0.08261812
154	0xbc3645c5	-0.011125033
155	0x3e37faaa	0.17966715
156	0x3d847242	0.064671054
157	0xbc1291f2	-0.008945929
158	0xbd50b97f	-0.050958153
159	0xbdd349c6	-0.103168055
160	0x3d8fcddc	0.070216864
161	0xbd669ee7	-0.056303885
162	0xbd81b51e	-0.063333735
163	0xbd603f03	-0.054747593
164	0x3aeae885	0.001792208
165	0x3c0400a4	0.008056793
166	0x3c0396fc	0.008031603
167	0xbd247846	-0.040153764
168	0xbd336bae	-0.043803863
169	0xbdc26997	-0.09492796
170	0xbc97d6f6	-0.018535119
171	0x3d089095	0.03334101
172	0xbdc6e384	-0.09711364
173	0xbcf0d6bc	-0.029399268
174	0xbd454be1	-0.048168067
175	0xbd9c9042	-0.076447025
176	0x3d1b0c17	0.037853327
177	0xbdaf22b5	-0.08551542
178	0x3d871640	0.06596041
179	0x3e119b73	0.14219455
180	0xbd83367b	-0.06406876
181	0xbba1e453	-0.0049405484
182	0x3d1d2256	0.038362823
183	0xbde448dc	-0.11146709
184	0x3de4d5c8	0.11173588
185	0xbc93ae25	-0.018027375
186	0x3cba731b	0.022759965
187	0x3d0057d0	0.031333745
188	0x3d4c8ca3	0.04993881
189	0xbc9eeef0	-0.019401044
190	0x3c993d08	0.01870586
191	0xbde296b1	-0.11063898
192	0x3dc092af	0.09402978
193	0x3d4b4a89	0.04963163
194	0xbd7f39b7	-0.0623109
195	0xbd846b32	-0.064657584
196	0xbdb2341e	-0.08701347
197	0xbe3c187f	-0.1836872
198	0xbbb1c3b1	-0.0054249396
199	0xbd0afe67	-0.033934023
200	0x3db4c681	0.08826924
201	0x3b386d44	0.00281413
202	0xbe233178	-0.1593684
203	0xbd795ea9	-0.06088129
204	0xbd095e40	-0.03353715
205	0x3cc44baa	0.02396186
206	0xbda71244	-0.08157781
207	0xbdcb2a99	-0.09920234
208	0xbd3cd466	-0.046100996
209	0x3e175fad	0.14782591
210	0xbdaa6b87	-0.083212905
211	0xbd356f13	-0.04429538
212	0x3ae6d4d4	0.0017611035
213	0xbce895dc	-0.028391771
214	0x3e480d10	0.19536233
215	0x3cae73e0	0.021295488
216	0xbdb3e932	-0.08784713
217	0x3d969e03	0.07354357
218	0xbd822fb9	-0.063567586
219	0xbda9d40e	-0.08292399
220	0xbdc26309	-0.09491546
221	0x3de7033c	0.11279914
222	0xbd650a5b	-0.05591808
223	0xbdb2709b	-0.08712884
224	0x3e15c091	0.1462424
225	0xbdc2b156	-0.095064804
226	0xbca2db0f	-0.019879846
227	0xbdd80d09	-0.10549361
228	0xbe7fd864	-0.2498489
229	0x3c99c79c	0.018771939
230	0x3ac84662	0.0015279765
231	0x3e284ea4	0.16436249
232	0x3dbdb65d	0.09263299
233	0x3c00af46	0.007854288
234	0x3e05182b	0.129975
235	0xbcf25c6a	-0.029585082
236	0xbd45caef	-0.048289236
237	0x3d335c3b	0.04378913
238	0xbcb60f0e	-0.022223976
239	0xbd90ec02	-0.07076265
240	0x3c3440f8	0.011001818
241	0xbc99c376	-0.01876996
242	0xbccabdc8	-0.024748698
243	0xbd5278b5	-0.051384646
244	0xbe294f8b	-0.1653425
245	0xbcfd70bb	-0.030937543
246	0xbe031897	-0.12802349
247	0x3bd28b09	0.0064252657
248	0xbcc07e4c	-0.023497723
249	0xbd55733c	-0.05211185
250	0x3d4665c4	0.048436895
251	0x3ccc44d7	0.02493517
252	0x3cfc90fa	0.030830849
253	0xbdaf8306	-0.085699126
254	0xbce3e099	-0.027817057
255	0xbcea83e9	-0.028627353

network_body._body_endoder.seq_layers.2.bias f4 [128]
0	0x00000000	0.0
1	0x00000000	0.0
2	0x00000000	0.0
3	0x00000000	0.0
4	0x00000000	0.0
5	0x00000000	0.0
6	0x00000000	0.0
7	0x00000000	0.0
8	0x00000000	0.0
9	0x00000000	0.0
10	0x00000000	0.0
11	0x00000000	0.0
12	0x00000000	0.0
13	0x00000000	0.0
14	0x00000000	0.0
15	0x00000000	0.0
16	0x00000000	0.0
17	0x00000000	0.0
18	0x00000000	0.0
19	0x00000000	0.0
20	0x00000000	0.0
21	0x00000000	0.0
22	0x00000000	0.0
23	0x00000000	0.0
24	0x00000000	0.0
25	0x00000000	0.0
26	0x00000000	0.0
27	0x00000000	0.0
28	0x00000000	0.0
29	0x00000000	0.0
30	0x00000000	0.0
31	0x00000000	0.0
32	0x00000000	0.0
33	0x00000000	0.0
34	0x00000000	0.0
35	0x00000000	0.0
36	0x00000000	0.0
37	0x00000000	0.0
38	0x00000000	0.0
39	0x00000000	0.0
40	0x00000000	0.0
41	0x00000000	0.0
42	0x00000000	0.0
43	0x00000000	0.0
44	0x00000000	0.0
45	0x00000000	0.0
46	0x00000000	0.0
47	0x00000000	0.0
48	0x00000000	0.0
49	0x00000000	0.0
50	0x00000000	0.0
51	0x00000000	0.0
52	0x00000000	0.0
53	0x00000000	0.0
54	0x00000000	0.0
55	0x00000000	0.0
56	0x00000000	0.0
57	0x00000000	0.0
58	0x00000000	0.0
59	0x00000000	0.0
60	0x00000000	0.0
61	0x00000000	0.0
62	0x00000000	0.0
63	0x00000000	0.0
64	0x00000000	0.0
65	0x00000000	0.0
66	0x00000000	0.0
67	0x00000000	0.0
68	0x00000000	0.0
69	0x00000000	0.0
70	0x00000000	0.0
71	0x00000000	0.0
72	0x00000000	0.0
73	0x00000000	0.0
74	0x00000000	0.0
75	0x00000000	0.0
76	0x00000000	0.0
77	0x00000000	0.0
78	0x00000000	0.0
79	0x00000000	0.0
80	0x00000000	0.0
81	0x00000000	0.0
82	0x00000000	0.0
83	0x00000000	0.0
84	0x00000000	0.0
85	0x00000000	0.0
86	0x00000000	0.0
87	0x00000000	0.0
88	0x00000000	0.0
89	0x00000000	0.0
90	0x00000000	0.0
91	0x00000000	0.0
92	0x00000000	0.0
93	0x00000000	0.0
94	0x00000000	0.0
95	0x00000000	0.0
96	0x00000000	0.0
97	0x00000000	0.0
98	0x00000000	0.0
99	0x00000000	0.0
100	0x00000000	0.0
101	0x00000000	0.0
102	0x00000000	0.0
103	0x00000000	0.0
104	0x00000000	0.0
105	0x00000000	0.0
106	0x00000000	0.0
107	0x00000000	0.0
108	0x00000000	0.0
109	0x00000000	0.0
110	0x00000000	0.0
111	0x00000000	0.0
112	0x00000000	0.0
113	0x00000000	0.0
114	0x00000000	0.0
115	0x00000000	0.0
116	0x00000000	0.0
117	0x00000000	0.0
118	0x00000000	0.0
119	0x00000000	0.0
120	0x00000000	0.0
121	0x00000000	0.0
122	0x00000000	0.0
123	0x00000000	0.0
124	0x00000000	0.0
125	0x00000000	0.0
126	0x00000000	0.0
127	0x00000000	0.0

action_model._continuous_distribution.log_sigma f4 [1, 2]
0	0x00000000	0.0
1	0x00000000	0.0

action_model._continuous_distribution.mu.weight f4 [2, 128]
0	0x3bbafd69	0.0057064784
1	0xbc920488	-0.017824426
2	0x3b57794d	0.0032878697
3	0x3d112375	0.035434205
4	0x3c595600	0.013265133
5	0xbbaa633d	-0.0051998184
6	0x3bf33d55	0.007423083
7	0xbccfbca7	-0.025358511
8	0xbaf0ee2b	-0.0018381526
9	0xbcf5d86d	-0.030010426
10	0x3c2c4550	0.010514572
11	0x3bab43d5	0.005226592
12	0x3c88f654	0.01671902
13	0x3c83fca7	0.016111685
14	0x3cde544b	0.027139803
15	0xbc1c4de7	-0.009540058
16	0x3cb06167	0.02153082
17	0x3c01913c	0.007908162
18	0x3c91e89e	0.017811116
19	0x3cab1565	0.020884225
20	0x3d014298	0.03155765
21	0xbccbf745	-0.02489818
22	0xbb19c1b9	-0.0023461415
23	0x3b85046d	0.0040593655
24	0xbc483767	-0.01222024
25	0x3b32a7a2	0.0027260561
26	0x3bfd39e2	0.0077278474
27	0x3c110fbd	0.00885385
28	0xbbeac5b2	-0.0071646804
29	0x3c01f522	0.007931979
30	0xbcec7662	-0.028865043
31	0x3cd062fa	0.02543782
32	0x3c831cf5	0.016005019
33	0xbc533d1f	-0.01289299
34	0x3ba7aa1c	0.005116714
35	0xbbe11895	-0.0068693855
36	0xbd37e3d5	-0.044895012
37	0x3cbe48eb	0.02322813
38	0x3c33f133	0.010982799
39	0xbbef8492	-0.007309505
40	0x3b4428b7	0.0029931495
41	0xbcf6c833	-0.03012476
42	0x3ced12bd	0.0289396
43	0xbb8d6e7e	-0.00431615
44	0x3ccac387	0.024751438
45	0x3cbce6b9	0.023059236
46	0xbcf078e8	-0.029354528
47	0xbd066118	-0.03280744
48	0xbcc777c7	-0.024349106
49	0x3a9e09a7	0.001205732
50	0x3cd55db3	0.026045656
51	0x3c0f337c	0.008740302
52	0xbc50b38a	-0.012738118
53	0x3bb79d01	0.005603433
54	0x3ad14cb5	0.0015968295
55	0x3c76a35f	0.015053599
56	0x3ca4857c	0.020083182
57	0x3c2e1f03	0.010627511
58	0xbbfe8efb	-0.0077685094
59	0x3ccb65d4	0.024828829
60	0xbb131cb6	-0.0022447533
61	0xbc710747	-0.014711208
62	0x3c2b5b37	0.010458759
63	0xbbd37afd	-0.0064538703
64	0x3b2de355	0.0026533206
65	0x392a6a53	0.00016252072
66	0x3c356f2a	0.011073867
67	0x3b510aa3	0.003189721
68	0x3c13af53	0.0090139685
69	0x3cbfcc73	0.023412919
70	0xbc91a327	-0.017777992
71	0xbbc34fd7	-0.0059604454
72	0xbbdb64da	-0.006695372
73	0xbbb5c1bf	-0.005546778
74	0x3c304202	0.010757925
75	0xbcd5acad	-0.026083315
76	0xbbb5a0de	-0.0055428585
77	0xbcb42142	-0.021988515
78	0xbd3026c7	-0.04300573
79	0x3d06d03b	0.032913428
80	0xbc065d64	-0.008200977
81	0x3d30bf8e	0.04315143
82	0xbc963c41	-0.018339278
83	0xbae7a953	-0.0017674364
84	0x3d1ede04	0.03878595
85	0xbd23a82b	-0.0399553
86	0xbc6298e2	-0.013830395
87	0x3a65b96d	0.00087632873
88	0xbc28655c	-0.010278072
89	0x3cb6de7f	0.022322891
90	0xbd0d3aca	-0.034479894
91	0xbbee0caf	-0.0072646956
92	0xbd014db5	-0.031568248
93	0xbc05831d	-0.008148936
94	0xbb82dc99	-0.0039935824
95	0xbbc23462	-0.0059266547
96	0x3cba5887	0.022747291
97	0xbc75df42	-0.015006842
98	0xbbdfdd9d	-0.0068318383
99	0xba314b70	-0.0006763255
100	0x3c3d8b23	0.011568817
101	0xbcac69a7	-0.021046473
102	0x3ce5da98	0.028058335
103	0xbd65c297	-0.05609378
104	0xbc908e46	-0.017645966
105	0x3cd4a400	0.025957108
106	0x3c54c855	0.012987216
107	0x3c98320f	0.018578557
108	0x3d06c09c	0.03289853
109	0x3cc93a1d	0.024563843
110	0xbd16e855	-0.036842663
111	0x3bc92999	0.006138992
112	0xb834fdfc	-4.3151886e-05
113	0x3cdbff7f	0.026855228
114	0x3cdabe4b	0.026702067
115	0xbc8ff001	-0.017570497
116	0xbc843185	-0.016136894
117	0x3c331fe9	0.010932901
118	0xb9a06c9e	-0.00030598504
119	0xbcb0f76e	-0.021602359
120	0x3b86d553	0.0041147857
121	0xbb37a82a	-0.0028023818
122	0x3c6b8742	0.01437551
123	0xbcb28890	-0.021793634
124	0xbb6a4f0b	-0.003575268
125	0x3cc72771	0.0243108
126	0x3b8c9098	0.004289698
127	0x3c8daf5d	0.017295534
128	0x3c204973	0.009783137
129	0xbc5f4e0f	-0.01362945
130	0x3b650a63	0.0034948818
131	0xbbae5f3c	-0.0053214114
132	0xbc5a1e7d	-0.013312933
133	0xbce330b2	-0.02773318
134	0xbccf15f2	-0.025279019
135	0xbcd95eb8	-0.026534423
136	0x3bb985ce	0.0056617027
137	0xbd1c0505	-0.038090724
138	0x3c38addf	0.011271923
139	0x3c8b53cb	0.017007729
140	0x3c3221b3	0.010872292
141	0xbc3048cf	-0.010759546
142	0x3b559e25	0.0032595482
143	0x3d15c7ac	0.036567375
144	0x3ca19207	0.019722952
145	0xbbfd4215	-0.007728825
146	0x3c151e1d	0.009101418
147	0xbd4bca54	-0.049753502
148	0xbd0a62e6	-0.033785723
149	0xbc40534c	-0.0117386095
150	0x3d0ee4e1	0.034886245
151	0x3ca71241	0.020394446
152	0xbcc5f456	-0.02416436
153	0xbbb29044	-0.0054493267
154	0xbc15ee9c	-0.009151127
155	0xbbcef4b7	-0.0063157934
156	0x3ad0167d	0.0015875843
157	0x3a1d1407	0.0005992059
158	0x39b55b65	0.00034591104
159	0x3c58bb5a	0.013228262
160	0x3c36515f	0.011127799
161	0xbb187dda	-0.0023268373
162	0x3c50275f	0.012704699
163	0xbc0ff963	-0.008787486
164	0x3bd06030	0.0063591227
165	0x39309a87	0.00016842234
166	0xbc7bb86b	-0.015363793
167	0x3b944bc6	0.0045256345
168	0xbc14d9b3	-0.009085107
169	0xbbd60ffd	-0.0065326677
170	0xbc8ccb70	-0.01718685
171	0xbd07824b	-0.03308324
172	0x3c5b592b	0.0133879585
173	0xbd22924f	-0.039690312
174	0x3d03e375	0.03219934
175	0xbc7c66b5	-0.015405347
176	0xbc6dea6b	-0.014521222
177	0x3cb35103	0.021889215
178	0xbd3ecd1c	-0.046582326
179	0xbc21d16a	-0.009876588
180	0x3c64f8f0	0.013975367
181	0xbc87ded7	-0.01658575
182	0x3c56c18d	0.01310767
183	0x3ccaff60	0.024779975
184	0xbbf9c8d7	-0.007622819
185	0xbae772da	-0.001765813
186	0xbc36aed6	-0.011150083
187	0x3aafc341	0.0013409631
188	0xbc2094ee	-0.009801133
189	0xbc953f27	-0.01821859
190	0x3c938896	0.018009465
191	0x3c87617d	0.016525978
192	0xbc92a91f	-0.017902909
193	0x3bb79923	0.005602972
194	0xbc8adea7	-0.016951872
195	0x3cea579b	0.028606227
196	0x3c0db66f	0.008649453
197	0xbcef927a	-0.02924465
198	0xbc66dfea	-0.014091471
199	0xbcca0d7a	-0.02466463
200	0xbc25d847	-0.010122365
201	0xbc4f0870	-0.012636289
202	0x3cc0b89e	0.023525532
203	0xbcb6aaf5	-0.022298316
204	0xbc1b84b5	-0.009492089
205	0x3ca0d79f	0.019634066
206	0xbc95e45f	-0.018297372
207	0x3cd5b533	0.02608738
208	0x3cb9f27f	0.022698639
209	0xbd08de6d	-0.033415247
210	0xbce9f6c3	-0.028560048
211	0x3c272da4	0.010203753
212	0xbc99028f	-0.018677978
213	0x3c9d29e6	0.019185018
214	0xbc73aded	-0.01487301
215	0x3b7a9f1a	0.0038241805
216	0xbbd743ad	-0.006569347
217	0x3c2e0f3f	0.010623752
218	0xbc788f8a	-0.015170941
219	0x3c508df0	0.012729153
220	0xbbfcdbea	-0.0077166455
221	0x3c9bd0c3	0.019020444
222	0x3ce793e3	0.02826876
223	0xbc76d1dd	-0.015064684
224	0xbd0e509b	-0.03474484
225	0xbba02710	-0.004887469
226	0x3c2e123c	0.010624465
227	0x3c4fc18f	0.012680425
228	0xbc51d0f8	-0.01280617
229	0x3c0a171f	0.008428364
230	0x3cd61bff	0.026136396
231	0x3c14e08d	0.00908674
232	0xbc920dec	-0.017828904
233	0x3c6350e3	0.013874265
234	0xbc0ef546	-0.00872547
235	0xbcf487c0	-0.029849887
236	0xbd207114	-0.03917034
237	0xbc454cfe	-0.012042282
238	0xbc488e67	-0.012240983
239	0xbcbfa313	-0.02339319
240	0xbc88d8e4	-0.016704984
241	0x3c08225c	0.008308973
242	0x3b6700e0	0.0035248324
243	0x3c694118	0.014236711
244	0x3c0d04f5	0.008607139
245	0xbc3ee49c	-0.011651184
246	0xbae3f010	-0.001739027
247	0x3bda94aa	0.006670554
248	0xbce9a872	-0.028522704
249	0xbcb7b717	-0.022426171
250	0xbc2308d4	-0.009950835
251	0xbc8e8c03	-0.017400747
252	0xbcee9b6a	-0.029126842
253	0xbcbaf42f	-0.022821514
254	0xbc3e8a6d	-0.011629683
255	0xbc8aa9a8	-0.016926602

action_model._continuous_distribution.mu.bias f4 [2]
0	0x00000000	0.0
1	0x00000000	0.0

network_body._body_endoder.seq_layers.0.weight f4 [128, 9]
0	0xbdb6ab7a	-0.08919425
1	0x3e412a93	0.18863897
2	0xbebe16e8	-0.3712685
3	0x3e3feb02	0.18741992
4	0xbe9409c4	-0.289137
5	0xbef1a22e	-0.47194046
6	0x3ee130e2	0.43982607
7	0x3ea81d30	0.32834768
8	0xbdac88fe	-0.08424567
9	0xbed37ad4	-0.41304648
10	0xbef02140	-0.46900368
11	0x3e5d035a	0.2158331
12	0x3f35205f	0.7075252
13	0x3dca041b	0.09864064
14	0xbe147e77	-0.14501368
15	0x3e7de84a	0.24795642
16	0x3ddc0f0b	0.10745057
17	0x3da9f5fb	0.0829887
18	0x3cdb90e8	0.026802495
19	0x3e0a2758	0.13491571
20	0xbe69d4f3	-0.2283514
21	0x3d9d0f15	0.07668892
22	0xbdb88286	-0.0900927
23	0x3e98a69f	0.29814622
24	0x3cff9944	0.031201012
25	0xbed15654	-0.40886176
26	0x3e94e0c9	0.29077747
27	0xbe8222ce	-0.2541718
28	0xbadc52aa	-0.0016809304
29	0x3eabcae4	0.3355323
30	0xbeb9071e	-0.36138242
31	0xbe026b19	-0.12736167
32	0xbeaf10f3	-0.3419262
33	0xbde0ce26	-0.1097682
34	0x3f0ed01e	0.5578631
35	0x3e7dfb22	0.24802831
36	0x3ed99976	0.42499894
37	0xbdc79694	-0.097455174
38	0xbea95646	-0.33073634
39	0x3f0a7533	0.5408508
40	0x3ebfcec3	0.37462434
41	0xbd87d12c	-0.06631693
42	0xbe29f4de	-0.16597316
43	0x3e8c2802	0.27374274
44	0x3e54054b	0.20705144
45	0x3e75b07f	0.23993109
46	0xbd9bb063	-0.076020025
47	0xbeebd9f7	-0.4606473
48	0xbca9e091	-0.020736964
49	0x3dba8fd3	0.091094635
50	0xbcc26078	-0.02372764
51	0xbecd33b6	-0.40078515
52	0x3e7ac0b7	0.24487577
53	0xbeded8c7	-0.43524763
54	0xbc8437a0	-0.016139805
55	0x3ea422b2	0.3205772
56	0x3daeed92	0.08541407
57	0xbd22e4f3	-0.039769124
58	0x3e0bf2d6	0.13666853
59	0xbeb212bb	-0.34779915
60	0xbec223d0	-0.37917948
61	0xbee6abd2	-0.45052963
62	0xbdbc763c	-0.09202239
63	0x3f1c2c4c	0.6100509
64	0xbf0db26e	-0.5535039
65	0xbe3bba27	-0.1833273
66	0x3c6ec556	0.014573416
67	0x3f66a447	0.9009442
68	0xbf2f20fc	-0.68409705
69	0x3dbe1fce	0.0928341
70	0xbe2a8596	-0.16652521
71	0xbea31389	-0.31850842
72	0xbd9ca512	-0.07648672
73	0xbe9d61a0	-0.30738544
74	0x3ed0da20	0.40791416
75	0xbde2cd2e	-0.11074291
76	0xbd442b00	-0.04789257
77	0xbe605ac4	-0.21909624
78	0xbebd0328	-0.3691647
79	0xbf972353	-1.1807655
80	0x3da2b5cc	0.07944831
81	0x3ada2647	0.0016643488
82	0xbec70518	-0.38871074
83	0x3e479e28	0.19493926
84	0x3de3ca96	0.111226246
85	0xbcfd947a	-0.030954588
86	0xbe08f11e	-0.13373229
87	0xbecfc61c	-0.40580833
88	0x3ea3a1fc	0.31959522
89	0x3eca41b2	0.39503247
90	0xbe05ff38	-0.1308564
91	0x3e94d515	0.2906882
92	0xbdaf2a3f	-0.0855298
93	0xbe79a688	-0.24379933
94	0x3f343e27	0.70407337
95	0xbde3dabc	-0.11125705
96	0xbddbd903	-0.10734751
97	0x3eb9acc6	0.36264628
98	0x3ecccf64	0.40001976
99	0xbea758e1	-0.32684997
100	0xbda33a6c	-0.079701275
101	0xbaf57f4c	-0.0018729954
102	0xbe930bda	-0.2871998
103	0xbf41916c	-0.7561252
104	0xbedf56a3	-0.43620786
105	0xbed8db5c	-0.42354858
106	0xbe352873	-0.17691211
107	0xbe11e67f	-0.14248084
108	0x3d9dc50e	0.07703601
109	0xbee67257	-0.4500911
110	0xbdc6dc58	-0.09709996
111	0xbe3d0c8b	-0.18461816
112	0xbe2f84fe	-0.17140576
113	0x3f42d8ee	0.7611226
114	0xbe8677de	-0.26263326
115	0x3e0394a9	0.12849678
116	0xbf370bb3	-0.71502227
117	0xbeb129d8	-0.34602237
118	0xbe891fe2	-0.26782137
119	0x3e2a8bd4	0.16654903
120	0xbd97b4d5	-0.07407538
121	0xbf169daa	-0.58834326
122	0x3f508d1e	0.8146533
123	0xbee257b4	-0.44207537
124	0x3e1da285	0.15394028
125	0x3dc86da3	0.097865365
126	0x3e809447	0.25113127
127	0xbd27d68b	-0.04097609
128	0xbde0e29a	-0.10980721
129	0x3ec61942	0.38691145
130	0xbeea6b74	-0.45785105
131	0x3efdb29c	0.4955033
132	0xbf321b8a	-0.6957327
133	0xbe76c686	-0.24099168
134	0xbea114e2	-0.31461245
135	0x3ee6bac8	0.45064378
136	0xbeb5c84c	-0.35504377
137	0x3f22b97f	0.63564295
138	0x3d75b818	0.05999002
139	0x3ef43c4c	0.47702253
140	0xbec0ce26	-0.3765728
141	0x3e3e45c3	0.185813
142	0xbf57f416	-0.8435682
143	0xbe9c2d60	-0.30503368
144	0xbeef30e6	-0.46716994
145	0xbe2f2c68	-0.17106783
146	0xbe25a91f	-0.16177796
147	0xbe9501e7	-0.29103014
148	0xbea6f47a	-0.32608396
149	0x3eb86b7a	0.36019498
150	0x3e4944da	0.19655171
151	0x3eacc547	0.3374426
152	0xbf24dfe1	-0.6440411
153	0x3e4b854b	0.19875066
154	0x3ccaf042	0.024772767
155	0x3ee08d7e	0.4385795
156	0x3ea0aa2a	0.31379825
157	0xbec4d880	-0.38446426
158	0x3cfa6df0	0.03057
159	0xbeb71293	-0.35756359
160	0x3dcf510a	0.10122879
161	0xbf073d70	-0.5282812
162	0x3c395c28	0.011313476
163	0xbec1444a	-0.37747413
164	0xbf4f435e	-0.8096217
165	0x3dc7702a	0.097381905
166	0x3eefb172	0.46815068
167	0xbee5bd37	-0.44870922
168	0x3cf169ce	0.029469397
169	0x3da8d770	0.082442164
170	0xbd5d8b97	-0.0540882
171	0x3ecc75cb	0.3993362
172	0x3e541786	0.20712098
173	0xbef421cb	-0.47682032
174	0x3a4ec6e0	0.0007887911
175	0x3e9f8ce6	0.31162184
176	0x3dc48ade	0.09596799
177	0xbef9162c	-0.48649728
178	0x3e8701b8	0.263685
179	0x3eca0658	0.39457965
180	0xbe073441	-0.13203527
181	0xbed08eb8	-0.40733886
182	0x3aba3c2c	0.0014208606
183	0xbdc74dfb	-0.097316705
184	0xbec8c29a	-0.3921097
185	0x3e4e6d6a	0.20158926
186	0xbdb579f8	-0.08861154
187	0xbdb1b777	-0.08677571
188	0xbe14343c	-0.14473051
189	0xbe6f8b7e	-0.23393056
190	0xbdb47298	-0.088109195
191	0x3ecf901e	0.4053964
192	0xbe2dcd60	-0.16972876
193	0x3e9fe5f4	0.31230128
194	0x3e2212ff	0.15827559
195	0x3ea0bb51	0.3139291
196	0x3ebf49aa	0.3736089
197	0x3e8e5866	0.27801818
198	0xbf1c2738	-0.60997343
199	0xbf4c6588	-0.79842424
200	0x3ed9ea9b	0.42561802
201	0x399b7260	0.0002964912
202	0xbec6e8b6	-0.3884942
203	0x3ea06268	0.31325078
204	0xbf2c06a4	-0.6719763
205	0xbdf6e320	-0.120550394
206	0xbf058ac7	-0.5216488
207	0x3f0446a2	0.5167028
208	0x3e2adf80	0.16686821
209	0x3dce9134	0.10086289
210	0xbc89b05d	-0.01680773
211	0x3ed435b4	0.41447222
212	0xbf03125f	-0.5119991
213	0xbead078a	-0.33794814
214	0x3b24bcc8	0.0025136936
215	0x3ef89b58	0.48556018
216	0x3e08a968	0.13345873
217	0xbecd7518	-0.40128398
218	0x3ee06648	0.43828034
219	0xbe05f30a	-0.13080993
220	0xbddc3bfa	-0.10753627
221	0xbc7a83a2	-0.015290173
222	0x3e89b916	0.26899022
223	0x3ee65882	0.449894
224	0x3dcb0cf8	0.09914583
225	0xbeb3a2ef	-0.35085246
226	0xbd9c96f6	-0.07645981
227	0x3f3f2e6c	0.7468021
228	0x3ce03daf	0.027373163
229	0x3efe566b	0.49675307
230	0x3d55e750	0.05222255
231	0xbed5b92c	-0.41742837
232	0x3e5f9bfb	0.21836846
233	0x3d9dfb4c	0.07713947
234	0xbde1175f	-0.10990786
235	0x3df871fe	0.12131117
236	0x3e14c4bd	0.14528175
237	0xbf300eb3	-0.6877243
238	0xbe4399be	-0.19101617
239	0x3e76936f	0.24079679
240	0xbe3f848f	-0.18702911
241	0xbeb98fdc	-0.36242568
242	0xbe817c77	-0.25290272
243	0x3eba9980	0.36445236
244	0x3f21c098	0.631845
245	0x3f3d7e62	0.7402097
246	0xbe2ddfb6	-0.1697987
247	0x3e0d6ae3	0.13810305
248	0x3cd252ac	0.025674187
249	0x3e087134	0.13324434
250	0xbe8b9372	-0.2726093
251	0x3e9a892f	0.30182788
252	0x3ec1d2fc	0.3785628
253	0x3d3314d7	0.043721046
254	0x3eea57da	0.4577015
255	0x3da60bd2	0.08107723

network_body._body_endoder.seq_layers.0.bias f4 [128]
0	0x00000000	0.0
1	0x00000000	0.0
2	0x00000000	0.0
3	0x00000000	0.0
4	0x00000000	0.0
5	0x00000000	0.0
6	0x00000000	0.0
7	0x00000000	0.0
8	0x00000000	0.0
9	0x00000000	0.0
10	0x00000000	0.0
11	0x00000000	0.0
12	0x00000000	0.0
13	0x00000000	0.0
14	0x00000000	0.0
15	0x00000000	0.0
16	0x00000000	0.0
17	0x00000000	0.0
18	0x00000000	0.0
19	0x00000000	0.0
20	0x00000000	0.0
21	0x00000000	0.0
22	0x00000000	0.0
23	0x00000000	0.0
24	0x00000000	0.0
25	0x00000000	0.0
26	0x00000000	0.0
27	0x00000000	0.0
28	0x00000000	0.0
29	0x00000000	0.0
30	0x00000000	0.0
31	0x00000000	0.0
32	0x00000000	0.0
33	0x00000000	0.0
34	0x00000000	0.0
35	0x00000000	0.0
36	0x00000000	0.0
37	0x00000000	0.0
38	0x00000000	0.0
39	0x00000000	0.0
40	0x00000000	0.0
41	0x00000000	0.0
42	0x00000000	0.0
43	0x00000000	0.0
44	0x00000000	0.0
45	0x00000000	0.0
46	0x00000000	0.0
47	0x00000000	0.0
48	0x00000000	0.0
49	0x00000000	0.0
50	0x00000000	0.0
51	0x00000000	0.0
52	0x00000000	0.0
53	0x00000000	0.0
54	0x00000000	0.0
55	0x00000000	0.0
56	0x00000000	0.0
57	0x00000000	0.0
58	0x00000000	0.0
59	0x00000000	0.0
60	0x00000000	0.0
61	0x00000000	0.0
62	0x00000000	0.0
63	0x00000000	0.0
64	0x00000000	0.0
65	0x00000000	0.0
66	0x00000000	0.0
67	0x00000000	0.0
68	0x00000000	0.0
69	0x00000000	0.0
70	0x00000000	0.0
71	0x00000000	0.0
72	0x00000000	0.0
73	0x00000000	0.0
74	0x00000000	0.0
75	0x00000000	0.0
76	0x00000000	0.0
77	0x00000000	0.0
78	0x00000000	0.0
79	0x00000000	0.0
80	0x00000000	0.0
81	0x00000000	0.0
82	0x00000000	0.0
83	0x00000000	0.0
84	0x00000000	0.0
85	0x00000000	0.0
86	0x00000000	0.0
87	0x00000000	0.0
88	0x00000000	0.0
89	0x00000000	0.0
90	0x00000000	0.0
91	0x00000000	0.0
92	0x00000000	0.0
93	0x00000000	0.0
94	0x00000000	0.0
95	0x00000000	0.0
96	0x00000000	0.0
97	0x00000000	0.0
98	0x00000000	0.0
99	0x00000000	0.0
100	0x00000000	0.0
101	0x00000000	0.0
102	0x00000000	0.0
103	0x00000000	0.0
104	0x00000000	0.0
105	0x00000000	0.0
106	0x00000000	0.0
107	0x00000000	0.0
108	0x00000000	0.0
109	0x00000000	0.0
110	0x00000000	0.0
111	0x00000000	0.0
112	0x00000000	0.0
113	0x00000000	0.0
114	0x00000000	0.0
115	0x00000000	0.0
116	0x00000000	0.0
117	0x00000000	0.0
118	0x00000000	0.0
119	0x00000000	0.0
120	0x00000000	0.0
121	0x00000000	0.0
122	0x00000000	0.0
123	0x00000000	0.0
124	0x00000000	0.0
125	0x00000000	0.0
126	0x00000000	0.0
127	0x00000000	0.0

network_body._body_endoder.seq_layers.2.weight f4 [128, 128]
0	0x3d31e4e6	0.043431185
1	0xbe2b56d0	-0.16732335
2	0x3d28ecba	0.041241385
3	0x3cf432aa	0.029809315
4	0xbd2d9771	-0.042380754
5	0x3db5aa87	0.08870416
6	0xbe57306f	-0.2101457
7	0x3ce82aee	0.028340783
8	0x3cd5d78a	0.026103754
9	0x3dfb15e1	0.122600324
10	0xbc71aaab	-0.014750163
11	0xbd5ea571	-0.054356996
12	0x3cb2ec2b	0.02184113
13	0xbd81c08b	-0.06335553
14	0x3d9f03ea	0.077644184
15	0xbdf238c9	-0.11827237
16	0xbd1721e7	-0.036897566
17	0xbd6e9a20	-0.058252454
18	0x3e1c2a39	0.15250482
19	0xbd94b6d1	-0.07261432
20	0x3d0570df	0.032578345
21	0xbd2d58d7	-0.042321052
22	0x3e0870c3	0.13324265
23	0xbc69d197	-0.0142711615
24	0x3b8f44cd	0.0043722154
25	0x3dfd1fd7	0.123595886
26	0xbd0b6a79	-0.034037087
27	0xbc46e211	-0.012138859
28	0xbbb33ab2	-0.0054696435
29	0xbd373542	-0.044728525
30	0xbc887e11	-0.016661676
31	0xbce439da	-0.027859617
32	0xbd91739a	-0.071021274
33	0x3e273537	0.16328894
34	0x3deda0f4	0.11602965
35	0x3c24ce65	0.010058974
36	0x3e6c3717	0.2306789
37	0xbda5efaa	-0.08102353
38	0x3e0431c5	0.1290961
39	0x3b059fa3	0.002038934
40	0x3d581acc	0.05275993
41	0xbda6bc0b	-0.08141335
42	0xbd8abbb9	-0.067740865
43	0x3d25fcf9	0.040524457
44	0xbc8088bc	-0.0156902
45	0x3dbe7b89	0.09300906
46	0x3ce94edf	0.028479991
47	0xbdf00e39	-0.11721463
48	0xbd4a156c	-0.049336836
49	0x3ca3c0b3	0.019989347
50	0xbc84f7e4	-0.016231485
51	0xbca28a6b	-0.019841393
52	0xbe0adba0	-0.13560343
53	0xbdb53d2b	-0.088495575
54	0xbdd30e30	-0.103054404
55	0xbe2708ab	-0.163119
56	0xbc05da1d	-0.008169678
57	0x3cdb5ff3	0.02677915
58	0x3b1e2a93	0.0024134263
59	0x3d837b56	0.06420009
60	0x3cc7cd38	0.024389848
61	0xbde6d943	-0.11271908
62	0xbd446f84	-0.047957912
63	0xbd884666	-0.066540524
64	0x3dddabf4	0.10823813
65	0xbc2092e9	-0.009800651
66	0x3e12d0d3	0.14337473
67	0xbd69d743	-0.057090055
68	0xbcdf477f	-0.027255772
69	0xbe04632a	-0.12928453
70	0xbcf58c81	-0.029974224
71	0x3ce1b149	0.027550356
72	0x3d8b8259	0.06811971
73	0xbd9bcb82	-0.076071754
74	0x3b81cd19	0.003961217
75	0x3d8156c1	0.06315375
76	0x3d5d39b8	0.054010123
77	0x3e47dba6	0.19517383
78	0x3d258d92	0.040418215
79	0xbdb58d28	-0.08864814
80	0x3cd2eb5a	0.02574699
81	0x3d21faa6	0.039545678
82	0xbe011c48	-0.12608445
83	0xbe2ef41b	-0.17085306
84	0xbdc13f28	-0.09435874
85	0x3deb4741	0.114882
86	0x3d3be901	0.045876507
87	0xbcea12c8	-0.028573409
88	0x3d182d94	0.03715284
89	0xbde88120	-0.11352754
90	0x3deacef4	0.114652544
91	0x3d82e424	0.063911706
92	0xbac9f624	-0.0015408439
93	0xbd0d0117	-0.034424867
94	0x3de54f90	0.11196816
95	0x3d6ac735	0.057318885
96	0xbd17636c	-0.03696005
97	0xbdd8019f	-0.10547184
98	0xbc771ff7	-0.015083305
99	0x3dc047a1	0.09388662
100	0x3cd77bbf	0.026304124
101	0xbc22b9c6	-0.009931987
102	0x3c45fef2	0.0120847095
103	0xbd88e4fa	-0.06684299
104	0x3dcafa5f	0.09911036
105	0x3df78dd6	0.120876
106	0x3d983f50	0.07433951
107	0x3b9aaad6	0.0047200723
108	0xbd20c3ba	-0.03924916
109	0xbe2ab78d	-0.16671582
110	0xbd2f65e2	-0.042821772
111	0xbd6ca5d0	-0.05777532
112	0x3de60e45	0.112331904
113	0xbdaeee41	-0.08541537
114	0x3d3f8c3b	0.046764594
115	0xbbbb1322	-0.005709068
116	0x3d8b9fa4	0.068175584
117	0xbe0b05de	-0.13576457
118	0x3d71b1d3	0.059007477
119	0xbd17eb48	-0.037089616
120	0x3c5c22cd	0.0134360315
121	0x3d8e2162	0.06939961
122	0x3d6e08a8	0.058113724
123	0xbc391edd	-0.011298862
124	0xbd459a6e	-0.04824298
125	0x3c2244a9	0.009904065
126	0xbe32be5e	-0.17455432
127	0x3df5b22b	0.119968735
128	0x3c568736	0.01309376
129	0x3cb1f99a	0.021725465
130	0xbe3da432	-0.18519667
131	0x3d75e97d	0.060037125
132	0x3e374ace	0.1789963
133	0xbd22aaa1	-0.039713506
134	0xbd47fcc7	-0.04882505
135	0x3dc250cc	0.09488067
136	0xbac2faa2	-0.001487572
137	0x3d655186	0.05598595
138	0x3d957e0f	0.072994344
139	0xbe0725bb	-0.13197987
140	0xbd74b415	-0.059742052
141	0x3c948dd9	0.018134044
142	0x3d6a5f8d	0.05722003
143	0xbd553bcb	-0.052058976
144	0xbc2c2b76	-0.010508409
145	0xbd3b3b9a	-0.045711137
146	0xbd059f67	-0.03262272
147	0xbd6c178e	-0.05763965
148	0x3c55fb39	0.013060384
149	0xbbfab19a	-0.0076505663
150	0xbd389c26	-0.04507079
151	0x3d3db68c	0.04631667
152	0x3c9d3bfd	0.019193644
153	0x3dfc7325	0.123266496
154	0xbd9847f1	-0.07435597
155	0xbb3eca47	-0.0029112266
156	0x3d867633	0.065655135
157	0x3dfdff46	0.12402205
158	0xbcea2938	-0.028584108
159	0xbcd2cb21	-0.025731625
160	0x3da596f7	0.08085435
161	0x3d043d85	0.032285232
162	0xbd93ae89	-0.07211024
163	0x3d0cda64	0.03438796
164	0xbd0f87b1	-0.035041515
165	0xbd29deb2	-0.041472144
166	0x3c91e1a9	0.017807798
167	0xbcc1b5c7	-0.023646249
168	0xbd82a6f8	-0.06379503
169	0x3cd998fb	0.026562205
170	0x3e024756	0.12722525
171	0x3bc8f803	0.006133081
172	0x3d49fd71	0.049313966
173	0xbde50d75	-0.11184207
174	0xbdc20f9c	-0.094756335
175	0x3d014210	0.031557143
176	0xbe03d41c	-0.12873882
177	0x3c58e211	0.013237492
178	0xbd06bbd3	-0.032893967
179	0x3d01207f	0.03152513
180	0x3dcd617b	0.100283585
181	0xbd773933	-0.060357284
182	0xbe4b6a3a	-0.19864741
183	0x3dd1332e	0.1021484
184	0xbd51ef9a	-0.051253892
185	0x3dc6aef4	0.097013384
186	0x3cd85658	0.02640836
187	0xbdd6afe5	-0.10482768
188	0xbc27de08	-0.0102458075
189	0xbc354e46	-0.011066025
190	0x3dd5d219	0.104404636
191	0x3dc68ca4	0.09694794
192	0x3e278357	0.16358696
193	0x3dce185a	0.100632384
194	0xbde4d24e	-0.11172925
195	0xbe895165	-0.26819912
196	0x3e0182f2	0.12647608
197	0xbe1f6693	-0.15566473
198	0xbc7db1b9	-0.015484267
199	0xbc8d28f8	-0.01723145
200	0x3c8eac87	0.017416252
201	0x3aa3b3ef	0.0012489537
202	0xbcb8c941	-0.022556903
203	0x3d50ce57	0.05097803
204	0xbd325509	-0.043538127
205	0xbd08a753	-0.033362698
206	0xbcee513d	-0.029091472
207	0x3d2712cb	0.040789407
208	0x3d93ece9	0.072229214
209	0x3d2a77db	0.04161821
210	0x3d65a0ec	0.05606167
211	0xbd9d3f59	-0.07678098
212	0x3cb84563	0.022494024
213	0xbdcf1dc4	-0.10113099
214	0xbcff5b20	-0.031171381
215	0xbd1e5f5f	-0.03866517
216	0x3cb54754	0.022128738
217	0x3d3de63f	0.046362158
218	0xbdae386d	-0.08506856
219	0xbd85a3d7	-0.065253906
220	0xbc89f6fe	-0.016841408
221	0xbd264c32	-0.04060001
222	0x3e770e1c	0.24126476
223	0x3d143f9c	0.036193475
224	0xbb6d7e0e	-0.0036238465
225	0xbc88a4d2	-0.016680155
226	0x3d89981d	0.067184664
227	0x3d2200d8	0.039551586
228	0x3ce7e1ef	0.028305976
229	0xbd065f15	-0.03280552
230	0xbd097e02	-0.033567436
231	0x3d8c072a	0.06837304
232	0xbc4a20d2	-0.012336927
233	0x3c098b82	0.008395078
234	0xbd936327	-0.07196646
235	0x3e0a699c	0.1351685
236	0x3e0a6ad0	0.13517308
237	0xbd43e0aa	-0.04782168
238	0x3ca8e08f	0.02061489
239	0x3db6f8d7	0.08934181
240	0x3d581646	0.052755617
241	0x3b29ccb3	0.0025909364
242	0xbd4cc295	-0.049990255
243	0x3dbd6d70	0.09249389
244	0xbdc1a6bc	-0.0945563
245	0x3d5f3471	0.05449337
246	0xbe5396be	-0.20662972
247	0x3e1c3cba	0.1525754
248	0xbc1c3da8	-0.009536184
249	0xbd154742	-0.03644491
250	0xbd7d0070	-0.061767995
251	0xbd2e5d57	-0.042569485
252	0x3e4bfe0d	0.19921131
253	0xbd1ce323	-0.038302552
254	0xbc8269bb	-0.015919557
255	0xbd912b79	-0.0708837

network_body._body_endoder.seq_layers.2.bias f4 [128]
0	0x00000000	0.0
1	0x00000000	0.0
2	0x00000000	0.0
3	0x00000000	0.0
4	0x00000000	0.0
5	0x00000000	0.0
6	0x00000000	0.0
7	0x00000000	0.0
8	0x00000000	0.0
9	0x00000000	0.0
10	0x00000000	0.0
11	0x00000000	0.0
12	0x00000000	0.0
13	0x00000000	0.0
14	0x00000000	0.0
15	0x00000000	0.0
16	0x00000000	0.0
17	0x00000000	0.0
18	0x00000000	0.0
19	0x00000000	0.0
20	0x00000000	0.0
21	0x00000000	0.0
22	0x00000000	0.0
23	0x00000000	0.0
24	0x00000000	0.0
25	0x00000000	0.0
26	0x00000000	0.0
27	0x00000000	0.0
28	0x00000000	0.0
29	0x00000000	0.0
30	0x00000000	0.0
31	0x00000000	0.0
32	0x00000000	0.0
33	0x00000000	0.0
34	0x00000000	0.0
35	0x00000000	0.0
36	0x00000000	0.0
37	0x00000000	0.0
38	0x00000000	0.0
39	0x00000000	0.0
40	0x00000000	0.0
41	0x00000000	0.0
42	0x00000000	0.0
43	0x00000000	0.0
44	0x00000000	0.0
45	0x00000000	0.0
46	0x00000000	0.0
47	0x00000000	0.0
48	0x00000000	0.0
49	0x00000000	0.0
50	0x00000000	0.0
51	0x00000000	0.0
52	0x00000000	0.0
53	0x00000000	0.0
54	0x00000000	0.0
55	0x00000000	0.0
56	0x00000000	0.0
57	0x00000000	0.0
58	0x00000000	0.0
59	0x00000000	0.0
60	0x00000000	0.0
61	0x00000000	0.0
62	0x00000000	0.0
63	0x00000000	0.0
64	0x00000000	0.0
65	0x00000000	0.0
66	0x00000000	0.0
67	0x00000000	0.0
68	0x00000000	0.0
69	0x00000000	0.0
70	0x00000000	0.0
71	0x00000000	0.0
72	0x00000000	0.0
73	0x00000000	0.0
74	0x00000000	0.0
75	0x00000000	0.0
76	0x00000000	0.0
77	0x00000000	0.0
78	0x00000000	0.0
79	0x00000000	0.0
80	0x00000000	0.0
81	0x00000000	0.0
82	0x00000000	0.0
83	0x00000000	0.0
84	0x00000000	0.0
85	0x00000000	0.0
86	0x00000000	0.0
87	0x00000000	0.0
88	0x00000000	0.0
89	0x00000000	0.0
90	0x00000000	0.0
91	0x00000000	0.0
92	0x00000000	0.0
93	0x00000000	0.0
94	0x00000000	0.0
95	0x00000000	0.0
96	0x00000000	0.0
97	0x00000000	0.0
98	0x00000000	0.0
99	0x00000000	0.0
100	0x00000000	0.0
101	0x00000000	0.0
102	0x00000000	0.0
103	0x00000000	0.0
104	0x00000000	0.0
105	0x00000000	0.0
106	0x00000000	0.0
107	0x00000000	0.0
108	0x00000000	0.0
109	0x00000000	0.0
110	0x00000000	0.0
111	0x00000000	0.0
112	0x00000000	0.0
113	0x00000000	0.0
114	0x00000000	0.0
115	0x00000000	0.0
116	0x00000000	0.0
117	0x00000000	0.0
118	0x00000000	0.0
119	0x00000000	0.0
120	0x00000000	0.0
121	0x00000000	0.0
122	0x00000000	0.0
123	0x00000000	0.0
124	0x00000000	0.0
125	0x00000000	0.0
126	0x00000000	0.0
127	0x00000000	0.0

value_heads.value_heads.extrinsic.weight f4 [1, 128]
0	0xbde35ba8	-0.111014664
1	0xbcd1ebb8	-0.025625095
2	0xbe3bd1e6	-0.18341789
3	0x3e57d294	0.21076423
4	0x3e297f7a	0.16552535
5	0xbe274424	-0.16334587
6	0x3e1c24de	0.15248439
7	0xbd98e334	-0.074652106
8	0x3e02c1a4	0.1276918
9	0xbe218c41	-0.15776159
10	0xbe53adbd	-0.20671745
11	0xbd1a83ec	-0.037723467
12	0xbe4bfb90	-0.19920182
13	0x3d433418	0.047657102
14	0xbe339574	-0.1753748
15	0x3cb2f790	0.021846563
16	0xbda0a684	-0.0784426
17	0x3da19404	0.0788956
18	0xbe55c573	-0.20876102
19	0xbe5c8758	-0.21536005
20	0xbd8ebce4	-0.06969622
21	0x3dbd5b04	0.092458755
22	0x3d65c908	0.05609992
23	0x3e3852d8	0.18000352
24	0x3e141a98	0.1446327
25	0x3e4800c8	0.19531548
26	0x3e1acb38	0.15116584
27	0xbde4a570	-0.11164367
28	0xbe18f7a4	-0.14938217
29	0xbe0518c9	-0.12997736
30	0x3e38447c	0.17994875
31	0x3dad7574	0.08469668
32	0x3c4ce8c0	0.012506664
33	0x3e49f720	0.19723177
34	0x3e3c048e	0.18361112
35	0x3d2265c0	0.039647818
36	0x3df088f0	0.11744869
37	0x3df8c19c	0.12146303
38	0x3e52de50	0.20592618
39	0xbd2fe5ec	-0.04294388
40	0xbe5bc30a	-0.2146112
41	0x3e511058	0.20416391
42	0x3dc82104	0.09771922
43	0x3d9c3f48	0.076292574
44	0x3dfbec14	0.12300888
45	0xbdcac01f	-0.098999254
46	0xbdd6ecc5	-0.10494379
47	0xbc87de70	-0.016585559
48	0x3e4f2e40	0.20232487
49	0x3e363452	0.17793396
50	0xbd212ae0	-0.03934753
51	0xbc979618	-0.018504187
52	0x3dcad9fc	0.099048585
53	0x3d0e81e8	0.034791857
54	0xbdd9b008	-0.106292784
55	0xbe26e435	-0.16297992
56	0xbdce9cc5	-0.10088495
57	0xbdd84a79	-0.105610795
58	0x3dd597d8	0.104293525
59	0x3d522d80	0.051312923
60	0x3e24a5b4	0.16078836
61	0xbe1b9748	-0.15194428
62	0xbe3e26a5	-0.18569429
63	0x3e16b4fa	0.14717475
64	0x3c373a50	0.011183336
65	0x3e3233d8	0.1740259
66	0xbdade38e	-0.08490668
67	0x3b1ed600	0.002423644
68	0x3e516244	0.20447642
69	0xbdbf43a8	-0.09339076
70	0xbd63b650	-0.05559379
71	0xbe33033d	-0.17481704
72	0xbe2cd55d	-0.16878267
73	0x3e577f74	0.21044713
74	0x3e1730c4	0.14764696
75	0x3d81a8f0	0.063310504
76	0x3e298aa8	0.165568
77	0x3d78e928	0.06076923
78	0xbe1d625e	-0.15369555
79	0xbe507878	-0.20358455
80	0x3d88e224	0.06683758
81	0xbe58ed59	-0.21184291
82	0xbcdcf5b8	-0.026972637
83	0xbe286aed	-0.16447039
84	0x3e5a6b4e	0.21329996
85	0x3e23f516	0.16011462
86	0xbdef15db	-0.116740905
87	0x3e198950	0.14993787
88	0x3e558ed0	0.2085526
89	0x3e1a3228	0.15058196
90	0x3e198cfa	0.14995185
91	0x3dcb460c	0.0992547
92	0xbd9df8c4	-0.07713464
93	0xbd7fbdd4	-0.062436894
94	0xbe3cc1f4	-0.18433362
95	0xbe39abb9	-0.18131913
96	0x3e200d80	0.1563015
97	0x3b672cc0	0.0035274476
98	0x3dd6290c	0.10457048
99	0xbc006650	-0.007836893
100	0xbe0317b9	-0.12802018
101	0xbbf83dc0	-0.0075757205
102	0x3e350d36	0.17680821
103	0xbe0472b9	-0.12934388
104	0x3dfac2b0	0.12244165
105	0xbe4852e4	-0.1956287
106	0xbe42bc96	-0.19017252
107	0x3e3266d0	0.17422032
108	0xbe36e052	-0.17859009
109	0xbe18198c	-0.14853495
110	0x3e4c305a	0.1994032
111	0x3e0f055e	0.13966891
112	0xbdb84e38	-0.08999294
113	0x3d4efe78	0.05053565
114	0x3dd0c350	0.10193503
115	0xb9489000	-0.0001912713
116	0xbdf4391b	-0.119249545
117	0xbdafec4a	-0.085899904
118	0xbd4e4608	-0.050359756
119	0x3dcebe50	0.10094893
120	0xbac00100	-0.0014648736
121	0x3d56dc00	0.052455902
122	0x3dce3e60	0.10070491
123	0xbe2cc971	-0.16873719
124	0x3cbc4700	0.022983074
125	0x3e34db38	0.1766175
126	0xbdc2e801	-0.095169075
127	0x3e2b3f66	0.16723403
