results/PreyTest1/PreyBrain/PreyBrain-195580.onnx (onnx, 73997 bytes, 7 tensors)

action_model._continuous_distribution.log_sigma f4 [1, 2]
-0.013107939 -0.014997217
00000000: aec2 56bc e3b6 75bc

action_model._continuous_distribution.mu.bias f4 [2]
0.0041551427 0.0006350302
00000000: dd27 883b 2878 263a

action_model._continuous_distribution.mu.weight f4 [2, 128]
0.0058704554 -0.030488396 0.027267952 0.008759369 -0.002334164 -0.023596214 -0.030502964 -0.035996113
-0.02886205 0.015796218 0.01233529 -0.053836595 0.008635588 -0.03528402 0.053267818 0.011068651
-0.015622196 0.009335205 -0.011370882 -0.039087866 -0.041458707 -0.041868653 0.023321902 -0.011924562
0.0064202743 -0.014666578 -0.018498955 -0.0178903 0.013704074 -0.044732254 -0.0048447084 -0.032153856
0.016096707 -0.02538189 -0.004014841 0.00091902365 0.018630005 0.010840291 -0.015037226 -0.000982887
-0.006900493 0.036612898 -0.029684702 0.015372164 0.010453227 -0.028051835 0.0069937673 -0.025295138
0.012511906 -0.011332422 0.01803039 0.018857032 -0.022981655 0.0238122 0.009319661 -0.010216024
-0.0114608845 -0.0025984675 -0.016109247 -0.03234119 0.022318885 -0.021485584 -0.022185123 0.0028346544
-0.043560334 0.0127129285 0.011216957 0.0021637636 -0.013473336 0.039390426 -0.0043304167 0.0053126183
-0.07272911 -0.01130433 0.01478923 0.00031282098 -0.044626754 -0.051822763 0.021993019 -0.04665026
-0.013851878 -0.0022935795 0.0013716455 0.0091438545 0.010485184 0.012113114 -0.036099013 -0.009063706
-0.024958113 -0.00015227433 0.02563045 0.0043833875 0.04272711 -0.018675849 0.005928512 0.014782242
0.017318336 -0.0145893395 -0.022398781 -0.033626273 0.036954716 -0.018861018 -0.01478895 -0.032349743
-0.00492955 -0.014505482 0.031787854 0.0023754733 0.011641414 -0.016424553 -0.020962946 -0.0056130732
-0.01539634 0.04261075 0.0048052953 0.029434325 0.00978925 0.015694955 0.023223495 0.013682354
-0.050096616 0.0024631545 0.019480947 -0.037218474 -0.012111109 -0.011020196 -0.02403274 -0.027424632
-0.016033575 -0.0093600275 -0.036539976 0.018321188 -0.008259305 0.002012099 -0.007910359 -0.0050538788
-0.0030422981 0.017951384 0.021177607 -0.015777119 0.0076019494 0.006757058 0.02777865 -0.00049347273
-0.030354904 -0.012418639 0.035745267 0.007849384 0.0070053055 0.03195573 -0.048991166 0.0039658356
0.02935426 0.0013075972 -0.0061014085 0.016013982 0.04281953 -0.02410466 0.020738637 -0.030510936
-0.009196043 0.013403286 -0.00994368 -0.01188731 0.036990613 0.0030887579 -0.003641302 0.004610714
0.02085299 0.0075588133 -0.013148121 0.017955953 -0.010743898 -0.0139094405 0.0030624652 0.009305431
0.033909667 -0.018049613 0.005250237 0.02449329 -0.011454142 -0.017585235 0.014408431 0.020795735
0.055752624 0.031911716 -0.034875035 -0.010882236 0.026852543 -0.0035127846 0.018704658 0.031384367
-0.014934996 0.0054115555 -0.012314957 -0.012194116 -0.02150221 0.011864679 0.009426696 -0.0031047568
0.026516624 0.018245773 -0.035813455 0.010234836 -0.030760229 -0.015416652 0.0067593544 0.014146983
-0.030388845 0.049587354 0.015093989 0.028959017 0.026127633 0.0055807745 -0.04363845 -0.01967778
0.0207453 -0.003266728 -0.050167248 -0.022225808 0.010360801 -0.018239567 -0.021778798 0.0039877617
0.022164011 0.022839991 -0.021943362 -0.0062518325 0.010227255 -0.023030322 -0.0194884 -0.013815132
0.024900423 -0.027797505 0.013627098 0.022086842 -0.015850801 -0.0059549226 -0.015350994 0.024483366
-0.033921905 0.013958684 0.012067149 -0.02863496 -0.009105107 -0.010453664 -0.04122964 0.019754868
-0.016306734 0.020771021 -0.016651003 0.031129323 -0.028645946 -0.0057916096 -2.7998236e-05 -0.009942399
00000000: f35c c03b cdc2 f9bc 0a61 df3c 7583 0f3c
00000010: c6f8 18bb d94c c1bc 5ae1 f9bc a970 13bd
00000020: 1b70 ecbc 1267 813c f519 4a3c c383 5cbd
00000030: 487c 0d3c fa85 10bd 5b2f 5a3d 4a59 353c
00000040: 3df4 7fbc b0f2 183c f04c 3abc 991a 20bd
00000050: 9bd0 29bd 777e 2bbd 930d bf3c 3d5f 43bc
00000060: 2a61 d23b 164c 70bc 1f8b 97bc ae8e 92bc
00000070: 0d87 603c 2b39 37bd 5cc0 9ebb c3b3 03bd
00000080: 3edd 833c aeed cfbc ed8e 83bb a2ea 703a
00000090: f49d 983c 7a9b 313c b25e 76bc 37d4 80ba
000000a0: 881d e2bb 68f7 153d 552d f3bc 87db 7b3c
000000b0: 0344 2b3c f6cc e5bc f92b e53b c037 cfbc
000000c0: bdfe 4c3c 9fab 39bc 78b4 933c 107a 9a3c
000000d0: 0644 bcbc ce11 c33c 7eb1 183c 1c61 27bc
000000e0: 6fc6 3bbc 0d4b 2abb 8af7 83bc 3278 04bd
000000f0: 18d6 b63c 8902 b0bc 93bd b5bc 9cc5 393b
00000100: 526c 32bd e349 503c 54c7 373c eecd 0d3b
00000110: 44bf 5cbc db57 213d 2be6 8dbb 7915 ae3b
00000120: 00f3 94bd cc35 39bc 874e 723c 1f02 a439
00000130: 8bca 36bd 1b44 54bd b42a b43c 5814 3fbd
00000140: fdf2 62bc e14f 16bb c9c8 b33a 1bd0 153c
00000150: 0dca 2b3c 1576 463c 8fdc 13bd f07f 14bc
00000160: f574 ccbc d4ab 1fb9 f3f6 d13c 85a2 8f3b
00000170: 9f02 2f3d 18fe 98bc f743 c23b 3731 723c
00000180: 2fdf 8d3c 2008 6fbc a67d b7bc b4bb 09bd
00000190: d45d 173d 6c82 9abc 5a4d 72bc 2a81 04bd
000001a0: 1088 a1bb 67a8 6dbc fb33 023d d4ad 1b3b
000001b0: a1bb 3e3c c98c 86bc 7cba abbc dfed b7bb
000001c0: ee40 7cbc 9c88 2e3d bd75 9d3b 4120 f13c
000001d0: 1763 203c b592 803c 333f be3c f42b 603c
000001e0: 1c32 4dbd e06c 213b 8296 9f3c 6672 18bd
000001f0: ac6d 46bc 0d8e 34bc 4fe0 c4bc 9fa9 e0bc
00000200: d858 83bc cd5a 19bc f1aa 15bd 5116 963c
00000210: 0952 07bc 6bdd 033b 739a 01bc 029b a5bb
00000220: 4b61 47bb c80e 933c a97c ad3c 043f 81bc
00000230: c619 f93b 506a dd3b 0d90 e33c 655c 01ba
00000240: d9aa f8bc 8c77 4bbc a169 123d b49a 003c
00000250: c38c e53b 03e4 023d f6aa 48bd d7f3 813b
00000260: 5878 f03c ae63 ab3a 53ee c7bb c12f 833c
00000270: 8863 2f3d 2377 c5bc 13e4 a93c 12f2 f9bc
00000280: 00ab 16bc 7599 5b3c d1ea 22bc fec2 42bc
00000290: 7883 173d c26c 4a3b e9a2 6ebb 7915 973b
000002a0: e4d3 aa3c ecaf f73b 376b 57bc 5d18 933c
000002b0: 2d07 30bc 6ce4 63bc a4b3 483b ce75 183c
000002c0: dde4 0a3d c8dc 93bc 2e0a ac3b 27a6 c83c
000002d0: 27aa 3bbc e90e 90bc 5711 6c3c d15b aa3c
000002e0: dd5c 643d dcb5 023d 20d9 0ebd 684b 32bc
000002f0: ddf9 db3c bf36 66bb 833a 993c e58c 003d
00000300: eab1 74bc 6b53 b13b acc4 49bc d4c9 47bc
00000310: 6725 b0bc 1264 423c 6e72 1a3c 2d79 4bbb
00000320: 6439 d93c 2978 953c 21b1 12bd 03b0 273c
00000330: e0fc fbbc 2096 7cbc 937d dd3b bfc8 673c
00000340: 07f2 f8bc 1c1c 4b3d c74c 773c 763b ed3c
00000350: 9e09 d63c eede b63b 3bbe 32bd 4c33 a1bc
00000360: 0cf2 a93c 9a16 56bb 2c7c 4dbd e612 b6bc
00000370: 59c0 293c 256b 95bc 7369 b2bc c5ab 823b
00000380: 4d91 b53c ef1a bb3c 91c2 b3bc 2cdc ccbb
00000390: 3790 273c 16aa bcbc 23a6 9fbc dd58 62bc
000003a0: f9fb cb3c 98b7 e3bc 3144 5f3c 77ef b43c
000003b0: 8ad9 81bc 8321 c3bb bc82 7bbc 5791 c83c
000003c0: b2f1 0abd f7b2 643c 4bb5 453c dd93 eabc
000003d0: 962d 15bc d845 2bbc 69e0 28bd f6d4 a13c
000003e0: b395 85bc fd27 aa3c af67 88bc ec02 ff3c
000003f0: e7aa eabc 8bc7 bdbb c1dd eab7 72e5 22bc

network_body._body_endoder.seq_layers.0.bias f4 [128]
-0.011816623 0.0018648739 0.0014423509 -0.00045550716 0.0016619884 0.0059382706 -0.010909769 0.009256336
0.008900942 0.029077366 -0.016791081 -0.020797873 0.0009788856 -0.0062961937 -0.012829467 0.01450812
0.0141397305 0.00090992294 -0.0066540213 0.007276224 0.0068480917 0.035368536 -0.0029839384 0.030017382
0.017259307 -0.037243128 0.018396065 -0.014599429 0.0053684055 -0.01065743 0.0016230347 -0.002007815
-0.012488988 0.0026651379 0.03758807 -0.015440827 0.000253663 0.0053495336 0.001220775 0.038095426
0.0014081805 -0.011315458 0.012075408 0.006821671 -0.0015302193 0.0028730251 -0.0044219783 -0.012834026
-0.008757583 0.010333152 0.020952966 0.01780571 0.002383201 -0.0013505609 -0.010036146 0.014812374
0.0030899453 -0.0019389587 0.0020279272 -0.00020595413 0.007536927 -0.01445023 -0.013265889 0.01800378
-0.00053563237 0.0030063596 0.019307688 0.007814701 1.840818e-05 0.015675215 0.034947265 -0.00051755947
-0.0020572748 -0.0023519031 -0.023866622 -0.000110362525 0.014298165 -0.003789183 -0.00032073667 -0.0020163269
-0.004631765 0.023542516 0.01680204 -0.0006087642 -0.0012004956 0.0064974097 0.0042588934 -0.0021388764
0.0073984973 0.029340569 0.016789658 0.02737907 -0.014289155 -0.0060786377 0.007627558 -0.0021235414
0.0056042415 -0.017198069 0.0072663957 4.7853908e-05 0.0046905056 -0.0018623031 -0.019491697 0.01876184
-0.00037552742 -0.008660484 0.005786559 -0.00395387 -0.0037757333 -0.0035978153 -0.0069325203 -0.0016141904
0.020873962 0.004293563 0.013132307 0.0030591246 0.011994361 0.0025499526 -0.011479167 0.015916217
0.00071754615 -0.0058759456 0.0007390822 0.016661724 0.0054174373 0.00033462426 0.016991543 -0.0061618304
00000000: 829a 41bc c96e f43a 440d bd3a 23d1 eeb9
00000010: 14d7 d93a d395 c23b e3be 32bc e3a7 173c
00000020: 42d5 113c a833 ee3c 738d 89bc 4d60 aabc
00000030: f34d 803a 4d50 cebb af32 52bc 77b3 6d3c
00000040: 54aa 673c e587 6e3a fa09 dabb 646d ee3b
00000050: f565 e03b 99de 103d 2e8e 43bb 03e7 f53c
00000060: 6463 8d3c 408c 18bd 58b3 963c 7232 6fbc
00000070: 73e9 af3b 809c 2ebc 02bc d43a 8c95 03bb
00000080: 9d9e 4cbc 98a9 2e3b f3f5 193d 86fb 7cbc
00000090: 12fe 8439 244b af3b 6902 a03a f309 1c3d
000000a0: b292 b83a 7964 39bc efd7 453c 5388 df3b
000000b0: a491 c8ba 5d49 3c3b 3ee6 90bb ce45 52bc
000000c0: f77b 0fbc 614c 293c 8ea5 ab3c 48dd 913c
000000d0: 7a2f 1c3b 4e05 b1ba a66e 24bc 99af 723c
000000e0: ae80 4a3b a824 feba f9e6 043b 64f5 57b9
000000f0: 53f8 f63b a8c0 6cbc 2c59 59bc aa7c 933c
00000100: ae69 0cba 5806 453b 282b 9e3c 3b09 003c
00000110: 446b 9a37 4f69 803c dd24 0f3d d4ac 07ba
00000120: 58d3 06bb 6322 1abb ef83 c3bc 6e72 e7b8
00000130: da42 6a3c f153 78bb 8c28 a8b9 5a24 04bb
00000140: 10c6 97bb 3cdc c03c 6fa4 893c 7995 1fba
00000150: f359 9dba 39e8 d43b 308e 8b3b 642c 0cbb
00000160: 186f f23b a25b f03c 778a 893c 124a e03c
00000170: 0f1d 6abc 4f2f c7bb 98f0 f93b 1d2b 0bbb
00000180: c9a3 b73b f7e2 8cbc f21a ee3b beb6 4838
00000190: d0b2 993b 8618 f4ba 0dad 9fbc 6eb2 993c
000001a0: 70e2 c4b9 b4e4 0dbc 2d9d bd3b 778f 81bb
000001b0: 4b72 77bb 53c9 6bbb 322a e3bb 3e93 d3ba
000001c0: dfff aa3c 04b1 8c3b e328 573c 987b 483b
000001d0: ff83 443c 1b1d 273b 1e13 3cbc ba62 823c
000001e0: b519 3c3a 018b c0bb f8be 413a 2b7e 883c
000001f0: c284 b13b 8270 af39 d931 8b3c 2ee9 c9bb

network_body._body_endoder.seq_layers.0.weight f4 [128, 9]
-0.30138844 -0.22169697 0.21296497 0.3575028 0.09808282 0.10223347 0.14914545 -0.044764403
-0.35260472 -0.04227852 -0.0023536382 0.13836342 0.10822063 0.2656117 -0.04869926 -0.20676136
0.29805914 0.43098935 0.4235306 -0.26239732 -0.39044935 -0.37742665 -0.12169386 0.0053564715
-0.059755173 0.3193642 -0.009893723 0.3145458 0.11801158 0.45068592 -0.14322622 0.74064356
0.1828042 -0.115330294 0.035307772 -0.17533135 0.06949738 0.070093445 0.42393544 -0.32875058
-0.6061321 0.076302946 -0.1064847 0.18537393 -0.079816386 -0.14960404 -0.069769874 0.27925733
0.068102166 0.0592047 0.14815086 0.016893316 0.09916365 -0.12400215 0.073471576 -0.5500494
-0.19857699 0.16528018 0.07145926 -0.05296226 -0.6170038 0.29905027 -0.0025716014 -0.22672547
-0.42189583 0.049110398 -0.4121352 0.12424498 -0.088845804 -0.22853637 -0.1607651 0.04492494
-0.16480629 -0.6651996 -0.059146825 -0.07877185 0.26023063 -0.057329282 -0.40476486 -0.645761
-0.15253642 -0.22765613 -0.50556445 -0.42225853 0.6857141 0.18870528 0.20545338 0.07988344
-0.028936744 0.16601522 0.30189604 0.7536972 -0.2832752 0.29285973 -0.28901413 0.12638983
0.24472164 -0.31082675 0.5023097 0.2004113 0.14875583 0.48891068 -0.075022094 0.123358615
-0.20845512 0.757558 0.24591376 -0.32689002 0.4730085 -0.2860348 0.4503941 -0.06841406
-0.4323979 0.16022232 0.33272094 -0.25870356 -0.5173614 0.12271446 0.22280899 -0.008352845
-0.020680655 0.2755934 0.9923133 -0.046497338 0.35140872 -0.23391585 -0.45485544 0.08799304
0.66888905 0.20373692 -0.03142131 -0.5292374 -0.15718822 0.18168814 0.4463199 -0.08755221
-0.085056916 -0.3319796 0.2839848 0.1653527 0.38060606 0.4322151 0.54885346 -0.44769713
0.15910593 0.00432714 0.141658 -0.18641114 0.056493632 -0.30828923 0.40682325 0.23170269
0.17286447 -0.24503247 -0.5712782 0.09257053 0.3920273 -0.4965604 0.14711416 -0.146114
-0.46233055 -0.14881656 0.54665464 0.4385459 -0.46868542 0.06367609 0.1466057 -0.071576275
-0.09997388 0.4249364 0.4648726 -0.18270117 0.051934607 0.2669792 -0.02157953 -0.123185806
-0.13656059 -0.21154143 -0.46075153 -0.16295776 0.18125938 -0.4956084 -0.20331809 -0.12312959
-0.18546633 -0.11491342 -0.3213084 0.118329376 -0.36311275 -0.057539452 -0.41182178 -1.0697966
-0.267351 -0.3369566 -0.22744326 -0.17572984 0.5264044 0.16367286 0.39387187 0.5306595
-0.43741283 -0.14612287 -0.12388906 0.38701674 -0.23459528 0.49669567 0.49592406 0.3837904
0.13125306 0.45390695 0.40400016 -0.08106511 -0.02836108 0.44097576 0.73376566 0.051100247
0.08178675 -0.32922623 -0.29597628 0.06761682 0.40298578 0.09317972 0.038337898 -0.31286314
-0.21265815 -0.16670825 -0.4559538 0.032131262 0.4366537 -0.35029984 -0.16248658 -0.13180068
0.24888055 0.050928857 -0.29076326 0.1311658 0.2084868 0.11315632 -0.36653337 0.37057555
0.3475299 0.347838 0.5615208 -0.031952225 -0.40811375 0.30468032 -0.16404249 -0.21638793
-0.17463559 0.27032515 -0.1343498 0.34717405 -0.24401559 -0.52310526 0.32083967 0.34129798
00000000: 964f 9abe 8804 63be 7d13 5a3e 9b0a b73e
00000010: a5df c83d c85f d13d 96b9 183e e15a 37bd
00000020: 9b88 b4be 3e2c 2dbd 7f3f 1abb 24af 0d3e
00000030: c7a2 dd3d 42fe 873e e078 47bd 40b9 53be
00000040: 359b 983e a3aa dc3e 01d9 d83e f158 86be
00000050: fae8 c7be 113e c1be a13a f9bd 5785 af3b
00000060: d7c1 74bd b483 a33e 4819 22bc 260c a13e
00000070: 0eb0 f13d 4ec0 e63e e5a9 12be d19a 3d3f
00000080: 0631 3b3e 4a32 ecbd e29e 103d 108a 33be
00000090: a454 8e3d 278d 8f3d 110e d93e ff51 a8be
000000a0: 792b 1bbf b844 9c3d a714 dabd aad2 3d3e
000000b0: c676 a3bd cd31 19be 82e3 8ebd d1fa 8e3e
000000c0: 2679 8b3d a180 723d dcb4 173e da63 8a3c
000000d0: 5016 cb3d d7f4 fdbd 4478 963d 0ad0 0cbf
000000e0: c457 4bbe 353f 293e 3c59 923d f4ee 58bd
000000f0: f6f3 1dbf 1e1d 993e 5088 28bb b92a 68be
00000100: bb02 d8be fc27 493d 6303 d3be 2774 fe3d
00000110: caf4 b5bd 7005 6abe 9b9f 24be 3703 383d
00000120: fbc2 28be 854a 2abf f143 72bd 2353 a1bd
00000130: f33c 853e 1cd2 6abd 573d cfbe 9850 25bf
00000140: 8232 1cbe b01e 69be ac6c 01bf 4532 d8be
00000150: f68a 2f3f f53b 413e 5f62 523e ee99 a33d
00000160: c00c edbc e5ff 293e 1e92 9a3e 4df2 403f
00000170: 7209 91be b6f1 953e a9f9 93be 566c 013e
00000180: 4f98 7a3e af24 9fbe 5e97 003f 9f38 4d3e
00000190: 7353 183e 8052 fa3e 2fa5 99bd 71a3 fc3d
000001a0: 4275 55be 52ef 413f d1d0 7b3e 215e a7be
000001b0: 2c2e f23e 2773 92be 0e9a e63e ac1c 8cbd
000001c0: 4263 ddbe 5211 243e 665a aa3e cb74 84be
000001d0: cc71 04bf b851 fb3d 0a28 643e 5fda 08bc
000001e0: 7a6a a9bc 941a 8d3e 3f08 7e3f fe73 3ebd
000001f0: d8eb b33e a387 6fbe d0e2 e8be b235 b43d
00000200: 503c 2b3f 69a0 503e a2b3 00bd 1a7c 07bf
00000210: f3f5 20be 750c 3a3e 0b84 e43e 934e b3bd
00000220: 5232 aebd 3bf9 a9be 7566 913e 3852 293e
00000230: ccde c23e 4c4b dd3e a981 0c3f 8f38 e5be
00000240: aaec 223e aeca 8d3b cb0e 113e 90e2 3ebe
00000250: de65 673d 16d8 9dbe 234b d03e 7843 6d3e
00000260: 6203 313e cbe9 7abe 4a3f 12bf 9e95 bd3d
00000270: cdb7 c83e 2a3d febe 18a5 163e e99e 15be
00000280: 97b6 ecbe 5e63 18be 8ff1 0b3f 1789 e03e
00000290: 89f7 efbe 9c68 823d ce1f 163e 9596 92bd
000002a0: 1bbf ccbd 4491 d93e c803 ee3e 0416 3bbe
000002b0: 62b9 543d 7fb1 883e 8ec7 b0bc d748 fcbd
000002c0: 8ad6 0bbe 519e 58be a0e7 ebbe 66de 26be
000002d0: 0f9c 393e 62c0 fdbe 9e32 50be 5e2b fcbd
000002e0: e3ea 3dbe ba57 ebbd 8982 a4be ac56 f23d
000002f0: eae9 b9be 7dae 6bbd 4eda d2be 18ef 88bf
00000300: 3be2 88be 9385 acbe e3e6 68be 86f2 33be
00000310: 70c2 063f dc99 273e 93a9 c93e 4dd9 073f
00000320: 93f4 dfbe 3ca1 15be 8cb9 fdbd 0f27 c63e
00000330: bf39 70be e54e fe3e c2e9 fd3e 2d80 c43e
00000340: 3467 063e 7e66 e83e 1cd9 ce3e 7705 a6bd
00000350: 7f55 e8bc 93c7 e13e 11d8 3b3f 7e4e 513d
00000360: d07f a73d 5790 a8be 348a 97be b07a 8a3d
00000370: 2754 ce3e 02d5 be3d 3308 1d3d 992f a0be
00000380: 0fc3 59be 91b5 2abe c772 e9be 129c 033d
00000390: 1391 df3e 805a b3be e262 26be c2f6 06be
000003a0: 8bda 7e3e c79a 503d ecde 94be 5450 063e
000003b0: 907d 553e 80be e73d 43aa bbbe 14bc bd3e
000003c0: 70ef b13e d317 b23e d4bf 0f3f 56e0 02bd
000003d0: 49f4 d0be 0fff 9b3e c1fa 27be cc94 5dbe
000003e0: acd3 32be 0f68 8a3e fe92 09be ccc0 b13e
000003f0: 39df 79be 3aea 05bf 1945 a43e 9cbe ae3e

network_body._body_endoder.seq_layers.2.bias f4 [128]
0.002568257 0.01191957 0.0022624147 -0.003890178 -0.0052571786 -0.0048028575 -0.0013449074 -0.0025205784
-0.004223751 -0.0072337235 -0.00894248 0.0026665858 -0.010784376 0.014691095 0.017353803 0.0028850238
-0.0063274307 0.0015744471 -0.0016049172 0.0043503703 0.011373235 0.002459771 0.010507666 -0.0037965616
-0.011228671 -0.0062448005 -0.01389028 0.001145688 0.0055850497 -0.0014692991 -0.00076952815 0.006394919
0.0009792983 0.0026344194 -0.0031867677 -0.0005371903 0.0045436695 0.0016835041 0.00071760884 -0.004817977
-0.002252334 0.0136636095 -0.002119604 0.023964236 0.006749331 -0.004284427 -0.0018155825 0.012643893
-0.0049604415 -0.002968227 0.0037398066 0.00080052327 0.005852845 0.0032263428 0.017697936 -0.0028474198
0.010903472 -8.811068e-05 0.004534925 0.02364307 0.003988216 -0.0040787226 -0.0026861068 0.014452762
-0.0030350736 -0.0046638544 0.0014639517 -0.00027298875 -0.0024333626 0.011261764 -0.00056810817 0.0046595745
0.0015466321 -0.0018252323 -0.005361247 -0.0034765664 0.0080631655 0.013955648 0.003180612 -0.0030311814
0.00089464 0.009609435 7.38286e-05 0.0044930996 0.0016854951 0.0028750016 0.007324837 0.0016246112
0.010628999 -0.015988067 0.011916728 0.0009780776 0.009961451 0.0005086639 0.0002042506 -0.005233128
0.0012193087 -0.00036017885 0.002090774 0.0027876366 0.007811352 -0.002899529 -0.0011811197 0.0026696916
-0.00089970656 0.0032155036 0.0055806804 -0.0064375727 0.0016008406 -0.0017339573 0.0021436855 0.00772628
0.004955577 0.01279775 -8.408124e-06 0.01084486 0.0012583258 -0.008989702 0.007018005 0.0034484582
0.021017624 0.004678711 -0.00425206 -0.002651047 -0.0009212519 0.00027533082 -0.004575435 0.0031275523
00000000: 3450 283b 4d4a 433c 0545 143b 5bf2 7ebb
00000010: 6944 acbb 4a61 9dbb 9b47 b0ba 4a30 25bb
00000020: 6467 8abb df08 edbb 7b83 12bc e3c1 2e3b
00000030: f4b0 30bc ebb2 703c 9029 8e3c ab12 3d3b
00000040: 5656 cfbb ae5d ce3a 165c d2ba 8d8d 8e3b
00000050: ce56 3a3c 1c34 213b 5828 2c3c bccf 78bb
00000060: 76f8 37bc 2fa1 ccbb 0f94 63bc e92a 963a
00000070: cb02 b73b 7f95 c0ba 29ba 49ba 788c d13b
00000080: cc5b 803a 39a6 2c3b 17d9 50bb 3bd2 0cba
00000090: 10e3 943b 06a9 dc3a ea1d 3c3a 1fe0 9dbb
000000a0: e59b 13bb 55dd 5f3c 0ee9 0abb a550 c43c
000000b0: 7e29 dd3b 6164 8cbb d7f8 edba 5528 4f3c
000000c0: 338b a2bb 9686 42bb 8b17 753b 35da 513a
000000d0: 39c9 bf3b 0d71 533b 43fb 903c c79b 3abb
000000e0: 7aa4 323c 10c8 b8b8 b599 943b 1daf c13c
000000f0: 95af 823b cea6 85bb 6509 30bb 47cb 6c3c
00000100: 16e8 46bb 3fd3 98bb 11e2 bf3a ee1f 8fb9
00000110: 0d79 1fbb 4383 383c 18ed 14ba 58af 983b
00000120: 5db8 ca3a a23c efba 66ad afbb 1bd7 63bb
00000130: 5e1b 043c 3ba6 643c d171 503b c9a6 46bb
00000140: 4686 6a3a e470 1d3c 6ed4 9a38 da3a 933b
00000150: d5eb dc3a 866a 3c3b 3005 f03b e8f0 d43a
00000160: 4125 2e3c 68f9 82bc 613e 433c d732 803a
00000170: 5b35 233c db57 053a 1a2c 5639 a97a abbb
00000180: 36d1 9f3a 63d6 bcb9 5e05 093b c8b0 363b
00000190: 5ff6 ff3b 0606 3ebb cdcf 9aba fef5 2e3b
000001a0: 49da 6bba 33bb 523b 24de b63b 46f2 d2bb
000001b0: 4cd3 d13a f445 e3ba 137d 0c3b bc2c fd3b
000001c0: 6562 a23b a7ad 513c 9e10 0db7 a4ae 313c
000001d0: 68ee a43a 8b49 13bc 4bf7 e53b 87ff 613b
000001e0: 272d ac3c df4f 993b dd54 8bbb 30bd 2dbb
000001f0: 2b80 71ba 475a 9039 88ed 95bb 9ff7 4c3b

network_body._body_endoder.seq_layers.2.weight f4 [128, 128]
-0.09036577 -0.16035068 0.0052261828 0.031640824 0.0219612 -0.25566694 0.0008283524 -0.047401298
0.01945475 -0.07075351 -0.15384 -0.096574344 0.0258181 -0.021157583 -0.05743654 0.08932403
0.090539694 0.028544327 0.04482773 0.04187981 -0.09706604 -0.07132299 -0.12868415 -0.05413803
0.180495 -0.081559174 0.0062696105 0.05651534 -0.0018160455 0.03489335 0.1306144 -0.06919885
-0.08492367 -0.13239618 -0.06879037 0.057202905 0.24823585 -0.07541009 0.09270744 0.032263212
0.101546206 0.17162812 -0.08246033 -0.04351677 -0.06974239 0.111726455 -0.0061069573 0.07026509
-0.05685168 0.07355742 0.020447027 -0.1326164 -0.14731404 0.12077927 -0.037519824 -0.037060358
-0.04371356 -0.11058733 -0.03362614 -0.020965606 0.098025165 0.047828387 -0.123990975 -0.11863578
-0.042548437 -0.13037999 -0.100602865 0.03510086 0.015659563 -0.04620817 -0.083720185 -0.03752543
-0.14666075 -0.06735115 0.05462184 0.0333892 0.026144153 0.04010766 -0.024925275 0.016647836
-0.04704688 -0.0666618 0.02626958 -0.045871753 0.020418612 -0.05861664 -0.12110631 0.023669101
-0.05786688 -0.009713954 -0.019510288 0.073886804 -0.053581018 0.009390896 0.030770713 0.027703166
-0.11871198 0.024367554 -0.01334088 -0.122643456 0.00068418647 0.03924673 -0.10687859 -0.040277787
0.013548079 0.03667538 -0.079150245 -0.0017727943 0.12247887 0.019156532 -0.0838819 0.050131712
-0.09327575 0.021382296 -0.020108227 0.04000192 -0.091549076 -0.056998916 -0.0011802996 0.022874374
0.039379302 -0.07673194 0.11211572 0.13403496 0.00015624176 -0.09648037 -0.08978479 -0.053430066
-0.019855428 -0.020990344 0.01611251 0.002204396 -0.05641069 0.09124337 -0.0019389762 0.107254505
0.05042392 -0.028806275 0.02008322 -0.25653473 -0.12420223 -0.012321293 -0.013415285 0.08080734
0.06935088 -0.048094574 -0.056899734 0.036673546 0.0690204 0.0058865407 0.043039873 -0.17775178
0.027693447 0.14959681 0.05581587 0.042292733 0.0245124 0.04180903 -0.0170897 -0.15597884
-0.052109767 0.10216134 -0.15493266 0.12065098 -0.090587534 0.020659361 0.1541116 0.04736435
-0.14246918 -0.00965499 0.04488951 -0.030767493 -0.023036769 -0.043819197 -0.09640198 0.06830096
0.0027908299 0.17193973 -0.054894924 -0.036509454 -0.036149465 -0.15939537 0.005120095 0.073184386
0.15355669 0.0892337 -0.1134604 0.020111095 0.0040211836 0.0855308 0.073799394 -0.21273214
-0.0901826 -0.023140797 0.015837915 -0.08854093 -0.099168845 -0.06761549 0.23623231 0.03746474
0.064499505 -0.02078634 -0.014437165 0.10335368 -0.06551611 0.08344709 -0.11907146 -0.055914044
0.0025873156 -0.0027009135 0.12217223 0.11705349 0.04565575 -0.20134705 -0.009740515 0.07426718
-0.007982266 -0.030060252 0.024846502 -0.027775452 0.02336625 0.03687375 -0.084525146 -0.04905775
0.04916167 -0.00491334 -0.16280556 0.057002008 0.07727608 0.036652263 -0.0405187 0.20198888
0.10577562 0.020696165 -0.16371673 -0.10577452 -0.046634383 0.061214082 0.02765745 0.19638397
-0.049315505 -0.026380897 -0.029468669 -0.033394806 -0.028674891 0.012168471 -0.095018335 -0.018799188
-0.10637095 -0.09755525 -0.045821942 0.07752954 0.008864513 0.04657866 0.030019743 -0.03927792
00000000: b011 b9bd f832 24be 6640 ab3b cf99 013d
00000010: f9e7 b33c c7e6 82be ca25 593a dd27 42bd
00000020: 915f 9f3c 37e7 90bd 3c88 1dbe c5c8 c5bd
00000030: 7b80 d33c ab52 adbc 9442 6bbd 84ef b63d
00000040: e06c b93d cbd5 e93c 489d 373d 2a8a 2b3d
00000050: 8fca c6bd ca11 92bd c7c5 03be d7bf 5dbd
00000060: aed3 383e 7f08 a7bd 4e71 cd3b a17c 673d
00000070: 6008 eeba 54ec 0e3d c8bf 053e 20b8 8dbd
00000080: 76ec adbd dd92 07be f7e1 8cbd 984d 6a3d
00000090: 8a31 7e3e 9b70 9abd 66dd bd3d 6e26 043d
000000a0: 75f7 cf3d 48bf 2f3e f6e0 a8bd a43e 32bd
000000b0: 19d5 8ebd d7d0 e43d df1c c8bb 25e7 8f3d
000000c0: 4fdd 68bd 46a5 963d 8680 a73c 98cc 07be
000000d0: 7ed9 16be 1f5b f73d 63ae 19bd 9acc 17bd
000000e0: fd0c 33bd 9c7b e2bd 90bb 09bd 10c0 abbc
000000f0: 6bc1 c83d b3e7 433d fbee fdbd 51f7 f2bd
00000100: 4547 2ebd 5582 05be e008 cebd ebc5 0f3d
00000110: 7c48 803c c744 3dbd 7d75 abbd 44b4 19bd
00000120: 3c2e 16be 66ef 89bd 27bb 5f3d 1dc3 083d
00000130: 432c d63c ee47 243d 1730 ccbc 0b61 883c
00000140: 3bb4 40bd fb85 88bd 4d33 d73c 05e4 3bbd
00000150: ef44 a73c 0018 70bd 9606 f8bd b4e5 c13c
00000160: d205 6dbd 4727 1fbc 0ad4 9fbc f751 973d
00000170: c577 5bbd 46dc 193c dd12 fc3c c0f1 e23c
00000180: 441f f3bd 779e c73c b593 5abc 7e2c fbbd
00000190: fa5a 333a 2ec1 203d 2ae3 dabd 52fa 24bd
000001a0: c3f8 5d3c ec38 163d 8619 a2bd 1b5d e8ba
000001b0: 34d6 fa3d 29ee 9c3c 46ca abbd e956 4d3d
000001c0: 5b07 bfbd ed29 af3c 02ba a4bc 0ed9 233d
000001d0: 157e bbbd b277 69bd 48b4 9aba 0a63 bb3c
000001e0: 314c 213d a325 9dbd ed9c e53d 7640 093e
000001f0: d4d4 2339 8097 c5bd 17e1 b7bd 7cd9 5abd
00000200: daa7 a2bc f1f3 abbc 62fe 833c a177 103b
00000210: e50e 67bd cedd ba3d 3f25 feba 40a8 db3d
00000220: 5089 4e3d 23fb ebbc 9185 a43c 8558 83be
00000230: bd5d febd 40df 49bc c9cb 5bbc 527e a53d
00000240: d607 8e3d d1fe 44bd b20f 69bd 0037 163d
00000250: 915a 8d3d e2e3 c03b 944a 303d 9004 36be
00000260: 5edd e23c e82f 193e 2f9f 643d 253b 2d3d
00000270: 3bce c83c f23f 2b3d b3ff 8bbc ebb8 1fbe
00000280: 0d71 55bd f739 d13d aba6 1ebe dc17 f73d
00000290: f585 b9bd d23d a93c 6ecf 1d3e 1f01 423d
000002a0: 71e3 11be f72f 1ebc 10de 373d 1c0c fcbc
000002b0: 9bb7 bcbc c27b 33bd 676e c5bd 60e1 8b3d
000002c0: 5be6 363b f810 303e 80d9 60bd f08a 15bd
000002d0: 7611 14bd 8a38 23be 78c6 a73b b2e1 953d
000002e0: f73d 1d3e 28c0 b63d ed5d e8bd 06c0 a43c
000002f0: 22c4 833b c62a af3d 2324 973d 74d6 59be
00000300: a8b1 b8bd c591 bdbc 84be 813c f254 b5bd
00000310: 0919 cbbd fd79 8abd e2e6 713e a174 193d
00000320: 5118 843d 1d48 aabc dc89 6cbc 18ab d33d
00000330: 4f2d 86bd 4fe6 aa3d bddb f3bd 2006 65bd
00000340: f48f 293b cf01 31bb 6f35 fa3d bdb9 ef3d
00000350: 8601 3b3d ec2d 4ebe ae96 1fbc 6419 983d
00000360: 0dc8 02bc eb40 f6bc e48a cb3c 5889 e3bc
00000370: 946a bf3c ee08 173d 851b adbd c7f0 48bd
00000380: bf5d 493d 1500 a1bb 80b6 26be f07a 693d
00000390: ec42 9e3d af20 163d f0f6 25bd 2cd6 4e3e
000003a0: e3a0 d83d 018b a93c 5ca5 27be 50a0 d8bd
000003b0: b203 3fbd 9ebb 7a3d e091 e23c e118 493e
000003c0: 0eff 49bd c01c d8bc 4768 f1bc fec8 08bd
000003d0: 9be7 eabc 445e 473c f998 c2bd c100 9abc
000003e0: 03d9 d9bd 0ccb c7bd caaf 3bbd cfc7 9e3d
000003f0: 763c 113c 44c9 3e3d f7eb f53c e2e1 20bd
