results/PreyTest1/PreyBrain/PreyBrain-12873.onnx (onnx, 73997 bytes, 7 tensors)

action_model._continuous_distribution.log_sigma f4 [1, 2]
0	0x00000000	0.0
1	0x00000000	0.0

action_model._continuous_distribution.mu.bias f4 [2]
0	0x00000000	0.0
1	0x00000000	0.0

action_model._continuous_distribution.mu.weight f4 [2, 128]
0	0xbd550273	-0.05200429
1	0xbc34f336	-0.011044314
2	0xbc49c371	-0.012314663
3	0xbca24907	-0.019810213
4	0xbc9a2baf	-0.018819658
5	0xbb17b790	-0.0023150183
6	0x3c10e7f1	0.008844362
7	0x3c7aa2c5	0.015297596
8	0xbc760e98	-0.015018128
9	0x3ce11d43	0.027479773
10	0x3ce91d45	0.02845634
11	0x3b4ebcf0	0.003154572
12	0xbd0132d1	-0.031542603
13	0xbc761157	-0.015018783
14	0x3ce9f425	0.0285588
15	0xbbf36d03	-0.0074287667
16	0x3b1505d0	0.002273906
17	0xbccc6739	-0.024951564
18	0xbcfa5e82	-0.030562643
19	0x3c14e069	0.009086707
20	0x3c712603	0.014718535
21	0xbbbe023b	-0.0057986057
22	0xbc67c5a0	-0.014146239
23	0x3bf3a26d	0.007435134
24	0x3c6084af	0.013703509
25	0x3c12142b	0.008915941
26	0x3c1d454b	0.00959904
27	0xbc987483	-0.018610245
28	0x3c5a952a	0.013341228
29	0xbacb79f3	-0.0015524015
30	0xbc6502da	-0.013977731
31	0xbc39b2ac	-0.011334103
32	0xbc68830f	-0.014191403
33	0xbce41f03	-0.027846819
34	0x3c8fc771	0.017551156
35	0xbb5efeeb	-0.0034026455
36	0xbcb7140f	-0.022348432
37	0x3bc3116f	0.005953006
38	0xbb93e084	-0.0045128483
39	0x3b822522	0.0039717117
40	0x3cfeceb7	0.031104429
41	0xbac121bb	-0.0014734784
42	0x3d0206c1	0.031744722
43	0xbb0b635f	-0.0021268947
44	0xbc087c44	-0.0083304085
45	0xbbf17305	-0.0073684477
46	0xbbdd6ef7	-0.006757613
47	0x3c06bb1f	0.008223324
48	0x3c8fac4f	0.017538218
49	0xbcd2566a	-0.025675971
50	0x3d16152c	0.036641285
51	0x3c8a82cd	0.016908074
52	0x3c90959e	0.017649468
53	0x3bc07e4e	0.0058744317
54	0xbca197fe	-0.019725796
55	0xbcd2c182	-0.025727037
56	0xba328a4b	-0.00068107684
57	0x3d95cf8f	0.07314979
58	0xbc9dfdb7	-0.01928602
59	0x3c25e14d	0.010124517
60	0xb9ceeee3	-0.00039469366
61	0xbc5195ad	-0.012792033
62	0x3ae22fa5	0.0017256631
63	0xbc064f39	-0.008197599
64	0x3bfa29f8	0.0076343976
65	0x3c2d7ccc	0.010588836
66	0xbc199b33	-0.009375381
67	0xbc0522bb	-0.008125956
68	0xbc4b71a8	-0.0124172345
69	0x3c083757	0.008313975
70	0x3c5fd2d0	0.013661101
71	0xbb18e673	-0.0023330718
72	0xbcc494b7	-0.023996694
73	0x3c8d304a	0.01723494
74	0xbc88c52f	-0.016695587
75	0x3c84f385	0.0162294
76	0xbcba2406	-0.022722255
77	0xbc36e4ab	-0.011162917
78	0xbc66025b	-0.0140386475
79	0x3beb1ad5	0.0071748295
80	0x3c674537	0.014115623
81	0xbc4ee085	-0.012626772
82	0x3be4399a	0.0069648745
83	0xbcf3d990	-0.029766828
84	0xbd0c918e	-0.0343185
85	0x3c7ff05a	0.015621269
86	0x3ca72689	0.020404117
87	0x3c90e8f5	0.017689208
88	0x3c3702d6	0.01117011
89	0xbccb0f87	-0.024787677
90	0xbcae2f67	-0.021262838
91	0xbccbf926	-0.024899077
92	0xbd3137c9	-0.04326609
93	0x3c5ced1f	0.013484268
94	0xbbc68302	-0.006058098
95	0xbc53f868	-0.012937643
96	0xb9a1ada0	-0.00030837674
97	0x3b952150	0.0045510903
98	0x3c50ac9d	0.012736467
99	0xbc30bf44	-0.010787789
100	0xbcfcf2fd	-0.030877585
101	0xbbcc7791	-0.0062398394
102	0xbc257613	-0.010098952
103	0x3c449565	0.011998509
104	0xbcc20b1a	-0.023686934
105	0xbca1f791	-0.01977137
106	0x3c816ef3	0.015799975
107	0x3ca8815b	0.020569494
108	0x38d86a8a	0.00010319527
109	0xbbf9f51b	-0.007628096
110	0x3c79dcb2	0.015250372
111	0xbca1051a	-0.019655753
112	0xbc89a054	-0.016800083
113	0x3c62c4ca	0.0138408635
114	0xbc2f22fa	-0.010689491
115	0xbc1912f5	-0.009342899
116	0x3b5fecd5	0.0034168263
117	0xbcaf5e90	-0.021407396
118	0x3884a452	6.3248575e-05
119	0x3c7049c3	0.014666024
120	0xbcf1771d	-0.029475743
121	0xbb93b882	-0.004508079
122	0xbc753170	-0.0149654
123	0xbc1f9597	-0.009740255
124	0xbcacbe4e	-0.021086838
125	0xbbcb2ded	-0.006200543
126	0xbb8235e9	-0.0039737117
127	0x3c9840e8	0.018585637
128	0x3c81d2f8	0.015847668
129	0xbcdbdb88	-0.02683808
130	0x3d048b6c	0.032359526
131	0xbc83bb42	-0.016080502
132	0x3bc3405b	0.0059585995
133	0x3b828f17	0.003984343
134	0x3d1db681	0.038504127
135	0xbc85a259	-0.016312765
136	0xbc2dd873	-0.010610688
137	0x3c84ccad	0.016210878
138	0xbbd17843	-0.00639251
139	0x3c4bc651	0.012437419
140	0xbd1702ba	-0.036867835
141	0x3c231ed8	0.009956084
142	0xbcd58a60	-0.026066959
143	0xbc4c0a97	-0.012453697
144	0x3c38c722	0.011277946
145	0xbbba636c	-0.0056881215
146	0x3bbba33f	0.0057262476
147	0x3c393f0f	0.011306538
148	0xbd271217	-0.040788736
149	0xbc86f43f	-0.016473887
150	0x3c724950	0.014787987
151	0x3c35dfc9	0.011100718
152	0xbb484913	-0.0030561134
153	0xbcb57ebf	-0.022155164
154	0xbbf6d977	-0.007533248
155	0xba814ccf	-0.000986481
156	0x3bd9ca08	0.0066463985
157	0xbc136fb8	-0.008998804
158	0xbc9a9a11	-0.018872293
159	0x3c5ddc70	0.013541326
160	0xbbf6719d	-0.007520868
161	0xbc6d0bc5	-0.014468138
162	0xbc6656fa	-0.014058823
163	0x3bcb56da	0.006205422
164	0x3b286c8f	0.0025699472
165	0xbd776f0b	-0.060408633
166	0x3be91277	0.007112797
167	0xbb0e3fa1	-0.0021705406
168	0xbb59daed	-0.0033242062
169	0xbc769047	-0.015049047
170	0xbca15fa0	-0.019698918
171	0xbc7a0445	-0.015259807
172	0x3c2b4a64	0.010454748
173	0xbc86674f	-0.016406683
174	0x3b3d5a94	0.00288931
175	0xbc141717	-0.009038708
176	0xbc555b8b	-0.013022314
177	0xbc8bdd33	-0.01707325
178	0x3b59a8f7	0.0033212283
179	0x3bb17e26	0.0054166494
180	0xbb6a5293	-0.0035754784
181	0x3caf0435	0.02136431
182	0x39f19022	0.0004607449
183	0xbd27f2e5	-0.041003127
184	0xbc10d276	-0.00883924
185	0x3c88e209	0.016709344
186	0xba7d6b90	-0.0009667212
187	0x3a8cb04b	0.0010733692
188	0x3d103b0f	0.035212573
189	0x3cae0a0d	0.021245027
190	0xb8c4727a	-9.367331e-05
191	0xbcacddcf	-0.02110186
192	0xbb53892f	-0.0032277813
193	0x3a9e6512	0.0012084565
194	0x3d273908	0.040825874
195	0x3cabd527	0.020975662
196	0x3b3f6d9b	0.0029209617
197	0xbd0401d7	-0.032228317
198	0x3ae5a02b	0.0017519047
199	0xbc35b523	-0.01109055
200	0x3c337e15	0.010955353
201	0x3c6bda6d	0.0143953385
202	0x3a5fe958	0.0008541546
203	0xbc4118dd	-0.011785713
204	0xbcd10705	-0.025516042
205	0xbc6b156b	-0.014348368
206	0x3b8d58a1	0.004313544
207	0xbc88b873	-0.016689515
208	0x3a849a7f	0.0010116844
209	0xbc8ceccb	-0.017202755
210	0x3c2d2493	0.010567802
211	0xbc4179f7	-0.011808864
212	0x3d193195	0.0374008
213	0x3a649058	0.00087190187
214	0x3b9f20eb	0.004856219
215	0x3ce17ce7	0.027525378
216	0xbc9563bb	-0.018236032
217	0x3ba5a3cf	0.005054928
218	0xbc85f393	-0.016351497
219	0x3cb89c6b	0.022535523
220	0x3c5b0af8	0.013369314
221	0x3c96b9e7	0.018399192
222	0xbc97d0ed	-0.01853224
223	0xbc540fc2	-0.01294321
224	0x3cda0e8d	0.026618266
225	0xbba74c33	-0.005105519
226	0x3c10b1e6	0.008831477
227	0x3c84fe32	0.016234491
228	0xbbbc2b9f	-0.0057425047
229	0xbc8d1fbe	-0.01722705
230	0x3c0264df	0.00795862
231	0x3c9d4690	0.019198686
232	0xbd23c9f3	-0.039987516
233	0xbce3a26b	-0.027787408
234	0xbc65362a	-0.0139899645
235	0xbcb9085f	-0.022587
236	0x3ae64cc5	0.0017570487
237	0x3b7ff2ad	0.0039054558
238	0x3c380911	0.01123263
239	0xbce10653	-0.027468836
240	0x3bcbb17f	0.0062162275
241	0x3c53456f	0.012894972
242	0x3c63b4a5	0.0138980495
243	0xbc4393c2	-0.011937084
244	0x3ba78408	0.005112175
245	0x3babe916	0.005246292
246	0xbc856661	-0.01628417
247	0x3b9cbea3	0.004783468
248	0x3c53e972	0.012934076
249	0x3b93f5d8	0.004515391
250	0x3c170cba	0.009219343
251	0xbc7f1ccb	-0.01557083
252	0x3c52acfa	0.012858624
253	0xbc469f9e	-0.012123017
254	0xba9bc127	-0.0011883125
255	0x3c71c8f3	0.014757383

network_body._body_endoder.seq_layers.0.bias f4 [128]
0	0x00000000	0.0
1	0x00000000	0.0
2	0x00000000	0.0
3	0x00000000	0.0
4	0x00000000	0.0
5	0x00000000	0.0
6	0x00000000	0.0
7	0x00000000	0.0
8	0x00000000	0.0
9	0x00000000	0.0
10	0x00000000	0.0
11	0x00000000	0.0
12	0x00000000	0.0
13	0x00000000	0.0
14	0x00000000	0.0
15	0x00000000	0.0
16	0x00000000	0.0
17	0x00000000	0.0
18	0x00000000	0.0
19	0x00000000	0.0
20	0x00000000	0.0
21	0x00000000	0.0
22	0x00000000	0.0
23	0x00000000	0.0
24	0x00000000	0.0
25	0x00000000	0.0
26	0x00000000	0.0
27	0x00000000	0.0
28	0x00000000	0.0
29	0x00000000	0.0
30	0x00000000	0.0
31	0x00000000	0.0
32	0x00000000	0.0
33	0x00000000	0.0
34	0x00000000	0.0
35	0x00000000	0.0
36	0x00000000	0.0
37	0x00000000	0.0
38	0x00000000	0.0
39	0x00000000	0.0
40	0x00000000	0.0
41	0x00000000	0.0
42	0x00000000	0.0
43	0x00000000	0.0
44	0x00000000	0.0
45	0x00000000	0.0
46	0x00000000	0.0
47	0x00000000	0.0
48	0x00000000	0.0
49	0x00000000	0.0
50	0x00000000	0.0
51	0x00000000	0.0
52	0x00000000	0.0
53	0x00000000	0.0
54	0x00000000	0.0
55	0x00000000	0.0
56	0x00000000	0.0
57	0x00000000	0.0
58	0x00000000	0.0
59	0x00000000	0.0
60	0x00000000	0.0
61	0x00000000	0.0
62	0x00000000	0.0
63	0x00000000	0.0
64	0x00000000	0.0
65	0x00000000	0.0
66	0x00000000	0.0
67	0x00000000	0.0
68	0x00000000	0.0
69	0x00000000	0.0
70	0x00000000	0.0
71	0x00000000	0.0
72	0x00000000	0.0
73	0x00000000	0.0
74	0x00000000	0.0
75	0x00000000	0.0
76	0x00000000	0.0
77	0x00000000	0.0
78	0x00000000	0.0
79	0x00000000	0.0
80	0x00000000	0.0
81	0x00000000	0.0
82	0x00000000	0.0
83	0x00000000	0.0
84	0x00000000	0.0
85	0x00000000	0.0
86	0x00000000	0.0
87	0x00000000	0.0
88	0x00000000	0.0
89	0x00000000	0.0
90	0x00000000	0.0
91	0x00000000	0.0
92	0x00000000	0.0
93	0x00000000	0.0
94	0x00000000	0.0
95	0x00000000	0.0
96	0x00000000	0.0
97	0x00000000	0.0
98	0x00000000	0.0
99	0x00000000	0.0
100	0x00000000	0.0
101	0x00000000	0.0
102	0x00000000	0.0
103	0x00000000	0.0
104	0x00000000	0.0
105	0x00000000	0.0
106	0x00000000	0.0
107	0x00000000	0.0
108	0x00000000	0.0
109	0x00000000	0.0
110	0x00000000	0.0
111	0x00000000	0.0
112	0x00000000	0.0
113	0x00000000	0.0
114	0x00000000	0.0
115	0x00000000	0.0
116	0x00000000	0.0
117	0x00000000	0.0
118	0x00000000	0.0
119	0x00000000	0.0
120	0x00000000	0.0
121	0x00000000	0.0
122	0x00000000	0.0
123	0x00000000	0.0
124	0x00000000	0.0
125	0x00000000	0.0
126	0x00000000	0.0
127	0x00000000	0.0

network_body._body_endoder.seq_layers.0.weight f4 [128, 9]
0	0x3c6c7e70	0.014434442
1	0xbe0ca1ce	-0.13733599
2	0xbe466a5c	-0.1937651
3	0x3f296529	0.66169983
4	0x3e348d8c	0.17632121
5	0xbe02d2b8	-0.12775695
6	0x3cab5a2a	0.020917017
7	0x3e65c266	0.22437438
8	0x3ea4b50c	0.32169378
9	0x3e14526e	0.1448457
10	0xbf028766	-0.5098785
11	0x3ea45b08	0.321007
12	0xbd972821	-0.07380701
13	0x3e704c8f	0.23466705
14	0x3d5eccfc	0.054394707
15	0x3e881d5f	0.26584908
16	0x3e377843	0.1791697
17	0x3ebbe118	0.3669517
18	0xbd28601c	-0.041107282
19	0xbdb01986	-0.08598618
20	0xbecc2f47	-0.3987982
21	0xbddf85fc	-0.10914227
22	0xbd339b20	-0.04384911
23	0x3e479ba7	0.1949297
24	0x3e2f6ca3	0.17131285
25	0x3d8b4c2e	0.068016395
26	0xbdb38c90	-0.087670445
27	0xbe4ca9d3	-0.19986658
28	0x3eca9223	0.39564618
29	0x3e8e6ca2	0.27817255
30	0x3d8e2987	0.069415145
31	0x3e644dc2	0.22295287
32	0x3e490c67	0.19633637
33	0x3e4aa70a	0.19790283
34	0xbdccfe72	-0.10009469
35	0x3e41a87f	0.18911932
36	0xbf642c42	-0.8913003
37	0x3c648b77	0.013949267
38	0xbee3bc54	-0.4447962
39	0x3f751ac6	0.9574398
40	0xbdace204	-0.084415466
41	0xbefd57ae	-0.49480957
42	0x3e4107a0	0.18850565
43	0xbd81f832	-0.063461676
44	0x3e9a7ce9	0.30173424
45	0x3e43b6d2	0.19112709
46	0xbe9c6ce4	-0.30551827
47	0xbe84e28e	-0.25954098
48	0x3abb3503	0.0014282766
49	0xbf0e7816	-0.55651987
50	0xbe0cc5e8	-0.1374737
51	0x3e9b4471	0.30325654
52	0x3d4478e8	0.047966868
53	0x3dc34b6e	0.095358714
54	0x3e1150b3	0.1419094
55	0xbed06134	-0.4069916
56	0xbe8db90e	-0.27680248
57	0xbea04a36	-0.31306618
58	0xbedcadc4	-0.43101323
59	0x3cfa607c	0.030563585
60	0x3e820148	0.25391603
61	0xbe5e80a7	-0.21728764
62	0xbee42c97	-0.4456527
63	0xbdaf04d4	-0.08545843
64	0x3efb69c0	0.49104118
65	0x3d907027	0.07052641
66	0xbec45716	-0.3834769
67	0x3de87232	0.11349906
68	0x3e1f04bc	0.1552915
69	0xbe16bd52	-0.14720657
70	0x3da2b6ee	0.07945047
71	0xbe3315c7	-0.17488776
72	0x3da938a7	0.08262759
73	0xbe13a752	-0.14419296
74	0x3c0e163e	0.008672295
75	0xbefe60b3	-0.4968315
76	0x3f03e9f5	0.51528865
77	0x3e87fedb	0.26561627
78	0x3f155ad4	0.5834172
79	0xbcb11fe2	-0.021621648
80	0xbeba3066	-0.3636505
81	0x3dae849a	0.085213855
82	0x3e892d6d	0.2679247
83	0xbd84bc32	-0.06481208
84	0xbead9268	-0.33900762
85	0x3e31c96f	0.17361997
86	0x3e0ecb39	0.13944711
87	0x3e16ab96	0.14713892
88	0x3ef10de2	0.47080904
89	0x3e17504c	0.14776725
90	0x3e385144	0.1799975
91	0x3e286636	0.1644524
92	0xbdc107e3	-0.094253324
93	0x3df76fb0	0.120818496
94	0x3ce6e2de	0.02818435
95	0x3e9084e6	0.28226393
96	0x3eca6f32	0.3953796
97	0xbf2031d0	-0.6257601
98	0x3e8d1ec6	0.2756254
99	0xbf636f5e	-0.8884181
100	0xbe499b3c	-0.19688123
101	0x3f35cf22	0.71019185
102	0x3f04f6dd	0.51939183
103	0x3e99cb5f	0.30037972
104	0x3ecf0276	0.40431565
105	0xbe87e3c7	-0.26540968
106	0xbe18292a	-0.14859453
107	0x3e35932a	0.1773192
108	0xbddee7e4	-0.108840734
109	0xbe0fe7b6	-0.14053234
110	0x3eb7b784	0.358822
111	0xbd96b83b	-0.07359358
112	0xbe313194	-0.17304069
113	0x3ecb4a1f	0.39704987
114	0x3d6db5f8	0.058034867
115	0x3e8dab77	0.2766988
116	0xbe4bc266	-0.19898376
117	0x3e5f2853	0.21792726
118	0x3e8123f6	0.2522275
119	0x3da86bab	0.08223661
120	0xbe4c289e	-0.19937369
121	0x3da01dd2	0.07818188
122	0x3da33365	0.07968787
123	0xbe366584	-0.17812163
124	0xbde4095c	-0.11134598
125	0x3e81f3e0	0.25381374
126	0xbd6ecfec	-0.05830376
127	0x3e8c81f6	0.27442902
128	0x3d9539cf	0.07286417
129	0x3e128021	0.1430669
130	0xbd486cab	-0.04893176
131	0x3daa6b2c	0.08321223
132	0x3ef609a6	0.48054236
133	0x3e2e5f4c	0.1702854
134	0xbe129cce	-0.14317629
135	0xbe4dfbef	-0.20115636
136	0xbdd417bf	-0.10356092
137	0xbf160908	-0.5860753
138	0x3ddc7e78	0.107663095
139	0xbd4380f6	-0.04773041
140	0xbf11ec4e	-0.570012
141	0x3ea48ee8	0.3214028
142	0x3d7b885b	0.061409336
143	0x3db35982	0.08757307
144	0xbc782072	-0.015144454
145	0x3d87708b	0.06613263
146	0x3eef935e	0.4679212
147	0x3e1ad5d4	0.15120631
148	0xbe333908	-0.17502224
149	0x3f3205b2	0.6953994
150	0xbaa41703	-0.0012519065
151	0x3f307838	0.6893344
152	0x3f128546	0.5723461
153	0x3f0ad910	0.5423746
154	0xbe8b792e	-0.2724089
155	0xbea29f1b	-0.31762013
156	0x3e8b1174	0.27161753
157	0xbe37b15c	-0.17938751
158	0x3d16c564	0.03680934
159	0x3f0b8c24	0.5451071
160	0x3e941f58	0.28930163
161	0x3e22ea02	0.1590958
162	0xbeb8b68f	-0.3607678
163	0xbe353c63	-0.17698817
164	0x3da2e84a	0.07954462
165	0x3f780c82	0.96894085
166	0xbec66174	-0.38746226
167	0x3e66cca3	0.22539
168	0x3e9d2030	0.3068862
169	0xbe9c9d24	-0.3058864
170	0xbe1df29a	-0.15424576
171	0x3e216b16	0.15763506
172	0xbdc04e0b	-0.093898855
173	0x3eb4b7ff	0.35296628
174	0xbdaaaeca	-0.083341196
175	0xbe670c07	-0.22563182
176	0xbe9f7ae3	-0.31148443
177	0x3d6ac2de	0.057314746
178	0x3e144615	0.14479859
179	0xbe02de23	-0.12780051
180	0xbf0d9d22	-0.5531789
181	0x3e2a1c78	0.16612422
182	0xbf216bc4	-0.6305506
183	0xbcc7717b	-0.024346104
184	0x3d5b3e27	0.05352607
185	0xbe555708	-0.20833981
186	0xbe74430f	-0.23853706
187	0x3c259bbe	0.010107933
188	0xbe9f18c4	-0.31073582
189	0x3e6ec883	0.23318677
190	0xbddeac4e	-0.10872708
191	0xbf1d6959	-0.6148887
192	0xbd400380	-0.046878338
193	0x3eedb532	0.46427304
194	0xbd8fd228	-0.07022506
195	0xbeb96326	-0.36208457
196	0xbeb44d82	-0.35215384
197	0x3ebb40dc	0.3657292
198	0xbe8cb05d	-0.27478305
199	0xbe12ad85	-0.14324005
200	0x3d42c056	0.047546707
201	0xbef8eaec	-0.4861673
202	0x3d6a0034	0.0571291
203	0x3d868e55	0.065701164
204	0x3db5c29e	0.08875011
205	0x3eefe910	0.468575
206	0xbf1b89cd	-0.6075714
207	0x3f34df9f	0.7065372
208	0x3ed8514c	0.42249525
209	0xbcabc220	-0.02096659
210	0xbe848c4e	-0.25888294
211	0xbe160dd2	-0.1465371
212	0x3ed069f7	0.40705845
213	0xbdad921e	-0.08475135
214	0x3daeb3eb	0.085304104
215	0x3c50982e	0.012731595
216	0x3e8c0cc0	0.27353477
217	0xbee2d53a	-0.44303304
218	0x3da4ab46	0.0804048
219	0xbcee0ede	-0.029059824
220	0xbe3e13e0	-0.18562269
221	0xbe0010d4	-0.1250642
222	0xbf3dec08	-0.7418828
223	0xbea6781f	-0.3251352
224	0x3967259b	0.00022043886
225	0x3dfbc1d4	0.12292829
226	0x3f00cc6e	0.50311935
227	0xbce95934	-0.028484918
228	0xbe1b1c6e	-0.15147564
229	0xbf102490	-0.5630579
230	0x3ef54a8c	0.47908437
231	0x3eaa0cdd	0.3321294
232	0xbd520b07	-0.051280048
233	0xbc00928e	-0.007847441
234	0xbe16580d	-0.14682026
235	0x3f23612c	0.6382015
236	0xbd814430	-0.06311834
237	0xbe8c2c24	-0.27377427
238	0xbe53ad6a	-0.20671621
239	0xbec7cd44	-0.39023793
240	0xbee3ae9a	-0.44469148
241	0x3e80fc0c	0.25192297
242	0x3e11e67a	0.14248076
243	0x3e946dea	0.28990108
244	0x3f52d1b7	0.8235125
245	0x3e10967c	0.14119905
246	0x3ed16980	0.40900803
247	0x3c4c3550	0.012463883
248	0xbec95ab3	-0.3932701
249	0x3d9bda0c	0.076099485
250	0xbf142ede	-0.57884014
251	0x3dbbe552	0.09174599
252	0xbdfbde2f	-0.122982375
253	0xbe5fe6be	-0.21865365
254	0xbdc8535e	-0.09781526
255	0x3f07d6ce	0.5306214

network_body._body_endoder.seq_layers.2.bias f4 [128]
0	0x00000000	0.0
1	0x00000000	0.0
2	0x00000000	0.0
3	0x00000000	0.0
4	0x00000000	0.0
5	0x00000000	0.0
6	0x00000000	0.0
7	0x00000000	0.0
8	0x00000000	0.0
9	0x00000000	0.0
10	0x00000000	0.0
11	0x00000000	0.0
12	0x00000000	0.0
13	0x00000000	0.0
14	0x00000000	0.0
15	0x00000000	0.0
16	0x00000000	0.0
17	0x00000000	0.0
18	0x00000000	0.0
19	0x00000000	0.0
20	0x00000000	0.0
21	0x00000000	0.0
22	0x00000000	0.0
23	0x00000000	0.0
24	0x00000000	0.0
25	0x00000000	0.0
26	0x00000000	0.0
27	0x00000000	0.0
28	0x00000000	0.0
29	0x00000000	0.0
30	0x00000000	0.0
31	0x00000000	0.0
32	0x00000000	0.0
33	0x00000000	0.0
34	0x00000000	0.0
35	0x00000000	0.0
36	0x00000000	0.0
37	0x00000000	0.0
38	0x00000000	0.0
39	0x00000000	0.0
40	0x00000000	0.0
41	0x00000000	0.0
42	0x00000000	0.0
43	0x00000000	0.0
44	0x00000000	0.0
45	0x00000000	0.0
46	0x00000000	0.0
47	0x00000000	0.0
48	0x00000000	0.0
49	0x00000000	0.0
50	0x00000000	0.0
51	0x00000000	0.0
52	0x00000000	0.0
53	0x00000000	0.0
54	0x00000000	0.0
55	0x00000000	0.0
56	0x00000000	0.0
57	0x00000000	0.0
58	0x00000000	0.0
59	0x00000000	0.0
60	0x00000000	0.0
61	0x00000000	0.0
62	0x00000000	0.0
63	0x00000000	0.0
64	0x00000000	0.0
65	0x00000000	0.0
66	0x00000000	0.0
67	0x00000000	0.0
68	0x00000000	0.0
69	0x00000000	0.0
70	0x00000000	0.0
71	0x00000000	0.0
72	0x00000000	0.0
73	0x00000000	0.0
74	0x00000000	0.0
75	0x00000000	0.0
76	0x00000000	0.0
77	0x00000000	0.0
78	0x00000000	0.0
79	0x00000000	0.0
80	0x00000000	0.0
81	0x00000000	0.0
82	0x00000000	0.0
83	0x00000000	0.0
84	0x00000000	0.0
85	0x00000000	0.0
86	0x00000000	0.0
87	0x00000000	0.0
88	0x00000000	0.0
89	0x00000000	0.0
90	0x00000000	0.0
91	0x00000000	0.0
92	0x00000000	0.0
93	0x00000000	0.0
94	0x00000000	0.0
95	0x00000000	0.0
96	0x00000000	0.0
97	0x00000000	0.0
98	0x00000000	0.0
99	0x00000000	0.0
100	0x00000000	0.0
101	0x00000000	0.0
102	0x00000000	0.0
103	0x00000000	0.0
104	0x00000000	0.0
105	0x00000000	0.0
106	0x00000000	0.0
107	0x00000000	0.0
108	0x00000000	0.0
109	0x00000000	0.0
110	0x00000000	0.0
111	0x00000000	0.0
112	0x00000000	0.0
113	0x00000000	0.0
114	0x00000000	0.0
115	0x00000000	0.0
116	0x00000000	0.0
117	0x00000000	0.0
118	0x00000000	0.0
119	0x00000000	0.0
120	0x00000000	0.0
121	0x00000000	0.0
122	0x00000000	0.0
123	0x00000000	0.0
124	0x00000000	0.0
125	0x00000000	0.0
126	0x00000000	0.0
127	0x00000000	0.0

network_body._body_endoder.seq_layers.2.weight f4 [128, 128]
0	0x3e59f125	0.21283396
1	0xbd0d554d	-0.034505177
2	0xbdf60c81	-0.12014104
3	0x3d9b5412	0.075843945
4	0xbc54c778	-0.01298701
5	0x3d43a809	0.047767673
6	0xbe04c1a2	-0.1296449
7	0x3cb7c10d	0.022430921
8	0xbdf3a435	-0.118965544
9	0xbc91471f	-0.017734108
10	0xbde9e503	-0.11420634
11	0xbd7b78ab	-0.061394375
12	0xbd55903f	-0.052139517
13	0x3e27d515	0.16389878
14	0xbd75c8d9	-0.060005996
15	0x3cc3ab7d	0.023885483
16	0x3de32616	0.11091249
17	0x3de6107f	0.11233615
18	0x3df0ac50	0.11751616
19	0xbc142372	-0.009041654
20	0x3c862c91	0.016378673
21	0xbe4b20c7	-0.19836722
22	0x3d8a2150	0.06744635
23	0xbd0bf39d	-0.034167875
24	0xbd531cca	-0.051541127
25	0xbdb11448	-0.086464465
26	0xbd0f9334	-0.035052493
27	0xbce9db81	-0.02854705
28	0xbdcb1197	-0.09915464
29	0x3c7a6783	0.015283468
30	0xbce60bcd	-0.028081799
31	0x3d7e5a13	0.06209762
32	0xbd606e4f	-0.0547927
33	0x3bb290b4	0.005449379
34	0x3d51bbd9	0.051204536
35	0xbdbf30aa	-0.09335454
36	0xbc9337dc	-0.017970972
37	0x3ca269f9	0.019825922
38	0x3c6a3d9b	0.014296914
39	0x3d2479a5	0.04015507
40	0x3cc3178f	0.023814945
41	0xbcf4c61d	-0.029879624
42	0x3c9696b6	0.018382411
43	0xbd59d26c	-0.05317919
44	0x3e0f0a59	0.13968791
45	0xbdf0bebc	-0.1175513
46	0x3b474e06	0.0030411496
47	0xbd000a59	-0.03125987
48	0x3d758f99	0.0599514
49	0xbdec1baa	-0.11528714
50	0x3ddc7ae6	0.107656285
51	0xbc5c9486	-0.013463145
52	0xbd5a9fb5	-0.053374965
53	0x3c3e7b14	0.011626024
54	0xbe0ab6a1	-0.1354623
55	0xbe5fbbce	-0.21848986
56	0x3d6460a7	0.055756237
57	0x3c9b26e3	0.018939441
58	0x3d3c2045	0.045929212
59	0xbd01c326	-0.03168025
60	0x3d8eaff1	0.06967152
61	0x3c862c3c	0.016378514
62	0x3d8612cc	0.06546554
63	0x3e1464c4	0.14491564
64	0xbcbcccee	-0.023046937
65	0xbc657bcb	-0.014006565
66	0x3d89a07f	0.06720065
67	0xbb678127	-0.0035324784
68	0xbb214cb2	-0.0024612364
69	0xbd40aa3d	-0.047037352
70	0xbd3ebe65	-0.046568293
71	0x3d9b62d1	0.07587207
72	0x3c3c041e	0.011475591
73	0x3d7e1006	0.062027
74	0xbcb2a31f	-0.021806298
75	0xbd4c3bcd	-0.049861718
76	0x3c9f69c7	0.019459618
77	0x3d450988	0.048104793
78	0xbd4b78e7	-0.04967585
79	0x3db33af6	0.0875148
80	0xbc93a077	-0.018020852
81	0x3dc1b31c	0.094579905
82	0x3d9d99a4	0.0769532
83	0x3d223911	0.039605204
84	0xbd940c01	-0.07228852
85	0xbdbbfdd0	-0.0917927
86	0x3dc2a4f7	0.09504121
87	0xbd878a7f	-0.06618213
88	0x3d96ff6e	0.07372938
89	0x3c01eae0	0.007929534
90	0x3e936cff	0.28794095
91	0xbd9dd870	-0.07707298
92	0x3df3e3c4	0.11908677
93	0x3c18eeaa	0.009334246
94	0xbd9491b9	-0.07254357
95	0x3cf9b015	0.03047947
96	0x3dbb2dc5	0.09139589
97	0x3d198446	0.03747966
98	0xbde70a00	-0.11281204
99	0x3cc28fbf	0.023750184
100	0xbdb60a3f	-0.08888673
101	0xbd9aeb74	-0.0756444
102	0x3b6f911c	0.0036554998
103	0x3b67ab1b	0.003534979
104	0xbdaef6c6	-0.08543162
105	0xbce5a133	-0.028030967
106	0xbc5f9c45	-0.013648097
107	0x3c473b27	0.012160099
108	0xbe3c58b6	-0.18393216
109	0xbdf7d15d	-0.1210048
110	0xbc90acdd	-0.017660553
111	0x3dc1d7f9	0.09465022
112	0x3d03e731	0.032202903
113	0xbda26cb3	-0.07930889
114	0x3d7a616f	0.061128076
115	0xbd535312	-0.051592894
116	0x3e466141	0.19373037
117	0xbd93d6ef	-0.0721873
118	0x3db2e56e	0.087351665
119	0x3e14a453	0.1451581
120	0x3c2f82a9	0.010712304
121	0x3d1a6671	0.037695352
122	0x3d18cb6c	0.037303373
123	0xbd89e5b1	-0.06733263
124	0xbd559d70	-0.052152097
125	0x3d955ec5	0.072934665
126	0x3de8680d	0.11347971
127	0x3c534853	0.012895661
128	0x3bad78be	0.0052939346
129	0xbc263d38	-0.010146432
130	0xbd98fa66	-0.07469635
131	0xbdf00e13	-0.117214344
132	0xbcde69eb	-0.027150115
133	0xbde8b136	-0.11361925
134	0xbde2ca89	-0.11073787
135	0x3c40cc91	0.011767522
136	0x3d01aca1	0.031658772
137	0x3d4c3f9a	0.049865343
138	0x3b8b08b7	0.0042429822
139	0x3e77b806	0.24191293
140	0x3dce84e6	0.10083942
141	0xbcd21374	-0.025644042
142	0xbe43a0f3	-0.19104366
143	0xbd719a33	-0.058984946
144	0xbdbe1dc0	-0.09283018
145	0xbde430b1	-0.111421
146	0xbdb848f6	-0.08998291
147	0x3d70c14c	0.058778092
148	0xbcb3b366	-0.02193613
149	0x3da7a75c	0.08186218
150	0x3dc5ac64	0.096520215
151	0x3d1df1b4	0.038560584
152	0x3ae4e9ca	0.0017464694
153	0xbd83170e	-0.06400882
154	0xbc8fbd37	-0.01754628
155	0x3e0ff601	0.14058687
156	0x3df1b255	0.11801592
157	0xbc770590	-0.01507701
158	0x3d2bc099	0.041931722
159	0xbdb5b851	-0.08873046
160	0xbe0a7e80	-0.13524818
161	0xbe524322	-0.20533422
162	0xbb126db3	-0.0022343218
163	0x3ca2b0f8	0.019859776
164	0x3d7b4d2d	0.061352897
165	0x3dd09850	0.10185301
166	0x3c89126a	0.016732413
167	0x3d2b8ea4	0.04188408
168	0xbd201fab	-0.0390927
169	0xbe4ced23	-0.20012335
170	0xbcf29aac	-0.029614769
171	0xbe46bc52	-0.19407776
172	0x3e80623f	0.25074956
173	0x3b8279dd	0.0039818124
174	0xbd0d1fe5	-0.034454245
175	0x3e825c38	0.25460982
176	0x3e9640c1	0.29346278
177	0x3da2a5c1	0.07941771
178	0xbc5a54a3	-0.013325843
179	0xbcb020ff	-0.021500109
180	0xbd9f08a2	-0.077653185
181	0x3c83fcaf	0.0161117
182	0xbd2fd615	-0.042928774
183	0xbd990538	-0.074716985
184	0xbe376d48	-0.17912781
185	0xbd5e4749	-0.0542672
186	0x3d9c55f1	0.076335795
187	0x3c87c5e8	0.016573861
188	0xbbf3322f	-0.007421754
189	0xbd7c1295	-0.06154116
190	0xbd039454	-0.03212388
191	0xbcd91276	-0.02649806
192	0x3d69302a	0.0569307
193	0x3e356151	0.17712905
194	0xbd829cac	-0.06377539
195	0xbd7894ad	-0.060688663
196	0x3c97a7be	0.018512603
197	0x3d2a7298	0.04161319
198	0xbcf776d4	-0.030208029
199	0xbda51aee	-0.08061777
200	0x3de3ed6c	0.11129269
201	0xbc0b13d1	-0.008488611
202	0x3de8dcf1	0.11370266
203	0xbdd82915	-0.10554711
204	0xbc0006fb	-0.007814164
205	0xbd21e99b	-0.039529424
206	0x3e3837f6	0.17990097
207	0x3e1d99bb	0.15390675
208	0xbc880c86	-0.016607534
209	0x3cca45d8	0.024691507
210	0x3e1bd50d	0.15217991
211	0x3e30a1ec	0.17249268
212	0xbd28c154	-0.041199997
213	0x3dbc27a6	0.0918725
214	0xbe142176	-0.1446589
215	0xbd912cb2	-0.07088603
216	0x3dcf8c43	0.10134175
217	0x3db71768	0.08940011
218	0xbd184af0	-0.03718084
219	0xbd2a2dac	-0.041547462
220	0x3c3535fa	0.011060232
221	0x3d0cbbb3	0.03435869
222	0x3c06eeae	0.008235617
223	0xbe04860a	-0.12941757
224	0x3d87a508	0.06623274
225	0xbe18cbbd	-0.1492147
226	0x3c5fd6a1	0.013662011
227	0x3e060e46	0.13091382
228	0xbc870187	-0.01648022
229	0xbd1b8024	-0.037964
230	0x3c9e0d09	0.019293325
231	0xbd1cb2b3	-0.03825636
232	0xbd3a7a1d	-0.045526613
233	0x3d83a114	0.064272076
234	0x3ccdae60	0.025107563
235	0xbe556c81	-0.20842172
236	0x3c9c3ec7	0.019072903
237	0xbcdd95f2	-0.027049039
238	0xbdefa8b6	-0.11702101
239	0x3d11082e	0.03540819
240	0x3c4a0d67	0.012332297
241	0xbd3eb51c	-0.046559438
242	0x3e3650b0	0.17804217
243	0x3db54c02	0.08852388
244	0x3dace8cc	0.0844284
245	0x3daafc23	0.083488725
246	0x3d93fb46	0.07225661
247	0xbdf2d794	-0.118575245
248	0xbe099e05	-0.13439186
249	0xbd1a5136	-0.037675105
250	0xbcc7fa51	-0.024411352
251	0x3d215523	0.039387833
252	0xbe23b4f0	-0.15986991
253	0xbd6fed63	-0.058576
254	0x3d6969b8	0.056985587
255	0x3de346fe	0.11097525
