results/PreyTest1/PreyBrain/PreyBrain-499942.pt (torch, 447775 bytes, 36 tensors)

network_body._body_endoder.seq_layers.0.weight f4 [128, 9]
00000000: 4cd4 d33d 96b4 103f f2b5 babe f215 2dbe
00000010: 3f41 13bf c7ba 253e 57c5 833e 931f 05be
00000020: fb0d 1cbd d32e 0e3f 62a3 12be cec8 083e
00000030: 8a0c b43e b418 2e3f 04a9 673f 202d 823e
00000040: e596 143e 7d4d d2be 9e04 7c3e 0eed 2bbd
00000050: b484 6d3d 08c7 5ebe f41f b0be 64ba 69be
00000060: 40f7 47bd 8a72 9bbe 3b6d 01bd f943 713e
00000070: 9441 9dbe 7648 06bf 43a8 5d3c c6c8 e93e
00000080: 9d83 293f 3ab4 7a3e ae4e cabd 2ad7 ad3d
00000090: 55db 983d 4af6 3abe e55d 3e3e 6a61 fdbe
000000a0: e860 093f cc9b 7f3e c4b4 47bf 5ffc babe
000000b0: 24a4 e5bd 9a44 6ebe ef08 00bf 043b a93e
000000c0: 78a5 923f a225 303f d325 41be f5f0 81be
000000d0: 67da e33e cef8 5bbd 0d2d 153e 57b4 6d3c
000000e0: 276f b73e dc79 6b3e 4ef1 cd3d af56 863e
000000f0: 2f2a 03bf 7746 133f 42d3 edbc 4769 af3d
00000100: b4ea cabc e404 efbd 80f3 b9be fc37 f63e
00000110: f76a b53e 1106 45be f29d 9b3e 7fc9 e23c
00000120: 5117 883e f793 dd3d d578 b03e c88c 69be
00000130: 5ce0 b7bd 7b1d ad3e 8500 93bd 5f4c e03d
00000140: b15e 9cbe 3579 2e3e aa7a 3b3e eb6f 64be
00000150: ac49 f3be 825b 853e 99ce 81be b7d8 acbd
00000160: ff25 193e 5949 fe3e 0b6f 6fbe dd6b 1dbf
00000170: c56b 31be e6da 9b3c 7469 1f3f 340e 14bc
00000180: 6fa6 283c c220 593d c587 233d 343b 4cbd
00000190: c298 f539 5477 89bd 8211 45be 5faa 1cbf
000001a0: 519c 2b3f e615 3e3f cde8 753e 7d9b 17be
000001b0: 0390 f5bd 759d 01be 6fa8 063f dca2 2b3f
000001c0: f2f5 48be bb2c 15bf 153d 43be 0fea 7c3e
000001d0: 7c8b 14bf 38f0 0dbe 05d7 c0bd 9be9 e83e
000001e0: ecf6 283e 3271 063f 366d 713e ee05 05bf
000001f0: 8114 b43d a828 f1be 8f9f a13e e74a 60be
00000200: 7e24 4f3e 20f2 493e 895c 29be ddae 3b3e
00000210: 1e7c 42be c601 0a3f 3fd3 0bbf 1693 a3be
00000220: 8a8a 57be f61f 183e 79e2 5dbe ba6c babe
00000230: 3a82 1a3e 715b 4abe 5950 9c3e b493 8cbe
00000240: 175d 81be 5304 5bbe 0f21 9ebe 4213 7fbe
00000250: 45b0 91be de4d 1ebf 6cb9 a5be 3634 bd3d
00000260: c275 c5be fc1b cfbd afa3 043f dddf 86be
00000270: bd5d bbbd 4581 7cbe 991f 323f 303a 82bd
00000280: efd9 d2be 8964 a43e ae6e 0f3e bf5e 0fbe
00000290: eb50 633d 2698 55bd 90ba 563e 893f 7d3e
000002a0: 2c3a f03d bdde 443e b48f fcbe e042 afbe
000002b0: a8e0 c13d 40f5 26bf ac0a 0bbf 33cb 453d
000002c0: 7cd3 3bbe d7fa bd3d fa99 043e e649 f23a
000002d0: 4daf adbc 09f6 03bf 6f16 613f bf72 6f3d
000002e0: 5ebd d23e fc6d 6abc 4141 f23a fe94 a33d
000002f0: 134a 0d3f 3d2f 80be 911e 2c3d e07e 5fbe
00000300: 8e53 ef3d dda7 063e de83 c43d d44f 8fbd
00000310: 1435 d9bd 8886 c73e 1f45 e6bd 0b53 abbe
00000320: 6c75 d0bd 8d69 e8bd 1e7f 833e 54f5 edbe
00000330: 8ee7 eb3e a120 06bf 629c 043c 33be e2be
00000340: 4d31 24be 89d3 9cbe a61f ad3e eaa2 6bbe
00000350: d863 81bd bd8d fa3d 89b1 42be e00f ca3e
00000360: 764e 92be 7cdf f43d 8bec c13e bb06 adbd
00000370: 2bf7 b63e 6e6b edbd b30e ad3e 4ae1 babe
00000380: acaf dabe 0e62 b7be 1423 1ebf e346 563d
00000390: 8e9b 2fbd 1d63 633e a806 613f 6575 c83e
000003a0: db7e c43e 7d79 d2be 9082 12be 42b1 8f3e
000003b0: 950e 1d3f 0f11 fabd ae74 923e 0c80 303f
000003c0: d261 d53e eb18 883d b991 1dbf c1cc f23e
000003d0: 7e0a 54be ab47 883e 88c4 8fbe 5340 693e
000003e0: 21fb bb3e b5ff 42be 0b5d 003e b6d4 913e
000003f0: 7050 adbd 3a68 b93c c2ec 06be 0af0 39bf
0.10343227 0.5652555 -0.36466938 -0.16902903 -0.5752143 0.16184531 0.25736496 -0.13000326
-0.03809927 0.555402 -0.14320138 0.13357851 0.35165817 0.68006444 0.9049227 0.25425053
0.14510687 -0.41074744 0.24611136 -0.04197412 0.057987884 -0.21755612 -0.34399378 -0.22825009
-0.04881978 -0.30360824 -0.03159831 0.23561086 -0.30714095 -0.52454317 0.013528886 0.4566099
0.6621645 0.24482813 -0.09878288 0.08488305 0.07463709 -0.18258014 0.18590505 -0.49488384
0.5366349 0.24961776 -0.780102 -0.3652067 -0.11212948 -0.23268357 -0.5001363 0.33052838
1.1456747 0.68807423 -0.18862085 -0.25379148 0.44502565 -0.053704076 0.14567967 0.014508328
0.3582699 0.22995704 0.10055791 0.2623801 -0.5123624 0.57529396 -0.0290314 0.08565002
-0.024770118 -0.11670855 -0.36318588 0.48089588 0.3543317 -0.19240595 0.3039394 0.027683971
0.2658029 0.10819238 0.34467188 -0.2280761 -0.0897834 0.33811554 -0.071778335 0.10952067
-0.30540994 0.17038424 0.18308511 -0.22308318 -0.47517145 0.26046377 -0.25352934 -0.084397726
0.149559 0.49665335 -0.23382203 -0.6149271 -0.17326267 0.019025277 0.62270284 -0.009036589
0.010293587 0.053009756 0.0399244 -0.049861148 0.00046843855 -0.06712213 -0.1924496 -0.61197466
0.67035395 0.74252164 0.24014588 -0.14805408 -0.11990359 -0.12657721 0.5260076 0.6704538
-0.1962507 -0.5827138 -0.1906627 0.24698661 -0.58025336 -0.13861167 -0.09416012 0.45490727
0.16500443 0.5251647 0.23576817 -0.51962173 0.08792973 -0.4710133 0.31567046 -0.21903573
0.20228764 0.1972127 -0.16539206 0.18328424 -0.1899266 0.53908956 -0.5461921 -0.31948155
-0.21048942 0.14855942 -0.21668424 -0.36411077 0.1508874 -0.19761445 0.3053005 -0.2745644
-0.25266334 -0.21388368 -0.30884597 -0.2490969 -0.28454795 -0.61837566 -0.32368028 0.09238474
-0.38566405 -0.101127595 0.5181226 -0.2634267 -0.091487385 -0.24658687 0.69579464 -0.06358755
-0.41181895 0.32107952 0.14007065 -0.14000987 0.05549709 -0.052147053 0.20969605 0.24731268
0.117298454 0.19225593 -0.49328387 -0.3423071 0.09466678 -0.6521797 -0.5431316 0.04828949
-0.18342394 0.092763595 0.12949362 0.0018485158 -0.021201754 -0.51547295 0.87924856 0.05845904
0.411601 -0.014308449 0.0018482582 0.079874024 0.55191153 -0.2503604 0.042021338 -0.21825743
0.11685859 0.13149972 0.09595464 -0.06997648 -0.10605827 0.38969827 -0.112436526 -0.33461794
-0.101786464 -0.11348257 0.2568292 -0.46476233 0.460751 -0.5239354 0.008093925 -0.44285735
-0.16034432 -0.3063014 0.33813208 -0.23011366 -0.06317872 0.12234066 -0.19013037 0.39465237
-0.28575486 0.11956689 0.3787578 -0.08448549 0.3573545 -0.11592756 0.33800277 -0.36500007
-0.42712152 -0.35816997 -0.61772275 0.052313697 -0.042872958 0.22205777 0.8790078 0.39152065
0.38378033 -0.41108313 -0.14307618 0.28064924 0.61350375 -0.12210285 0.28604645 0.68945384
0.41676193 0.06645378 -0.6155048 0.4742184 -0.20707127 0.26617178 -0.2807963 0.22778444
0.36715034 -0.19042857 0.12535493 0.28482598 -0.08462608 0.022632707 -0.13176253 -0.72631896

network_body._body_endoder.seq_layers.0.bias f4 [128]
00000000: 2322 593c b692 cb3b 0289 0439 4f4e 803b
00000010: 5772 2abb f685 81bb b88b 773b 6bca f23b
00000020: 21ff 093c d598 413c 0e7c c6bb 8370 8ebc
00000030: b381 0a3b a424 ce3a 9152 a63b 4bea a9bb
00000040: 136d 9eba ac52 a53b a05d 393c 3441 ca3c
00000050: d7f4 513c c37e 9b3c f262 1fbc d201 f7ba
00000060: 5320 6b3c 8c8c 2dbc e0d7 903c 6163 c73b
00000070: 3a6a 31bc 0a3d e53b 6242 f6bb ca4c 98bc
00000080: 9af9 f43a eb47 a13b 91da d23b 0053 003c
00000090: 1083 03bc 0992 22bb c3e2 f439 22be b73b
000000a0: 0882 05bc ed90 3abc c596 f8bc 7a13 3a3c
000000b0: 94a1 063d 1f22 1abb b903 ef3b f96f 72bc
000000c0: 1ac3 cb3b aeb4 283c 84f9 4abb 709f 2abc
000000d0: 2c8a 49ba 0661 443b ae96 833c acb1 f63b
000000e0: 2aca c93b eb50 91bb c81f a43c 6f70 8cbc
000000f0: 4e89 41bb aea9 86bc 621f f63b 0523 063c
00000100: 0ae5 b1ba 34df 7c3b fe12 593b 0017 6fbb
00000110: 40cd 043a 6d25 f93b 58a9 aabb 4579 7dba
00000120: f533 353a 9670 38ba 9123 1bbc 7834 0d3c
00000130: 2fa7 1a3b 4f56 6ebc 6beb b2bc 6bd7 fd3b
00000140: 9d0b b63a f976 76bb b74a b03b 615a dcb9
00000150: 4c11 aabb dffe d93b 0e4d b4bb 0f53 6239
00000160: 0c5d d8bb 6769 933c 4f51 d1bb 8064 33bc
00000170: 01a5 263d 30f5 a0bb 644b 763c bc13 643c
00000180: abaa ae3c 2c91 013c f1c7 f0bc 4673 f53b
00000190: fab9 f0bb 383b 41bb 9ecd 003b 5aa6 b83b
000001a0: f44d 88bb de53 dd3b 8e11 0c3d 4a27 4cbc
000001b0: 6bff 383c aa67 a1bb a4f6 ca3b cdce 353c
000001c0: d237 4839 c186 f03b 20c7 52bb 662f 113b
000001d0: 31ec 9b3c dc28 8fbc d3c3 c93a 4176 4e3a
000001e0: d865 bcbb 5811 3e3a fc6d 493b 73c8 c2ba
000001f0: 6954 883c 9936 1b3d 8fa5 0e3c d37f 52bb
0.013252768 0.0062125577 0.0001263954 0.003915585 -0.0026008093 -0.003952737 0.0037772488 0.007409384
0.008422644 0.011816223 -0.006057269 -0.017387634 0.0021134436 0.0015727472 0.0050757607 -0.0051854006
-0.001208695 0.0050452556 0.011313826 0.024689294 0.012814722 0.018981343 -0.00972818 -0.0018845147
0.014350968 -0.010592591 0.017681062 0.006084845 -0.010828549 0.006995802 -0.0075152377 -0.018591303
0.001869011 0.0049219034 0.0064347466 0.007832289 -0.008026853 -0.0024806282 0.00046708257 0.0056073824
-0.008148678 -0.011387092 -0.03034533 0.011357183 0.032868937 -0.0023518873 0.007294145 -0.014797204
0.0062183263 0.010296984 -0.0030971477 -0.010413989 -0.0007688131 0.0029965057 0.01606306 0.0075285044
0.006158133 -0.004434695 0.020034686 -0.017143456 -0.0029531303 -0.016438331 0.0075110653 0.00818706
-0.0013572287 0.0038585188 0.0033122892 -0.0036482215 0.0005065985 0.0076033385 -0.0052081756 -0.00096692547
0.0006912344 -0.00070358196 -0.009468929 0.008618467 0.0023598184 -0.014546945 -0.021840772 0.007746627
0.0013888959 -0.0037607534 0.0053800005 -0.00042029007 -0.00519005 0.0066526975 -0.0055023497 0.00021583981
-0.006602889 0.017994596 -0.0063878666 -0.010949254 0.040684704 -0.004912041 0.015032623 0.013920721
0.021321615 0.007908147 -0.029392214 0.0074905483 -0.007346389 -0.002948476 0.0019653807 0.005635065
-0.0041596834 0.0067543825 0.03419643 -0.012460539 0.011291365 -0.004925688 0.0061939526 0.011096668
0.00019094281 0.0073402827 -0.0032162145 0.0022153496 0.019033523 -0.017475538 0.0015393443 0.00078758976
-0.0057494454 0.0007250509 0.0030735722 -0.0014860764 0.016641812 0.037893865 0.008706464 -0.0032119646

network_body._body_endoder.seq_layers.2.weight f4 [128, 128]
00000000: 9a53 80bc b884 623e f686 93bd ac4c 1b3e
00000010: 23fd eabd 8132 0abe 389e bebd 84da 80bc
00000020: 5e68 84bd 1c6d 953c ba5e 91bd 90d2 643d
00000030: 69b4 59bd 5416 02be 3a7e f73b 7aa6 28bd
00000040: 1bcf e03d 7b51 adbd d813 0a3e a3e2 9fbd
00000050: 0cdd e93c c4e3 b83d 85cd aabd 6a79 223d
00000060: 6811 7e3d f383 65bd 8a1a 97bb bf2f 80bd
00000070: 7e51 1abe 3ac2 063d 2cfe 13be 3aa2 0e3d
00000080: bbf7 06be f387 c93d 40b0 023d 222d c8bb
00000090: 6942 d73d 2dcb 0dbe a4fd c93c cd0a 753d
000000a0: 4c4b b33c d8d0 f6bd 6698 87bd e9c7 bfbd
000000b0: 0262 79bd 6093 7a3d 4eab 3fbd 3ea3 79bd
000000c0: 48cd adbc 795a 873d a5fa c1bc f3a5 89bd
000000d0: 9e69 873c 58a4 243d 1811 143e 4801 d53d
000000e0: 38bb eebc 7c0f b93c 915c 9cbd f780 a93d
000000f0: b2df 4dbc 22dd 09bb 5cb5 c13c 883d 053e
00000100: cafc 643c 71fa aabc d2cd 07bd a72d 983d
00000110: e15e d93d 8b5f 84bc da5c 19bd d5b7 02be
00000120: c7b1 debb 46e6 403c 86a4 41bd c71e 123d
00000130: 7554 80bd 436d 5bbd f505 873d 9e98 383e
00000140: 6e08 e6bc b185 85bd fc01 27bd d518 c4bc
00000150: 064d 993c c670 11bd 772b 9dbd 2738 c73d
00000160: 0bb4 03bd 354d ad3c ac89 9a3d aa93 0f3e
00000170: e75e b63c 0215 a53d 6837 123e fe75 23be
00000180: f97b 013d 5af4 c53d e310 07bd d685 72bd
00000190: a71a 2c3c 551b c63d 0526 bdbc ddcf d3bb
000001a0: abdf a83c a069 a4bd a612 3f3d c37c a33c
000001b0: e7ee 883d c45b 1bbd 566f ca3c b405 093e
000001c0: 9eac 313d b9c0 133c efe5 bc3c baa3 3d3c
000001d0: 4f07 9a3b 5f61 8c3d 0b36 57bd 3c80 da3c
000001e0: ff5e 303c afcf b13c b980 12bd ac81 92bb
000001f0: b3a1 28be f17f dbbd 1ad2 f73d e8b0 c0bd
00000200: 24bd aebc 2674 223e ee28 273c 9d48 563e
00000210: 7dc8 74bd 9e6b 2d3c 3f0c dcba 09ab ba3d
00000220: 9a6c 243e 11ee aa3d ff0f 25bb 0a27 b1bd
00000230: e89e 2f3b 3227 2e3c 21ef fdbd 789d 55be
00000240: bf8d 9bbd cce4 67be 4030 533d 97ad eb3d
00000250: 358e bb3d 5036 2abe 9b4c 303c 614e 4ebd
00000260: 8852 683e 69e0 9e3c 3107 183d d1ce a73b
00000270: 3f5c 843e 92d1 173c 3bd2 163d 2dc7 acbd
00000280: a34f f53b bb97 133d 8c5b 923b b365 96bd
00000290: 16c0 653c fcbf c4bd bbd9 bd3d f5cc 5b3c
000002a0: 6467 a5bd 6f35 01be ef25 a73a e435 633d
000002b0: 3ca9 543d 7b6a 56bc 7d55 8dbb 49f0 22bd
000002c0: 9744 353c 7fb4 673d 9aa8 8abd 6bb9 d13d
000002d0: 6d21 e0bb b5f2 133d eeee 013c 2f91 d7bd
000002e0: f649 50bc fb5f ba3d f5f0 3b3e 0892 023e
000002f0: e0e0 213c f65c 83bd 090a 843c bcfe f1bc
00000300: f199 07bd f8b5 d63d 7a39 02bd 8e79 07bb
00000310: 1f2d 84bd f349 c93d 1999 24bc c24b 883c
00000320: fa4f 7ebd a7d0 85bc 8b41 5f3d 7ee5 43bd
00000330: b84e 703c 8bcb 723d edac 49be f860 973c
00000340: 6c83 513d 6d8d 9a3b 968f a63d 9065 6a3d
00000350: 1204 63be fb42 f93c bded ae3d 5256 a1bd
00000360: 019f 843d bd0c 0f3c 2f8c e93d b101 28bd
00000370: a928 17be 9ae4 8bbd 3ec2 04bc 66ce 183e
00000380: af36 023e 033c a53d f53a 11be 2e3c 7bbd
00000390: 5cf9 933c d6a6 8dbc 14d3 98bd ca8d 213d
000003a0: 02f3 00bd 1024 bfbc 401c eebc ea9b 94bd
000003b0: d3c4 703d 334e 8dbc 454b 10bd 0ed5 40ba
000003c0: 93f2 363d 4df1 973b 1be3 85bc ede6 10be
000003d0: 6bbb 543d 907d 1abe 5125 663d 9cfa f93d
000003e0: ed88 3cbd dcf8 24bd 1b2f 03be 62e3 603c
000003f0: 311e 77bc bb87 d93d cf6c 65bc cdb5 0f3d
-0.015664864 0.2212094 -0.07203476 0.15165967 -0.11474063 -0.13495828 -0.093075216 -0.015729196
-0.06465219 0.018240504 -0.07098146 0.05586487 -0.05315057 -0.1270383 0.007552889 -0.04117439
0.10977002 -0.08462807 0.13484132 -0.078068994 0.028547786 0.09027818 -0.08339981 0.03966657
0.06202832 -0.05603404 -0.004611318 -0.06259107 -0.1507015 0.032900073 -0.14452428 0.03482268
-0.13180439 0.098403834 0.031906366 -0.006108896 0.105107136 -0.13847037 0.024657078 0.059824754
0.02188649 -0.120515525 -0.066208646 -0.09364302 -0.060884483 0.061175704 -0.04679423 -0.060946696
-0.02121605 0.06609053 -0.023679087 -0.067211054 0.016529854 0.040195793 0.14459646 0.10400635
-0.029142007 0.022590391 -0.07634843 0.08276551 -0.01256554 -0.0021036346 0.02364605 0.13011754
0.013976285 -0.020871373 -0.03315527 0.074305825 0.106138 -0.01615884 -0.037442066 -0.12765439
-0.006796095 0.0117736515 -0.047276042 0.035673883 -0.06266109 -0.053570997 0.06592933 0.18026969
-0.028080191 -0.0651964 -0.040773377 -0.023937622 0.018713485 -0.03550794 -0.07674306 0.09727507
-0.032154124 0.02115498 0.0754579 0.14021173 0.02226205 0.080606475 0.14278948 -0.15962979
0.03161237 0.09665747 -0.03297509 -0.059209667 0.010504401 0.09673182 -0.023089418 -0.006463988
0.020614466 -0.08027959 0.046648644 0.019956952 0.06686192 -0.03792931 0.024711292 0.13381082
0.04337751 0.009018117 0.02305886 0.01157468 0.0047005783 0.068545096 -0.052541774 0.026672475
0.010764836 0.021705477 -0.03576729 -0.0044710245 -0.16467933 -0.10717762 0.121006206 -0.09408742
-0.021330424 0.1586462 0.0102026295 0.20926137 -0.059761513 0.01058474 -0.0016788318 0.091146536
0.16057053 0.08346189 -0.0025186536 -0.08650024 0.0026797596 0.010629462 -0.12399126 -0.20860851
-0.07595395 -0.22645873 0.051559687 0.11507719 0.09157983 -0.16622281 0.010760452 -0.050367717
0.22687733 0.019394116 0.037116233 0.00512109 0.25851628 0.009266274 0.036821585 -0.08436427
0.0074863 0.036033373 0.0044664796 -0.07343616 0.014022848 -0.096069306 0.092700444 0.013415565
-0.08076361 -0.1261804 0.0012752394 0.055471316 0.051919207 -0.01308691 -0.0043131695 -0.039779935
0.011063716 0.05656862 -0.067704394 0.10240444 -0.006839922 0.036120135 0.0079305 -0.105257384
-0.012712946 0.09100338 0.18353637 0.12751019 0.0098802745 -0.06414215 0.016118066 -0.029540412
-0.033105794 0.104839265 -0.031793095 -0.0020671817 -0.06453919 0.09828558 -0.010046267 0.016637687
-0.06208799 -0.016334845 0.054505866 -0.047826283 0.0146672055 0.059276145 -0.19694872 0.018478855
0.051150724 0.0047165663 0.081328556 0.057225764 -0.22169521 0.030427447 0.08541439 -0.078777924
0.0647564 0.008731064 0.11403691 -0.041017238 -0.14761604 -0.06830712 -0.008102952 0.14922485
0.12716173 0.08068087 -0.14182647 -0.06133669 0.01806324 -0.017291468 -0.07462135 0.03944186
-0.03148175 -0.023332626 -0.029066205 -0.07256301 0.058781456 -0.017249202 -0.035228033 -0.00073559664
0.04466493 0.0046369196 -0.016343644 -0.14150591 0.05193655 -0.15086961 0.05618793 0.12206003
-0.04602902 -0.040276393 -0.12810938 0.013726087 -0.015082882 0.10621592 -0.014002993 0.035085488

network_body._body_endoder.seq_layers.2.bias f4 [128]
00000000: 5c9b ab3b 7f7c b53c 7492 6ebb 5cc1 f03a
00000010: 01e7 88bb 8d9b 2aba ee12 41bc 6f98 4fbb
00000020: 4f2e 8a3c 0e2d 7dbb 3453 673a fadf 233b
00000030: c62b 6d3b 43b2 85bb 3f14 6ebb f535 86bb
00000040: 32e0 a5bb 969c 053b 99ed 213c 3608 6e3b
00000050: c5f7 ad3b 39db e4bb d6ac ab3b 79b2 6d3c
00000060: d4ca 0e3c 4f5e 5dba b2ff d43c 5b0c 653c
00000070: d77a 0b3c b2b1 eebc ee79 37bb c15f 7bbc
00000080: a7fc 86bb 2996 45bb 4c3d fa3b 62e2 323b
00000090: f90c 0e39 a084 973c 56be bdb9 0e70 b6bb
000000a0: 179d 173b 6165 7abb 8809 dbba 86f5 83bc
000000b0: 8315 82bc d7d4 f5ba 824a 06bb da17 e7bb
000000c0: b81a 263a ba42 3e3b 6970 0abc 32eb b5bb
000000d0: 4950 0cbc f541 ed3b 6424 9dba 4465 133c
000000e0: d98d c6bc b0d5 25bc ad8a 043c 66a6 953b
000000f0: 34d2 c6bb 1851 dd3c b941 263b 5f12 47ba
00000100: fd51 8dbc 403e 893c c9fc 693b b760 c23b
00000110: fa63 1f3c 37b6 4bbc 7ab0 2bbc de0f 803c
00000120: 3610 313b 4dcc 9cb9 17f1 2abb fe3d 8bbb
00000130: 12e4 a9bb c4ae 8e3b b5bb b6bb 05f8 883c
00000140: 3442 85bb d72b d03a 5964 b4bb 07ec a53c
00000150: 2ad8 cfbb 02b4 40bb 055c 1f35 a175 183b
00000160: a14c 62bb a45b 15bb 5da6 613b c1fd 92ba
00000170: c683 013d dfab ccbb 2396 cf3b 68b4 4dbc
00000180: 1c22 ca3b 0b55 d43b fa3b 4b3c 6c39 caba
00000190: 12cb d9ba 063e 6c3b f451 36bb 66d1 83bb
000001a0: e3c3 c13c c05f b23b f4bd c2bc d175 9fbc
000001b0: ca40 4d3c c377 863b 92e2 1c3b a68b 28bc
000001c0: 7b37 50bc e554 ab3b f187 67bc 6bbd 213b
000001d0: 1a46 b5bb f4ca 68bc bbfb e73a 6793 0bbc
000001e0: b144 f3ba a0f8 333b 37e0 623b 8fff 7ebc
000001f0: 56ef 823b 2252 a43b 1b7a aa3b e060 82bb
0.005237026 0.02215409 -0.003640321 0.0018368172 -0.0041779284 -0.0006508164 -0.011784298 -0.003167655
0.016867785 -0.003863159 0.0008824349 0.0025005327 0.003618942 -0.0040800883 -0.0036327986 -0.0040957876
-0.0050621266 0.0020387522 0.009883308 0.0036320812 0.0053090774 -0.006984141 0.0052391095 0.014507883
0.00871535 -0.0008444534 0.026000831 0.013979997 0.008513174 -0.029137466 -0.002799626 -0.015342654
-0.004119474 -0.0030149317 0.0076367017 0.002729558 0.00013547008 0.018495858 -0.000361907 -0.005567557
0.0023134404 -0.00382074 -0.0016711215 -0.016108286 -0.015879398 -0.0018755448 -0.0020491187 -0.007052404
0.0006336379 0.0029031471 -0.008449652 -0.005551719 -0.008564063 0.0072405287 -0.0011988995 0.008996312
-0.02423756 -0.010121748 0.0080897035 0.0045669554 -0.0060675386 0.027016208 0.0025368764 -0.0007593985
-0.01725101 0.016753316 0.003570365 0.0059319395 0.009728426 -0.01243358 -0.010479087 0.015632566
0.002701772 -0.00029906855 -0.0026083642 -0.0042493334 -0.005184659 0.00435433 -0.0055765756 0.016719827
-0.00406673 0.0015882206 -0.0055051264 0.020254148 -0.0063429074 -0.0029404168 5.936602e-07 0.0023263472
-0.0034530538 -0.0022790218 0.0034431436 -0.001121454 0.03161981 -0.0062460746 0.0063350364 -0.012555219
0.006168617 0.0064798645 0.012404436 -0.001542849 -0.0016616306 0.003604771 -0.0027819844 -0.004022765
0.023652976 0.005443543 -0.023772217 -0.019465359 0.012527654 0.004103632 0.0023938757 -0.010287201
-0.01270854 0.005228626 -0.014131532 0.0024679552 -0.0055320384 -0.014208544 0.0017698923 -0.00851903
-0.00185599 0.0027461424 0.0034618506 -0.01556386 0.003995816 0.005014674 0.0052025444 -0.0039788336

action_model._continuous_distribution.log_sigma f4 [1, 2]
00000000: 3d24 83bc 2830 bcbc
-0.01600849 -0.022972181

action_model._continuous_distribution.mu.weight f4 [2, 128]
00000000: b8a6 09bd e8dc f2bb f39f 413c 485d 203c
00000010: 6b07 ba3b 1a46 e03c 933b 403b 9fbb cc3c
00000020: f09c dfbc 1e17 b73b 3a60 2a3c fc2a 08bc
00000030: e35b 45bd 64e4 2b3a 404f 0ebd 8d6a 16bb
00000040: 3b53 bb3c 5e49 d63c 7e04 0ebd 3fca 00bc
00000050: 12a4 11bc 961c 1c3c 99d8 07bd 949a babc
00000060: a57a ff3b e4cd 09bc 1c2e f4bc e983 333c
00000070: 7f13 6cbc afad 483c b242 333c 6bd8 6e3b
00000080: 7376 1ebc ab21 773c b420 9dbc 43c6 703c
00000090: 2fdb 7c3c 2091 a2bc a648 bb3b 497f 143b
000000a0: ad43 1abd 2b38 95bc c36b 3b3b 25b6 7abb
000000b0: 6c01 1dba 6339 b73c 27e9 303b 7da2 c93c
000000c0: f426 a73c 9eb8 cf3c 354f 323c 7b64 bc3b
000000d0: 9a78 163d 69e4 fcbc 6254 a3bc 9a2e 97ba
000000e0: e0aa 37bc e544 0e3b ef94 cc3c 8095 d1bc
000000f0: 9e9a 07bc 87f1 01bd ea94 583c 816d 2b3c
00000100: 1bef 7e3c cbcf 993c 5b40 b23a 861d 5cbc
00000110: 803f edbc a4cd 9e3c 46ec 3abc cf0d d3bc
00000120: 4bcf 0fbd 76a6 213c 1915 a7bc 89d0 253c
00000130: 2b61 3a3d 3600 3bbc 09fc 843c 5657 a0bb
00000140: d573 ec3a 032a bdba d268 213c df04 f5bb
00000150: 8162 983b c3d6 ca3c 87c8 ec3b 1c93 39bc
00000160: 17f7 553c 895e 1cbc 2d05 f83b ed5b 5e3d
00000170: 6004 a9bc 6215 b63b 4716 4fbb 9871 593b
00000180: aee9 b5bc 93d4 933b 309d d3bc 1e7c cb38
00000190: 5827 553c 7731 21bc bdcb 403c c829 ef3c
000001a0: 5fc7 e6ba 7d05 dfba 8d3c 32b9 923e 56bb
000001b0: 582a 35bd 2ea4 da3b 2a2d 07bc ae1b b63c
000001c0: 7270 3ebc b35d 42bd a101 7e3b c423 953c
000001d0: c867 913c 6dfa c43a 9958 d23b 4569 313c
000001e0: 2b96 c3b9 cb2c 673b c237 37bc cb1c 27ba
000001f0: c4f2 80bc 198e 2cbd adb2 81bc 4b4b 953c
00000200: 4612 8d3b a331 80bc 9126 4bbb b675 5b3c
00000210: b7b4 dd3c 050b ad3b efda 813c a740 6abc
00000220: 71f7 efbc a1d7 a73b 0299 c1bc 84ad 013d
00000230: 100f c33c 82be e8bb 3904 bcbb 9fa1 9c3c
00000240: d6ed b4bb 20ad 30bc 0c80 903c 8287 0e3d
00000250: 1a91 c2bc 1e2f a0bb f2e1 90ba 08eb 93bc
00000260: 32ff a9bc 864e 1e3c 4937 59bd 7041 0c3d
00000270: e06d a83c 4396 f3ba 0e7a ffbb a51b 4abc
00000280: da5d 5f3c aad7 08bd 2dff e5bc 03a2 c83c
00000290: c903 673d b6a7 52bb 08c4 53bc da2d 33bc
000002a0: 2005 483d 66d4 d53c 7f25 c23c 947a 73bb
000002b0: ed7e 00bd 9899 9dbc ff55 c4bb cc6b d43b
000002c0: bf4c 8abc e9a0 2f3b fa3d 833b 0336 5a3c
000002d0: 6ab4 153c 343e 19bc e223 ad3c abfb f23c
000002e0: 52a5 303c 4a11 673c a953 923c b25a b93b
000002f0: 13d1 163d 9420 20bd 7a14 d5bc cdda 3fbc
00000300: 5538 8cbc 11b1 a03c 20a4 1f3d fb3d 603b
00000310: 5507 82bc ab13 0a3c 2941 ce3c 42f8 3fbd
00000320: 07a8 153d 3d86 a13c 175a 4a3b ccd3 fabb
00000330: b70b ebba d582 9cbc 77ed 403c 9dce f0bc
00000340: 3f73 2e3c 6cfb 193d 0e7c 713c 5b6b 88bc
00000350: 73aa 82bc 8d91 b6bb 7b25 353c 20fc bb3c
00000360: 1ec0 c63a 52cd 60bc 6433 fa3c ad1d 3f3d
00000370: 4502 b7bc e0f9 d4bb cbb1 583c e5b7 d9ba
00000380: 21d7 69bc 1a1d 543d 105b 9dbb fa81 cbbb
00000390: 9b86 74bc 5f6e 013d a449 613c 7f21 26bb
000003a0: 548d 08bd f2f5 fc3c 1969 c8ba d9f9 253c
000003b0: fee6 033d 160e 20bd 8ba6 ac3c 4343 c2bc
000003c0: 6b04 59bc 7719 05bd a661 30ba 7171 0a3d
000003d0: 8253 cf38 463e a5bc 172c a9bc d3e4 bb3b
000003e0: a620 4c3b fd40 1b3d 9110 26bc 22c8 2c3b
000003f0: 13e4 2d3b 8454 c5bc 3f19 73bb df62 503c
-0.03360626 -0.007411588 0.01181792 0.009787865 0.005677154 0.027377177 0.0029332384 0.024991808
-0.027296513 0.0055874726 0.010398919 -0.0083110295 -0.048183333 0.0006557165 -0.034743547 -0.0022951693
0.022866836 0.026158031 -0.034672253 -0.007860719 -0.008889215 0.0095283 -0.033165548 -0.022778787
0.007796603 -0.008410905 -0.029807143 0.010956743 -0.014408945 0.012248441 0.010941194 0.0036444913
-0.009671795 0.015083711 -0.019180633 0.014695707 0.015433117 -0.019844592 0.0057154475 0.0022658876
-0.037662197 -0.01821526 0.0028598167 -0.003825554 -0.00059892866 0.022366231 0.0026994438 0.024613613
0.020404316 0.025356587 0.010883142 0.005749283 0.03673611 -0.030870633 -0.019937698 -0.0011534274
-0.011210173 0.0021708545 0.02497336 -0.025583982 -0.00827661 -0.03172448 0.013219098 0.0104631195
0.015559937 0.018775841 0.0013599502 -0.013434773 -0.028960943 0.019385166 -0.011408871 -0.02576342
-0.0351098 0.009866348 -0.020395802 0.010120519 0.045502823 -0.0114136245 0.016233461 -0.0048932238
0.0018039892 -0.0014432076 0.009851651 -0.0074773873 0.0046504145 0.02476061 0.007226053 -0.0113265775
0.013059399 -0.009544023 0.0075689764 0.054286886 -0.020631969 0.0055567482 -0.0031598972 0.003317928
-0.022206154 0.004511425 -0.025831789 9.702913e-05 0.013009869 -0.0098384535 0.011767325 0.029194728
-0.0017607025 -0.0017015185 -0.0001699796 -0.0032691103 -0.044229835 0.006672404 -0.008250514 0.022229996
-0.011623489 -0.04745264 0.0038758295 0.018205531 0.017749682 0.0015028246 0.006419253 0.010828321
-0.00037305182 0.0035274501 -0.011182727 -0.0006374835 -0.01574076 -0.042127702 -0.01583227 0.018224379
0.004305157 -0.015648669 -0.003099833 0.013394764 0.02706371 0.0052808546 0.015851466 -0.014297641
-0.029292794 0.0051221405 -0.02363253 0.031659618 0.023810893 -0.0071027884 -0.005737808 0.019120036
-0.0055215163 -0.010783464 0.017639183 0.0347972 -0.02375083 -0.0048884293 -0.0011053665 -0.018056408
-0.02075157 0.009662276 -0.05303124 0.034242094 0.020560205 -0.001858421 -0.0077965325 -0.0123356925
0.013633216 -0.0334088 -0.028075779 0.024491316 0.056400094 -0.003214342 -0.012925155 -0.010936225
0.048833013 0.026102256 0.02369952 -0.003715192 -0.031371046 -0.019238278 -0.005991697 0.006482577
-0.016882299 0.002679879 0.004005191 0.013318541 0.009137252 -0.009353209 0.021135274 0.02966102
0.010781603 0.014103243 0.017862158 0.0056565637 0.036820482 -0.03909357 -0.02601074 -0.011709881
-0.017116705 0.019615682 0.03897488 0.003421663 -0.015872637 0.008427541 0.025177555 -0.046867616
0.036537196 0.01971733 0.0030876452 -0.0076546427 -0.0017932568 -0.019105354 0.011775366 -0.029395396
0.010647594 0.03759329 0.01473905 -0.016652754 -0.015950417 -0.00557155 0.011056299 0.022947371
0.0015163457 -0.013720827 0.030542083 0.04665916 -0.02233995 -0.006499514 0.013225983 -0.0016610591
-0.014272482 0.051785566 -0.0048021153 -0.006210563 -0.014924671 0.0315994 0.013750467 -0.0025349555
-0.033337906 0.030878995 -0.0015290111 0.010130369 0.032202713 -0.039075933 0.021075508 -0.023713714
-0.013245682 -0.03249499 -0.0006728418 0.033799592 9.886084e-05 -0.020171296 -0.020650906 0.005734065
0.003114739 0.037903775 -0.010135786 0.0026364406 0.0026533648 -0.024088152 -0.0037093905 0.012718885

action_model._continuous_distribution.mu.bias f4 [2]
00000000: 4c03 b0bb c838 1abb
-0.005371487 -0.002353238

exp_avg f4 [128, 9]
00000000: 282a d337 a23e 2637 dfec 1db9 4dbc 50b7
00000010: ec5d 7937 ea78 1eb8 cf4d 9939 ec5d 7937
00000020: ae17 d4b9 0244 96b9 fd40 d8b7 01e9 a6b9
00000030: df05 be38 b830 22b8 8eba d8b8 ed10 0f3a
00000040: b830 22b8 e57b 57ba a080 d7b6 c0d3 9034
00000050: b63b 8eb6 0015 59b6 003e d934 f524 54b7
00000060: 965e 08b9 003e d934 5bec 20b9 ce71 87b9
00000070: 0d45 87b8 e110 2db8 cd36 7cb8 8ee7 cab8
00000080: 2591 b2b8 02a9 a1b8 8ee7 cab8 c6e2 a139
00000090: 8430 f138 36df 2b37 c6fe b8b8 7617 19b8
000000a0: 69e7 8037 946e 49b8 1a11 6eb8 69e7 8037
000000b0: 6225 bfb8 0bbe 9e39 aa33 9138 0039 6e39
000000c0: 0d44 f938 81cd d938 ead0 6039 0379 0539
000000d0: 81cd d938 df34 9e39 1147 6537 b076 30b7
000000e0: 4df4 30b9 2065 90b4 fc58 84b7 81cb 07b9
000000f0: 02b5 46b9 fc58 84b7 f802 69b9 028f 2bb9
00000100: c74c 1eb8 e9bf 0cb9 98d2 6c38 2a73 6db8
00000110: dcda ceb8 6a4c 91b9 2a73 6db8 e115 84b8
00000120: 7c38 4fba 2e66 27b9 e846 fab8 8040 3ab6
00000130: 4819 7bb9 4f65 3db9 311a 7fb9 4819 7bb9
00000140: e43a 013a 2539 d0b8 fc81 a1b7 8ecb 5eb8
00000150: 00f4 91b3 0243 f2b7 3098 67b8 0e95 0f39
00000160: 0243 f2b7 9c3a 2ab9 6b40 5938 a60d 9b37
00000170: 78cf afb6 c23d f6b7 7c94 e837 0287 0a38
00000180: 114d 1e39 7c94 e837 be9f 0fb9 0b91 3d38
00000190: 1458 2637 9cf8 9db8 12a8 0db7 2f84 7937
000001a0: 640d 05b7 7ed9 ed38 2f84 7937 99b2 09b9
000001b0: fa35 44b7 f7c4 9c36 eff9 4538 42d9 8cb7
000001c0: 6b27 eb36 8fbe 4438 2656 8738 6b27 eb36
000001d0: 143d 8936 d49b 9d38 b70f 7a37 2c10 1d38
000001e0: b473 29b8 c88b bb37 9ba5 8738 3543 6738
000001f0: c88b bb37 42b5 2238 7ef7 0eba ff19 f2b8
00000200: 168c 02b8 bd37 1e39 8693 35b9 8c97 25b9
00000210: 6744 30ba 8693 35b9 7af0 123a 4e34 ca37
00000220: fcfd 9936 e3a6 0cb7 1343 84b6 00fd e636
00000230: 7942 24b5 1c88 1736 00fd e636 828b 65b7
00000240: f8d4 bfb6 8f6b 5b36 1857 ff37 6a43 91b8
00000250: 9d90 a436 940b 5a38 a0e8 bc38 9d90 a436
00000260: a849 f9b7 80ec 3135 5b5f 1537 b325 8638
00000270: 583a b738 0b0f 6037 fc9b 3438 16e6 2cb8
00000280: 0b0f 6037 a4bd d237 c109 01ba ecf2 deb8
00000290: 5e2b 1fb9 eed6 3039 3436 27b9 97cd 39b9
000002a0: 2c8b 9cb9 3436 27b9 e2ee b839 5ed9 d3b9
000002b0: a5c8 84b8 6573 4539 b081 ae38 f82c c7b8
000002c0: 07a0 ab37 3814 fbb9 f82c c7b8 a001 cd39
000002d0: 4421 f1b9 2c15 7fb8 dbd2 f8b7 8df1 da38
000002e0: e14f bfb8 ec9c 63b8 bf1f 94b9 e14f bfb8
000002f0: 16ba 13b9 109a 1339 88ed ab37 97d4 a637
00000300: e1f6 8e38 26f2 0038 2524 a937 4ce3 a9b8
00000310: 26f2 0038 4f70 d638 18ab 98b9 67a4 51b8
00000320: c267 2a39 1c91 9438 503b 9db8 ca94 1737
00000330: 57e0 cbb9 503b 9db8 4c5d e039 94f9 0937
00000340: c24b 96b5 a020 11b8 89d9 f535 af71 e1b5
00000350: b9fa a4b7 f2a3 0eb7 af71 e1b5 e6eb 96b7
00000360: 7324 8838 f0e1 f336 5216 b2b8 a6d9 80b7
00000370: 70e9 3637 2426 e0b7 187a 3b39 70e9 3637
00000380: d534 84b8 fed1 4a39 a04f 2a38 fa8c b137
00000390: c074 2237 6877 7f38 ab5d 2138 abdd e138
000003a0: 6877 7f38 2f33 21b9 ef46 1db9 5af1 1cb8
000003b0: 2455 7fb8 1c50 28b8 066a 6bb8 6cb4 66b8
000003c0: 7c65 aeb7 066a 6bb8 c105 e638 24a9 efb9
000003d0: 5c66 63b8 f892 64b8 b858 b538 ca8c aab8
000003e0: a77c 9bb7 325f 8538 ca8c aab8 4a22 bcb9
000003f0: 4bac 8837 6acb 3536 a848 9538 41f2 65b7
2.517279e-05 9.908954e-06 -0.00015060928 -1.2441608e-05 1.4863424e-05 -3.7782745e-05 0.00029240406 1.4863424e-05
-0.00040453434 -0.000286609 -2.5779469e-05 -0.0003183559 9.0609996e-05 -3.8669183e-05 -0.00010334431 0.0005457539
-3.8669183e-05 -0.0008220061 -6.4224732e-06 2.6976159e-07 -4.238881e-06 -3.2347743e-06 4.046451e-07 -1.2644789e-05
-0.00013005207 4.046451e-07 -0.00015346838 -0.00025833998 -6.450163e-05 -4.1262134e-05 -6.013252e-05 -9.675241e-05
-8.514737e-05 -7.7085584e-05 -9.675241e-05 0.00030877272 0.00011500812 1.0244365e-05 -8.821259e-05 -3.6499892e-05
1.5366548e-05 -4.802512e-05 -5.675955e-05 1.5366548e-05 -9.114553e-05 0.000302777 6.923762e-05 0.00022718683
0.00011885921 0.000103856444 0.00021440131 0.00012728949 0.000103856444 0.000301755 1.366601e-05 -1.0518052e-05
-0.00016875677 -2.6895668e-07 -1.5777063e-05 -0.00012950414 -0.00018950182 -1.5777063e-05 -0.00022221718 -0.00016361105
-3.774164e-05 -0.00013422933 5.6462915e-05 -5.6612458e-05 -9.863611e-05 -0.00027713488 -5.6612458e-05 -6.298326e-05
-0.000790484 -0.00015964426 -0.00011934136 -2.7753704e-06 -0.00023946643 -0.00018062185 -0.00024328452 -0.00023946643
0.0004929735 -9.928857e-05 -1.9253224e-05 -5.31185e-05 -6.796472e-08 -2.8879851e-05 -5.5216427e-05 0.0001369307
-2.8879851e-05 -0.00016234297 5.1796826e-05 1.8483795e-05 -5.239559e-06 -2.9354243e-05 2.7725699e-05 3.30275e-05
0.00015096764 2.7725699e-05 -0.00013697051 4.5196193e-05 9.914878e-06 -7.5326505e-05 -8.443387e-06 1.4872333e-05
-7.9305355e-06 0.00011341552 1.4872333e-05 -0.00013131871 -1.1695078e-05 4.672092e-06 4.720123e-05 -1.6790469e-05
7.0081346e-06 4.6907513e-05 6.453348e-05 7.0081346e-06 4.0900286e-06 7.5153686e-05 1.490482e-05 3.7446778e-05
-4.0400497e-05 2.2357228e-05 6.468148e-05 5.5137283e-05 2.2357228e-05 3.879262e-05 -0.00054537493 -0.000115443014
-3.112488e-05 0.00015088818 -0.00017316462 -0.00015792082 -0.000672406 -0.00017316462 0.0005605292 2.4104633e-05
4.589323e-06 -8.383507e-06 -3.941715e-06 6.883987e-06 -6.119149e-07 2.257998e-06 6.883987e-06 -1.3681945e-05
-5.7170364e-06 3.269615e-06 3.0438925e-05 -6.926696e-05 4.904416e-06 5.1986033e-05 9.007868e-05 4.904416e-06
-2.9717412e-05 6.628179e-07 8.903294e-06 6.39664e-05 8.7369874e-05 1.3354943e-05 4.3060616e-05 -4.122228e-05
1.3354943e-05 2.512226e-05 -0.0004922413 -0.00010631033 -0.00015179577 0.00016864736 -0.00015946553 -0.00017719563
-0.0002985833 -0.00015946553 0.00035273196 -0.00040407007 -6.3316234e-05 0.00018830372 8.321123e-05 -9.4974355e-05
2.0459307e-05 -0.00047889515 -9.4974355e-05 0.00039101858 -0.00045991887 -6.0816456e-05 -2.9662091e-05 0.000104400424
-9.122468e-05 -5.4267162e-05 -0.00028252412 -9.122468e-05 -0.00014088335 0.00014076405 2.0495398e-05 1.9887737e-05
6.8170724e-05 3.0743096e-05 2.0163201e-05 -8.100885e-05 3.0743096e-05 0.00010225234 -0.00029119174 -4.9982595e-05
0.00016251116 7.084219e-05 -7.497391e-05 9.034944e-06 -0.00038886323 -7.497391e-05 0.0004279412 8.223946e-06
-1.1197919e-06 -3.460108e-05 1.8317234e-06 -1.6796893e-06 -1.9667075e-05 -8.502031e-06 -1.6796893e-06 -1.7991242e-05
6.4917745e-05 7.268267e-06 -8.491859e-05 -1.536014e-05 1.0902397e-05 -2.6720641e-05 0.00017879193 1.0902397e-05
-6.304091e-05 0.0001934245 4.0605315e-05 2.1165692e-05 9.683135e-06 6.0907943e-05 3.8472626e-05 0.00010770125
6.0907943e-05 -0.00015373224 -0.00014999112 -3.7418074e-05 -6.087603e-05 -4.012893e-05 -5.6127108e-05 -5.5004304e-05
-2.0789674e-05 -5.6127108e-05 0.000109683264 -0.00045711652 -5.4216347e-05 -5.449631e-05 8.647278e-05 -8.132456e-05
-1.8535486e-05 6.359666e-05 -8.132456e-05 -0.00035883702 1.6292694e-05 2.7089504e-06 7.118407e-05 -1.3705868e-05

exp_avg_sq f4 [128, 9]
00000000: 5895 3735 e628 1b32 81d0 eb32 1f72 c833
00000010: 0b8e ae32 de05 3c32 96d0 e134 0b8e ae32
00000020: 157e 1334 af64 3437 00fd 0e34 1727 5c35
00000030: b40c e235 acdc a034 1f78 de34 1ef8 e836
00000040: acdc a034 fedf ed35 ef71 da35 5fec 9032
00000050: 6b24 5b33 b8f5 9034 e109 2333 6dca dc32
00000060: f5f1 8535 e109 2333 4693 6934 693c ed36
00000070: 8178 9733 e070 e234 152a e935 8967 2a34
00000080: e6dd 6634 d5eb b036 8967 2a34 2821 b135
00000090: 7131 8e35 0610 1132 37ab 2333 e02c 8034
000000a0: 1332 a332 e3a1 a932 eeab 6035 1332 a332
000000b0: 6f09 0033 7ab0 a536 7702 3f33 5442 d834
000000c0: d564 2136 d2e2 d633 6fd6 7b34 740d 6a36
000000d0: d2e2 d633 219d 4335 4985 2636 b374 b232
000000e0: 189c e233 6e8e 1935 3ac3 4833 d87b 6b33
000000f0: 210b 0d36 3ac3 4833 f6f0 b433 3f03 b136
00000100: 816a 4333 7fb0 4434 831e 6335 ddd7 db33
00000110: 529d a233 cd63 9a36 ddd7 db33 b727 2634
00000120: d929 1537 254b 0534 1e4a 3435 6522 aa35
00000130: 90f4 9534 0ed5 c034 2714 b236 90f4 9534
00000140: d2a1 c835 8dbc 3136 a896 c532 e86b aa33
00000150: 2d60 0135 7249 5e33 b46b 5a33 1df2 0c36
00000160: 7249 5e33 88e9 e634 afba 3433 fb67 8130
00000170: bfcc b331 05b3 ed31 f894 1131 e799 f430
00000180: 76d5 f032 f894 1131 4ee1 8932 b314 1a35
00000190: 0a6f c731 263a 8333 9130 1034 f25c 6032
000001a0: 2aa3 0133 dc76 ed34 f25c 6032 994a da33
000001b0: 6db2 9034 4f61 6c31 3d05 6933 1955 fd33
000001c0: bbf6 0432 52a9 f832 2452 5d34 bbf6 0432
000001d0: 70a1 fd32 7dd8 7235 3bbd 0432 1ec4 9833
000001e0: f47c 8e34 ef54 9532 af33 3a33 4d89 3335
000001f0: ef54 9532 de7d 0633 d259 b136 331c 8733
00000200: f547 0935 191a ce35 b7ff 1734 93ed 8434
00000210: dbf3 6536 b7ff 1734 3217 8735 1ae0 8232
00000220: f736 482f 6c45 b530 5029 5d31 dc3d e12f
00000230: 48d5 4530 18c6 6732 dc3d e12f 4353 0d31
00000240: 6b86 a433 6341 6430 41d9 8531 c43b 5632
00000250: d764 0031 f6cb e630 b0d8 a633 d764 0031
00000260: 1c4e b431 cbcb 8d33 a260 9e30 13bf 9932
00000270: 2479 7f32 bf2c 3231 9269 2e32 bf0c 8833
00000280: bf2c 3231 775b b732 cab4 9836 ca74 a233
00000290: 2e6c 9e34 693d 2e35 65c3 3634 948d 1b34
000002a0: 49ca 2936 65c3 3634 8d45 2e35 6fac 0c34
000002b0: c791 1d31 a4a6 3132 efdb c932 fd43 b131
000002c0: ee68 d030 eb59 be33 fd43 b131 768b 1433
000002d0: 3ade a236 7d85 4b33 9b3c a834 a7ac 6035
000002e0: 34f6 e433 0694 3334 0c73 7036 34f6 e433
000002f0: 617f 7035 464e e433 b829 ac30 3270 0832
00000300: 39fd 4633 edae 4131 ee33 ba31 24ae 5633
00000310: edae 4131 bc11 d532 922b ce35 28e9 8432
00000320: d463 6a33 4922 9a34 5486 1533 ff3d d932
00000330: cc1f ab35 5486 1533 530f a434 63fd 7433
00000340: 0d66 3330 1e4f de31 2425 fe32 cdd2 c930
00000350: 7541 6b31 560c 5c33 cdd2 c930 b432 7532
00000360: fdea b234 3737 c531 5591 5633 c7b2 5633
00000370: 1ade 5d32 260e d632 1a5b 9434 1ade 5d32
00000380: bb07 6833 0e7c a635 466a 9332 dbb8 8134
00000390: d843 8134 94d7 2533 3088 0734 e391 6435
000003a0: 94d7 2533 4fc5 5e34 c015 4735 29ad 5632
000003b0: caad c633 89b4 2634 c782 f132 f2ef 4d33
000003c0: f447 0635 c782 f132 ca08 2e34 1e36 5436
000003d0: 5173 2a33 1c54 a134 2d48 2435 b4c1 bf33
000003e0: 3e0e 2a34 4ea3 ff35 b4c1 bf33 6840 0635
000003f0: 3582 d634 9a0e 9731 969b 8131 05c1 8a33
6.8390136e-07 9.031487e-09 2.7452417e-08 9.333984e-08 2.032086e-08 1.0944374e-08 4.2061282e-07 2.032086e-08
1.373631e-07 1.0752278e-05 1.3316821e-07 8.201327e-07 1.6842009e-06 2.9962882e-07 4.1438122e-07 6.9430234e-06
2.9962882e-07 1.7723066e-06 1.6275425e-06 1.6871295e-08 5.1023033e-08 2.7000874e-07 3.796038e-08 2.5703423e-08
9.979691e-07 3.796038e-08 2.1753394e-07 7.070183e-06 7.053405e-08 4.2177908e-07 1.73721e-06 1.587015e-07
2.1501145e-07 5.272663e-06 1.587015e-07 1.3197177e-06 1.0594214e-06 8.443754e-09 3.8107114e-08 2.387451e-07
1.8998469e-08 1.9747807e-08 8.3696693e-07 1.8998469e-08 2.9810902e-08 4.9379278e-06 4.4472895e-08 4.0281395e-07
2.4049561e-06 1.000641e-07 2.3454207e-07 3.4876548e-06 1.000641e-07 7.2871813e-07 2.481351e-06 2.0774996e-08
1.05523384e-07 5.7204204e-07 4.6743686e-08 5.4827836e-08 2.1017115e-06 4.6743686e-08 8.425734e-08 5.275389e-06
4.549884e-08 1.8318131e-07 8.460849e-07 1.02372475e-07 7.572329e-08 4.601176e-06 1.02372475e-07 1.5474403e-07
8.8908355e-06 1.2413928e-07 6.716308e-07 1.2675997e-06 2.7931355e-07 3.5917805e-07 5.3071594e-06 2.7931355e-07
1.4948257e-06 2.6484806e-06 2.3002329e-08 7.93587e-08 4.81962e-07 5.17552e-08 5.0855036e-08 2.1002554e-06
5.17552e-08 4.3010755e-07 4.2079304e-08 9.415538e-10 5.2328626e-09 6.91796e-09 2.1184956e-09 1.7797078e-09
2.8036748e-08 2.1184956e-09 1.6051356e-08 5.739959e-07 5.804286e-09 6.11074e-08 1.3428713e-07 1.3059649e-08
3.018355e-08 4.4231172e-07 1.3059649e-08 1.0164985e-07 2.6951912e-07 3.4397833e-09 5.4254304e-08 1.179671e-07
7.739511e-09 2.8947998e-08 2.0612111e-07 7.739511e-09 2.952649e-08 9.0467057e-07 7.726437e-09 7.113725e-08
2.6540476e-07 1.7384506e-08 4.3353506e-08 6.6882495e-07 1.7384506e-08 3.1313782e-08 5.2854675e-06 6.291557e-08
5.114119e-07 1.5355791e-06 1.4156e-07 2.4759774e-07 3.4265602e-06 1.4156e-07 1.0065035e-06 1.5235901e-08
1.8209421e-10 1.3189214e-09 3.2183216e-09 4.0971215e-10 7.1971273e-10 1.3491011e-08 4.0971215e-10 2.056553e-09
7.6612956e-08 8.3038837e-10 3.8955084e-09 1.2470029e-08 1.8683772e-09 1.6792672e-09 7.7693926e-08 1.8683772e-09
5.2475695e-09 6.602894e-08 1.1523478e-09 1.7898435e-08 1.4870498e-08 2.5927844e-09 1.0152137e-08 6.335312e-08
2.5927844e-09 2.1345597e-08 4.5509996e-06 7.564957e-08 2.9508504e-07 6.4909415e-07 1.7021155e-07 1.4487006e-07
2.5300708e-06 1.7021155e-07 6.492126e-07 1.3101247e-07 2.2929372e-09 1.0340646e-08 2.3499494e-08 5.1591074e-09
1.5163815e-09 8.8639204e-08 5.1591074e-09 3.4585774e-08 4.853847e-06 4.7386028e-08 3.1336535e-07 8.3697745e-07
1.06618614e-07 1.6724525e-07 3.5829753e-06 1.06618614e-07 8.959233e-07 1.0631315e-07 1.2526504e-09 7.941752e-09
4.6330772e-08 2.818463e-09 5.419216e-09 4.9984138e-08 2.818463e-09 2.4804528e-08 1.5360877e-06 1.547285e-08
5.4573164e-08 2.870968e-07 3.4813937e-08 2.5290317e-08 1.2749747e-06 3.4813937e-08 3.055853e-07 5.704113e-08
6.5264844e-10 6.470045e-09 2.9586381e-08 1.4684588e-09 3.4234209e-09 5.123396e-08 1.4684588e-09 1.42724055e-08
3.332606e-07 5.739732e-09 4.9957936e-08 4.9988355e-08 1.2914393e-08 2.4919313e-08 2.7633433e-07 1.2914393e-08
5.402374e-08 1.2404068e-06 1.716138e-08 2.4162622e-07 2.4077485e-07 3.8613123e-08 1.26224e-07 8.514891e-07
3.8613123e-08 2.0747142e-07 7.416493e-07 1.24958115e-08 9.2517055e-08 1.5525633e-07 2.8115563e-08 4.794851e-08
5.0023596e-07 2.8115563e-08 1.620821e-07 3.1621962e-06 3.968609e-08 3.0049785e-07 6.119979e-07 8.929365e-08
1.5837665e-07 1.9046508e-06 8.929365e-08 5.0012613e-07 3.9955344e-07 4.3963384e-09 3.772082e-09 6.461236e-08

exp_avg f4 [128]
00000000: 9a3e a637 fb40 58b8 c0d2 1035 0845 07b9
00000010: 38df ab37 aa33 1139 a576 b0b7 c64c 9eb8
00000020: 2d66 a7b9 ff81 21b8 a70d 1b38 1a58 a637
00000030: ecc4 1c37 b50f fa37 041a 72b9 fefd 1937
00000040: 786b db36 5b5f 9537 e8f2 5eb9 a4c8 04b9
00000050: 2a15 ffb8 8aed 2b38 6aa4 d1b8 bf4b 16b6
00000060: f8e1 7337 a24f aa38 5af1 9cb8 5c66 e3b8
00000070: 5acb b536 2c1c f737 5a22 eb37 d3a3 a9b7
00000080: 1e89 9737 a3a1 df37 3a45 91b7 305b 1fb9
00000090: 9d68 8ab7 7537 ad38 76c9 b738 d0f6 d136
000000a0: 34b2 9438 73c4 4137 6451 c9b6 be42 ccb8
000000b0: 0c7b c5b7 7b53 05b9 e422 abb8 f001 35b8
000000c0: 7a1c 47b8 13a9 0cb9 80a4 0238 a9fd b436
000000d0: 5e22 c9b8 7869 5fb8 6ce5 b336 d53c efb6
000000e0: cc5f c237 0cff 06b7 b01d 6eb7 3b60 b837
000000f0: 3889 0f37 38e6 a3b8 f6ae 1239 d9b9 e036
00000100: 61a5 3138 5af7 44b8 8345 49b8 b574 8eb7
00000110: 9908 f037 6e8d 4b38 5c2a 0b38 33da 0bb8
00000120: 623d 9436 b7ee 39b9 30f5 1c35 9f77 b5b8
00000130: 74f0 04b8 8925 3439 b7b9 3bb7 8fd8 e0b7
00000140: c886 f1b8 6e06 3638 f0f0 bfb5 bc37 b0b8
00000150: 1174 c0b5 8857 4db8 84fd 0736 98df 6cb8
00000160: 0bb8 b2b7 10ab abb7 5e28 bc38 112c b0b7
00000170: 5b91 bab7 c606 21b7 efca 2e38 5533 3cb6
00000180: 9213 a2b6 1477 b635 8082 b5b7 9f17 03b9
00000190: d08b 7f37 7f75 ceb6 627d adb8 342c 9d37
000001a0: 3e0f 27b8 dd8d 8938 d290 dc36 ed9b 6b37
000001b0: dc15 4cb9 e444 00b8 87c2 5db9 78ec 5037
000001c0: 7d45 6538 8029 f0b8 79f8 d538 7699 13b9
000001d0: abbd 8037 fa63 3938 802e dfb8 8252 7537
000001e0: f008 e5b7 4e40 6db7 323e d6b6 208b 0ab7
000001f0: 75a1 25b9 80fc 1eb9 44e7 0ab7 62fe 3537
1.9817893e-05 -5.155893e-05 5.395086e-07 -0.0001290032 2.0488733e-05 0.00013847524 -2.1036083e-05 -7.548327e-05
-0.0003192885 -3.850646e-05 3.6967594e-05 1.9829768e-05 9.344174e-06 2.9809637e-05 -0.0002308861 9.178648e-06
6.5392196e-06 1.7806587e-05 -0.0002126206 -0.00012663245 -0.0001216329 4.0990803e-05 -9.996521e-05 -2.2395832e-06
1.4536541e-05 8.1210645e-05 -7.483615e-05 -0.000108432694 5.4178936e-06 2.9457813e-05 2.803018e-05 -2.0222657e-05
1.8064453e-05 2.665894e-05 -1.7317583e-05 -0.00015197392 -1.6499596e-05 8.2596125e-05 8.763645e-05 6.257418e-06
7.090383e-05 1.1549436e-05 -5.999742e-06 -9.73991e-05 -2.3541528e-05 -0.00012714967 -8.160414e-05 -4.3155567e-05
-4.7471818e-05 -0.00013414425 3.1147618e-05 5.393948e-06 -9.590828e-05 -5.326557e-05 5.361324e-06 -7.129837e-06
2.3171211e-05 -8.046405e-06 -1.4192818e-05 2.197932e-05 8.555413e-06 -7.815327e-05 0.00013988823 6.6973557e-06
4.235411e-05 -4.6960406e-05 -4.7986872e-05 -1.6982065e-05 2.8614233e-05 4.853069e-05 3.3179633e-05 -3.3343396e-05
4.4178896e-06 -0.00017731903 5.8471323e-07 -8.653034e-05 -3.1695192e-05 0.0001718012 -1.1189309e-05 -2.6803724e-05
-0.000115168805 4.339817e-05 -1.4300731e-06 -8.402715e-05 -1.4338895e-06 -4.895733e-05 2.0264133e-06 -5.6475023e-05
-2.1304955e-05 -2.0464446e-05 8.9720575e-05 -2.1001355e-05 -2.2240614e-05 -9.597925e-06 4.167383e-05 -2.8044062e-06
-4.8302545e-06 1.3594713e-06 -2.163765e-05 -0.00012501933 1.5231737e-05 -6.1529568e-06 -8.272637e-05 1.8736442e-05
-3.9830098e-05 6.559093e-05 6.5733702e-06 1.4043396e-05 -0.000194631 -3.0581738e-05 -0.0002114867 1.2452823e-05
5.466257e-05 -0.00011451822 0.00010202913 -0.00014076181 1.534711e-05 4.4200548e-05 -0.0001064213 1.4622348e-05
-2.730309e-05 -1.4141273e-05 -6.3849375e-06 -8.2578335e-06 -0.00015795774 -0.00015162118 -8.279287e-06 1.0847669e-05

exp_avg_sq f4 [128]
00000000: e628 1b33 00fd 0e35 5eec 9033 7f78 9734
00000010: 0810 1133 7802 3f34 b474 b233 806a 4334
00000020: 264b 0535 a596 c533 fc67 8131 0a6f c732
00000030: 4f61 6c32 3bbd 0433 341c 8734 f736 4830
00000040: 6141 6431 a260 9e31 ca74 a234 c791 1d32
00000050: 8085 4b34 b829 ac31 28e9 8433 0e66 3331
00000060: 3637 c532 466a 9333 29ad 5633 5373 2a34
00000070: 9c0e 9732 7134 0533 7b63 e633 fead 3b32
00000080: d081 0633 e33e 2533 6db6 8732 3898 0d34
00000090: 1c93 0533 2174 c432 3178 1134 e3e7 a131
000000a0: 6c15 dc32 20f0 8632 0f59 382f b5d6 6233
000000b0: d60e 2a32 8b16 1333 76a4 8d32 1d35 b032
000000c0: b8b4 2c34 6626 0434 10fc 6534 a9ef b032
000000d0: 4988 f633 08bb 5c32 cace b331 3017 7931
000000e0: 5603 9e31 3a65 b130 e78f 8c2f 1c23 0831
000000f0: fe25 c232 2e5f 0832 a707 2c34 ecf4 3732
00000100: 137b 9333 2f43 8533 dfd0 dc33 0b90 3c32
00000110: a4f5 6b34 5abb 9c34 dd19 a232 94dc 8b33
00000120: c73a 8f32 7630 9134 f9dc c431 d1af a633
00000130: 7ea9 5a33 3a65 bc34 e080 6931 ca21 9732
00000140: a6a9 e033 4a17 9732 3894 b133 b595 c733
00000150: 0873 ab30 59c9 a734 a1bd 2a33 c6f9 1632
00000160: 54d3 6c31 fe7f 6831 fb6c 0e34 fe6e 1a32
00000170: 2348 8131 10bb df32 2102 e433 31ff 5a31
00000180: 6e13 4831 26e9 2133 e7af f632 3db8 3334
00000190: 66a0 7d32 9cf0 3732 24db 1233 592a 2a31
000001a0: 4a7b 0433 c821 6534 2e26 0931 77e4 cb32
000001b0: c703 8732 bb3e 0e33 d098 6234 e67f 7d32
000001c0: a86f 2335 23d0 3133 a46c 3333 e61a 4434
000001d0: 5bdc 9334 60a4 0733 c9c5 e133 7eb4 1531
000001e0: ea5e 9c32 8cd5 1f33 5eb7 bd32 c48a 6132
000001f0: c2a9 8f33 2f3a a933 4a50 ef33 6962 6e31
3.6125947e-08 5.3267286e-07 6.7485175e-08 2.8213614e-07 3.3775024e-08 1.778916e-07 8.309999e-08 1.8199535e-07
4.9655716e-07 9.2009294e-08 3.766216e-09 2.3217144e-08 1.3759133e-08 3.090575e-08 2.516623e-07 7.2837686e-10
3.321553e-09 4.609391e-09 3.0259827e-07 9.171749e-09 1.8954415e-07 5.0106017e-09 6.18914e-08 2.610594e-09
2.2958925e-08 6.864552e-08 4.9983246e-08 1.5874438e-07 1.7585357e-08 3.101417e-08 1.0728305e-07 1.0924394e-08
3.131737e-08 3.847425e-08 1.5799026e-08 1.3187025e-07 3.110027e-08 2.2870212e-08 1.3547903e-07 4.712079e-09
2.5621112e-08 1.570885e-08 1.6766342e-10 5.2815e-08 9.898676e-09 3.4246607e-08 1.6489349e-08 2.051325e-08
1.6084493e-07 1.2307427e-07 2.1418987e-07 2.0598081e-08 1.1480058e-07 1.2848211e-08 5.233095e-09 3.624745e-09
4.5987845e-09 1.2907215e-09 2.55681e-10 1.9810562e-09 2.260185e-08 7.937883e-09 1.6021532e-07 1.0707691e-08
6.867608e-08 6.205516e-08 1.0282542e-07 1.0975792e-08 2.1975444e-07 2.919358e-07 1.8871043e-08 6.512815e-08
1.667412e-08 2.7043615e-07 5.7294725e-09 7.761958e-08 5.0911233e-08 3.509138e-07 3.397922e-09 1.7594079e-08
1.0461672e-07 1.7589304e-08 8.2691656e-08 9.293891e-08 1.2474581e-09 3.1252674e-07 3.9753676e-08 8.787941e-09
3.4462646e-09 3.3833198e-09 1.3264427e-07 8.9892165e-09 3.762595e-09 2.6045683e-08 1.06174646e-07 3.1868235e-09
2.9114875e-09 3.769778e-08 2.871816e-08 1.67377e-07 1.4763009e-08 1.070671e-08 3.419258e-08 2.4762328e-09
3.0845776e-08 2.1339577e-07 1.9957827e-09 2.3736204e-08 1.5717786e-08 3.3119004e-08 2.1103483e-07 1.4755619e-08
6.0884713e-07 4.1400323e-08 4.1775493e-08 1.8263708e-07 2.7541213e-07 3.1581635e-08 1.0513356e-07 2.1784952e-09
1.8203952e-08 3.7214292e-08 2.2085882e-08 1.3128275e-08 6.689835e-08 7.880259e-08 1.1143909e-07 3.4689498e-09
