results/PreyTest1/PreyBrain/PreyBrain-12873.pt (torch, 152335 bytes, 12 tensors)

network_body._body_endoder.seq_layers.0.weight f4 [128, 9]
00000000: 707e 6c3c cea1 0cbe 5c6a 46be 2965 293f
00000010: 8c8d 343e b8d2 02be 2a5a ab3c 66c2 653e
00000020: 0cb5 a43e 6e52 143e 6687 02bf 085b a43e
00000030: 2128 97bd 8f4c 703e fccc 5e3d 5f1d 883e
00000040: 4378 373e 18e1 bb3e 1c60 28bd 8619 b0bd
00000050: 472f ccbe fc85 dfbd 209b 33bd a79b 473e
00000060: a36c 2f3e 2e4c 8b3d 908c b3bd d3a9 4cbe
00000070: 2392 ca3e a26c 8e3e 8729 8e3d c24d 643e
00000080: 670c 493e 0aa7 4a3e 72fe ccbd 7fa8 413e
00000090: 422c 64bf 778b 643c 54bc e3be c61a 753f
000000a0: 04e2 acbd ae57 fdbe a007 413e 32f8 81bd
000000b0: e97c 9a3e d2b6 433e e46c 9cbe 8ee2 84be
000000c0: 0335 bb3a 1678 0ebf e8c5 0cbe 7144 9b3e
000000d0: e878 443d 6e4b c33d b350 113e 3461 d0be
000000e0: 0eb9 8dbe 364a a0be c4ad dcbe 7c60 fa3c
000000f0: 4801 823e a780 5ebe 972c e4be d404 afbd
00000100: c069 fb3e 2770 903d 1657 c4be 3272 e83d
00000110: bc04 1f3e 52bd 16be eeb6 a23d c715 33be
00000120: a738 a93d 52a7 13be 3e16 0e3c b360 febe
00000130: f5e9 033f dbfe 873e d45a 153f e21f b1bc
00000140: 6630 babe 9a84 ae3d 6d2d 893e 32bc 84bd
00000150: 6892 adbe 6fc9 313e 39cb 0e3e 96ab 163e
00000160: e20d f13e 4c50 173e 4451 383e 3666 283e
00000170: e307 c1bd b06f f73d dee2 e63c e684 903e
00000180: 326f ca3e d031 20bf c61e 8d3e 5e6f 63bf
00000190: 3c9b 49be 22cf 353f ddf6 043f 5fcb 993e
000001a0: 7602 cf3e c7e3 87be 2a29 18be 2a93 353e
000001b0: e4e7 debd b6e7 0fbe 84b7 b73e 3bb8 96bd
000001c0: 9431 31be 1f4a cb3e f8b5 6d3d 77ab 8d3e
000001d0: 66c2 4bbe 5328 5f3e f623 813e ab6b a83d
000001e0: 9e28 4cbe d21d a03d 6533 a33d 8465 36be
000001f0: 5c09 e4bd e0f3 813e eccf 6ebd f681 8c3e
00000200: cf39 953d 2180 123e ab6c 48bd 2c6b aa3d
00000210: a609 f63e 4c5f 2e3e ce9c 12be effb 4dbe
00000220: bf17 d4bd 0809 16bf 787e dc3d f680 43bd
00000230: 4eec 11bf e88e a43e 5b88 7b3d 8259 b33d
00000240: 7220 78bc 8b70 873d 5e93 ef3e d4d5 1a3e
00000250: 0839 33be b205 323f 0317 a4ba 3878 303f
00000260: 4685 123f 10d9 0a3f 2e79 8bbe 1b9f a2be
00000270: 7411 8b3e 5cb1 37be 64c5 163d 248c 0b3f
00000280: 581f 943e 02ea 223e 8fb6 b8be 633c 35be
00000290: 4ae8 a23d 820c 783f 7461 c6be a3cc 663e
000002a0: 3020 9d3e 249d 9cbe 9af2 1dbe 166b 213e
000002b0: 0b4e c0bd ffb7 b43e caae aabd 070c 67be
000002c0: e37a 9fbe dec2 6a3d 1546 143e 23de 02be
000002d0: 229d 0dbf 781c 2a3e c46b 21bf 7b71 c7bc
000002e0: 273e 5b3d 0857 55be 0f43 74be be9b 253c
000002f0: c418 9fbe 83c8 6e3e 4eac debd 5969 1dbf
00000300: 8003 40bd 32b5 ed3e 28d2 8fbd 2663 b9be
00000310: 824d b4be dc40 bb3e 5db0 8cbe 85ad 12be
00000320: 56c0 423d ecea f8be 3400 6a3d 558e 863d
00000330: 9ec2 b53d 10e9 ef3e cd89 1bbf 9fdf 343f
00000340: 4c51 d83e 20c2 abbc 4e8c 84be d20d 16be
00000350: f769 d03e 1e92 adbd ebb3 ae3d 2e98 503c
00000360: c00c 8c3e 3ad5 e2be 46ab a43d de0e eebc
00000370: e013 3ebe d410 00be 08ec 3dbf 1f78 a6be
00000380: 9b25 6739 d4c1 fb3d 6ecc 003f 3459 e9bc
00000390: 6e1c 1bbe 9024 10bf 8c4a f53e dd0c aa3e
000003a0: 070b 52bd 8e92 00bc 0d58 16be 2c61 233f
000003b0: 3044 81bd 242c 8cbe 6aad 53be 44cd c7be
000003c0: 9aae e3be 0cfc 803e 7ae6 113e ea6d 943e
000003d0: b7d1 523f 7c96 103e 8069 d13e 5035 4c3c
000003e0: b35a c9be 0cda 9b3d de2e 14bf 52e5 bb3d
000003f0: 2fde fbbd bee6 5fbe 5e53 c8bd ced6 073f
0.014434442 -0.13733599 -0.1937651 0.66169983 0.17632121 -0.12775695 0.020917017 0.22437438
0.32169378 0.1448457 -0.5098785 0.321007 -0.07380701 0.23466705 0.054394707 0.26584908
0.1791697 0.3669517 -0.041107282 -0.08598618 -0.3987982 -0.10914227 -0.04384911 0.1949297
0.17131285 0.068016395 -0.087670445 -0.19986658 0.39564618 0.27817255 0.069415145 0.22295287
0.19633637 0.19790283 -0.10009469 0.18911932 -0.8913003 0.013949267 -0.4447962 0.9574398
-0.084415466 -0.49480957 0.18850565 -0.063461676 0.30173424 0.19112709 -0.30551827 -0.25954098
0.0014282766 -0.55651987 -0.1374737 0.30325654 0.047966868 0.095358714 0.1419094 -0.4069916
-0.27680248 -0.31306618 -0.43101323 0.030563585 0.25391603 -0.21728764 -0.4456527 -0.08545843
0.49104118 0.07052641 -0.3834769 0.11349906 0.1552915 -0.14720657 0.07945047 -0.17488776
0.08262759 -0.14419296 0.008672295 -0.4968315 0.51528865 0.26561627 0.5834172 -0.021621648
-0.3636505 0.085213855 0.2679247 -0.06481208 -0.33900762 0.17361997 0.13944711 0.14713892
0.47080904 0.14776725 0.1799975 0.1644524 -0.094253324 0.120818496 0.02818435 0.28226393
0.3953796 -0.6257601 0.2756254 -0.8884181 -0.19688123 0.71019185 0.51939183 0.30037972
0.40431565 -0.26540968 -0.14859453 0.1773192 -0.108840734 -0.14053234 0.358822 -0.07359358
-0.17304069 0.39704987 0.058034867 0.2766988 -0.19898376 0.21792726 0.2522275 0.08223661
-0.19937369 0.07818188 0.07968787 -0.17812163 -0.11134598 0.25381374 -0.05830376 0.27442902
0.07286417 0.1430669 -0.04893176 0.08321223 0.48054236 0.1702854 -0.14317629 -0.20115636
-0.10356092 -0.5860753 0.107663095 -0.04773041 -0.570012 0.3214028 0.061409336 0.08757307
-0.015144454 0.06613263 0.4679212 0.15120631 -0.17502224 0.6953994 -0.0012519065 0.6893344
0.5723461 0.5423746 -0.2724089 -0.31762013 0.27161753 -0.17938751 0.03680934 0.5451071
0.28930163 0.1590958 -0.3607678 -0.17698817 0.07954462 0.96894085 -0.38746226 0.22539
0.3068862 -0.3058864 -0.15424576 0.15763506 -0.093898855 0.35296628 -0.083341196 -0.22563182
-0.31148443 0.057314746 0.14479859 -0.12780051 -0.5531789 0.16612422 -0.6305506 -0.024346104
0.05352607 -0.20833981 -0.23853706 0.010107933 -0.31073582 0.23318677 -0.10872708 -0.6148887
-0.046878338 0.46427304 -0.07022506 -0.36208457 -0.35215384 0.3657292 -0.27478305 -0.14324005
0.047546707 -0.4861673 0.0571291 0.065701164 0.08875011 0.468575 -0.6075714 0.7065372
0.42249525 -0.02096659 -0.25888294 -0.1465371 0.40705845 -0.08475135 0.085304104 0.012731595
0.27353477 -0.44303304 0.0804048 -0.029059824 -0.18562269 -0.1250642 -0.7418828 -0.3251352
0.00022043886 0.12292829 0.50311935 -0.028484918 -0.15147564 -0.5630579 0.47908437 0.3321294
-0.051280048 -0.007847441 -0.14682026 0.6382015 -0.06311834 -0.27377427 -0.20671621 -0.39023793
-0.44469148 0.25192297 0.14248076 0.28990108 0.8235125 0.14119905 0.40900803 0.012463883
-0.3932701 0.076099485 -0.57884014 0.09174599 -0.122982375 -0.21865365 -0.09781526 0.5306214

network_body._body_endoder.seq_layers.0.bias f4 [128]
00000000: 0000 0000 0000 0000 0000 0000 0000 0000
00000010: 0000 0000 0000 0000 0000 0000 0000 0000
00000020: 0000 0000 0000 0000 0000 0000 0000 0000
00000030: 0000 0000 0000 0000 0000 0000 0000 0000
00000040: 0000 0000 0000 0000 0000 0000 0000 0000
00000050: 0000 0000 0000 0000 0000 0000 0000 0000
00000060: 0000 0000 0000 0000 0000 0000 0000 0000
00000070: 0000 0000 0000 0000 0000 0000 0000 0000
00000080: 0000 0000 0000 0000 0000 0000 0000 0000
00000090: 0000 0000 0000 0000 0000 0000 0000 0000
000000a0: 0000 0000 0000 0000 0000 0000 0000 0000
000000b0: 0000 0000 0000 0000 0000 0000 0000 0000
000000c0: 0000 0000 0000 0000 0000 0000 0000 0000
000000d0: 0000 0000 0000 0000 0000 0000 0000 0000
000000e0: 0000 0000 0000 0000 0000 0000 0000 0000
000000f0: 0000 0000 0000 0000 0000 0000 0000 0000
00000100: 0000 0000 0000 0000 0000 0000 0000 0000
00000110: 0000 0000 0000 0000 0000 0000 0000 0000
00000120: 0000 0000 0000 0000 0000 0000 0000 0000
00000130: 0000 0000 0000 0000 0000 0000 0000 0000
00000140: 0000 0000 0000 0000 0000 0000 0000 0000
00000150: 0000 0000 0000 0000 0000 0000 0000 0000
00000160: 0000 0000 0000 0000 0000 0000 0000 0000
00000170: 0000 0000 0000 0000 0000 0000 0000 0000
00000180: 0000 0000 0000 0000 0000 0000 0000 0000
00000190: 0000 0000 0000 0000 0000 0000 0000 0000
000001a0: 0000 0000 0000 0000 0000 0000 0000 0000
000001b0: 0000 0000 0000 0000 0000 0000 0000 0000
000001c0: 0000 0000 0000 0000 0000 0000 0000 0000
000001d0: 0000 0000 0000 0000 0000 0000 0000 0000
000001e0: 0000 0000 0000 0000 0000 0000 0000 0000
000001f0: 0000 0000 0000 0000 0000 0000 0000 0000
0.0 0.0 0.0 0.0 0.0 0.0 0.0 0.0
0.0 0.0 0.0 0.0 0.0 0.0 0.0 0.0
0.0 0.0 0.0 0.0 0.0 0.0 0.0 0.0
0.0 0.0 0.0 0.0 0.0 0.0 0.0 0.0
0.0 0.0 0.0 0.0 0.0 0.0 0.0 0.0
0.0 0.0 0.0 0.0 0.0 0.0 0.0 0.0
0.0 0.0 0.0 0.0 0.0 0.0 0.0 0.0
0.0 0.0 0.0 0.0 0.0 0.0 0.0 0.0
0.0 0.0 0.0 0.0 0.0 0.0 0.0 0.0
0.0 0.0 0.0 0.0 0.0 0.0 0.0 0.0
0.0 0.0 0.0 0.0 0.0 0.0 0.0 0.0
0.0 0.0 0.0 0.0 0.0 0.0 0.0 0.0
0.0 0.0 0.0 0.0 0.0 0.0 0.0 0.0
0.0 0.0 0.0 0.0 0.0 0.0 0.0 0.0
0.0 0.0 0.0 0.0 0.0 0.0 0.0 0.0
0.0 0.0 0.0 0.0 0.0 0.0 0.0 0.0

network_body._body_endoder.seq_layers.2.weight f4 [128, 128]
00000000: 25f1 593e 4d55 0dbd 810c f6bd 1254 9b3d
00000010: 78c7 54bc 09a8 433d a2c1 04be 0dc1 b73c
00000020: 35a4 f3bd 1f47 91bc 03e5 e9bd ab78 7bbd
00000030: 3f90 55bd 15d5 273e d9c8 75bd 7dab c33c
00000040: 1626 e33d 7f10 e63d 50ac f03d 7223 14bc
00000050: 912c 863c c720 4bbe 5021 8a3d 9df3 0bbd
00000060: ca1c 53bd 4814 b1bd 3493 0fbd 81db e9bc
00000070: 9711 cbbd 8367 7a3c cd0b e6bc 135a 7e3d
00000080: 4f6e 60bd b490 b23b d9bb 513d aa30 bfbd
00000090: dc37 93bc f969 a23c 9b3d 6a3c a579 243d
000000a0: 8f17 c33c 1dc6 f4bc b696 963c 6cd2 59bd
000000b0: 590a 0f3e bcbe f0bd 064e 473b 590a 00bd
000000c0: 998f 753d aa1b ecbd e67a dc3d 8694 5cbc
000000d0: b59f 5abd 147b 3e3c a1b6 0abe cebb 5fbe
000000e0: a760 643d e326 9b3c 4520 3c3d 26c3 01bd
000000f0: f1af 8e3d 3c2c 863c cc12 863d c464 143e
00000100: eecc bcbc cb7b 65bc 7fa0 893d 2781 67bb
00000110: b24c 21bb 3daa 40bd 65be 3ebd d162 9b3d
00000120: 1e04 3c3c 0610 7e3d 1fa3 b2bc cd3b 4cbd
00000130: c769 9f3c 8809 453d e778 4bbd f63a b33d
00000140: 77a0 93bc 1cb3 c13d a499 9d3d 1139 223d
00000150: 010c 94bd d0fd bbbd f7a4 c23d 7f8a 87bd
00000160: 6eff 963d e0ea 013c ff6c 933e 70d8 9dbd
00000170: c4e3 f33d aaee 183c b991 94bd 15b0 f93c
00000180: c52d bb3d 4684 193d 000a e7bd bf8f c23c
00000190: 3f0a b6bd 74eb 9abd 1c91 6f3b 1bab 673b
000001a0: c6f6 aebd 33a1 e5bc 459c 5fbc 273b 473c
000001b0: b658 3cbe 5dd1 f7bd ddac 90bc f9d7 c13d
000001c0: 31e7 033d b36c a2bd 6f61 7a3d 1253 53bd
000001d0: 4161 463e efd6 93bd 6ee5 b23d 53a4 143e
000001e0: a982 2f3c 7166 1a3d 6ccb 183d b1e5 89bd
000001f0: 709d 55bd c55e 953d 0d68 e83d 5348 533c
00000200: be78 ad3b 383d 26bc 66fa 98bd 130e f0bd
00000210: eb69 debc 36b1 e8bd 89ca e2bd 91cc 403c
00000220: a1ac 013d 9a3f 4c3d b708 8b3b 06b8 773e
00000230: e684 ce3d 7413 d2bc f3a0 43be 339a 71bd
00000240: c01d bebd b130 e4bd f648 b8bd 4cc1 703d
00000250: 66b3 b3bc 5ca7 a73d 64ac c53d b4f1 1d3d
00000260: cae9 e43a 0e17 83bd 37bd 8fbc 01f6 0f3e
00000270: 55b2 f13d 9005 77bc 99c0 2b3d 51b8 b5bd
00000280: 807e 0abe 2243 52be b36d 12bb f8b0 a23c
00000290: 2d4d 7b3d 5098 d03d 6a12 893c a48e 2b3d
000002a0: ab1f 20bd 23ed 4cbe ac9a f2bc 52bc 46be
000002b0: 3f62 803e dd79 823b e51f 0dbd 385c 823e
000002c0: c140 963e c1a5 a23d a354 5abc ff20 b0bc
000002d0: a208 9fbd affc 833c 15d6 2fbd 3805 99bd
000002e0: 486d 37be 4947 5ebd f155 9c3d e8c5 873c
000002f0: 2f32 f3bb 9512 7cbd 5494 03bd 7612 d9bc
00000300: 2a30 693d 5161 353e ac9c 82bd ad94 78bd
00000310: bea7 973c 9872 2a3d d476 f7bc ee1a a5bd
00000320: 6ced e33d d113 0bbc f1dc e83d 1529 d8bd
00000330: fb06 00bc 9be9 21bd f637 383e bb99 1d3e
00000340: 860c 88bc d845 ca3c 0dd5 1b3e eca1 303e
00000350: 54c1 28bd a627 bc3d 7621 14be b22c 91bd
00000360: 438c cf3d 6817 b73d f04a 18bd ac2d 2abd
00000370: fa35 353c b3bb 0c3d aeee 063c 0a86 04be
00000380: 08a5 873d bdcb 18be a1d6 5f3c 460e 063e
00000390: 8701 87bc 2480 1bbd 090d 9e3c b3b2 1cbd
000003a0: 1d7a 3abd 14a1 833d 60ae cd3c 816c 55be
000003b0: c73e 9c3c f295 ddbc b6a8 efbd 2e08 113d
000003c0: 670d 4a3c 1cb5 3ebd b050 363e 024c b53d
000003d0: cce8 ac3d 23fc aa3d 46fb 933d 94d7 f2bd
000003e0: 059e 09be 3651 1abd 51fa c7bc 2355 213d
000003f0: f0b4 23be 63ed 6fbd b869 693d fe46 e33d
0.21283396 -0.034505177 -0.12014104 0.075843945 -0.01298701 0.047767673 -0.1296449 0.022430921
-0.118965544 -0.017734108 -0.11420634 -0.061394375 -0.052139517 0.16389878 -0.060005996 0.023885483
0.11091249 0.11233615 0.11751616 -0.009041654 0.016378673 -0.19836722 0.06744635 -0.034167875
-0.051541127 -0.086464465 -0.035052493 -0.02854705 -0.09915464 0.015283468 -0.028081799 0.06209762
-0.0547927 0.005449379 0.051204536 -0.09335454 -0.017970972 0.019825922 0.014296914 0.04015507
0.023814945 -0.029879624 0.018382411 -0.05317919 0.13968791 -0.1175513 0.0030411496 -0.03125987
0.0599514 -0.11528714 0.107656285 -0.013463145 -0.053374965 0.011626024 -0.1354623 -0.21848986
0.055756237 0.018939441 0.045929212 -0.03168025 0.06967152 0.016378514 0.06546554 0.14491564
-0.023046937 -0.014006565 0.06720065 -0.0035324784 -0.0024612364 -0.047037352 -0.046568293 0.07587207
0.011475591 0.062027 -0.021806298 -0.049861718 0.019459618 0.048104793 -0.04967585 0.0875148
-0.018020852 0.094579905 0.0769532 0.039605204 -0.07228852 -0.0917927 0.09504121 -0.06618213
0.07372938 0.007929534 0.28794095 -0.07707298 0.11908677 0.009334246 -0.07254357 0.03047947
0.09139589 0.03747966 -0.11281204 0.023750184 -0.08888673 -0.0756444 0.0036554998 0.003534979
-0.08543162 -0.028030967 -0.013648097 0.012160099 -0.18393216 -0.1210048 -0.017660553 0.09465022
0.032202903 -0.07930889 0.061128076 -0.051592894 0.19373037 -0.0721873 0.087351665 0.1451581
0.010712304 0.037695352 0.037303373 -0.06733263 -0.052152097 0.072934665 0.11347971 0.012895661
0.0052939346 -0.010146432 -0.07469635 -0.117214344 -0.027150115 -0.11361925 -0.11073787 0.011767522
0.031658772 0.049865343 0.0042429822 0.24191293 0.10083942 -0.025644042 -0.19104366 -0.058984946
-0.09283018 -0.111421 -0.08998291 0.058778092 -0.02193613 0.08186218 0.096520215 0.038560584
0.0017464694 -0.06400882 -0.01754628 0.14058687 0.11801592 -0.01507701 0.041931722 -0.08873046
-0.13524818 -0.20533422 -0.0022343218 0.019859776 0.061352897 0.10185301 0.016732413 0.04188408
-0.0390927 -0.20012335 -0.029614769 -0.19407776 0.25074956 0.0039818124 -0.034454245 0.25460982
0.29346278 0.07941771 -0.013325843 -0.021500109 -0.077653185 0.0161117 -0.042928774 -0.074716985
-0.17912781 -0.0542672 0.076335795 0.016573861 -0.007421754 -0.06154116 -0.03212388 -0.02649806
0.0569307 0.17712905 -0.06377539 -0.060688663 0.018512603 0.04161319 -0.030208029 -0.08061777
0.11129269 -0.008488611 0.11370266 -0.10554711 -0.007814164 -0.039529424 0.17990097 0.15390675
-0.016607534 0.024691507 0.15217991 0.17249268 -0.041199997 0.0918725 -0.1446589 -0.07088603
0.10134175 0.08940011 -0.03718084 -0.041547462 0.011060232 0.03435869 0.008235617 -0.12941757
0.06623274 -0.1492147 0.013662011 0.13091382 -0.01648022 -0.037964 0.019293325 -0.03825636
-0.045526613 0.064272076 0.025107563 -0.20842172 0.019072903 -0.027049039 -0.11702101 0.03540819
0.012332297 -0.046559438 0.17804217 0.08852388 0.0844284 0.083488725 0.07225661 -0.118575245
-0.13439186 -0.037675105 -0.024411352 0.039387833 -0.15986991 -0.058576 0.056985587 0.11097525

network_body._body_endoder.seq_layers.2.bias f4 [128]
00000000: 0000 0000 0000 0000 0000 0000 0000 0000
00000010: 0000 0000 0000 0000 0000 0000 0000 0000
00000020: 0000 0000 0000 0000 0000 0000 0000 0000
00000030: 0000 0000 0000 0000 0000 0000 0000 0000
00000040: 0000 0000 0000 0000 0000 0000 0000 0000
00000050: 0000 0000 0000 0000 0000 0000 0000 0000
00000060: 0000 0000 0000 0000 0000 0000 0000 0000
00000070: 0000 0000 0000 0000 0000 0000 0000 0000
00000080: 0000 0000 0000 0000 0000 0000 0000 0000
00000090: 0000 0000 0000 0000 0000 0000 0000 0000
000000a0: 0000 0000 0000 0000 0000 0000 0000 0000
000000b0: 0000 0000 0000 0000 0000 0000 0000 0000
000000c0: 0000 0000 0000 0000 0000 0000 0000 0000
000000d0: 0000 0000 0000 0000 0000 0000 0000 0000
000000e0: 0000 0000 0000 0000 0000 0000 0000 0000
000000f0: 0000 0000 0000 0000 0000 0000 0000 0000
00000100: 0000 0000 0000 0000 0000 0000 0000 0000
00000110: 0000 0000 0000 0000 0000 0000 0000 0000
00000120: 0000 0000 0000 0000 0000 0000 0000 0000
00000130: 0000 0000 0000 0000 0000 0000 0000 0000
00000140: 0000 0000 0000 0000 0000 0000 0000 0000
00000150: 0000 0000 0000 0000 0000 0000 0000 0000
00000160: 0000 0000 0000 0000 0000 0000 0000 0000
00000170: 0000 0000 0000 0000 0000 0000 0000 0000
00000180: 0000 0000 0000 0000 0000 0000 0000 0000
00000190: 0000 0000 0000 0000 0000 0000 0000 0000
000001a0: 0000 0000 0000 0000 0000 0000 0000 0000
000001b0: 0000 0000 0000 0000 0000 0000 0000 0000
000001c0: 0000 0000 0000 0000 0000 0000 0000 0000
000001d0: 0000 0000 0000 0000 0000 0000 0000 0000
000001e0: 0000 0000 0000 0000 0000 0000 0000 0000
000001f0: 0000 0000 0000 0000 0000 0000 0000 0000
0.0 0.0 0.0 0.0 0.0 0.0 0.0 0.0
0.0 0.0 0.0 0.0 0.0 0.0 0.0 0.0
0.0 0.0 0.0 0.0 0.0 0.0 0.0 0.0
0.0 0.0 0.0 0.0 0.0 0.0 0.0 0.0
0.0 0.0 0.0 0.0 0.0 0.0 0.0 0.0
0.0 0.0 0.0 0.0 0.0 0.0 0.0 0.0
0.0 0.0 0.0 0.0 0.0 0.0 0.0 0.0
0.0 0.0 0.0 0.0 0.0 0.0 0.0 0.0
0.0 0.0 0.0 0.0 0.0 0.0 0.0 0.0
0.0 0.0 0.0 0.0 0.0 0.0 0.0 0.0
0.0 0.0 0.0 0.0 0.0 0.0 0.0 0.0
0.0 0.0 0.0 0.0 0.0 0.0 0.0 0.0
0.0 0.0 0.0 0.0 0.0 0.0 0.0 0.0
0.0 0.0 0.0 0.0 0.0 0.0 0.0 0.0
0.0 0.0 0.0 0.0 0.0 0.0 0.0 0.0
0.0 0.0 0.0 0.0 0.0 0.0 0.0 0.0

action_model._continuous_distribution.log_sigma f4 [1, 2]
00000000: 0000 0000 0000 0000
0.0 0.0

action_model._continuous_distribution.mu.weight f4 [2, 128]
00000000: 7302 55bd 36f3 34bc 71c3 49bc 0749 a2bc
00000010: af2b 9abc 90b7 17bb f1e7 103c c5a2 7a3c
00000020: 980e 76bc 431d e13c 451d e93c f0bc 4e3b
00000030: d132 01bd 5711 76bc 25f4 e93c 036d f3bb
00000040: d005 153b 3967 ccbc 825e fabc 69e0 143c
00000050: 0326 713c 3b02 bebb a0c5 67bc 6da2 f33b
00000060: af84 603c 2b14 123c 4b45 1d3c 8374 98bc
00000070: 2a95 5a3c f379 cbba da02 65bc acb2 39bc
00000080: 0f83 68bc 031f e4bc 71c7 8f3c ebfe 5ebb
00000090: 0f14 b7bc 6f11 c33b 84e0 93bb 2225 823b
000000a0: b7ce fe3c bb21 c1ba c106 023d 5f63 0bbb
000000b0: 447c 08bc 0573 f1bb f76e ddbb 1fbb 063c
000000c0: 4fac 8f3c 6a56 d2bc 2c15 163d cd82 8a3c
000000d0: 9e95 903c 4e7e c03b fe97 a1bc 82c1 d2bc
000000e0: 4b8a 32ba 8fcf 953d b7fd 9dbc 4de1 253c
000000f0: e3ee ceb9 ad95 51bc a52f e23a 394f 06bc
00000100: f829 fa3b cc7c 2d3c 339b 19bc bb22 05bc
00000110: a871 4bbc 5737 083c d0d2 5f3c 73e6 18bb
00000120: b794 c4bc 4a30 8d3c 2fc5 88bc 85f3 843c
00000130: 0624 babc abe4 36bc 5b02 66bc d51a eb3b
00000140: 3745 673c 85e0 4ebc 9a39 e43b 90d9 f3bc
00000150: 8e91 0cbd 5af0 7f3c 8926 a73c f5e8 903c
00000160: d602 373c 870f cbbc 672f aebc 26f9 cbbc
00000170: c937 31bd 1fed 5c3c 0283 c6bb 68f8 53bc
00000180: a0ad a1b9 5021 953b 9dac 503c 44bf 30bc
00000190: fdf2 fcbc 9177 ccbb 1376 25bc 6595 443c
000001a0: 1a0b c2bc 91f7 a1bc f36e 813c 5b81 a83c
000001b0: 8a6a d838 1bf5 f9bb b2dc 793c 1a05 a1bc
000001c0: 54a0 89bc cac4 623c fa22 2fbc f512 19bc
000001d0: d5ec 5f3b 905e afbc 52a4 8438 c349 703c
000001e0: 1d77 f1bc 82b8 93bb 7031 75bc 9795 1fbc
000001f0: 4ebe acbc ed2d cbbb e935 82bb e840 983c
00000200: f8d2 813c 88db dbbc 6c8b 043d 42bb 83bc
00000210: 5b40 c33b 178f 823b 81b6 1d3d 59a2 85bc
00000220: 73d8 2dbc adcc 843c 4378 d1bb 51c6 4b3c
00000230: ba02 17bd d81e 233c 608a d5bc 970a 4cbc
00000240: 22c7 383c 6c63 babb 3fa3 bb3b 0f3f 393c
00000250: 1712 27bd 3ff4 86bc 5049 723c c9df 353c
00000260: 1349 48bb bf7e b5bc 77d9 f6bb cf4c 81ba
00000270: 08ca d93b b86f 13bc 119a 9abc 70dc 5d3c
00000280: 9d71 f6bb c50b 6dbc fa56 66bc da56 cb3b
00000290: 8f6c 283b 0b6f 77bd 7712 e93b a13f 0ebb
000002a0: edda 59bb 4790 76bc a05f a1bc 4504 7abc
000002b0: 644a 2b3c 4f67 86bc 945a 3d3b 1717 14bc
000002c0: 8b5b 55bc 33dd 8bbc f7a8 593b 267e b13b
000002d0: 9352 6abb 3504 af3c 2290 f139 e5f2 27bd
000002e0: 76d2 10bc 09e2 883c 906b 7dba 4bb0 8c3a
000002f0: 0f3b 103d 0d0a ae3c 7a72 c4b8 cfdd acbc
00000300: 2f89 53bb 1265 9e3a 0839 273d 27d5 ab3c
00000310: 9b6d 3f3b d701 04bd 2ba0 e53a 23b5 35bc
00000320: 157e 333c 6dda 6b3c 58e9 5f3a dd18 41bc
00000330: 0507 d1bc 6b15 6bbc a158 8d3b 73b8 88bc
00000340: 7f9a 843a cbec 8cbc 9324 2d3c f779 41bc
00000350: 9531 193d 5890 643a eb20 9f3b e77c e13c
00000360: bb63 95bc cfa3 a53b 93f3 85bc 6b9c b83c
00000370: f80a 5b3c e7b9 963c edd0 97bc c20f 54bc
00000380: 8d0e da3c 334c a7bb e6b1 103c 32fe 843c
00000390: 9f2b bcbb be1f 8dbc df64 023c 9046 9d3c
000003a0: f3c9 23bd 6ba2 e3bc 2a36 65bc 5f08 b9bc
000003b0: c54c e63a adf2 7f3b 1109 383c 5306 e1bc
000003c0: 7fb1 cb3b 6f45 533c a5b4 633c c293 43bc
000003d0: 0884 a73b 16e9 ab3b 6166 85bc a3be 9c3b
000003e0: 72e9 533c d8f5 933b ba0c 173c cb1c 7fbc
000003f0: faac 523c 9e9f 46bc 27c1 9bba f3c8 713c
-0.05200429 -0.011044314 -0.012314663 -0.019810213 -0.018819658 -0.0023150183 0.008844362 0.015297596
-0.015018128 0.027479773 0.02845634 0.003154572 -0.031542603 -0.015018783 0.0285588 -0.0074287667
0.002273906 -0.024951564 -0.030562643 0.009086707 0.014718535 -0.0057986057 -0.014146239 0.007435134
0.013703509 0.008915941 0.00959904 -0.018610245 0.013341228 -0.0015524015 -0.013977731 -0.011334103
-0.014191403 -0.027846819 0.017551156 -0.0034026455 -0.022348432 0.005953006 -0.0045128483 0.0039717117
0.031104429 -0.0014734784 0.031744722 -0.0021268947 -0.0083304085 -0.0073684477 -0.006757613 0.008223324
0.017538218 -0.025675971 0.036641285 0.016908074 0.017649468 0.0058744317 -0.019725796 -0.025727037
-0.00068107684 0.07314979 -0.01928602 0.010124517 -0.00039469366 -0.012792033 0.0017256631 -0.008197599
0.0076343976 0.010588836 -0.009375381 -0.008125956 -0.0124172345 0.008313975 0.013661101 -0.0023330718
-0.023996694 0.01723494 -0.016695587 0.0162294 -0.022722255 -0.011162917 -0.0140386475 0.0071748295
0.014115623 -0.012626772 0.0069648745 -0.029766828 -0.0343185 0.015621269 0.020404117 0.017689208
0.01117011 -0.024787677 -0.021262838 -0.024899077 -0.04326609 0.013484268 -0.006058098 -0.012937643
-0.00030837674 0.0045510903 0.012736467 -0.010787789 -0.030877585 -0.0062398394 -0.010098952 0.011998509
-0.023686934 -0.01977137 0.015799975 0.020569494 0.00010319527 -0.007628096 0.015250372 -0.019655753
-0.016800083 0.0138408635 -0.010689491 -0.009342899 0.0034168263 -0.021407396 6.3248575e-05 0.014666024
-0.029475743 -0.004508079 -0.0149654 -0.009740255 -0.021086838 -0.006200543 -0.0039737117 0.018585637
0.015847668 -0.02683808 0.032359526 -0.016080502 0.0059585995 0.003984343 0.038504127 -0.016312765
-0.010610688 0.016210878 -0.00639251 0.012437419 -0.036867835 0.009956084 -0.026066959 -0.012453697
0.011277946 -0.0056881215 0.0057262476 0.011306538 -0.040788736 -0.016473887 0.014787987 0.011100718
-0.0030561134 -0.022155164 -0.007533248 -0.000986481 0.0066463985 -0.008998804 -0.018872293 0.013541326
-0.007520868 -0.014468138 -0.014058823 0.006205422 0.0025699472 -0.060408633 0.007112797 -0.0021705406
-0.0033242062 -0.015049047 -0.019698918 -0.015259807 0.010454748 -0.016406683 0.00288931 -0.009038708
-0.013022314 -0.01707325 0.0033212283 0.0054166494 -0.0035754784 0.02136431 0.0004607449 -0.041003127
-0.00883924 0.016709344 -0.0009667212 0.0010733692 0.035212573 0.021245027 -9.367331e-05 -0.02110186
-0.0032277813 0.0012084565 0.040825874 0.020975662 0.0029209617 -0.032228317 0.0017519047 -0.01109055
0.010955353 0.0143953385 0.0008541546 -0.011785713 -0.025516042 -0.014348368 0.004313544 -0.016689515
0.0010116844 -0.017202755 0.010567802 -0.011808864 0.0374008 0.00087190187 0.004856219 0.027525378
-0.018236032 0.005054928 -0.016351497 0.022535523 0.013369314 0.018399192 -0.01853224 -0.01294321
0.026618266 -0.005105519 0.008831477 0.016234491 -0.0057425047 -0.01722705 0.00795862 0.019198686
-0.039987516 -0.027787408 -0.0139899645 -0.022587 0.0017570487 0.0039054558 0.01123263 -0.027468836
0.0062162275 0.012894972 0.0138980495 -0.011937084 0.005112175 0.005246292 -0.01628417 0.004783468
0.012934076 0.004515391 0.009219343 -0.01557083 0.012858624 -0.012123017 -0.0011883125 0.014757383

action_model._continuous_distribution.mu.bias f4 [2]
00000000: 0000 0000 0000 0000
0.0 0.0

network_body._body_endoder.seq_layers.0.weight f4 [128, 9]
00000000: de58 eb3c 3071 9ebc b032 92bd 3aa3 1cbe
00000010: ac78 9d3d 6c5d 9a3d e2ef ddbe cc30 c0be
00000020: c765 50bd 7e39 23bc 6e96 ab3e 4154 083f
00000030: 5096 0ebf f894 1abf 43dc e23c 5b7f 813e
00000040: 9256 b3be 7c27 063e 636f 87be 4420 15bd
00000050: 4685 c8be 0a1f 54be 743d c53e 1832 03bf
00000060: 4a72 12bc 7dc4 053d 4c10 21bf 302c a73d
00000070: ca31 e13d 01be 10be eafe 203c cc46 d7be
00000080: f0b5 683e da76 77bf f2c4 5b3d 047b 983e
00000090: 2fb1 b7be aab8 943e eaab 883e 20df bcbe
000000a0: c003 653e 5b86 293f bff1 f6be 47f7 c53c
000000b0: d8e5 4bbf 79da 8bbd 8b04 ec3d a111 1a3f
000000c0: 321c a63e 179e e5be 9220 bfbe ea06 743f
000000d0: e4a6 8fbe 0ca2 b5bd 0f88 7abd 6ac2 81bd
000000e0: 340b 4bbc 0af1 f93e a085 b1be 0c16 413b
000000f0: c8fa 1b3f 7bb8 5abe fb7e c93e b656 523e
00000100: 0ab3 c6be 8c11 883e 8e41 013e 742f a1be
00000110: e67a febe d89e b4be 3883 fdbe f727 01bf
00000120: 2058 9bbd db5e 16bc a4df d9be 85f3 0e3e
00000130: cf5c 62be dea0 c8bd acdf 1e3e 97e7 1e3f
00000140: e2ae f43e 6e68 313e de5c dfbc de2c 073e
00000150: df37 39be 361b 95bd 5f8a 4f3e d01e fbbd
00000160: 100c bfbe c2f5 edbd 864f 9bbd 6e42 8c3e
00000170: 8e4b 8dbc 9078 15be 2a91 073f 5758 2cbf
00000180: 6033 4b3f 962c b73d 94e5 cf3e 4ca3 f93e
00000190: bb59 583f b000 9b3d 0670 dcbd ed2f 8dbe
000001a0: 770e 403e 1a3a cabe 2f59 d23d 521c 2a3b
000001b0: 3b5a ddbd bc58 053f 56d5 b1be 0a19 85be
000001c0: de88 57be 148b da3e b2b9 a1be b60a 96bd
000001d0: 0462 5dbe 0a85 d63e e9ef 8e3e 0b07 2f3e
000001e0: 93c2 7b3e bf6f e2bc f303 523e 5edf cebe
000001f0: 2495 863c b949 87be 52af f5be ac18 bfbe
00000200: d425 1d3e 34f6 fb3e e7dd 7bbe 12d2 0f3e
00000210: 975c 6c3e 29d5 a6be 4ac3 6bbe 8828 30bd
00000220: e49f 5fbe 6d44 9ebe 4f99 c5bc e739 033d
00000230: 6c10 d6be 3a8a 033f a0ab ab3c bbc7 78bd
00000240: 5eae ebbd f850 b3be 9e8b 21bf 237e 103f
00000250: 201b eabe 0b07 3a3e a0de 8fbe de0c 8a3e
00000260: 8fbe 913e 7480 ee3e 0b45 00bf a0b1 5abd
00000270: 90c5 02bf fe9d 703f 0a5f a43e 2ce5 97bd
00000280: 465f 3dbd ae7c e9bd 50e3 e6be f9f0 0c3f
00000290: a830 c4bb 4c97 06bf db25 a6be ef4f ae3d
000002a0: 839e f23e b89d 5fbe dfad 1abe 34f2 293f
000002b0: 3e2e c3bd 0a92 743e b454 663c c6e3 01bd
000002c0: a65f 4a3f 848b 4dbe 141a 9e3e 187f a7be
000002d0: f2b0 4fbc 9497 fdbd c01f d73e a24f b53c
000002e0: eabb 45be b466 eabd 847f 46be d90a a6be
000002f0: 124b f2bd 7030 69be 781d 04bf 7391 9bbe
00000300: 97ab 443d 8854 62be ac54 a8bd d386 353f
00000310: 1349 9c3e 4d44 1ebf 42de 3f3e b96a 213e
00000320: 8fec 8bbe 5244 a1be 2423 15bf 0326 d6bd
00000330: 9014 6a3e eebd 22be 4ade c2be b84d 743d
00000340: 409c a13d c41d da3d 1145 a73e 7a40 8c3d
00000350: 20d5 a63e 7265 ef3e ff62 ab3d 5a73 7a3e
00000360: 7270 993e 78ee c9be ff13 673e a2bc 173f
00000370: 6328 81be 4c45 d53b 4ec7 a33d 2732 4a3e
00000380: f0ff fcbd 360d a3bd 1ecf 233e 6e06 a73c
00000390: 7ec7 9d3d ccba 143f f60b a23e 1ff9 c53e
000003a0: 663a 8c3e 7c61 4cbf 0bdb d33e 98a4 05be
000003b0: 635f 94be 507d 3dbf 4b6c 9cbe e86b 643e
000003c0: 733f 883e b4ac 20bf 27a0 2ebe 0bc4 b13d
000003d0: 0338 7bbd 23a7 c9bd 6b22 2d3f e21d 97bd
000003e0: 8059 913e 1db5 213e 5077 423d 2398 ae3e
000003f0: 6b7c f93e e645 823d 9e37 babb 0e14 433e
0.028728899 -0.019341081 -0.07138574 -0.15296641 0.07689032 0.0753735 -0.4334708 -0.3753723
-0.050878312 -0.009962438 0.33513206 0.5325356 -0.5569811 -0.6038356 0.02769292 0.25292477
-0.35026985 0.13101 -0.2645217 -0.036407724 -0.3916418 -0.20714965 0.38523448 -0.5124831
-0.008938381 0.03265809 -0.6291549 0.08162725 0.10995825 -0.1413498 0.009826401 -0.420462
0.22725654 -0.9666573 0.05365462 0.29781353 -0.35877368 0.29047137 0.2669366 -0.3688898
0.22364712 0.66220635 -0.48231313 0.024165763 -0.7964759 -0.0682878 0.11524304 0.6018315
0.32443386 -0.44847175 -0.37329537 0.9532305 -0.28057015 -0.088687986 -0.06116491 -0.0633591
-0.012392808 0.4881671 -0.3467226 0.0029462604 0.60929537 -0.21359436 0.3935469 0.2054089
-0.3880847 0.26575887 0.12622663 -0.31481516 -0.4970314 -0.35277438 -0.49514174 -0.50451607
-0.07585168 -0.009177889 -0.42553437 0.13960083 -0.22105716 -0.09796308 0.15515012 0.6207213
0.47789675 0.17324993 -0.027265962 0.13200709 -0.1808772 -0.07280581 0.20267628 -0.122617364
-0.3731389 -0.1161914 -0.07583527 0.27394432 -0.017247941 -0.14596772 0.5295588 -0.67322296
0.7937527 0.08944051 0.40604842 0.48757398 0.8451192 0.075684905 -0.10763554 -0.27575627
0.18755518 -0.39497453 0.10270917 0.0025956822 -0.10808226 0.5208852 -0.34733075 -0.25995666
-0.21048304 0.42684233 -0.31586987 -0.07326262 -0.21619421 0.41898376 0.27917412 0.1709253
0.24585943 -0.027641175 0.20509319 -0.4040479 0.016428538 -0.26423433 -0.4798532 -0.3732351
0.15346462 0.49211276 -0.24596368 0.14044979 0.23082195 -0.32584503 -0.23023716 -0.043007404
-0.21838337 -0.3091158 -0.024120955 0.03203764 -0.41809404 0.5138279 0.02095586 -0.060737353
-0.11507867 -0.35022712 -0.63103664 0.5644247 -0.4572382 0.18166749 -0.28099537 0.26962942
0.28465697 0.46582377 -0.5010535 -0.053392053 -0.51082706 0.93991077 0.3210376 -0.07416758
-0.046233438 -0.11400734 -0.450953 0.55055195 -0.0059872456 -0.5257461 -0.32450756 0.0851134
0.4738656 -0.21837509 -0.15105389 0.663852 -0.09530304 0.23883834 0.014058281 -0.031711362
0.790522 -0.20072752 0.3087927 -0.32714152 -0.012676464 -0.12382427 0.4201641 0.022132698
-0.19309965 -0.1144537 -0.19384581 -0.3243015 -0.11830725 -0.22772384 -0.51607466 -0.30384406
0.048015203 -0.22102559 -0.08219275 0.7090885 0.305245 -0.6182297 0.18737128 0.15763368
-0.27328917 -0.31497437 -0.58256745 -0.10456469 0.22859406 -0.15892765 -0.38060218 0.05964443
0.078911304 0.106502086 0.3266988 0.068482354 0.32584476 0.46757084 0.083684914 0.24458066
0.299686 -0.3943975 0.22566222 0.59272206 -0.25226125 0.006508505 0.07996999 0.19745694
-0.12353504 -0.07961504 0.15996978 0.020388808 0.07704066 0.5809753 0.3164975 0.38666627
0.27388304 -0.7983625 0.41378054 -0.13051069 -0.28979024 -0.74019337 -0.3055137 0.22306788
0.26610908 -0.62763524 -0.17053281 0.0867997 -0.061332714 -0.09846332 0.6763064 -0.073787466
0.28388596 0.15791745 0.047477067 0.34100446 0.48727736 0.06360988 -0.0056828996 0.19050619

network_body._body_endoder.seq_layers.0.bias f4 [128]
00000000: 0000 0000 0000 0000 0000 0000 0000 0000
00000010: 0000 0000 0000 0000 0000 0000 0000 0000
00000020: 0000 0000 0000 0000 0000 0000 0000 0000
00000030: 0000 0000 0000 0000 0000 0000 0000 0000
00000040: 0000 0000 0000 0000 0000 0000 0000 0000
00000050: 0000 0000 0000 0000 0000 0000 0000 0000
00000060: 0000 0000 0000 0000 0000 0000 0000 0000
00000070: 0000 0000 0000 0000 0000 0000 0000 0000
00000080: 0000 0000 0000 0000 0000 0000 0000 0000
00000090: 0000 0000 0000 0000 0000 0000 0000 0000
000000a0: 0000 0000 0000 0000 0000 0000 0000 0000
000000b0: 0000 0000 0000 0000 0000 0000 0000 0000
000000c0: 0000 0000 0000 0000 0000 0000 0000 0000
000000d0: 0000 0000 0000 0000 0000 0000 0000 0000
000000e0: 0000 0000 0000 0000 0000 0000 0000 0000
000000f0: 0000 0000 0000 0000 0000 0000 0000 0000
00000100: 0000 0000 0000 0000 0000 0000 0000 0000
00000110: 0000 0000 0000 0000 0000 0000 0000 0000
00000120: 0000 0000 0000 0000 0000 0000 0000 0000
00000130: 0000 0000 0000 0000 0000 0000 0000 0000
00000140: 0000 0000 0000 0000 0000 0000 0000 0000
00000150: 0000 0000 0000 0000 0000 0000 0000 0000
00000160: 0000 0000 0000 0000 0000 0000 0000 0000
00000170: 0000 0000 0000 0000 0000 0000 0000 0000
00000180: 0000 0000 0000 0000 0000 0000 0000 0000
00000190: 0000 0000 0000 0000 0000 0000 0000 0000
000001a0: 0000 0000 0000 0000 0000 0000 0000 0000
000001b0: 0000 0000 0000 0000 0000 0000 0000 0000
000001c0: 0000 0000 0000 0000 0000 0000 0000 0000
000001d0: 0000 0000 0000 0000 0000 0000 0000 0000
000001e0: 0000 0000 0000 0000 0000 0000 0000 0000
000001f0: 0000 0000 0000 0000 0000 0000 0000 0000
0.0 0.0 0.0 0.0 0.0 0.0 0.0 0.0
0.0 0.0 0.0 0.0 0.0 0.0 0.0 0.0
0.0 0.0 0.0 0.0 0.0 0.0 0.0 0.0
0.0 0.0 0.0 0.0 0.0 0.0 0.0 0.0
0.0 0.0 0.0 0.0 0.0 0.0 0.0 0.0
0.0 0.0 0.0 0.0 0.0 0.0 0.0 0.0
0.0 0.0 0.0 0.0 0.0 0.0 0.0 0.0
0.0 0.0 0.0 0.0 0.0 0.0 0.0 0.0
0.0 0.0 0.0 0.0 0.0 0.0 0.0 0.0
0.0 0.0 0.0 0.0 0.0 0.0 0.0 0.0
0.0 0.0 0.0 0.0 0.0 0.0 0.0 0.0
0.0 0.0 0.0 0.0 0.0 0.0 0.0 0.0
0.0 0.0 0.0 0.0 0.0 0.0 0.0 0.0
0.0 0.0 0.0 0.0 0.0 0.0 0.0 0.0
0.0 0.0 0.0 0.0 0.0 0.0 0.0 0.0
0.0 0.0 0.0 0.0 0.0 0.0 0.0 0.0

network_body._body_endoder.seq_layers.2.weight f4 [128, 128]
00000000: a619 f0bd cee5 48bd b0dd 1c3d 54ac 01be
00000010: b489 16bd f97a ba3d d551 76bd f394 a4bd
00000020: f0b0 3ebd e4a5 fe3d 0167 6dbe 1561 dabd
00000030: 8229 143e 6944 673d 3a9f b6bc 4df7 22bd
00000040: 6fb9 fabd b89c 393e a3c4 82bd 1dc6 683d
00000050: 3b4a 173d 335e e1bd b2f6 a23d 5e65 f8bd
00000060: 33c5 39be 04bc 433e a838 d83d 3b13 acbd
00000070: f5e6 e0bc dae0 fc3c f9c6 013e 7101 a6bd
00000080: c5b1 843d 184a c63c f088 d93d 9652 8f3d
00000090: be26 1fbd 39c8 0dbc 3178 4e3d de7c a73d
000000a0: b3a0 53bd aa0d ae3c 10df 34bd b4be d0bb
000000b0: 8fff 373d b795 2cbe 4bf8 a63d c3ea 1cbe
000000c0: a029 803d 25a8 2e3c 3407 76bc 8060 bc3a
000000d0: 574e 76bd 0acc d93b d805 803d a68e 3dbc
000000e0: 0823 37be ae2b 8f3d bbc2 59bd cc14 40bd
000000f0: 86b0 003d 7080 19bd df24 893c 8860 6fbd
00000100: 8d19 0d3e e341 103d 5d4c e5bc 4cfd 203d
00000110: 0d06 173e 94ca d43d 3780 c03d 9e64 b43d
00000120: e7ed 093e a550 773d 0ef0 e83d 60c0 58bc
00000130: 208f 523d 236a 983d db15 b8bd b04e 15bc
00000140: ff68 6d3d 48af 04bd a68e 973b 025e 3e3e
00000150: d3ba 89bc 9d5a 39bd 73ea 10bd 1977 83be
00000160: 50a1 80bd f4a6 2d3d 3678 1fbe cac9 b8bc
00000170: 4f90 3f3e 97c7 7abd 445f 653c ff14 c13d
00000180: 06a1 883d e82e 9f3d 8eea 94bb e695 fe3c
00000190: f6e5 cdbc 494a 143e fc02 ab3d 15ea cfbd
000001a0: 764c 10bc 35fd 30be 364c bfbd 0d0b 873d
000001b0: 3c6f 593d 755f a03d d68c 07bb 4b0d ae3d
000001c0: b2ba 2cbd 4b2e ecbd c933 0dbe 708f b63d
000001d0: 3a35 b13c 7cea 843d 403a 053e 2c3c 2d3e
000001e0: 4af0 a83d bb7b b6bb a354 2abe 1a4c 19bd
000001f0: 51f4 893e a459 2a3d e501 783d 14e8 9c3d
00000200: 4148 08be f99d b23d 5baf 833c dd9e ab3d
00000210: 1182 3d3e 1683 72bd a3d8 05be 413b 77bd
00000220: 98a0 1b3d 572b 05bd ecc3 bd3d 5fc3 4c3d
00000230: 7091 503d 2c2b 27be de97 b3bd faf9 213e
00000240: ea98 113e f033 363e 6e5e 473c f4de c23c
00000250: 7885 a2bd cd18 eebd 3636 19bc b1d5 2cbd
00000260: fed6 29bd 065c f93d 885a 073d f69c 003e
00000270: 1d3a c43d d160 13bb e5f0 c3bc 5869 3b3e
00000280: fe78 9ebd 3547 c239 6aee 0abd 253d 7c3d
00000290: 73fa 2c3e 3448 4abe 1f72 a03d 3bca 03be
000002a0: b19c 1b3d 7301 b1bc d76e 62bd 2d8a 263c
000002b0: 1814 b83d a7e9 023e 20d5 183d 3927 93bd
000002c0: 2693 74bc 4ff2 14bc f087 383d d517 e6bd
000002d0: dbf2 5dbe dbc7 8c3d a433 b3bd a05e a93d
000002e0: 8939 073e 0712 87bc d287 ca39 8cbb 54be
000002f0: 3c82 6cbd 7db4 f7bd 5674 65be d98e 13be
00000300: 850f 043e 6782 c43c a3b1 033e 1327 9dbe
00000310: 8e28 3bbe 20c7 ecbd 16b6 143d 11ab ea3d
00000320: 3b49 343d 2542 30bc 9976 033d 6cd7 17bd
00000330: 0b68 ff3d 556f b8bc a825 64bc 300f 12be
00000340: 8aa5 0abe 4a53 f83d 35df 263d 5cae 6b3c
00000350: 9848 6cbc ec73 743c 9531 d43d 6462 45bd
00000360: 2c0f d43d f2ce 40be 73fe b8bd 099d 1b3e
00000370: 8089 27be dcbc 543e d0bd dcbd b9c5 213e
00000380: 20f3 aa3c d217 ee3d 0234 93bd ed8f e53d
00000390: 1c7a 2b3e 62ce b6bd 3c6f 353c ccdd e53c
000003a0: 6195 0fbe b5fd 1b3c 0ef9 003e 6d5d 173d
000003b0: f4d3 523d 78b9 cf3c 447c 893d d0df 86be
000003c0: 3c55 14be 7675 6cbd e2d9 943d 5289 abbc
000003d0: 1ac0 3bbc 32ca f63a 8427 08bc 35c5 113e
000003e0: 4e91 ce3d 451f 0a3d 4074 963c 3325 d4bd
000003f0: c625 abbb acad 883c 0bae aabd 8594 e4bd
-0.11723642 -0.049047284 0.038297355 -0.12663394 -0.036752418 0.091054864 -0.060136635 -0.08036222
-0.04655546 0.12433985 -0.23183824 -0.10663048 0.14468959 0.056461725 -0.022292722 -0.039786626
-0.122424 0.1812619 -0.06385162 0.05682956 0.036936026 -0.11004295 0.0795721 -0.12128709
-0.18141632 0.19114691 0.10557681 -0.084021054 -0.027453879 0.030868936 0.12673558 -0.08105744
0.06479219 0.024205253 0.10621822 0.06998174 -0.038855307 -0.008653694 0.050407592 0.081781134
-0.051666927 0.02124675 -0.04415804 -0.00637039 0.044921454 -0.16853987 0.08152827 -0.1532393
0.06257939 0.010660206 -0.015016366 0.0014372021 -0.060133304 0.006646638 0.062511146 -0.011569655
-0.17884457 0.06990753 -0.053164225 -0.046894833 0.031418346 -0.037476003 0.016741214 -0.05844167
0.13779278 0.035219084 -0.027990514 0.039304063 0.14748402 0.10390201 0.09399455 0.08808254
0.13469659 0.060379643 0.11373912 -0.0132294595 0.051406026 0.07442119 -0.089885436 -0.009112999
0.05796146 -0.032393724 0.0046251593 0.18590549 -0.016812718 -0.04525243 -0.03537984 -0.25676802
-0.06280768 0.042395547 -0.155732 -0.022557158 0.18707393 -0.0612255 0.013999764 0.09427833
0.06671338 0.077726185 -0.0045445627 0.031077337 -0.025134068 0.14481463 0.083501786 -0.101520695
-0.008807292 -0.17284091 -0.09340708 0.06593905 0.053084597 0.07830707 -0.002068331 0.08498629
-0.042170234 -0.11532267 -0.13789286 0.08914077 0.021631826 0.06490037 0.13010502 0.16917485
0.082489565 -0.005568949 -0.16633849 -0.03742609 0.2694421 0.041589394 0.06054868 0.07661453
-0.13308813 0.08721537 0.016074827 0.0837991 0.18506648 -0.059207045 -0.13070922 -0.060359243
0.03799495 -0.032512035 0.09265885 0.049991008 0.05091995 -0.16325063 -0.08769201 0.15818015
0.14218488 0.1779325 0.01216851 0.023787953 -0.079356134 -0.11625824 -0.009351304 -0.04219598
-0.0414648 0.12175755 0.03304532 0.12559876 0.09581397 -0.0022488127 -0.023918578 0.18301904
-0.07737921 0.00037055617 -0.033918776 0.06158175 0.16892414 -0.19754106 0.07834267 -0.12870114
0.03799123 -0.021607136 -0.055281486 0.01016478 0.089882076 0.12784444 0.037312627 -0.071852155
-0.014927661 -0.009090974 0.045051515 -0.11235014 -0.21674673 0.06874057 -0.08750084 0.082700014
0.13205542 -0.016488088 0.00038629636 -0.20774668 -0.05774139 -0.12094972 -0.2240766 -0.14409961
0.12896545 0.023987962 0.12860732 -0.30693874 -0.18277189 -0.115614176 0.036306463 0.114584096
0.04401515 -0.010757958 0.032095525 -0.037070677 0.124710165 -0.022514025 -0.013924994 -0.14263606
-0.1353971 0.12125261 0.04074021 0.014384832 -0.014421605 0.014920216 0.103610195 -0.048189536
0.10354456 -0.18828943 -0.09032907 0.15196623 -0.16361046 0.20775169 -0.10778391 0.15798081
0.020867884 0.11625637 -0.07187654 0.11209092 0.167458 -0.08926083 0.011073884 0.028059863
-0.14021827 0.009520938 0.12595007 0.036954332 0.051471666 0.025356993 0.06713155 -0.2634263
-0.1448564 -0.057729207 0.0726812 -0.020939503 -0.011459375 0.001882857 -0.0083102025 0.14235385
0.100863084 0.033721227 0.01836598 -0.10358658 -0.005223009 0.016684376 -0.08333977 -0.1116114

network_body._body_endoder.seq_layers.2.bias f4 [128]
00000000: 0000 0000 0000 0000 0000 0000 0000 0000
00000010: 0000 0000 0000 0000 0000 0000 0000 0000
00000020: 0000 0000 0000 0000 0000 0000 0000 0000
00000030: 0000 0000 0000 0000 0000 0000 0000 0000
00000040: 0000 0000 0000 0000 0000 0000 0000 0000
00000050: 0000 0000 0000 0000 0000 0000 0000 0000
00000060: 0000 0000 0000 0000 0000 0000 0000 0000
00000070: 0000 0000 0000 0000 0000 0000 0000 0000
00000080: 0000 0000 0000 0000 0000 0000 0000 0000
00000090: 0000 0000 0000 0000 0000 0000 0000 0000
000000a0: 0000 0000 0000 0000 0000 0000 0000 0000
000000b0: 0000 0000 0000 0000 0000 0000 0000 0000
000000c0: 0000 0000 0000 0000 0000 0000 0000 0000
000000d0: 0000 0000 0000 0000 0000 0000 0000 0000
000000e0: 0000 0000 0000 0000 0000 0000 0000 0000
000000f0: 0000 0000 0000 0000 0000 0000 0000 0000
00000100: 0000 0000 0000 0000 0000 0000 0000 0000
00000110: 0000 0000 0000 0000 0000 0000 0000 0000
00000120: 0000 0000 0000 0000 0000 0000 0000 0000
00000130: 0000 0000 0000 0000 0000 0000 0000 0000
00000140: 0000 0000 0000 0000 0000 0000 0000 0000
00000150: 0000 0000 0000 0000 0000 0000 0000 0000
00000160: 0000 0000 0000 0000 0000 0000 0000 0000
00000170: 0000 0000 0000 0000 0000 0000 0000 0000
00000180: 0000 0000 0000 0000 0000 0000 0000 0000
00000190: 0000 0000 0000 0000 0000 0000 0000 0000
000001a0: 0000 0000 0000 0000 0000 0000 0000 0000
000001b0: 0000 0000 0000 0000 0000 0000 0000 0000
000001c0: 0000 0000 0000 0000 0000 0000 0000 0000
000001d0: 0000 0000 0000 0000 0000 0000 0000 0000
000001e0: 0000 0000 0000 0000 0000 0000 0000 0000
000001f0: 0000 0000 0000 0000 0000 0000 0000 0000
0.0 0.0 0.0 0.0 0.0 0.0 0.0 0.0
0.0 0.0 0.0 0.0 0.0 0.0 0.0 0.0
0.0 0.0 0.0 0.0 0.0 0.0 0.0 0.0
0.0 0.0 0.0 0.0 0.0 0.0 0.0 0.0
0.0 0.0 0.0 0.0 0.0 0.0 0.0 0.0
0.0 0.0 0.0 0.0 0.0 0.0 0.0 0.0
0.0 0.0 0.0 0.0 0.0 0.0 0.0 0.0
0.0 0.0 0.0 0.0 0.0 0.0 0.0 0.0
0.0 0.0 0.0 0.0 0.0 0.0 0.0 0.0
0.0 0.0 0.0 0.0 0.0 0.0 0.0 0.0
0.0 0.0 0.0 0.0 0.0 0.0 0.0 0.0
0.0 0.0 0.0 0.0 0.0 0.0 0.0 0.0
0.0 0.0 0.0 0.0 0.0 0.0 0.0 0.0
0.0 0.0 0.0 0.0 0.0 0.0 0.0 0.0
0.0 0.0 0.0 0.0 0.0 0.0 0.0 0.0
0.0 0.0 0.0 0.0 0.0 0.0 0.0 0.0

value_heads.value_heads.extrinsic.weight f4 [1, 128]
00000000: f4ae 523e 9855 543e 4cb0 b63d 2088 f93d
00000010: 6018 b6bd aa61 193e 70c8 1a3d 50d2 0ebd
00000020: a279 53be aaab 88bd e8f4 173e e83f 403d
00000030: 80cc d13a a878 823c 801e 453d bc23 0a3e
00000040: 28b4 413e 1cc8 8fbd f83a 21bd 48eb 173e
00000050: 54ac 913d f827 8d3d e871 d6bd b4a0 53bd
00000060: 52b9 233e c0ec 50bc 900f 55be 96b1 1b3e
00000070: 80bd 0b3d 6447 933d 38d6 bd3d f402 dc3d
00000080: 142b f3bd 345d 5b3e b8b6 cdbc 9c8d 1cbe
00000090: 0cb5 a93d 2ead 50be be8b 333e 30bd 70bd
000000a0: 487b f53c e01a c43d 2874 c73d dc99 b1bd
000000b0: dcb4 a93d 04cb a13d 48fc 153d 6277 14be
000000c0: d6ef 1fbe fc2d 5cbe fc67 fa3d 487a cdbd
000000d0: c8e5 843d 2025 c8bc b846 fb3d c45f bb3d
000000e0: 70ba 303d 108b 883d 60c8 0ebc bb6f 3abe
000000f0: 12a0 fabd 18a7 d13d 6bdc 41be f4b9 8abd
00000100: e469 4e3e 18b1 383e 7066 fb3c 62fb 5a3e
00000110: 507b 7abc ca5a 213e 837e bbbd 9009 0a3d
00000120: 6cbd cf3d 148c 04be 6cd2 49be e0c8 6d3d
00000130: b458 19be 9e0e 3f3e dc89 eb3d 7800 fcbd
00000140: 1005 d6bc 9890 2e3d b8e5 743d f005 8d3d
00000150: 8e9b 3e3e d079 8b3c 9c82 c6bd b0fd 9dbd
00000160: 9613 a2bd 006d 5c3e ece9 b93d 40e3 353c
00000170: 806b 043e 48c9 8dbd 3cf7 1b3e aca0 2b3e
00000180: 44b8 c93d 22b3 9dbd f675 083e 30a6 67bc
00000190: 6ca7 2cbe 2a12 4f3e 884a ffbc b8eb 9d3d
000001a0: 2074 29bd 2033 7f3c 1cc2 533e a5f6 25be
000001b0: e86b fe3c 085d 2dbd a8fe 9fbc c0b8 863d
000001c0: 0839 d63d c0ab 7a3b 5c48 0abe 3367 15be
000001d0: b0b7 a1bd e6a4 b6bd 601a 64bc 826f b1bd
000001e0: 47f6 4cbe 40b1 8c3d a04d 0bbe 002c 1b3d
000001f0: 2614 b0bd 8ca8 1abe 5039 283c e2c3 a6bd
0.20574552 0.20735776 0.08920345 0.12184167 -0.08891368 0.14978662 0.03778881 -0.03486854
-0.20651868 -0.06673367 0.14839518 0.046935946 0.001600638 0.015926674 0.04812479 0.13490194
0.1891638 -0.0702059 -0.039362878 0.14835846 0.07112947 0.06892389 -0.10470945 -0.05166693
0.15988663 -0.012751758 -0.20806718 0.15204462 0.03411627 0.07191351 0.092693746 0.10742751
-0.11873451 0.21422273 -0.025111541 -0.15288395 0.08286485 -0.20378563 0.17533776 -0.058774173
0.029966012 0.095754385 0.09738952 -0.086719245 0.08286449 0.0790005 0.036617547 -0.14498666
-0.15618834 -0.21501917 0.12226865 -0.10033089 0.0648914 -0.024431765 0.12269348 0.09149125
0.04314655 0.06667149 -0.008714765 -0.18206684 -0.12237562 0.10236949 -0.18931739 -0.06773749
0.20157582 0.18036306 0.030688494 0.21384957 -0.015288189 0.1575729 -0.091549896 0.033700526
0.10143551 -0.1294406 -0.19709176 0.058052897 -0.14975244 0.1865792 0.11500904 -0.12304777
-0.02612546 0.042618364 0.05978939 0.06885898 0.18614027 0.017025858 -0.096928805 -0.07714403
-0.07913892 0.21525955 0.0907782 0.011101544 0.12931633 -0.06923157 0.15231031 0.1676051
0.09849599 -0.077001825 0.13326249 -0.014138743 -0.16860741 0.20221773 -0.031163469 0.077109754
-0.04137051 0.015576154 0.20679516 -0.16207369 0.031057313 -0.04232505 -0.01953061 0.06578207
0.104600966 0.0038249344 -0.13504165 -0.14590149 -0.07896364 -0.08918171 -0.013922304 -0.086638466
-0.20015822 0.06869745 -0.1360383 0.03788376 -0.08597593 -0.15103358 0.010267571 -0.081428304
